pre_trained_models/2u3d/diode_pair_2u3d_1N4148_l_0.45k_0.65k_3x64_3.20e-07.pth (torch, 39037 bytes, 7 tensors)

weight f4 [64, 2]
00000000: 76c5 4e3e 18c6 123d c0c4 f8bd faad 233d
00000010: 31b6 40bb 70d1 48bc 0a94 863a 1a7c 20bc
00000020: 547c 043b 5907 10bb f370 07be 7630 da3c
00000030: 7fbc febd dc41 273d 601e 3b3e 9c82 033d
00000040: 9235 47bc 5a52 34bc 06bf d63b 69e8 54bc
00000050: 0433 66b9 48d4 beb9 0dd4 4bbc a614 9cbb
00000060: 03eb e5bd d2ef d1bd 5d58 693e b299 553c
00000070: a17f 473b a821 a2bb ce7b 71b9 7b39 323b
00000080: 14d1 ddbb 5736 21bc ebf9 493a 5b39 263b
00000090: b93d 1a3e a9a6 2e3d cf16 313e dc9e da3c
000000a0: 117d 1dbb 74f3 56bc dea7 ffbd 90a5 c93c
000000b0: 556c cd3a 3232 903b 61a1 11be 9b9e e43c
000000c0: 2886 f7bb 8f1d e4bb 88df fdbb ab90 52bb
000000d0: 6faf 2c3d 93d5 a33d 9ff6 da3a fd7a 8a3b
000000e0: 520e 6d3b 60c5 373b e9b6 0dbe f0f6 0e3d
000000f0: 33a7 19be 9993 2cbd fd17 08be 9455 3a3d
00000100: 92b5 44bc 2bf0 49bc e0af f4bd 68a7 323d
00000110: 4077 473c a7b1 ecbb 5f96 463c 2529 94bb
00000120: 2b77 50bb a92b 4ebc c560 af3b 600c a1ba
00000130: 8955 d23a 8e01 99ba 75d9 4abb b813 d7bb
00000140: 1be7 34be a1d1 7fbc ccab bd3b 72cb 0ebc
00000150: 01a6 343b 1f02 e93b 8dd8 393e b5d9 f63c
00000160: b364 0eb9 bd1a b33b e81c 34bc c851 52bc
00000170: 5fd9 e53b aeb7 8bbb caa2 2c3e 348a 043c
00000180: 3713 343e dfb5 f53c 89b7 363e 33d2 943c
00000190: af47 1c3e 6608 4c3d 5362 f93a 60fb 9cba
000001a0: 82c5 5bba 79c5 45bc d34a 0dbc a7b5 66ba
000001b0: 3566 c93d 6aa3 883d bdc8 78bb 9546 49bc
000001c0: 0979 4b3c be2e d1bb ed35 0abe 1f79 263d
000001d0: a22d b53b f035 3bbc 191d 423c 3941 acbb
000001e0: 85a0 17be 697f 243d 11ce 27bc ad84 f4bb
000001f0: 67ab f8bd 7c71 c53c 0fd7 4d3c 8636 0fbc
0.20192513 0.03583345 -0.12146902 0.03996084 -0.002940547 -0.012256965 0.0010267508 -0.009795213
0.0020215707 -0.0021977036 -0.1322668 0.026634436 -0.124382965 0.040834293 0.18273306 0.03210698
-0.012158768 -0.011005962 0.0065535335 -0.012994864 -0.00021953514 -0.00036397786 -0.012440694 -0.0047632037
-0.112264656 -0.1025082 0.22787614 0.013037132 0.0030441063 -0.00494786 -0.00023029672 0.0027194906
-0.006769309 -0.009839616 0.0007704782 0.0025363776 0.15062608 0.04263941 0.17293857 0.026687078
-0.0024030844 -0.013119567 -0.1248319 0.02461508 0.0015672544 0.004400515 -0.14221717 0.02790766
-0.0075538345 -0.0069615315 -0.0077475943 -0.0032129686 0.042159494 0.079997204 0.0016705579 0.004226087
0.0036171866 0.0028041229 -0.13839306 0.034903467 -0.15005188 -0.042132948 -0.13290401 0.04549177
-0.01200618 -0.012325327 -0.11947608 0.043616682 0.0121744275 -0.0072233262 0.012120812 -0.0045215064
-0.003180931 -0.012583652 0.005352112 -0.0012287013 0.001604722 -0.0011673437 -0.0030952368 -0.00656363
-0.17666285 -0.015613944 0.005788302 -0.008715497 0.0027564766 0.0071108486 0.18149014 0.030133108
-0.00013579689 0.005465834 -0.01099322 -0.012836881 0.007014438 -0.0042638397 0.16858974 0.008089591
0.17585455 0.02999395 0.1784345 0.018166637 0.1526172 0.049812697 0.0019026495 -0.0011976771
-0.0008383618 -0.012071007 -0.0086237965 -0.0008800872 0.098339476 0.06671794 -0.0037961446 -0.0122848945
0.012418994 -0.006383746 -0.13497134 0.040642854 0.0055291215 -0.011426434 0.011847758 -0.0052567986
-0.14807327 0.04016057 -0.010242001 -0.0074621052 -0.121420674 0.024101965 0.012563481 -0.008741027

bias f4 [64]
00000000: 6f25 f9b8 e874 753c 33dd f5ba c224 b4ba
00000010: 53a2 43bc 988d 7b3d 3e06 7f3c 6ffd bb3d
00000020: 594a 90bb 6eec ed3a 763c 73bb 0e69 8ab9
00000030: 6cf5 bf3e 52d6 a6bc c182 343b 8c7c 02bc
00000040: d596 a0bb 3aae 13bc ccbb 183d 503a aa3d
00000050: 911f e6bb 69fa 723d cb33 68bc f009 8b3d
00000060: f9fb 75bb 1d1b 4a39 da45 2dbe 86cf 78bc
00000070: e4ef 45bc 5121 3a3d 4f23 5d3e b838 433c
00000080: 1366 013c a86b 573b 9fb1 4b3b 8efb 21ba
00000090: 5491 f53b 55b2 4dbc fd80 f039 1982 7e3b
000000a0: cd0d 053d baf5 c33a 89cc bcbc 45fa b93d
000000b0: f9dd 86bc b653 dd3b 74a8 adbb 5e84 d13d
000000c0: 9596 a93d 0dab d33d 6d0e a73c d062 1e3a
000000d0: e25f f63a 9326 25bc 8243 a0bd 80f7 0c3c
000000e0: bd31 2fbb 16dd db3c 68da 33bc 5ea1 53bb
000000f0: e164 283d 39f7 1abc 3d1f 6a3d 68d5 25bc
-0.00011880218 0.014981486 -0.0018757939 -0.0013743865 -0.011940557 0.06141433 0.015565453 0.09179198
-0.004403394 0.0018152127 -0.0037114895 -0.00026399683 0.3749193 -0.020365868 0.0027543756 -0.007964265
-0.004900793 -0.009013707 0.037288472 0.083119035 -0.007022806 0.05932084 -0.014172505 0.06789005
-0.003753422 0.00019274322 -0.16921178 -0.015186196 -0.01208112 0.04544193 0.215955 0.011915378
0.007897872 0.0032870565 0.0031081212 -0.0006179147 0.007494131 -0.012554725 0.0004587247 0.0038834868
0.032483865 0.0014950552 -0.023046749 0.09080938 -0.016463267 0.006754364 -0.005299622 0.10230325
0.08280674 0.1033536 0.020392621 0.0006041946 0.0018796886 -0.010079998 -0.07825376 0.0086039305
-0.0026732527 0.02683882 -0.010977365 -0.0032292227 0.04111183 -0.009458357 0.057158697 -0.010121681

weight f4 [64, 64]
00000000: c939 a23a e92b fa3a 8e79 5d3a b7ee fbb9
00000010: 0a24 a3ba 227b a939 eaa1 7db9 d0a4 46bb
00000020: d620 0d3b b93a d439 39e1 faba a63c dd3a
00000030: eeb5 5aba 7609 203a 2f24 8fba c3dd 06bb
00000040: d666 073b 133b 4e3a cfd6 993a 80cc 5cba
00000050: 4098 9e3a 5bf4 4b3a 621a 5239 99b2 0fbb
00000060: 9f7d 1cba 84bb 9539 ab1a 4fbb e404 fcba
00000070: 802e 0b3a 4b02 c4ba 0e9a 6439 f94d 00bb
00000080: e44d 8c3a 0030 8aba 71b4 043a 8ed4 d13a
00000090: 15b7 93ba 1dab f13a 9441 ab39 13f7 323a
000000a0: 1987 ac39 c9d4 c9ba f4cf f0ba 23be 70ba
000000b0: f297 823a ba5f dc3a d1a9 ca3a bed9 30bb
000000c0: e36f adba 921d 663a 3300 baba 506c 06b8
000000d0: 1bae ef39 2ec4 163b 3579 4fbb 5784 caba
000000e0: ba64 b6ba 6fc1 c93a 7c58 133a 6429 5636
000000f0: 362f feba 02de 9fba 4d2f a63a 2d71 e4b9
00000100: e69e b63a 5149 4bba 4f66 ca39 aa04 b33a
00000110: 6c7a 25b9 53a5 b639 0944 4bba b0b3 cfb9
00000120: 1983 0fbb 0695 723a f799 45b9 88d0 3b3a
00000130: 41e2 d23a 2b43 4eba e919 19bb ecd3 083b
00000140: cb5b 8bba f41f 8eba 19d1 1b3a 8b86 19bb
00000150: 7540 ebba d59d 1dbb 5ad8 9439 236b bd3a
00000160: aeeb c139 f4c9 01bb 0c1e f4ba d952 98ba
00000170: f9fa 6dba c989 9bb9 9939 ebba a399 abba
00000180: bebc 90ba 7f6e ea37 ff36 113b 4d22 e53a
00000190: 74fa 0f3b 0e38 7c3a 9e45 fcba 0c02 82ba
000001a0: 8776 ccba b9fe b3ba 52a0 233a dfa6 fdb9
000001b0: 9d29 00bb deac 0bbb a794 b33a 3653 ad3a
000001c0: 5e53 40bb 2aff 1ebb 59c5 cfba 0c25 a33a
000001d0: 7e34 4eba bd65 e9ba 4634 2539 a44e 0dbb
000001e0: 5ffd cdb9 e8be ef37 d54b e8b8 62bb f4ba
000001f0: 1881 40bb 4f00 56b9 18cb 0cba f86f 783a
00000200: 3abd bc39 ae56 6eb9 0701 d0ba f54d 87ba
00000210: d363 00bb 66b2 64bb 68f9 96bb 4d74 4839
00000220: 08c7 053b 30e5 bd3a 8d5b 8cba dfc2 c73a
00000230: 6eb0 18bb b6b3 e33a b65d 603a efd1 2dbb
00000240: 2c9e 073b ffa3 9ebb 3132 86bb 9a99 6cbb
00000250: ae11 d6ba 541a cfba 68e0 e6ba 18f2 80ba
00000260: 8b55 9f38 f6b9 47b7 7fbe fdba 92c4 47bb
00000270: b048 993a a4d9 fdba 718f 2f3b d044 5cbb
00000280: a61e edba ab1b 1eba 38d8 e53a 4fae b43a
00000290: 8297 e3ba 8ddf 0ebb 0305 91b9 b88e 63ba
000002a0: cc71 743a a2a6 04bb 528f 12bb 4770 40bb
000002b0: 2e8c 2fbb 0797 1eb8 f7f7 813a 2b84 9f36
000002c0: bc6b 90bb 1976 9bbb 3c37 0abb 44bb d9b9
000002d0: 0066 823a 1bc7 23ba 386a 27bb 8da2 be3a
000002e0: 7abf adba 0050 5ebb 3761 713a 256c 73ba
000002f0: eee3 21ba 20c6 0cba 241d c038 b5b9 a03a
00000300: 38b5 a83f 8b1a a53b 1c08 61ba bdc4 7f3a
00000310: a279 1839 dd45 b53d 1b1e de3b 34a7 ac3d
00000320: a93e c6ba 7081 043a f738 b3b9 5f8c cfba
00000330: 4dde da3e 922a 973c c13f d239 48d3 1dbc
00000340: 18ef 0fbb 92e5 f1bc 61a9 82be 8169 b7be
00000350: 1692 6039 599b a23d 57d9 34bd b492 cf3d
00000360: be75 e93a 735b 5339 59f6 d8bf 963b 6fbb
00000370: fe17 dbbb 6d4d 713d b4be 643e 9947 8539
00000380: 1cee ed3a 34bd 89bc c582 8aba f58a 973a
00000390: 9e51 0a3b eca0 dbba 2315 02bb 39ab 183b
000003a0: 3edf d23d 161a 7fba 714d e1bd 3063 99be
000003b0: 45bd 53bd 6e24 d337 1db4 a63a 2adc 2fbf
000003c0: 68cd a3be 0e9c 1abf 9b62 cbbe 5efc 9b3a
000003d0: 8a51 beba 2e46 16bb 9f6d 82bf cf39 103b
000003e0: 65b0 90ba fed4 ed3c c0b6 c7ba 6764 64ba
000003f0: d3d9 543d 9815 c2ba a7de 9e3d 6db1 05bb
0.001237684 0.0019086573 0.0008448594 -0.00048052307 -0.0012446654 0.00032325933 -0.00024188278 -0.0030310638
0.0021534464 0.00040479543 -0.0019140608 0.0016879037 -0.00083431497 0.00061049254 -0.0010920818 -0.0020578958
0.002066066 0.0007867079 0.0011736992 -0.0008422807 0.0012099817 0.0007780247 0.00020036989 -0.002192652
-0.0005969647 0.00028559205 -0.0031601589 -0.0019227532 0.0005309358 -0.0014954297 0.00021801164 -0.0019577725
0.0010704366 -0.001054287 0.0005062288 0.0016008781 -0.0011269773 0.0018437837 0.0003266452 0.0006826978
0.00032907052 -0.0015398498 -0.0018372522 -0.0009183606 0.0009963496 0.0016813197 0.0015461986 -0.0026985253
-0.0013232197 0.000877821 -0.0014190733 -3.2048963e-05 0.0004571535 0.0023005116 -0.0031657938 -0.0015450817
-0.0013915517 0.0015392731 0.000562079 3.1912577e-06 -0.0019392732 -0.0012196901 0.0012678892 -0.0004357187
0.0013932853 -0.00077547604 0.00038604668 0.0013658006 -0.00015781232 0.0003483692 -0.00077539735 -0.00039615994
-0.0021898209 0.00092537736 -0.0001884474 0.00071645575 0.0016089157 -0.0007868285 -0.002336139 0.0020878268
-0.0010632215 -0.0010843263 0.0005943939 -0.002342614 -0.0017948287 -0.0024050374 0.00028389954 0.0014451485
0.00036987424 -0.0019804211 -0.0018624677 -0.001162137 -0.00090782304 -0.00029666562 -0.0017946243 -0.0013092052
-0.0011042578 2.7946428e-05 0.0022158024 0.0017481536 0.002196935 0.000962139 -0.0019246822 -0.0009918823
-0.0015599289 -0.001373253 0.0006241846 -0.0004838025 -0.0019556053 -0.0021312754 0.0013700918 0.0013223651
-0.0029346566 -0.0024260976 -0.0015851661 0.0012446954 -0.00078660983 -0.001780681 0.000157551 -0.0021561766
-0.00039289423 2.8579918e-05 -0.00011076747 -0.0018671567 -0.002937382 -0.00020408745 -0.00053708395 0.0009477134
0.0003599914 -0.0002272974 -0.0015869447 -0.0010322916 -0.001959075 -0.0034896373 -0.0046073683 0.00019116812
0.0020412821 0.0014487859 -0.0010708437 0.0015240571 -0.002329852 0.0017372284 0.0008558886 -0.0026522835
0.0020693643 -0.004841327 -0.0040953388 -0.0036102296 -0.0016332173 -0.0015800693 -0.0017614486 -0.0009837775
7.5976444e-05 -1.1904622e-05 -0.001935914 -0.0030482155 0.0011694636 -0.001936723 0.0026788379 -0.0033610351
-0.0018090799 -0.00060313445 0.0017535752 0.0013784858 -0.0017363878 -0.0021800727 -0.0002766029 -0.00086806295
0.00093248184 -0.0020240922 -0.0022363258 -0.0029363798 -0.0026786434 -3.781079e-05 0.0009915818 4.7539556e-06
-0.004407374 -0.004744303 -0.002109005 -0.0004152899 0.0009948611 -0.00062476256 -0.002554549 0.0014544294
-0.0013255917 -0.0033922195 0.00092079066 -0.0009285829 -0.0006175627 -0.0005370099 9.160701e-05 0.0012262376
1.3180304 0.0050385646 -0.0008584277 0.00097567943 0.00014541161 0.08851216 0.006778491 0.08430329
-0.0015124875 0.0005054688 -0.00034183983 -0.001583468 0.42747727 0.018452916 0.00040101822 -0.009632893
-0.002196258 -0.029528413 -0.2551985 -0.3582268 0.00021416726 0.079397865 -0.044152584 0.10135403
0.0017811579 0.00020156596 -1.6950179 -0.0036504022 -0.0066862097 0.05891173 0.22338372 0.0002542108
0.0018152627 -0.016813852 -0.0010567537 0.0011561798 0.0021105777 -0.0016756332 -0.0019849024 0.0023295416
0.10296486 -0.0009731365 -0.11001099 -0.29958487 -0.051694173 2.5170124e-05 0.0012718473 -0.6869532
-0.3199265 -0.6039437 -0.39723668 0.0011900773 -0.001452015 -0.0022930014 -1.0189704 0.0022007113
-0.0011038898 0.029032227 -0.0015236959 -0.0008712471 0.051965546 -0.0014807461 0.07757311 -0.0020399943

bias f4 [64]
00000000: a0e6 ff39 053f caba e172 ceba b719 733e
00000010: e5d4 853d 670e a7ba 8a9a 843d 4b1e 893d
00000020: fdab ffba ce6e 0fbb c68a 0cbb 885e 93ba
00000030: 71b2 833d 465f d3ba a897 60b9 bcc6 09bb
00000040: 25fb 8d3d e41a 10bb ad55 feba f0ff a4ba
00000050: 299d ac3a 0822 f3ba df4a 8b3d 9bf2 f036
00000060: 114a 003e 16c4 59ba 0922 64ba 5cf1 553d
00000070: f6d6 d33a 7785 883d b29b 873d b260 aebb
00000080: a8c8 933d c8c9 843d 1050 d7ba 1bf0 303c
00000090: 2a34 803d ba32 b23c 9094 883d 1853 06bb
000000a0: 0bc9 e4b9 2597 19bb 92dc 1e3a 2359 3bba
000000b0: fd4b 7fba 45aa 07ba c3bc c63b 1e39 5bba
000000c0: c78b 913d 489f 933d 6086 033a d5a1 cab9
000000d0: 5718 8b3d 5667 a1ba 1007 933d 053b 843d
000000e0: 60fb 313d aefa bdba 7e06 7cba 5429 833a
000000f0: e10d e4ba d95b 9eb9 1a50 d8b9 8053 01bb
0.0004880922 -0.0015430158 -0.0015750789 0.23740278 0.06534747 -0.0012745381 0.064747885 0.06695231
-0.0019506213 -0.0021886113 -0.002144502 -0.0011243382 0.06430519 -0.0016126416 -0.00021418801 -0.0021022996
0.06932668 -0.0021988684 -0.0019404195 -0.0012588482 0.0013169396 -0.0018549571 0.0680139 7.1808004e-06
0.12528254 -0.0008307112 -0.00087025814 0.05223213 0.0016162086 0.066660814 0.066214934 -0.0053215856
0.072160065 0.06483799 -0.0016427059 0.010799433 0.062599495 0.021752704 0.06668961 -0.0020496305
-0.00043637338 -0.0023436036 0.0006060089 -0.00071467663 -0.0009738801 -0.00051752134 0.0060649826 -0.0008362698
0.071067385 0.07208115 0.0005017277 -0.00038649017 0.06791752 -0.0012314122 0.071790814 0.064565696
0.04345262 -0.0014494264 -0.00096140045 0.0010006824 -0.0017399156 -0.0003020454 -0.0004125841 -0.0019733608

weight f4 [64, 64]
00000000: 3903 e63a 3d09 6b3a d68e a638 5837 843e
00000010: 42fc 003e be0a e1b9 5169 003e ba18 003e
00000020: 8821 deba be66 48b9 18b5 9c3a 86d6 aaba
00000030: 80f2 84bd b6a3 a8ba 5a6d 893a 4dc7 153a
00000040: 13eb 71bd e7c6 e33a 4cc0 01bb 0267 02bb
00000050: 574a 25b8 ba27 15bb 3da1 7fbd a95f 06bb
00000060: 7d74 0f3e be11 aa38 2802 59bb a1db fd3d
00000070: b5e4 8037 5919 003e ef18 003e 14ce 10bb
00000080: b1f7 6fbd d61a 003e 0c82 5bba ee7f 003e
00000090: 1878 fe3d f02b 193e be19 003e 7f46 4739
000000a0: fda2 183b 9af7 0d3b 5000 3bba 0438 9e3a
000000b0: ba5b a43a 807a ddb9 57c7 d5ba 4e72 f4ba
000000c0: 56a7 5bbd 1dc6 58bd 8a47 b739 bf67 c6ba
000000d0: aa67 75bd e80d 20ba 26c1 74bd a314 003e
000000e0: bde3 383e a47e 113b c055 e5ba 0874 bb3a
000000f0: bf8e c9b9 b452 113a 2010 15bb e1f0 a4b9
00000100: 9632 8f3a fd63 ce39 2cd8 83ba 165e 7dba
00000110: 4817 ddba 33a6 a0ba 34b4 98ba 141a 96b9
00000120: 1031 06bb 7826 20ba b517 4e39 f29b f2b9
00000130: e3d6 a23a e346 d03a db94 eaba efc4 eb39
00000140: bef3 413a bcbd 00ba 83a8 8c3a d16c 2aba
00000150: 4f04 a2ba 81df 05bb f1e1 6bba 26c1 2bba
00000160: 29d1 66ba 4359 8e3a bd5f a43a 60cc c5ba
00000170: 29a6 4d3a da4c 8d3a 2eda 4cbb 9a47 c93a
00000180: c8b9 f0ba 1812 b3b9 eb18 00bb 819f fdba
00000190: ef7b d3ba 93e0 bdb9 083c bab7 8ced 013b
000001a0: f6ba 57ba 0013 62b7 2750 093b 1168 a7ba
000001b0: ec2a a2ba 9503 653a c9ed 2dbb 3eca 18bb
000001c0: 383e 603a a598 0cbb 8945 c1ba 77d3 ccb9
000001d0: aa18 8f3a 062d c8ba c11d 27bb ec0c f1b9
000001e0: f98e 3bb9 49ec b73a da9d 0cb8 a190 bfba
000001f0: 5c33 723a a8a9 7e3a 99f6 6fba 6a38 9cba
00000200: eb96 7639 3147 313a 81e5 c0b9 3fc6 fe3a
00000210: f38d 9e38 d03a 033a 4f8a e9ba 3a51 d1ba
00000220: cd98 ceba aabb 05bb 014d 31bb 28e9 6bbb
00000230: 5b33 51bb 9fb8 a83a 1c2e 8439 9783 beba
00000240: 9ab3 5dbb 083e 623a af04 84ba 8fcd 9fba
00000250: f021 5f38 e944 edba de4e 7fbb cd97 01bb
00000260: 3f88 67bb 86bb 31ba 5cac e5b9 cb7c 36ba
00000270: c185 8c39 9057 8d3a 14f8 52bb f35f aa3a
00000280: ba7f 9ebb 3cc0 123a 7ea2 0fbb cb68 42bb
00000290: 46ae 6a3a 80be 69b9 b048 8039 1a53 3d39
000002a0: 7a2f c73a 6190 a63a 39eb 4cba ac37 dbba
000002b0: bc3e a33a b705 fcb9 788a e63a 1e1e f43a
000002c0: 8332 d3ba d903 d3ba 9d5a 02bb 6232 553a
000002d0: a0dc 71bb 3309 82ba 4125 e7ba dbaf 1abb
000002e0: 3d68 7abb 6c6a 1d39 4c66 143b 69eb cfba
000002f0: ec50 4539 2500 a0b9 4140 abba ae00 0ebb
00000300: 73f9 b8ba b8de 203a d33c 8cba 3830 10bb
00000310: 31ad 3bbb fa4b 2cba 91f1 b2ba d2d0 01bb
00000320: 35f3 bc3a 9042 e93a 67cf a4b9 87b9 c5ba
00000330: 6a33 39ba 26b4 a03a ec82 4eba dc89 123b
00000340: 8795 a0b9 a61f d3ba a7e6 623a 3e80 b23a
00000350: b60b eb3a 5454 883a 478f 4c39 aa89 063b
00000360: e6a1 ad39 966d 07bb 92f0 d13a 5442 e23a
00000370: 0bdc 6d3a 0178 7b3a 9650 d1ba 6f29 feba
00000380: d001 b4ba 51c4 1f3a ca01 a039 9f50 29bb
00000390: 2958 b93a 8bc6 9d3a 5c84 323a 1112 d03a
000003a0: 45a7 0abb eec3 8c3a 383a a7ba 690b 87ba
000003b0: 2f7e e8ba 93e6 faba ab26 a535 b379 cfb9
000003c0: 1cde f3ba 48ed 76ba 45f7 ba3a 9267 70ba
000003d0: 39fc ed37 6864 9dba 2b5c bd3a 0683 d4ba
000003e0: 712c b939 d549 273a d8d0 e5ba eac6 b7b9
000003f0: f569 c3ba b991 05b9 2003 903a 822b 93ba
0.0017548568 0.0008965915 7.942102e-05 0.25823474 0.12596229 -0.00042923348 0.12540175 0.12509432
-0.0016947249 -0.00019111761 0.0011955826 -0.0013033904 -0.06491566 -0.0012866172 0.001048486 0.0005713597
-0.059062075 0.0017378003 -0.0019798456 -0.0019897823 -3.94083e-05 -0.0022759275 -0.06240963 -0.0020503795
0.1400928 8.1095364e-05 -0.0033112857 0.123954065 1.5365289e-05 0.1250967 0.12509511 -0.0022095488
-0.058585826 0.12510237 -0.00083735655 0.12548801 0.1242525 0.14958167 0.1250982 0.00019004381
0.0023290508 0.0021662475 -0.00071335305 0.0012071137 0.0012539544 -0.00042243674 -0.0016310018 -0.0018649788
-0.05362638 -0.05292331 0.0003495778 -0.001513712 -0.059913315 -0.0006105588 -0.059754513 0.12507872
0.18055625 0.0022200728 -0.0017496869 0.0014301548 -0.00038444062 0.0005543635 -0.0022745207 -0.00031459986
0.001092511 0.0003936588 -0.0010058931 -0.0009665204 -0.00168679 -0.0012256562 -0.0011650384 -0.0002862966
-0.002047602 -0.0006109248 0.00019654522 -0.00046274025 0.001242366 0.0015890267 -0.0017897146 0.0004496942
0.0007398686 -0.0004911085 0.0010731373 -0.00065012 -0.0012360903 -0.0020427408 -0.00089982065 -0.00065519137
-0.0008804971 0.0010860342 0.0012540739 -0.0015090816 0.0007844889 0.001078035 -0.0031257975 0.0015356422
-0.0018365914 -0.0003415502 -0.0019546102 -0.0019349904 -0.0016134958 -0.0003621621 -2.2200882e-05 0.0019825427
-0.00082294585 -1.34750735e-05 0.0020952316 -0.0012772103 -0.0012372411 0.00087361905 -0.0026539436 -0.0023313905
0.0008554193 -0.0021453288 -0.0014745455 -0.00039067466 0.0010917385 -0.0015272207 -0.0025499912 -0.0004597673
-0.00017886971 0.001403221 -3.352561e-05 -0.0014615246 0.00092392205 0.0009714612 -0.00091538724 -0.0011918668
0.0002351661 0.00067626225 -0.00036792087 0.0019437744 7.560467e-05 0.0005006017 -0.0017817708 -0.0015969642
-0.0015762091 -0.0020406046 -0.0027053955 -0.0035997126 -0.003192148 0.0012872404 0.00025211356 -0.0014535066
-0.0033828975 0.0008630459 -0.0010072197 -0.0012191999 5.319895e-05 -0.0018102202 -0.003895692 -0.0019774318
-0.0035329012 -0.00067799573 -0.000438067 -0.00069613446 0.00026802535 0.0010783542 -0.0032191323 0.0012998566
-0.0048370035 0.0005598103 -0.0021916921 -0.0029664512 0.00089523604 -0.00022291578 0.0002446822 0.00018055402
0.0015196644 0.0012707823 -0.00078170333 -0.0016724966 0.0012454609 -0.00048069443 0.0017588874 0.0018624698
-0.0016113076 -0.0016099169 -0.0019890436 0.0008132813 -0.0036905184 -0.0009920954 -0.0017635004 -0.0023603353
-0.0038209104 0.00015012332 0.0022643982 -0.0015863004 0.0001881753 -0.00030517686 -0.0013065414 -0.0021667886
-0.0014112428 0.00061367033 -0.0010699279 -0.0022001397 -0.0028637166 -0.00065726007 -0.0013652315 -0.0019808304
0.0014415743 0.0017796326 -0.00031435044 -0.0015085199 -0.0007064851 0.001226072 -0.0007877785 0.0022360003
-0.00030628985 -0.0016107454 0.00086555857 0.0013618541 0.0017932567 0.0010401108 0.00019508331 0.0020528832
0.00033117755 -0.0020664684 0.001601713 0.0017262199 0.00090736215 0.0009592772 -0.0015969451 -0.001939101
-0.001373345 0.0006094622 0.0003051891 -0.0025835407 0.0014140654 0.001203732 0.0006809884 0.0015874525
-0.002115683 0.0010739544 -0.0012758439 -0.0010303083 -0.0017737801 -0.0019142203 1.2304712e-06 -0.0003957279
-0.0018605622 -0.0009419513 0.0014264366 -0.00091707066 2.8370052e-05 -0.0012008073 0.0014447024 -0.0016213364
0.0003531906 0.0006381546 -0.0017533554 -0.00035052683 -0.0014908897 -0.00012738154 0.001098726 -0.0011228176

bias f4 [64]
00000000: a6f9 3b3d d586 383a f14e 863a e3fd e7b8
00000010: efa9 453a 1741 d63d 11a9 493d de7c 75b9
00000020: 7895 693d e200 d43d c227 d7ba ee5a b5ba
00000030: f07e b9ba 328a b53a 814e 673d aa32 e7ba
00000040: c001 8fb9 d1a4 5d3d 2cdf c3b9 3de1 6bba
00000050: ba2f 8e3a e32f 36bb a3f3 703a 144e cbba
00000060: 1c61 a93d 12ef de3d d9e4 6bba 616e 69b9
00000070: eee0 faba 2798 cf3d b35a d63d a9ed 573d
00000080: 0194 3c3d fa5c a939 ee0e a63a a411 d93d
00000090: 8f28 74ba 29ab 4cbb bfe1 acb9 ed53 cf3d
000000a0: 8ea7 9eba 1923 1bbb 76ff dcba fcda cb3a
000000b0: 5681 8cba db2e 173a fdaa 6339 f6b9 ebb9
000000c0: 7cc5 5539 3df3 35bb cd25 eaba 9951 563d
000000d0: 5c2d 553a e1d4 beba cc1e 02bb e630 f7ba
000000e0: 016d 1f3a 9349 d1ba c78f d5b8 dd04 ecba
000000f0: 32ab c739 d551 c3ba 4efa feba 361d 743d
0.04589238 0.00070391345 0.0010246915 -0.000110622284 0.00075402757 0.10461634 0.0492335 -0.00023411537
0.05702731 0.10351731 -0.0016415047 -0.0013836303 -0.001415221 0.001385039 0.05647135 -0.0017639
-0.0002727639 0.05411226 -0.00037359574 -0.00089981017 0.0010847964 -0.0027799539 0.0009191578 -0.001551094
0.08270475 0.10885443 -0.00089986395 -0.00022261731 -0.0019140521 0.10136443 0.10466518 0.052716885
0.046039585 0.00032303465 0.0012669244 0.10599068 -0.0009313905 -0.003122995 -0.0003297459 0.101234294
-0.0012104379 -0.0023672043 -0.0016860801 0.0015552933 -0.0010719697 0.0005767175 0.00021712105 -0.00044961245
0.00020386832 -0.002776339 -0.0017864049 0.05232391 0.0008132064 -0.0014559292 -0.0019854782 -0.0018859177
0.00060816115 -0.0015967361 -0.00010183412 -0.001800682 0.00038083788 -0.0014901707 -0.0019453259 0.05959817

weight f4 [1, 64]
00000000: a31b 193e b04f c43a 9f46 a9ba b332 a63a
00000010: 7d5f 6639 59b3 13be 77a6 113e 16c4 90ba
00000020: 1791 103e 544d 19be ba6b 923a 6a20 daba
00000030: fce2 7f3a 51a8 82ba 1176 0f3e c5bc 61ba
00000040: dd15 d03a 7442 113e cc34 8ab8 acb4 ff3a
00000050: 0ac5 7638 b2f2 8d3a de08 2738 b32c 0cba
00000060: c7aa 18be 6589 3cbe 5e81 41ba 0a82 95ba
00000070: 48a1 993a d1d7 16be 6d62 16be 6731 123e
00000080: 6469 153e 3623 d63a 321e cbb7 e44e 57be
00000090: 1110 9938 b4d9 7337 e1cf 9eb9 7ecf 16be
000000a0: 7c92 f4ba 6d0b 313a 5d9d 9b3a 862a d937
000000b0: fc43 023b 996a a43a 95c4 47b9 8287 06bb
000000c0: ad5f e9ba b1e3 09bb a8cc 1e3a 9ee4 103e
000000d0: 410a e139 a6df adb8 a87c b83a ff8e 7dba
000000e0: eb47 06bb e3b1 b939 c594 bc3a d47a 343a
000000f0: 7a83 133a 83f1 b438 4270 deba ffdb 0f3e
0.14951949 0.0014977362 -0.0012914723 0.0012679904 0.00021970081 -0.14423884 0.14223658 -0.0011044766
0.14117847 -0.14970905 0.0011171021 -0.001664174 0.00097613013 -0.0009968375 0.14009883 -0.00086111977
0.0015875656 0.14185506 -6.590187e-05 0.00195088 5.8834477e-05 0.0010829775 3.982416e-05 -0.0005347237
-0.14908896 -0.18411787 -0.0007381643 -0.0011406553 0.0011721039 -0.14730765 -0.14685984 0.14276658
0.14590985 0.0016337398 -2.4213547e-05 -0.21026188 7.298601e-05 1.4534617e-05 -0.0003029099 -0.1472759
-0.0018659378 0.0006753717 0.001187246 2.5888217e-05 0.0019876948 0.0012543976 -0.00019051351 -0.0020527546
-0.0017805003 -0.0021040256 0.0006057718 0.1414971 0.00042922984 -8.2909406e-05 0.0014075236 -0.0009672492
-0.0020489644 0.00035418486 0.0014387598 0.0006884758 0.00056271965 8.628054e-05 -0.0016970711 0.14048766
