pre_trained_models/2u3d/diode_pair_2u3d_1N4148_l_1.70k_2.50k_2x128_2.78e-06.pth (torch, 72055 bytes, 5 tensors)

weight f4 [128, 2]
0	0x3c391716	0.011297008
1	0xbbb2cf27	-0.0054568234
2	0x3bd416b7	0.0064724344
3	0xbc462cd5	-0.01209565
4	0xbbf84d9c	-0.007577611
5	0xbbb10633	-0.0054023503
6	0x3e169aa7	0.14707433
7	0x3bf783b7	0.0075535434
8	0x3b1e0415	0.002411132
9	0xbb46728a	-0.0030280673
10	0x3bdbb24f	0.0067046057
11	0x3a361df3	0.0006947212
12	0xbbb62d48	-0.005559597
13	0xb9eb0cb0	-0.00044832146
14	0xb9bb94c2	-0.00035778253
15	0xbb0f3702	-0.0021852856
16	0xb800b745	-3.068826e-05
17	0x3b0dc10d	0.002162996
18	0xbbcdea79	-0.006284055
19	0xbb9e8a74	-0.0048382822
20	0x3ea63701	0.3246384
21	0x3d496afa	0.049174286
22	0xb988d47c	-0.00026098255
23	0x3a222c19	0.00061863806
24	0x3c1c0e5a	0.009524906
25	0xbbdd71d3	-0.0067579537
26	0xbcbbc10a	-0.022919197
27	0xbc6baba4	-0.014384184
28	0x3c86274d	0.016376162
29	0xbbffd8ab	-0.0078078113
30	0x3c769846	0.015050953
31	0xbba6b90e	-0.005087978
32	0xbbb3ac28	-0.005483169
33	0xbc579d36	-0.013160041
34	0xbc169111	-0.00918986
35	0xbb673dd2	-0.003528465
36	0x3b6782b6	0.0035325713
37	0x3b563804	0.0032687197
38	0x3c6a9fee	0.014320357
39	0xbc6556bc	-0.01399773
40	0x3be8bfca	0.007102941
41	0xbbed0736	-0.0072335256
42	0x399a6760	0.0002945019
43	0x3bbc509f	0.0057469155
44	0x3bbccf0c	0.0057619866
45	0xbb690f9c	-0.0035562282
46	0xbb0d555e	-0.0021565775
47	0xb8dce348	-0.00010532752
48	0x3baf1dd2	0.005344131
49	0xbc27ce4e	-0.010242058
50	0x3c5bddc3	0.013419571
51	0xbc6ca03a	-0.014442498
52	0x3b9302d7	0.0044864225
53	0x3b499e2e	0.0030764448
54	0x3cb7b251	0.022423895
55	0xbaed51f4	-0.0018106089
56	0xbbf487da	-0.007462484
57	0x3acd9b45	0.0015686533
58	0xbc105dd9	-0.0088114375
59	0xbc1dc0b8	-0.009628467
60	0x3b26fbdf	0.0025479717
61	0xbbad8ab3	-0.0052960753
62	0x3e2a5b60	0.1663642
63	0x3c04f784	0.008115653
64	0x3c25ac9a	0.010111952
65	0xbc2fb696	-0.010724684
66	0x3b7cf97e	0.0038600857
67	0xbb71fe1e	-0.0036925147
68	0x3b618f8d	0.0034417838
69	0xbbb24f69	-0.0054415953
70	0x3b6ff172	0.0036612418
71	0x3af2a86a	0.0018513326
72	0x3b02a68b	0.0019935693
73	0xbb61342b	-0.003436337
74	0xbc0a166d	-0.008428198
75	0xbb6dbfdc	-0.0036277687
76	0xbc098554	-0.008393604
77	0xbc4f56ec	-0.012655001
78	0x3e4a9540	0.19783497
79	0x3ac57b8e	0.0015066729
80	0xbc03cc52	-0.008044319
81	0xbbec318e	-0.007208056
82	0x3bb9b098	0.0056668036
83	0xbc232254	-0.009956915
84	0xbc8cf227	-0.017205311
85	0xbc21d98f	-0.00987853
86	0xbafeec2c	-0.0019449047
87	0xbba9dc1a	-0.005183709
88	0x3e91e369	0.28493813
89	0x3cee3b6d	0.02908107
90	0xbc5fddc9	-0.013663718
91	0xbb81d31a	-0.003961933
92	0xb8a4eee8	-7.864629e-05
93	0x3aae5b34	0.0013302327
94	0x3be9935e	0.0071281632
95	0x39156e3c	0.00014250813
96	0xbbaef0d8	-0.0053387694
97	0xbb8fd0e5	-0.004388916
98	0x3a80fa76	0.0009840268
99	0xbb1022e4	-0.0021993453
100	0xbc80da10	-0.01572898
101	0x3c324ea1	0.010883004
102	0xbe664919	-0.22488822
103	0x3d690e95	0.056898672
104	0x3c6c090a	0.014406452
105	0xbc1d39d5	-0.009596308
106	0xbc2793a7	-0.010228074
107	0xbc427702	-0.011869194
108	0x3b7ad83e	0.0038275863
109	0xbc04f90d	-0.008116019
110	0x3c263aea	0.010145882
111	0xbc67bbd2	-0.014143901
112	0xbdfce0bb	-0.123475514
113	0x3d2c477e	0.042060368
114	0x380d86dd	3.374262e-05
115	0xba8c27a1	-0.0010692963
116	0xbbbfec53	-0.0058570295
117	0xbabe3ad7	-0.0014513385
118	0xbe4c54b9	-0.19954194
119	0x3d20ae05	0.039228458
120	0x3e88321c	0.2660073
121	0x3cd7fd60	0.026365936
122	0x3e779a55	0.24179967
123	0x3ca26ba3	0.019826716
124	0xbafd5965	-0.001932901
125	0xb9552a3f	-0.00020329001
126	0x3c473523	0.012158665
127	0xbc081eff	-0.008308171
128	0xbc0efd44	-0.008727375
129	0xbbee6fc0	-0.007276505
130	0x3e71ab3f	0.23600481
131	0x3ca97491	0.020685466
132	0x3ba91f27	0.0051611844
133	0xbc11fe55	-0.008910735
134	0x392d35e6	0.00016518644
135	0xbc6e6bb0	-0.014552042
136	0xbc0baf95	-0.008525749
137	0xbc183a94	-0.00929131
138	0x3c22edec	0.00994442
139	0xbb9ce944	-0.0047885496
140	0x3c66dca2	0.014090689
141	0xbad31df5	-0.001610695
142	0xbc3d3b63	-0.011549803
143	0xbb768460	-0.0037615523
144	0xbb3e3f27	-0.002902934
145	0x39fbe8fe	0.00048048043
146	0x3b9ee739	0.004849341
147	0x37fdd982	3.0261235e-05
148	0xbb8b3755	-0.0042485395
149	0xbb1a75f9	-0.0023568852
150	0x3a0ba5f9	0.0005327161
151	0xbb374fea	-0.0027971216
152	0xbe5de3a0	-0.21668863
153	0x3d2d3962	0.042291053
154	0xbaac7466	-0.0013157248
155	0xbc0856b2	-0.008321451
156	0xbd9edfbe	-0.07757519
157	0xbda632ad	-0.081151344
158	0x3b4d6425	0.0031340208
159	0xbaad4b12	-0.0013221225
160	0xbbb96752	-0.0056580687
161	0xbba3f13a	-0.0050031217
162	0xbbb02536	-0.0053755296
163	0xbb5e551d	-0.0033925243
164	0x3c05406e	0.008133037
165	0xbb5eeea9	-0.0034016764
166	0x3c5428d9	0.012949192
167	0xbbe61e40	-0.007022649
168	0x3e18c1ed	0.14917727
169	0x3bd676ae	0.0065449094
170	0xbc4888c9	-0.012239643
171	0x39399e00	0.00017701834
172	0x3be288c6	0.0069132773
173	0xbbce50d2	-0.0062962556
174	0xbe65ea19	-0.22452582
175	0x3d54d009	0.05195621
176	0x3e193d05	0.14964683
177	0x3a820c2e	0.0009921843
178	0x3e30ebfa	0.17277518
179	0x3b82bd5c	0.0039898586
180	0xbc1fc43d	-0.009751377
181	0xba9a5ddd	-0.0011777241
182	0xbbff0655	-0.0077827373
183	0xbc00bfbe	-0.007858215
184	0xba0f9030	-0.00054765027
185	0xbb32b8b4	-0.0027270736
186	0x3bfd4bb7	0.007729973
187	0xba633cd9	-0.000866843
188	0xbe4daafd	-0.20084758
189	0x3d1dfdea	0.03857223
190	0x3c0677a1	0.008207233
191	0xbb645a8a	-0.0034844005
192	0xbb43e5d1	-0.002989162
193	0xbba670d1	-0.0050793667
194	0xbc4c130c	-0.012455713
195	0xbc5e8fea	-0.0135841165
196	0xbc0e6a1e	-0.0086922925
197	0xbc1bac5f	-0.009501546
198	0xbc02d44c	-0.007985186
199	0xbc3e3d40	-0.011611283
200	0xbb445147	-0.0029955672
201	0x3a6b25dc	0.000897018
202	0x3cf68f58	0.030097649
203	0xbc3f6d36	-0.011683753
204	0x3e39706e	0.18109295
205	0x3b798706	0.0038074865
206	0x3c6bc5e6	0.014390444
207	0xbbee8ece	-0.0072802072
208	0x3c0006a2	0.007814081
209	0xbb18bdd8	-0.0023306515
210	0x3c05ace3	0.008158895
211	0xba4db327	-0.0007846825
212	0x3c370235	0.01116996
213	0xbc555f3d	-0.013023195
214	0xb8f034bc	-0.00011453914
215	0x3b856d06	0.0040718345
216	0x3c0e3122	0.008678706
217	0xbc057165	-0.008144711
218	0x3e801d22	0.25022227
219	0x3d04cfd8	0.032424778
220	0xbc3b21f7	-0.011421672
221	0xb9ab269d	-0.0003264443
222	0xba189e14	-0.00058218953
223	0xbb17f12e	-0.0023184526
224	0x3a7e711a	0.00097061845
225	0xbb8f23f8	-0.0043683015
226	0x3dc8a501	0.09797097
227	0xbd7cd53d	-0.061726797
228	0xbb9e8808	-0.0048379935
229	0xbc5d078f	-0.013490572
230	0xbab88fa4	-0.0014080894
231	0x3acd25c7	0.0015651517
232	0xbc2a5be6	-0.010397887
233	0xbbf39cc0	-0.0074344575
234	0xbc0da2f1	-0.008644805
235	0xbb22dea5	-0.0024851945
236	0x3b589d65	0.0033052799
237	0xbc172b2c	-0.009226602
238	0x39d682cb	0.0004091471
239	0xbaa07267	-0.0012241126
240	0xbe02fb88	-0.12791264
241	0xbc149eee	-0.009071095
242	0xbc18af5c	-0.009319153
243	0xba13c00b	-0.00056362216
244	0xbc15fbb5	-0.00915425
245	0xbbb311de	-0.0054647764
246	0xbb72ca5e	-0.003704689
247	0xbc02c10b	-0.007980595
248	0xbe042f3b	-0.12908642
249	0xbd1d95fd	-0.038473118
250	0x3e336bbd	0.17521568
251	0xbbed6a48	-0.0072453357
252	0xbb9f8346	-0.004867944
253	0xb885e51b	-6.3846084e-05
254	0xbc2d5e20	-0.010581523
255	0xbba185e6	-0.004929292

bias f4 [128]
0	0x3bc1e673	0.0059173643
1	0x3ba341fb	0.0049822307
2	0x3baf9ca4	0.005359249
3	0x3de8f187	0.11374193
4	0xbbf36d9a	-0.007428837
5	0xbc1e11ec	-0.009647828
6	0xbc5b718a	-0.013393769
7	0x3bd4a721	0.00648965
8	0xbc1fae82	-0.009746196
9	0xbc690356	-0.014221987
10	0x3d90bc13	0.07067122
11	0xbb2583ef	-0.002525564
12	0x3be76f6c	0.007062843
13	0x3cbbc651	0.022921713
14	0x3bec761a	0.0072162272
15	0xba68efa8	-0.0008885809
16	0xbc2884aa	-0.010285536
17	0xbafd4730	-0.0019323584
18	0xbc83c295	-0.016083995
19	0x3bd9c404	0.0066456813
20	0x3b30c5eb	0.0026973437
21	0xbca53e92	-0.020171437
22	0xbb98441a	-0.00464679
23	0xbb0ae050	-0.002119083
24	0x3ba862ff	0.0051387544
25	0xbb4eba05	-0.0031543982
26	0xbc83f43f	-0.016107677
27	0xbc93bbcc	-0.018033884
28	0xbc5e3374	-0.013562072
29	0xbc1aaccb	-0.009440611
30	0x3c483485	0.012219553
31	0x3e00baef	0.1257131
32	0x3c2da930	0.0105994195
33	0xbaf81e0a	-0.0018929851
34	0x3956aa03	0.00020471965
35	0xbc463e0e	-0.012099756
36	0x3c11a883	0.008890274
37	0xba4b77c7	-0.00077616837
38	0xbc539782	-0.01291454
39	0x3e14fe9c	0.14550251
40	0xba9f2bfc	-0.0012143846
41	0x3bfb8b06	0.007676485
42	0x3c502aa5	0.01270548
43	0x3c5349a5	0.012895976
44	0x3dcdb144	0.10043576
45	0xba72c230	-0.00092605036
46	0xbb9707bc	-0.0046090763
47	0xbc4c829e	-0.012482313
48	0x3bb2670e	0.005444414
49	0x3bc44b0c	0.0059903916
50	0xbd5b8b88	-0.053599864
51	0x3d28f798	0.04125175
52	0xbc515df2	-0.012778746
53	0x3bd8469f	0.0066002156
54	0xbc4568b8	-0.012048893
55	0x3c11fc72	0.008910285
56	0xbc3e2eba	-0.01160782
57	0x3b5a314d	0.0033293546
58	0xba9d1a52	-0.0011985993
59	0x3d975cec	0.0739077
60	0x3db48657	0.08814686
61	0x3db07e9d	0.086178996
62	0xbaceb36a	-0.0015770022
63	0xbb4b85c5	-0.0031055075
64	0x3c37c2b8	0.011215858
65	0x3dcf5b4c	0.10124835
66	0x3a8038e0	0.0009782575
67	0x3c19ecce	0.009394838
68	0x3c4a007e	0.012329219
69	0x3b90b9b0	0.004416667
70	0xbc5163d9	-0.012780153
71	0xbb5408e7	-0.003235394
72	0xbba62349	-0.0050701243
73	0xbc585c4c	-0.013205599
74	0x3b4efbb0	0.0031583123
75	0x3bffee02	0.007810355
76	0x3da56a84	0.08076957
77	0x3c455dff	0.012046336
78	0x3ea15d11	0.31516317
79	0x3a8e3373	0.0010849073
80	0xbc16852f	-0.009187027
81	0x3adede37	0.0017003481
82	0xba822a10	-0.0009930748
83	0xbb5fb189	-0.0034132919
84	0x3def4f76	0.11685078
85	0xbc704004	-0.0146637
86	0xbc0a73c6	-0.008450454
87	0x3d694c08	0.056957275
88	0x3e19caae	0.15018722
89	0x3e0e32a8	0.13886511
90	0xbc27c68a	-0.0102402065
91	0xbc1a93e3	-0.009434673
92	0x3af5bc74	0.001874818
93	0xbc4e4829	-0.0125904465
94	0x3d9e974a	0.077437
95	0xbc6e1a7e	-0.014532683
96	0xbc37d888	-0.011221059
97	0xbc2ef4f9	-0.010678523
98	0xbbc46411	-0.005993374
99	0xbbd457a0	-0.0064801723
100	0xbbe463ce	-0.0069699055
101	0x3b9c1c56	0.00476412
102	0x3e0bdf2a	0.13659349
103	0x3b92e438	0.004482772
104	0xbc2093af	-0.0098008355
105	0xbc18c71f	-0.009324818
106	0xba32d932	-0.0006822526
107	0xbc6917f2	-0.0142269
108	0xbc170122	-0.009216579
109	0x3d8ed0a9	0.069733925
110	0xbc692d2c	-0.014231961
111	0xbbff9d44	-0.00780073
112	0x3be419ae	0.006961069
113	0x3e9d69fa	0.30744916
114	0xbc5935ca	-0.013257453
115	0xbbe45bdc	-0.0069689583
116	0xbb8dd9dc	-0.0043289494
117	0xba811068	-0.0009846808
118	0xbc511562	-0.012761446
119	0x3b65f6b4	0.0035089673
120	0x3e00b671	0.12569596
121	0xbc0fd59a	-0.008778954
122	0xbbd404f9	-0.0064703193
123	0xbc497ece	-0.012298299
124	0x3e70bfcb	0.23510663
125	0x3dc33f82	0.095335975
126	0xbbab5a71	-0.0052292873
127	0x3baba3b3	0.0052380203

weight f4 [128, 128]
0	0x3a4210f2	0.0007403038
1	0x3aa4db8f	0.0012577641
2	0xbbfd1953	-0.007723966
3	0xbb5c29c3	-0.0033594228
4	0xb9fb6918	-0.00047952752
5	0x3aa20be1	0.0012363159
6	0xba1ec254	-0.0006056179
7	0xb9b4bbd3	-0.00034472215
8	0xba1f4997	-0.00060763344
9	0x3ac4d5a6	0.0015017285
10	0x3b88aafc	0.0041707736
11	0xbaa69d8e	-0.001271175
12	0xba7868ba	-0.00094760547
13	0x3c52ede5	0.012874101
14	0xbba81f07	-0.005130652
15	0xbb646334	-0.0034849169
16	0xba0b0e6f	-0.000530458
17	0xbac3ee8e	-0.0014948414
18	0xbb7f9fa3	-0.0039005063
19	0x3aab0c20	0.0013049878
20	0x3a797e7a	0.00095174427
21	0xbb2832f0	-0.0025665127
22	0xba96520f	-0.0011468547
23	0x3a3c2b80	0.0007178113
24	0x3abf3f90	0.0014591087
25	0x39d465bd	0.00040511592
26	0xbbcb49f9	-0.0062038866
27	0xbb8b5bbf	-0.0042528803
28	0xbc205bff	-0.009787559
29	0x39bc6dee	0.00035940058
30	0x39c903ca	0.0003834053
31	0xba9a2685	-0.0011760747
32	0xbab8df3c	-0.0014104615
33	0x39a3d6ae	0.00031249732
34	0xbacf56f5	-0.0015818762
35	0xbb1f6d52	-0.0024326635
36	0xba4c573a	-0.000779498
37	0x3a3c6458	0.0007186583
38	0xb9ecc2f2	-0.00045158673
39	0x3ad22213	0.0016031883
40	0x397dcc3a	0.0002420404
41	0x3a3bf394	0.000716978
42	0x3c28f264	0.010311697
43	0xba3a092d	-0.0007096704
44	0x3a7d1d3e	0.00096555415
45	0xba7efa42	-0.00097266224
46	0xb9de1835	-0.00042361175
47	0xbbb4561c	-0.005503429
48	0xbab4cad8	-0.0013793362
49	0x3ad0aa22	0.0015919844
50	0x3cd3d098	0.025856301
51	0xbc3cf564	-0.011533115
52	0x3a8bba00	0.0010660291
53	0xbac11349	-0.0014730479
54	0x3a908edb	0.0011028902
55	0x3accfd7a	0.0015639507
56	0xbc3dbf04	-0.011581186
57	0x3a4ac299	0.0007734686
58	0xbb06f624	-0.0020593489
59	0xbc08bdcb	-0.008346031
60	0xbac8e983	-0.0015328381
61	0xbac740ae	-0.0015201771
62	0x390e1191	0.0001354872
63	0x3ab47eee	0.0013770738
64	0xb9bb81a3	-0.00035764006
65	0xbb924b98	-0.004464578
66	0xb84b782a	-4.8510883e-05
67	0x3a3193fb	0.0006774065
68	0xba7ad52e	-0.00095685094
69	0xbb025890	-0.0019889213
70	0x3a8626a7	0.0010234908
71	0x3a6bda12	0.00089970336
72	0xba7fdd88	-0.0009760489
73	0xba88875a	-0.0010416314
74	0x39724946	0.00023106215
75	0x39a9dd61	0.00032399132
76	0xbbe5da14	-0.0070145223
77	0x3ab1064e	0.0013505907
78	0x3c2766ea	0.010217408
79	0xb9807433	-0.00024500638
80	0xb6ed9236	-7.0801716e-06
81	0xbaa91190	-0.0012898911
82	0x3ac49067	0.0014996649
83	0x39a45e10	0.000313506
84	0xbbae649a	-0.0053220512
85	0x3d0b5277	0.03401419
86	0xb9cffd8c	-0.00039671024
87	0xbc08d134	-0.008350659
88	0xbb7896bc	-0.0037931642
89	0xbb7ef057	-0.0038900578
90	0x3a6ca740	0.0009027608
91	0x3ad97e50	0.001659343
92	0x3abe3485	0.0014511502
93	0x3a7cf348	0.0009649289
94	0xbc0e0351	-0.008667783
95	0x3a54e642	0.0008121469
96	0x3942de4d	0.00018584095
97	0xbab2a546	-0.0013629578
98	0xb9aee67c	-0.0003335959
99	0xbaa03080	-0.0012221485
100	0xbaf2c4a0	-0.0018521734
101	0xbbb4f7ac	-0.005522689
102	0xba38a04c	-0.0007042929
103	0xb9ff02d1	-0.00048639489
104	0xbaddf650	-0.0016934369
105	0xbb2b1000	-0.0026102066
106	0x3952f2b5	0.00020117576
107	0x3ac4179c	0.001496065
108	0x37c0ea2f	2.2997234e-05
109	0xbb88e860	-0.004178092
110	0x39e82946	0.0004428124
111	0x3a05d801	0.00051057345
112	0xb8fd6f1b	-0.00012084675
113	0x3b5dfcf1	0.0033872689
114	0xba0cffd1	-0.0005378696
115	0x3a8bbc0c	0.0010660901
116	0x39d9a37a	0.00041511265
117	0xbbb9d22c	-0.0056708064
118	0x3a3b7f3f	0.0007152445
119	0x38bf9e8b	9.137121e-05
120	0xbbc96e53	-0.006147185
121	0x3a9bb56d	0.0011879631
122	0x3ad8a037	0.001652724
123	0x3a0a6c0a	0.00052803813
124	0xbaf899ca	-0.0018966731
125	0xbb194336	-0.0023386008
126	0xbb09cc05	-0.0021026146
127	0x3a6af5fa	0.0008963045
128	0xb9f28aee	-0.00046261348
129	0xba3cac6d	-0.00071973243
130	0x39a9171b	0.00032251407
131	0xbb0209f8	-0.0019842368
132	0xb9b669b4	-0.000347925
133	0xba399dc6	-0.00070807
134	0xba7d4ee7	-0.00096629414
135	0xb879d4e0	-5.956448e-05
136	0xb7d497a2	-2.5342979e-05
137	0x3ad6968a	0.0016371768
138	0xba2dcc27	-0.00066298473
139	0xb94dfea7	-0.00019645189
140	0x3ad2eef7	0.0016092946
141	0xba933441	-0.0011230783
142	0x3a28feb0	0.0006446643
143	0xbaa160d7	-0.0012312186
144	0x3aabb93a	0.0013101466
145	0xb999f171	-0.00029362322
146	0x3a44ab3d	0.0007502323
147	0xba69ecf4	-0.00089235534
148	0x390c2788	0.00013366167
149	0xba8912bf	-0.0010457857
150	0xbad798e5	-0.0016448764
151	0xbaf89e80	-0.0018968135
152	0x3abc6996	0.0014374729
153	0x3a6754c0	0.00088245794
154	0x3a4db309	0.0007846808
155	0x39c04bd5	0.00036677593
156	0xbb038d86	-0.0020073368
157	0x3a7fcd61	0.0009758082
158	0xba7fc5bc	-0.0009756943
159	0xb83382de	-4.2798805e-05
160	0x3a08121b	0.0005190686
161	0x3ab082e3	0.0013466742
162	0xbac71a95	-0.0015190417
163	0xba723732	-0.0009239792
164	0xbb1bf50e	-0.0023797187
165	0x3ae4d7c0	0.0017459318
166	0xba0a20af	-0.00052691525
167	0xbae27970	-0.0017278623
168	0xb99114d5	-0.00027672076
169	0xb95526e8	-0.00020327757
170	0x3990cfd4	0.00027620664
171	0x3adec90b	0.0016997171
172	0xba13002d	-0.0005607631
173	0x3aef9afe	0.0018280444
174	0xb9a92dce	-0.0003226832
175	0xbaa9dac1	-0.001295887
176	0xbaf199e8	-0.0018432708
177	0xbb20833a	-0.002449228
178	0x39b76ca5	0.00034985426
179	0x3a7985f0	0.00095185544
180	0x3ab4e266	0.0013800382
181	0xb9d63781	-0.00040858614
182	0xb9c6743a	-0.00037852098
183	0xb9f1e2be	-0.00046136038
184	0xbac9ac97	-0.0015386519
185	0xba21e2cc	-0.0006175458
186	0xbae799e2	-0.0017669762
187	0x387210ee	5.7713063e-05
188	0xbaa6af23	-0.001271699
189	0x39483d35	0.00019096288
190	0xba196ac8	-0.00058523985
191	0xb9e97648	-0.0004452935
192	0xba5ad34f	-0.00083475275
193	0xbacef565	-0.0015789686
194	0xbad06885	-0.001590029
195	0x3aaa5bf5	0.0012997376
196	0x3a67c60a	0.0008841461
197	0xb9ba2502	-0.00035504258
198	0xb92eeb2c	-0.00016681541
199	0x3ae53f64	0.0017490205
200	0xba9f37f2	-0.001214741
201	0xbab8bc8f	-0.0014094281
202	0x38c31b7b	9.303443e-05
203	0xbac42791	-0.0014965405
204	0x3a423f41	0.0007409938
205	0x3ac930b3	0.0015349597
206	0x3a315b50	0.0006765621
207	0x3991c05a	0.00027799868
208	0x39aa9d6b	0.00032542212
209	0x3a8d3e6a	0.0010776047
210	0x3a88ed78	0.0010446748
211	0x3ae52d0c	0.0017484738
212	0xba106d57	-0.0005509457
213	0x39f927c8	0.0004752262
214	0xba0d4c80	-0.00053901225
215	0xbab18ea1	-0.0013546535
216	0xba97c090	-0.0011577774
217	0xb791f4c5	-1.7399327e-05
218	0x3a40af4f	0.0007350342
219	0xb9a1ae8e	-0.00030838366
220	0xbaa29ca7	-0.0012406305
221	0xb9c5d1da	-0.0003773112
222	0xbb1daed1	-0.0024060498
223	0xb92747b2	-0.0001595307
224	0x3ad9a62b	0.0016605308
225	0xbac892a5	-0.0015302493
226	0xbadecc97	-0.0016998228
227	0x39dee9ad	0.00042517242
228	0x3a64146a	0.00087005517
229	0xba93817c	-0.0011253799
230	0xb9c143a9	-0.0003686224
231	0x395b7c35	0.00020931738
232	0x3a198cc1	0.0005857461
233	0xbb11c6d4	-0.0022243755
234	0x39e3e1d8	0.0004346508
235	0xbae848ec	-0.0017721928
236	0xb98f3006	-0.00027310866
237	0x3a6c549a	0.0009015292
238	0xb9a88ae4	-0.0003214694
239	0xbaae765d	-0.0013310421
240	0x3a50cdcc	0.00079652364
241	0x3a66bb0e	0.0008801677
242	0xba8cc75b	-0.0010740565
243	0x39213847	0.00015375121
244	0xb9e1cc67	-0.00043067636
245	0xba05f6b5	-0.00051103096
246	0x3ab9ec04	0.0014184718
247	0x3ac6eea5	0.0015177323
248	0xbb184e7a	-0.0023240135
249	0xbaad4808	-0.001322032
250	0xb97f0b5b	-0.00024322925
251	0xbaaca245	-0.0013170919
252	0x392ed9f3	0.00016675126
253	0xbb0866db	-0.002081326
254	0xbb0bc909	-0.0021329543
255	0x3ac68fc3	0.0015149046

bias f4 [128]
0	0xbb203c4e	-0.0024450007
1	0x38287b32	4.0169056e-05
2	0xbac0cf17	-0.0014710155
3	0xba948211	-0.0011330267
4	0xbb994d50	-0.004678406
5	0xbb3936ad	-0.002826135
6	0xba915878	-0.0011088988
7	0xbb0bc8ef	-0.0021329483
8	0x3a4199ab	0.0007385264
9	0xbb2ee0e2	-0.0026684334
10	0xba360fe3	-0.00069451163
11	0x3a733914	0.00092782197
12	0xb9d40dea	-0.00040446158
13	0xb8153094	-3.556961e-05
14	0xbb0a4748	-0.0021099616
15	0xbadac313	-0.0016690217
16	0x3e195336	0.14973149
17	0xba94a7b5	-0.0011341484
18	0x3d95e78d	0.073195554
19	0xbaae8b3c	-0.0013316642
20	0xba71835a	-0.00092129933
21	0xbc0a0c19	-0.008425736
22	0x3e182e07	0.14861308
23	0xba4efeb5	-0.00078962307
24	0x38fbd502	0.000120082885
25	0xb9ae49c8	-0.00033242838
26	0xba4d7e77	-0.0007838974
27	0xba0e098d	-0.00054182933
28	0x3d8d0f61	0.06887699
29	0xb9d51c28	-0.00040647504
30	0x3e1b7ce3	0.15184359
31	0x3d7ceab7	0.06174728
32	0xba22bd07	-0.0006207977
33	0x396642fc	0.00021959463
34	0xbad42a57	-0.0016186935
35	0xba08649a	-0.0005202979
36	0xbb06b347	-0.0020553635
37	0x396f6d4a	0.0002283353
38	0xbb5abbc7	-0.0033376084
39	0xba8a7b5c	-0.0010565328
40	0xba5b2f97	-0.00083612785
41	0x3950ed9e	0.00019924945
42	0xba6771b6	-0.0008828895
43	0xbb32bd60	-0.002727352
44	0x3e181f84	0.14855772
45	0xba9c9a3f	-0.0011947824
46	0xbb5f7c8b	-0.0034101333
47	0xba33f5ac	-0.0006864916
48	0x3d89ae99	0.06722755
49	0xb9e643ae	-0.00043919444
50	0xba43fced	-0.00074763485
51	0xba8db2b7	-0.0010810707
52	0x3d9f0da1	0.077662714
53	0xbab0d410	-0.0013490934
54	0x3a48d07e	0.0007660462
55	0xbac0f774	-0.0014722184
56	0xbb2fcf0c	-0.002682629
57	0xb8c8b963	-9.571274e-05
58	0xbb20e766	-0.0024551987
59	0x3a70c498	0.0009184568
60	0xba884682	-0.001039699
61	0x3e1aa870	0.15103316
62	0xbad822e9	-0.0016489896
63	0x3a7f0cd0	0.0009729387
64	0x3d94a5d7	0.07258194
65	0x39fd9169	0.0004836426
66	0xba8ef7c1	-0.0010907577
67	0xbab6939a	-0.0013929487
68	0xbab4ed32	-0.00138036
69	0xbb5ded42	-0.003386334
70	0x3d80ee47	0.06295448
71	0xbb895a9b	-0.004191709
72	0xb91d4c78	-0.00015001174
73	0xbad3471c	-0.0016119215
74	0x3e18cbe1	0.14921524
75	0x3a296680	0.0006462112
76	0x3a942487	0.001130239
77	0x3a1af722	0.00059114594
78	0xba9c1fa5	-0.0011911286
79	0xba478a9c	-0.0007611902
80	0xba8f1a87	-0.001091794
81	0xb993c033	-0.00028181224
82	0xb9125aa7	-0.00013957416
83	0xb9581b86	-0.00020609619
84	0xbab4b091	-0.0013785531
85	0xbad39a97	-0.0016144094
86	0xba8fb872	-0.0010965003
87	0xbbf3f828	-0.007445354
88	0xbb390f46	-0.0028237863
89	0x398fab3a	0.0002740266
90	0x3d865771	0.06559647
91	0x3a3614f6	0.00069458724
92	0xba95c754	-0.0011427202
93	0x3a197024	0.0005853197
94	0xbba00218	-0.004883062
95	0xbaa10d5d	-0.0012287308
96	0xbb8ff4d3	-0.004393199
97	0xbae31d40	-0.0017327443
98	0xbac34f29	-0.0014900911
99	0xba0e67e5	-0.00054323516
100	0xb939114f	-0.00017649423
101	0xbab0d045	-0.0013489804
102	0xb97b58b4	-0.0002397027
103	0xbb1b68f8	-0.002371369
104	0x3d423585	0.04741432
105	0xbb05f0b7	-0.0020437667
106	0xba0bcff1	-0.0005333415
107	0xbb0d88df	-0.0021596474
108	0xbaa77b11	-0.0012777766
109	0x3a8e028b	0.0010834498
110	0xbc096905	-0.008386855
111	0xba87d22b	-0.0010362318
112	0xbb85f437	-0.0040879506
113	0x3d84a40a	0.064766005
114	0x39fff83f	0.00048822348
115	0x3a2196ec	0.0006164152
116	0xb993a8b5	-0.0002816372
117	0xbb22ae8c	-0.0024823276
118	0xbabe15a2	-0.0014502297
119	0xbab81dd8	-0.001404698
120	0xba9c151c	-0.0011908147
121	0x3d7d7e44	0.061887994
122	0xb85b2524	-5.224826e-05
123	0xbb1d8cbc	-0.0024040183
124	0x3ddb7714	0.10716072
125	0xbb53a5d9	-0.0032294898
126	0xb95406bf	-0.00020220409
127	0xba97b1ee	-0.0011573413

weight f4 [1, 128]
0	0xbb2b1789	-0.0026106557
1	0x3aad41df	0.0013218484
2	0xb9dd1128	-0.00042165187
3	0x3a0d6eed	0.00053952524
4	0x3bc6b20e	0.0060637062
5	0x398ffd78	0.00027463934
6	0x3934e160	0.00017250096
7	0x399c37e2	0.00029796275
8	0x37012f37	7.699992e-06
9	0x3a8c160c	0.0010687723
10	0x38ec5da8	0.00011270802
11	0x3a7034d4	0.00091631454
12	0xba2e2da6	-0.00066443754
13	0x397a96ba	0.00023898008
14	0xbaff969d	-0.0019499842
15	0xba26ab05	-0.00063578814
16	0xbe40dbfe	-0.1883392
17	0x39da4596	0.00041632046
18	0x3e1960ff	0.14978407
19	0x3aa057ef	0.0012233238
20	0xb8df724d	-0.00010654759
21	0x3c83f090	0.01610592
22	0xbe3ef121	-0.18646671
23	0x398fabdf	0.0002740314
24	0x3a6ea702	0.00091038656
25	0x39f720b8	0.0004713589
26	0xba3ae7c2	-0.00071298715
27	0x3ab51b6b	0.0013817375
28	0x3e17c585	0.14821441
29	0x3a01d895	0.0004953233
30	0xbe450f7e	-0.19244191
31	0x3e0efb0c	0.13962954
32	0xba8c66b7	-0.0010711764
33	0x39d3494c	0.00040299667
34	0x3a3f319f	0.0007293466
35	0x3883c587	6.283359e-05
36	0x39d2a06a	0.0004017384
37	0xb9915099	-0.00027716605
38	0x3b115dc8	0.0022181142
39	0x39378349	0.00017501148
40	0x3a5d0eef	0.0008432706
41	0xbabbeab0	-0.001433691
42	0xb9887bdf	-0.00026032233
43	0xba2b2c0a	-0.00065296947
44	0xbe3b7e88	-0.18309987
45	0x3ac254ac	0.001482626
46	0xb8d7f059	-0.00010296767
47	0xba6602d6	-0.00087742263
48	0x3e105b76	0.1409739
49	0xb5de4446	-1.6560159e-06
50	0xb7911c54	-1.7298538e-05
51	0x39a37e20	0.00031183753
52	0x3e07e092	0.1326926
53	0xbac55f60	-0.0015058331
54	0xba558b58	-0.0008146069
55	0x3b13d1d5	0.002255549
56	0x3a84d98a	0.0010135632
57	0x3a58b992	0.0008267398
58	0xbb836d42	-0.0040108273
59	0xba6acbea	-0.0008956777
60	0xb91a2be0	-0.00014702929
61	0xbe3e9aca	-0.18613735
62	0xbae15e38	-0.0017194217
63	0x3a262291	0.0006337548
64	0x3e0dfe48	0.13866532
65	0xbaa58302	-0.0012627544
66	0x3acde2fe	0.0015707908
67	0x39dbf32c	0.00041952112
68	0xba286c35	-0.00064248155
69	0xb938bded	-0.0001761836
70	0x3e17181a	0.14755288
71	0xb9b30020	-0.00034141634
72	0xb9928def	-0.0002795304
73	0xbaadae32	-0.0013250767
74	0xbe3efb51	-0.18650557
75	0x381d3271	3.7478694e-05
76	0x38434d65	4.6563702e-05
77	0x39c67962	0.0003785594
78	0xbb0b9194	-0.0021296488
79	0x39ff1e6d	0.0004866006
80	0xb49847c9	-2.8364437e-07
81	0x3a2196c4	0.00061641284
82	0xbaef87b2	-0.0018274693
83	0x3ab1a87c	0.001355424
84	0xba9f4d96	-0.001215386
85	0xba2eeafd	-0.0006672589
86	0xb7af9098	-2.0928957e-05
87	0x3c28797a	0.0102828685
88	0x39de1885	0.00042361408
89	0xbad92a02	-0.0016568305
90	0x3e134013	0.14379911
91	0x39e0eb92	0.00042900123
92	0x3a3961dc	0.0007071772
93	0x3a81231c	0.0009852382
94	0xbb99c89a	-0.004693103
95	0xba50c4aa	-0.00079638755
96	0x3adb3387	0.001672373
97	0xba8c307e	-0.0010695604
98	0xb758a6b1	-1.2913414e-05
99	0x39a2edd9	0.00031076258
100	0xb8ac6fca	-8.2224215e-05
101	0x3a60f945	0.0008582066
102	0x36d69226	6.394711e-06
103	0x3a895f4e	0.0010480674
104	0xbe0731d0	-0.13202596
105	0x39048b5f	0.00012640421
106	0x3ad07462	0.0015903825
107	0xb8f74440	-0.0001179059
108	0x3a0db77e	0.00054060656
109	0x3970e754	0.0002297436
110	0x3adf03bd	0.0017014664
111	0x3a88eb36	0.0010446075
112	0x3a95035b	0.0011368798
113	0x3e0ed472	0.13948229
114	0x3aef02f2	0.0018235131
115	0x39bb1131	0.00035680228
116	0x39b09a8a	0.00033684477
117	0x3aacf779	0.0013196311
118	0xb880411d	-6.115644e-05
119	0xb9fec366	-0.00048592238
120	0xb92dc7fd	-0.00016573067
121	0x3e0f1443	0.13972573
122	0x3aa47382	0.0012546631
123	0xb868c05e	-5.5492266e-05
124	0xbf9db0ff	-1.231964
125	0x3b54067e	0.0032352502
126	0x398a2972	0.0002635229
127	0x39fe73ea	0.00048533018
