pre_trained_models/2u3d/diode_pair_2u3d_1N4148_l_1.70k_2.50k_4x64_2.60e-06.pth (torch, 56459 bytes, 9 tensors)

weight f4 [64, 2]
000000 18 0c 97 3e 3f 17 63 3c 13 b0 ab bb 32 15 9c bc
       0.29501414 0.013860523 -0.0052394955 -0.019053075
000010 4a 3b 1a 3e 87 b9 98 bb 81 d4 00 bd 20 36 02 bd
       0.1506168 -0.0046607885 -0.03145266 -0.0317899
000020 b6 6c 1f 3c 87 19 0b bd e0 e9 b8 bd 5c c9 8e bd
       0.009730509 -0.03395989 -0.09028983 -0.06972
000030 59 9f 1f bc d6 3e f2 bc 8b 52 3e 3e 6c 4e 24 3d
       -0.009742581 -0.029570978 0.18586175 0.04011385
000040 f8 7b 08 3d bf 57 ac bc 50 ca 3e 3c c0 b5 90 bc
       0.03332135 -0.021037934 0.011644915 -0.01766479
000050 af 56 45 3c 20 1f e1 bc 16 40 80 3b 97 fa 05 bd
       0.012044593 -0.027480662 0.0039138896 -0.032709684
000060 bd ef 8d 3e 4b 34 b5 3b c4 6b da bd 15 2d 51 3c
       0.27721968 0.0055299154 -0.10665086 0.012767096
000070 88 6a f1 bc 9a 89 da bc f4 fc 74 3e ff 2a c7 3b
       -0.029469743 -0.026676942 0.23924619 0.0060781236
000080 45 fa 02 3d 48 82 87 bc 6a 61 0c 3d c5 ab 14 bc
       0.031976957 -0.016541615 0.03427259 -0.009074156
000090 dd 27 b8 bc 60 7b 71 bc 2d 75 54 3e f2 12 18 3d
       -0.022479946 -0.014738888 0.20747824 0.037127443
0000a0 33 87 60 3c 26 6b 0b bc 60 08 32 3e e2 61 72 3b
       0.013704109 -0.008509433 0.17386007 0.0036984612
0000b0 ef 65 60 be 50 40 89 3d 36 69 fd 3c 85 50 54 bc
       -0.21913885 0.0670172 0.030933958 -0.0129586505
0000c0 1e 59 96 3c 8b f8 bf bc dc f3 d5 3c ea 91 ca bc
       0.018353041 -0.023433944 0.026117258 -0.02472778
0000d0 63 53 39 be 5c 0a 40 3d 1c 87 61 3c a7 12 d2 bc
       -0.18098216 0.04688488 0.013765123 -0.02564366
0000e0 b2 94 d0 ba 35 4e a5 b9 07 49 6d 3e 6f ed bb 3c
       -0.0015913455 -0.0003152952 0.23172389 0.022940366
0000f0 d5 53 89 3c 27 7e 3d 3b 07 12 82 3e da a3 ca bb
       0.016763607 0.0028914304 0.2540438 -0.0061840834
000100 0a 70 f1 ba 36 0f f3 ba 2f 70 ba 3d bb 96 03 bd
       -0.0018420231 -0.0018543962 0.091034286 -0.03212617
000110 32 a8 5d 3b 52 dc e1 bc 3c 29 8a 3e 94 20 54 3b
       0.0033822176 -0.027570877 0.26984584 0.003236805
000120 f4 db a0 bc 84 49 84 bc 39 1f 9c bc 4a f1 da bc
       -0.019636132 -0.016148336 -0.019057857 -0.026726384
000130 1e b1 e5 bb 8b 8b 89 bb 96 8b 06 3e af c1 60 3d
       -0.0070096394 -0.004197543 0.13139185 0.05487221
000140 32 36 16 be 3d 76 3e b9 a2 75 5e 3e f3 f7 de 3c
       -0.14669111 -0.00018163859 0.21724561 0.02721784
000150 58 11 db bc 65 4c a6 bc 0b 4d 7f bc 7d e2 d7 bb
       -0.026741669 -0.0203001 -0.015582333 -0.006588279
000160 b7 a8 ae 3e ee f7 0e 3d 53 e5 2f 3e 9b 0f 0f 3d
       0.34113094 0.034904413 0.17177324 0.034926992
000170 88 0d fe ba 18 8a 0b bc b4 9a 1a be 8e b3 73 3d
       -0.0019382695 -0.008516811 -0.15098077 0.05949741
000180 06 15 9a 3e 07 cc da 3c bb 1f be 3b 02 ee d7 3b
       0.30094165 0.026708616 0.0058021224 0.006589652
000190 be a3 72 3e 8e af fe 3c 87 4c 1c bc 5e 70 d7 bc
       0.23695275 0.03108957 -0.00953973 -0.026298698
0001a0 05 6d 5e bd a2 c3 6c bc 87 55 57 3d 3d 6f 88 3d
       -0.054303188 -0.014450939 0.0525718 0.06661842
0001b0 81 53 5e 3c 35 7d be bc fa 04 4b be bb ee 73 3d
       0.013569714 -0.023253063 -0.19826117 0.059553843
0001c0 04 55 48 3e 8a 2d a1 3c 82 29 10 bc bc c1 e8 bc
       0.19563681 0.019675035 -0.008798959 -0.028412692
0001d0 57 3e 09 3d 43 1c 86 bc d7 b0 c8 bc 29 f1 95 bc
       0.033506718 -0.016370898 -0.024498386 -0.01830347
0001e0 c1 e6 2f b7 f0 0a 46 3c 5a 5e 6f 3c e0 4a 8f bc
       -1.0484539e-05 0.012087569 0.0146098975 -0.017491758
0001f0 af fb a3 bc 7f fd 0c bd 88 7a 82 3c 92 c3 53 bc
       -0.020017473 -0.03442144 0.015927568 -0.012925046

bias f4 [64]
000000 50 0f 03 3d 99 5f ca 3c 89 64 2a 3e 73 5f c1 bc
       0.031997025 0.024703788 0.16639914 -0.023605084
000010 c9 3e 29 bc 84 f6 63 3e e0 f1 4e bc bd c1 3f 3d
       -0.010329911 0.22262007 -0.01263091 0.046815623
000020 e7 09 0c bd fd dd 9e 3c a3 57 41 bc 6e 0e 0d bd
       -0.03418913 0.019392962 -0.011800679 -0.03443759
000030 35 a6 5d bc c6 ad 66 3d af bf 8b 3b 47 15 4c bb
       -0.013528396 0.056318067 0.004264794 -0.0031140612
000040 3b 0f 0c bd 8f f1 07 bd 0f 33 1a 3c 66 17 8d 3d
       -0.034194212 -0.033189353 0.009411587 0.068892285
000050 4b 50 01 bd 38 64 fc 3d 12 67 e3 3a 80 9f cc bc
       -0.031570714 0.12323803 0.0017349443 -0.0249784
000060 7b 98 82 3c 68 ce e7 3b f6 52 ed 3c 9f 26 89 bc
       0.015941849 0.007074166 0.028970223 -0.016742049
000070 e2 0f b6 bb 4c 2a f2 3d 26 f3 e9 bc 12 1e b1 bb
       -0.0055560926 0.11824474 -0.028558325 -0.005405196
000080 3f b4 7e 3b aa e5 4d 3e 29 24 08 bd db a4 43 bc
       0.003886476 0.20107141 -0.03323761 -0.01194116
000090 10 8e ed 3c d3 64 53 bc b5 71 af 3b 52 4b 3c bd
       0.028998405 -0.012902456 0.005354131 -0.04597027
0000a0 eb 9b 00 3e 06 41 b4 3d d3 bf 47 3c 2b 62 b8 3b
       0.12559478 0.08801465 0.012191731 0.005626937
0000b0 85 d7 3d 3d 80 d1 45 3d f8 e9 f2 bc 6c 3d 2a bd
       0.046348114 0.048295498 -0.02965258 -0.041562483
0000c0 31 4d 9d 3d c9 c0 42 bd cd de d0 3d 9f fb 1c bc
       0.07680739 -0.047547136 0.10198746 -0.0095814755
0000d0 9b f2 33 bc a6 5e 26 be 5d 0c 15 3b ce d5 ad 3b
       -0.010983135 -0.16247043 0.0022742965 0.0053050285
0000e0 25 50 df 3d 56 5b 30 bc 9f 88 28 3b 31 c4 9a bc
       0.10903958 -0.010763964 0.0025716198 -0.01889238
0000f0 58 a2 2c bd 60 28 d0 3c f2 b4 12 bc 5f 07 99 bb
       -0.04214701 0.025409877 -0.008954274 -0.004670068

weight f4 [64, 64]
000000 41 de 16 bb b2 93 9d b8 3c 28 71 bb 40 fb 1c 3b
       -0.0023020657 -7.513854e-05 -0.0036797663 0.0023953468
000010 25 a2 ca b9 5e f2 68 bb f9 88 be ba 26 6d e9 3a
       -0.0003864925 -0.0035544853 -0.0014536671 0.0017809018
000020 92 9a b7 3b db 73 c6 bb 32 b8 b6 3b 8c c6 e6 39
       0.005603143 -0.0060562915 0.005576157 0.00044016948
000030 59 66 43 ba 57 90 18 bb f5 8e a4 3b 50 9b a4 ba
       -0.00074539107 -0.0023279393 0.0050219246 -0.0012558494
000040 26 b6 7c 3b 6e 3e 65 bb 05 ad 03 bb 47 aa 8a b9
       0.0038560717 -0.0034979838 -0.0020092141 -0.00026448278
000050 98 e7 67 3b 68 70 42 bb 8c c7 e0 ba 73 95 07 bb
       0.0035385843 -0.002966905 -0.0017149313 -0.0020688444
000060 fd f2 34 ba 21 e0 80 3b 14 61 96 bb 54 94 94 ba
       -0.0006902663 0.0039329682 -0.0045892093 -0.0011335709
000070 ed fc b4 3b d0 47 b6 bb e2 3c 84 3b e3 3e df 3a
       0.005523315 -0.00556276 0.004035578 0.0017032292
000080 2d 48 31 bb f4 74 b9 bb 2a b0 51 3b 13 23 d2 3a
       -0.0027051077 -0.005659694 0.003199587 0.0016032181
000090 82 e7 3d bb e4 33 b2 3b 48 ec 7c ba 93 28 93 bb
       -0.00289771 0.0054383148 -0.0009648246 -0.004490921
0000a0 e8 15 c3 ba 34 e9 77 bb 13 89 8b ba f5 10 a2 bb
       -0.0014883848 -0.003782821 -0.001064571 -0.004945869
0000b0 84 37 8a bb 58 f7 85 bb f0 1e 1c bb 0c da 4e 3b
       -0.0042180438 -0.0040883236 -0.002382215 0.0031563072
0000c0 22 85 88 bb 07 6d 08 ba 82 d2 b1 3b 8e ea 2f ba
       -0.0041662613 -0.00052042346 0.005426706 -0.00067106716
0000d0 7d 0d 92 bb 2a d0 17 ba 84 44 a6 bb 7f 8f 1e bb
       -0.0044571743 -0.0005791212 -0.0050740857 -0.0024194417
0000e0 6e f7 97 ba 6c b5 8b b9 a1 b3 9b 3b ba 6a a1 bb
       -0.0011594126 -0.00026647316 0.004751638 -0.004926053
0000f0 7d 8b a0 ba ec ae 8d bb 9b 9d af bb de d5 c1 3a
       -0.0012248602 -0.004323831 -0.005359364 0.0014788469
000100 c5 dd ae 3b d2 41 b5 3b 73 92 16 b9 80 46 6f 3b
       0.0053364956 0.005531528 -0.00014359671 0.0036510527
000110 c0 ae 91 3b b7 ad d8 3a e3 e6 bb 3a c4 51 9a bb
       0.0044458807 0.0016531263 0.0014335777 -0.0047094543
000120 6c c2 37 bb 94 2c 6c bb e4 a3 b2 3b d7 f6 46 bb
       -0.0028039468 -0.0036037313 0.005451666 -0.003035953
000130 b0 96 98 bb 8c 00 c5 bb 13 c9 b5 3b 9e 2c 5f bb
       -0.004656635 -0.006012028 0.0055476516 -0.0034053694
000140 ae 8b c3 3b 09 bf d2 3a 69 38 97 3b aa 68 2b 3b
       0.005967579 0.0016078661 0.004614879 0.0026154914
000150 f9 dd c3 ba 9a dd 56 bb 59 a5 a1 b9 f2 54 8b 3b
       -0.0014943472 -0.0032785893 -0.00030831507 0.0042520696
000160 ab d6 3b bb b7 29 8f bb 2f 5b 5a 3b c7 a2 0f 3b
       -0.0028661888 -0.0043689865 0.003331851 0.0021917091
000170 43 89 3c 3b 6d fb d7 ba 5f 7b 14 3b dc a0 fe ba
       0.0028768338 -0.0016478129 0.0022656543 -0.0019426602
000180 0c 91 0b 3b 9e ca 8e 3a 29 93 8f b9 ea 20 99 bb
       0.0021296171 0.0010894125 -0.00027384728 -0.004673113
000190 a5 23 9d 3b f7 f6 84 3b 65 91 35 bb dc 33 a6 3b
       0.004795509 0.004057761 -0.002770507 0.0050721
0001a0 5e 88 f1 3a fb 6c aa bb 02 c6 73 ba b9 de 2d 3b
       0.0018427481 -0.0052009798 -0.000929922 0.0026530458
0001b0 84 5b 38 bb 3f 82 fe 3a 28 1d 92 bb 19 af aa bb
       -0.002813072 0.0019417478 -0.004459042 -0.0052088615
0001c0 6a 04 a0 bb 8e 94 ae 3b 48 1a eb 3a 16 ba 69 3b
       -0.0048833387 0.0053277677 0.001793691 0.0035663894
0001d0 01 46 89 3a 52 0e f4 ba e9 a4 4b bb 2f 98 93 3b
       0.0010473133 -0.001861999 -0.0031073636 0.0045042257
0001e0 d8 c6 75 bb 1c b4 2c bb 94 2b 3b bb 5d 3e 1d bb
       -0.0037502553 -0.002635247 -0.002855991 -0.002399347
0001f0 e3 94 d5 3a c6 87 0c bb 3e 96 f5 3a 76 42 a8 bb
       0.0016294982 -0.0021443232 0.0018736792 -0.005134876
000200 df 02 e0 bc 1d 8c bf ba 25 4b c5 bd f7 db 91 3b
       -0.027345119 -0.00146139 -0.09633473 0.0044512707
000210 12 f3 a2 ba f7 89 91 3e 79 44 c2 3a 83 4c 14 be
       -0.001243206 0.2842557 0.0014821432 -0.14482312
000220 47 7f b4 bb a5 c7 a7 3b 9c 4b 45 bb f8 84 89 b8
       -0.0055083367 0.005120235 -0.003010488 -6.5574364e-05
000230 ba 67 a0 3c f7 ff e7 3c 21 db 19 bb cc 85 6f 3b
       0.01958071 0.028320296 -0.0023476558 0.0036548255
000240 5f 03 bd bb ff 3e 97 3b 6d 4e 3e 3b 1d 3a 33 be
       -0.005768224 0.004615664 0.0029038445 -0.17502637
000250 8c 87 e1 b9 95 fb 0b be a7 08 1d 3d 46 e5 a0 ba
       -0.00043016335 -0.1367019 0.03833833 -0.001227536
000260 73 bf 3f 3b bd 02 8f 3b 94 6b 17 3d 2b 95 04 3b
       0.00292584 0.00436434 0.03696783 0.0020230513
000270 5f 2d 81 ba b9 dd 72 be 20 16 74 3b 3e f3 35 3c
       -0.0009855441 -0.23717393 0.0037244633 0.011105357
000280 74 15 bb bb 02 ec eb bc 27 59 c0 3b bc 91 2c bd
       -0.0057093445 -0.02879906 0.005870003 -0.04213117
000290 2f c4 c0 3b c4 5b 6e bb 04 c4 e3 b8 9e 50 11 be
       0.005882762 -0.0036370615 -0.00010860714 -0.1419091
0002a0 a2 d8 4e 3d e2 ac 6a be 29 d4 c5 bb 90 4f 34 3b
       0.050499566 -0.22917512 -0.0060372544 0.0027513243
0002b0 5c 62 03 be cc 1c 02 be 2c 1a 9f bb 89 a2 19 3c
       -0.1283049 -0.12706298 -0.004855415 0.00937713
0002c0 8f 65 e5 be cb b6 2d 39 69 78 5e be 4b 60 38 3b
       -0.44804046 0.00016566661 -0.2172562 0.0028133567
0002d0 50 2b 94 3c 24 84 58 be 31 9a 0c bb ff e6 16 3d
       0.01808706 -0.21144158 -0.002145421 0.03684139
0002e0 4e 93 52 be 14 94 88 3b c8 37 9d ba 5d fd c0 bb
       -0.20564005 0.004168043 -0.0011994774 -0.0058895783
0002f0 65 b5 8b bb b6 ea a8 3b 96 c1 88 3b c8 14 93 3b
       -0.0042635673 0.005154933 0.004173468 0.0044885613
000300 a6 da 28 bb e2 e6 88 bb d8 32 da 3b 81 9c 5f 3b
       -0.002576509 -0.004177914 0.006658893 0.0034120383
000310 80 e5 38 3b f0 8f 86 3d 2f 83 2a 3a e3 2a 89 bb
       0.0028212965 0.06570423 0.0006504533 -0.0041860207
000320 58 e3 c1 3b c4 12 bb 3b fa d0 e7 3a 30 2f 88 ba
       0.005916994 0.005709024 0.0017686181 -0.001039004
000330 31 36 c5 bb 0e 6f 37 bb 1c 9f 7f 3b 60 b7 0e bc
       -0.006018423 -0.0027989778 0.0039004749 -0.008710712
000340 f9 fd d7 3a b5 01 c1 ba 60 a0 5c bb ae d9 14 bd
       0.0016478888 -0.001472524 -0.0033664927 -0.036340408
000350 0b fa c0 bb 47 57 c6 3c 5c 06 1d bc ec 4a ae bb
       -0.0058891824 0.024211539 -0.009584036 -0.00531899
000360 16 0f 98 bb a4 5c 93 3b 16 2d a7 bb 9b 3d 1a 3b
       -0.0046404703 0.0044971276 -0.00510181 0.0023535255
000370 d5 1b 4f 3b 5c a0 7b bd b0 c2 e6 bc a4 0d 21 bc
       0.0031602283 -0.061432227 -0.028169006 -0.009829912
000380 5c 45 12 bb 82 86 71 3d f1 68 0d bb 3e 92 c6 bc
       -0.0022319173 0.058966167 -0.0021577443 -0.024239656
000390 84 40 b3 bb fd 95 b2 bb 40 71 fb 3a 42 17 e8 bc
       -0.0054703373 -0.005450009 0.0019183531 -0.028331403
0003a0 a4 66 a2 ba 36 ca 38 ba 1a 81 8a 3b 86 13 25 bc
       -0.0012390208 -0.0007049175 0.004226816 -0.0100754555
0003b0 db 67 09 3d 75 a2 ca bb e0 8a 75 bb e6 1b f9 bb
       0.03354631 -0.006183917 -0.003746681 -0.0076022027
0003c0 8f f6 10 3c c5 b6 2e bd 75 ea 2f bd 7c a2 fd 3a
       0.008847847 -0.04265477 -0.042948205 0.0019350792
0003d0 ad 23 bf bb 5e b5 ea bc 12 54 ed 35 5d ef 04 bc
       -0.0058331103 -0.028650936 1.7682344e-06 -0.008113709
0003e0 98 44 b4 3c 4b be b8 3b d9 1d bb 39 c5 0b d0 ba
       0.022005364 0.005637919 0.00035689658 -0.0015872648
0003f0 99 09 03 bd c5 d3 87 ba d8 fe 69 3b 35 b6 7e bb
       -0.031991575 -0.0010362795 0.0035704877 -0.0038865928

bias f4 [64]
000000 15 4e 9d bb 7c e0 9f bb 9f 30 6d 3d 51 50 9c 3b
       -0.004800568 -0.0048790555 0.057907697 0.0047703166
000010 f5 d0 dd 3a 85 66 3f 3e ae f6 4b 3b 89 1e a6 bb
       0.0016923236 0.18691452 0.0031122374 -0.005069558
000020 f4 a5 47 3a 0c 1c 63 3d 5d ad 45 3b d9 d0 3f 3e
       0.00076159765 0.05544667 0.0030163147 0.18732013
000030 18 20 a8 ba d8 e4 30 b6 ac 4a 0b bb b5 0e 55 3d
       -0.0012826947 -2.6359248e-06 -0.0021254225 0.05201598
000040 e0 6a 49 ba 99 7b 9d 3a 89 5f 97 3d 3b 69 b7 bb
       -0.0007683467 0.0012014984 0.07391269 -0.0055972612
000050 fa a8 59 bb f3 05 b5 bb 64 f2 b3 bb 3f c1 63 3d
       -0.003321229 -0.005524391 -0.0054915417 0.055604216
000060 c4 70 66 3d 9c d5 ed 3a 96 60 86 ba cb e4 91 3c
       0.056259885 0.0018145326 -0.0010252174 0.017809292
000070 47 90 06 bb 52 7c 33 3b 09 c6 a7 ba 40 7c fe b9
       -0.0020532773 0.0027387333 -0.0012800108 -0.0004853923
000080 f4 09 c5 ba 32 1b 2f 39 bd 71 bb bb 25 42 9f ba
       -0.0015032873 0.00016699432 -0.005720346 -0.001215045
000090 70 26 ff bb 4d 10 9d ba 6b 55 da bb a1 66 24 bb
       -0.0077865645 -0.0011983007 -0.0066630146 -0.0025085586
0000a0 00 de 0a bb 13 bf 3f 3a b4 c2 8c bb 40 f7 d9 bb
       -0.0021189451 0.0007314544 -0.0042956714 -0.006651789
0000b0 7e e4 93 bb 5d da b9 3c ab 8c 34 bc 0d e3 fe bb
       -0.0045133224 0.022687132 -0.011019866 -0.0077785314
0000c0 13 7f ce 3d 3b 1f b9 3d 33 82 15 bc 4a 11 3d 3d
       0.10082831 0.0903916 -0.00912528 0.046159066
0000d0 80 2e 02 3c 50 dd 76 bb ec 10 b3 3a 82 51 85 3d
       0.007945657 -0.0037668534 0.0013661659 0.06509687
0000e0 93 1b 88 bb 39 28 10 bb 4e ad e4 bb d3 61 65 3d
       -0.0041536777 -0.002199663 -0.0069786673 0.056001496
0000f0 71 85 98 bb 65 0e 99 39 c5 3e a7 3c ea 83 be bb
       -0.0046545793 0.0002919316 0.020415673 -0.005814065

weight f4 [64, 64]
000000 68 b9 a8 3b 94 c4 70 b8 1d 6d 04 bb fb 57 b0 ba
       0.0051490553 -5.7403537e-05 -0.0020206638 -0.0013453955
000010 82 1e 34 3b 18 75 d5 bb cc d0 4b bb 44 b9 6c 3b
       0.0027484004 -0.006514203 -0.0031099794 0.003612117
000020 fc 16 a8 ba 8d 2a 2a bc 0f 58 41 39 b4 f8 63 3b
       -0.0012824233 -0.010386121 0.00018438719 0.003478569
000030 0c 3c b9 bb 78 58 17 3b 74 ed 56 bb 70 fc ab bb
       -0.00565291 0.0023093503 -0.0032795342 -0.0052485988
000040 ac 63 d4 ba 57 a5 49 3b 48 b4 14 3b fc 64 bf bb
       -0.0016204021 0.0030768716 0.0022690464 -0.0058408957
000050 85 d2 11 3b 90 94 6c bb 49 7d 4d 3b 5c 67 9c b9
       0.0022250724 -0.0036099292 0.0031355193 -0.00029831647
000060 39 fd 11 bb 2a a7 b7 3b d0 06 9c bb a0 9a f9 bb
       -0.0022276177 0.0056046443 -0.0047615543 -0.0076173097
000070 0f b4 a6 3b cb 5c 93 bb ce 0d ff b9 ca d4 72 3b
       0.0050873826 -0.004497146 -0.00048647675 0.0037053102
000080 71 e0 bd 3b a0 a1 94 bb 83 f9 8b bb 51 8c b7 ba
       0.0057945778 -0.0045358688 -0.0042716875 -0.001400361
000090 8b 5b 87 bb dd 25 06 3a 45 4d 8c 3b 33 f0 cb 3a
       -0.004130786 0.00051173364 0.004281672 0.0015559256
0000a0 42 9d 7e bb e5 60 0a bb 9d 1c a1 bb 12 5a 78 3a
       -0.0038851057 -0.0021114883 -0.004916741 0.0009473871
0000b0 75 30 53 bb 3b ba 1a bc 12 a1 37 3b 0d 39 b9 bb
       -0.0032224928 -0.009443815 0.002801959 -0.005652553
0000c0 e8 a6 96 3a 8a 0b 11 bb 12 92 89 bb 27 43 87 39
       0.0011493834 -0.0022132122 -0.004198321 0.0002579924
0000d0 63 d6 52 bb 8b 8e 0c bb ac b3 ea 3a d3 d8 51 3b
       -0.0032171241 -0.0021447267 0.001790633 0.0032020106
0000e0 b6 bd 00 3b 9d 8d bc 3b cf 93 89 3a e3 e8 5c 3a
       0.0019644327 0.0057541863 0.0010496321 0.0008427037
0000f0 41 a0 93 3a a5 53 be bb a0 9f 0a bb 93 b1 9e bb
       0.0011262969 -0.005808311 -0.0021152273 -0.004842946
000100 d8 3d 39 3b 77 3b 12 bb 72 6d f5 3d 75 4d 48 3c
       0.0028265622 -0.0022313276 0.11983766 0.012225498
000110 c4 be b8 3b 74 ec 3f 3e 76 1a 04 ba 41 28 9e 3b
       0.0056379754 0.18742543 -0.00050393434 0.004826576
000120 78 aa 31 bb 7d c3 0b be b9 49 be bb 77 2d 51 3e
       -0.0027109664 -0.13648792 -0.0058071283 0.204275
000130 2a 66 93 3a 74 66 77 b9 d2 4f 33 3c dd 4d 11 be
       0.0011245657 -0.00023593922 0.010944324 -0.14189859
000140 9f 14 3a 3b 64 15 22 3b d8 84 0e 3e 74 0c c4 3b
       0.0028393639 0.0024731988 0.13917863 0.00598293
000150 b4 7d 7b 3b 8c 12 fe 3b 65 f7 7f 3b c4 a7 19 be
       0.0038374485 0.007753676 0.003905737 -0.15005404
000160 dd 81 d0 3d b2 1f 80 3a 89 39 83 b9 e3 f5 ba bd
       0.101810195 0.0009775071 -0.00025029134 -0.091289304
000170 17 ff 8e 3b dc c2 84 3b 3c 15 70 3b 3a 1c c0 b9
       0.004363905 0.0040515494 0.003663375 -0.00036642124
000180 ed 02 2d bb ab ec 91 3c 83 e5 5b bb 2c 25 59 3b
       -0.002639945 0.017813047 -0.0033553548 0.0033133728
000190 e1 49 84 bb 0d e0 8e 3b f4 26 3c 3b 9c ed 94 3c
       -0.0040371274 0.004360205 0.0028709741 0.018179707
0001a0 d0 e8 85 3a a1 dc bc 3b 41 4f 01 3a 6c 99 70 3b
       0.0010216478 0.0057636057 0.0004932769 0.003671254
0001b0 45 3b 84 3a 45 a7 87 be 30 0c 4c bc 22 fa e4 3a
       0.0010088464 -0.26494804 -0.012454078 0.0017469565
0001c0 5e 4c 2f 3e ee 20 bb 3d 30 a2 0e 3b dc eb 21 be
       0.17118976 0.0913714 0.0021764152 -0.1581263
0001d0 ba 28 13 3c 4a 5d 02 3c f2 0b 12 bb 7d a0 d0 3e
       0.008981878 0.007956812 -0.0022284952 0.40747443
0001e0 02 8d 84 3a 9a 85 8c ba e2 9e 61 bb d7 0c 29 be
       0.0010112824 -0.0010720969 -0.0034426977 -0.16508804
0001f0 00 a0 79 bb 7d f4 bc 3b d3 06 4d bd 49 f2 a7 bb
       -0.0038089752 0.00576645 -0.050055336 -0.005125318
000200 07 40 32 bb c4 80 93 bb 2c b0 15 3a 18 ed c2 bb
       -0.0027198808 -0.004501434 0.00057101506 -0.005948674
000210 ac 4f d5 bb 72 5f b3 3b c4 a7 33 bb d9 be 15 bb
       -0.006509742 0.0054740245 -0.0027413229 -0.002284935
000220 d2 48 ff 3a ee 34 23 bb a5 6d 81 bb 07 cc 9a bb
       0.0019476658 -0.0024903375 -0.003949838 -0.004724029
000230 58 fa 7e 3b 4a ee 8b ba 8e 7b 25 3b ee bc 42 3b
       0.003890654 -0.0010675874 0.0025250646 0.0029714662
000240 f5 62 30 bb 42 47 6a bb 2f 84 3e bb e6 30 be 3b
       -0.0026914452 -0.003574804 -0.0029070487 0.005804169
000250 e6 af 9d bb bc b8 e8 3a fa be 0c bb 57 f5 2b bb
       -0.0048122285 0.001775525 -0.0021476136 -0.0026238763
000260 82 8f 0f bc 47 b7 bc 3b 2f 90 07 bb ff 9b a1 bb
       -0.008762242 0.005759153 -0.0020685305 -0.0049319263
000270 01 a7 3e ba 4c 10 b8 b9 2c ba 8d bb 69 2d 8e 3b
       -0.00072728103 -0.00035107357 -0.004325172 0.0043389094
000280 3e 77 b9 3b 8f 77 5e 39 62 c7 88 3a 8c ff be bb
       0.0056599667 0.00021216109 0.0010435397 -0.0058288034
000290 2e d3 c7 3a 49 2f 89 bb fc 93 1b 3b 77 4c 28 3b
       0.0015245432 -0.004186545 0.0023739329 0.0025680342
0002a0 ed f7 82 bb 14 99 df 3a 4f 18 b4 39 80 80 c7 ba
       -0.00399684 0.0017059171 0.00034350387 -0.0015220791
0002b0 a3 39 b0 bb eb a2 d9 b8 6a 47 f3 3a ae a3 36 bb
       -0.0053779646 -0.00010377712 0.0018560712 -0.0027868557
0002c0 75 74 9d bb ad b4 93 bb 91 05 06 3a bb 0b 0a bb
       -0.0048051425 -0.004507622 0.0005112524 -0.002106412
0002d0 c0 32 c3 bb 8a a8 da bb 75 37 7f 3a ee e0 d9 ba
       -0.0059569776 -0.0066729235 0.0009735742 -0.001662282
0002e0 b2 67 21 bb ae 77 67 bb ce c0 ac bb 88 2e 2c bc
       -0.0024628458 -0.0035319137 -0.0052720075 -0.010509141
0002f0 7d 57 ab bb ad bd 8f 39 16 fe 09 3b 50 8b 08 bb
       -0.0052289353 0.00027416405 0.0021055988 -0.002083499
000300 fd b7 94 ba 13 c9 b8 3b a2 ed ed 3a b2 af 77 bb
       -0.0011346337 0.0056392043 0.0018152485 -0.0037793932
000310 7a 65 51 ba d0 0b f8 bb 3f 95 2d 3b 8b 99 8a 3a
       -0.00079878385 -0.0075697675 0.0026486663 0.0010574324
000320 a5 82 cb bb b0 98 fb 39 c8 cf d4 ba d4 3f 7f bb
       -0.0062106424 0.00047988212 -0.001623624 -0.0038947957
000330 fc 1a 6d 3a aa 75 bb 3b 0a 87 ae bb 80 e5 1b 3b
       0.00090448535 0.0057208138 -0.0053261565 0.0023787916
000340 50 23 64 bb f7 bf 04 3b c8 b2 e8 b7 35 8c cf bb
       -0.0034811087 0.0020256022 -2.7739807e-05 -0.0063338527
000350 c8 ae 0c 3b 3b 85 d9 ba 15 c2 93 b9 1a c9 4f 3a
       0.0021466482 -0.0016595492 -0.00028182627 0.000792639
000360 ba 63 e8 3a 8d 60 28 3a dc ad 8b bb 7d 87 ba b9
       0.0017729916 0.00064230786 -0.004262669 -0.0003557763
000370 7a 6d a5 3a 53 db 80 bb 0a e6 25 bb 2e 37 25 bb
       0.0012621128 -0.0039323955 -0.0025314116 -0.0025209892
000380 cb d5 b0 bb 29 60 81 b8 f5 77 c1 bb 2b 97 91 3a
       -0.00539658 -6.1691106e-05 -0.0059041926 0.0011107674
000390 a6 64 ff 3a 8a 94 86 ba a7 51 36 bb af 7b be ba
       0.0019484952 -0.0010267657 -0.0027819665 -0.001453271
0003a0 10 4f fc 3a 76 b0 85 ba 61 47 ab bb a5 ed 26 3b
       0.0019249637 -0.0010199684 -0.005227015 0.0025471237
0003b0 f4 b6 0c 3b 1e b1 bb bb b9 04 ab bb 05 28 81 3b
       0.0021471353 -0.005727901 -0.005219069 0.0039415383
0003c0 df 87 83 ba 3a a6 ab 3a 18 95 7e ba 9d d0 2d bb
       -0.0010035 0.0013095804 -0.0009711548 -0.0026522048
0003d0 7e b4 33 3a 2a 86 dd ba c6 a3 e7 b9 32 d5 0e 3b
       0.00068552035 -0.0016900946 -0.00044181774 0.0021794555
0003e0 b1 af b0 3b 61 ee d4 3a df 2c ba 3a b4 6c fc b7
       0.005392038 0.0016245359 0.0014204046 -3.009136e-05
0003f0 52 aa 95 bb d0 49 dc bb 6a ff 5b 3b 3e fb 71 bb
       -0.004567423 -0.0067226663 0.0033568987 -0.0036923434

bias f4 [64]
000000 43 6d dc bb 4e e7 b7 3d ff b1 00 b9 8a f0 84 bb
       -0.006726892 0.08979665 -0.0001227334 -0.004056995
000010 f0 35 0e 37 75 13 be 3d c7 ba 11 ba 67 78 b4 3a
       8.476418e-06 0.09281055 -0.0005559143 0.0013768793
000020 82 fe cb 3a 63 21 42 3a e3 54 cd ba 44 b5 72 bb
       0.001556352 0.00074054877 -0.0015665557 -0.0037034312
000030 3e 45 2a bc 8e 9f 82 bd 7d 81 ba 3d e3 97 c0 3d
       -0.010392485 -0.06378089 0.09106729 0.0940397
000040 e8 69 9c bb af 5b 58 bb 0b e7 d7 3a 1a b9 cd ba
       -0.004773367 -0.0033013632 0.0016472054 -0.0015695423
000050 01 59 38 ba b2 f8 c2 3d 87 3e d3 bb 14 eb a2 bb
       -0.00070323056 0.09520091 -0.006446663 -0.004971871
000060 ed cd 84 bb 2e 04 df bb fe 41 56 bb ff 48 0f bd
       -0.0040528686 -0.006805918 -0.0032693143 -0.034981724
000070 1c 34 b1 bb 10 1c f1 bb ff 38 de 3a b7 76 06 ba
       -0.0054078232 -0.0073580816 0.0016954242 -0.0005129384
000080 da 66 27 bb fd 09 3c bc 6f 13 cb bc 0c 68 87 bc
       -0.0025543482 -0.011476991 -0.02478954 -0.016529106
000090 6c ea b7 bb ac 80 9d bb 52 4b a6 bb 3a 1d 8d bb
       -0.005612662 -0.0048065986 -0.005074897 -0.0043064626
0000a0 cf 59 58 bb 88 dc f5 bb 2e 61 bc ba c5 64 9e ba
       -0.0033012514 -0.007503096 -0.0014372224 -0.0012084475
0000b0 86 b1 d0 bc 95 4b c7 bb 20 d9 74 bd 18 01 f2 3a
       -0.025475275 -0.006082008 -0.05977738 0.0018463461
0000c0 bb 2d ab bc 9d 1c 3e bb 2c fd ca 39 57 db 9b bb
       -0.02089583 -0.0029008754 0.0003871707 -0.004756372
0000d0 c6 63 19 bc 12 89 d9 bb 50 ea de bb e6 39 ba bb
       -0.009362167 -0.0066386545 -0.0068028346 -0.0056831716
0000e0 9a 56 31 bb ec 63 e1 bb 1d bf 08 bc 5a bf 99 3d
       -0.0027059675 -0.0068783667 -0.008346346 0.075072005
0000f0 a0 1a bd 3d 6c f1 ae ba ac f1 f5 bb 87 56 01 b8
       0.09233594 -0.0013347096 -0.007505616 -3.083658e-05

weight f4 [64, 64]
000000 70 da b4 bb 7c 19 b1 bb 27 cf 23 3a 88 30 f3 3a
       -0.005519204 -0.0054046493 0.00062488246 0.0018553892
000010 06 db af 3a b9 d9 df b9 ce fc 73 bb cb 92 90 ba
       0.0013416715 -0.0004269609 -0.003722954 -0.0011030076
000020 7e 63 6b bb 7f 1a 35 3a c2 7a 75 3b ca 97 ae 3b
       -0.0035917456 0.000690855 0.0037457203 0.0053281533
000030 bc 81 f1 3a 7a 66 42 3a e8 57 0d 3b e1 ff af 3b
       0.0018425505 0.0007415783 0.0021567289 0.0053710793
000040 c0 27 af 3b 5a 65 4a 3b 98 39 7e bb 32 ea b7 bb
       0.0053453147 0.0030883164 -0.0038791653 -0.005612635
000050 0d f7 39 ba 55 fc 2f bb 7c c0 b3 3b 27 79 4c bb
       -0.00070940034 -0.0026853282 0.0054855924 -0.0031200142
000060 f2 e5 15 3a ed d3 fe 38 97 b4 b4 3b b7 a1 9c 3a
       0.00057181634 0.00012151138 0.005514692 0.001195005
000070 93 5a 82 3b 15 f7 00 bb 78 7b 11 ba 66 a1 bc 3b
       0.0039780824 -0.0019678522 -0.00055497093 0.005756545
000080 e5 68 09 3b d2 3b 6f ba 2f 9e 88 3a 79 b9 bf bb
       0.0020967063 -0.00091260404 0.0010423119 -0.0058509675
000090 ae 68 81 bb 62 75 ea 3a d5 3d bf bb 75 68 a2 bb
       -0.0039492464 0.0017887766 -0.0058362284 -0.0049563
0000a0 b8 3c 17 ba 36 b7 69 ba a6 a3 71 3b 74 af 1e 39
       -0.00057692407 -0.0008915545 0.0036871224 0.00015133416
0000b0 d5 f6 b0 ba 73 3c 5e 3a 2e 05 d2 ba 5b 1a ba 39
       -0.0013501296 0.00084776356 -0.0016023272 0.0003549632
0000c0 9e 92 f5 3a b9 e8 bb bb 64 66 de ba 39 49 01 bb
       0.0018735712 -0.00573453 -0.0016967771 -0.0019727482
0000d0 95 59 53 3a a2 5c 76 39 d8 fc c0 bb 8e 16 a2 bb
       0.000806236 0.00023494897 -0.0058895163 -0.0049465364
0000e0 43 d8 4b 3a df ef 39 3b 50 01 10 3b 4e 2c cb ba
       0.0007776061 0.0028371734 0.0021973439 -0.0015500875
0000f0 b4 02 6b b9 30 8a 51 bb 1b 87 10 b8 8d c0 8d bb
       -0.00022412353 -0.0031973235 -3.4458102e-05 -0.0043259324
000100 39 7a 9e ba 13 3c 0a ba b6 39 82 bb 0f 52 bf 3b
       -0.0012090869 -0.0005273234 -0.003974165 0.0058386396
000110 c1 d8 c1 3b 10 29 b5 bb 55 c3 25 bb a3 76 bc ba
       0.0059157317 -0.0055285767 -0.002529343 -0.0014378618
000120 96 1a da ba 1c e2 c6 3a 26 85 88 bb 6d 9e 8e bb
       -0.0016640003 0.0015173587 -0.004166263 -0.004352382
000130 ad 94 bb 3b c5 bc 19 3b 09 3d 84 3a ec 9a 5b bb
       0.0057245106 0.0023458463 0.0010088991 -0.0033509089
000140 dd 5a 37 bb 68 69 1f bb e2 1e ee 3a 1d b3 b7 3b
       -0.0027977743 -0.0024324302 0.0018167163 0.0056060688
000150 59 c1 a0 3b 42 0b 35 3b e4 35 ae 3a 94 e9 66 bb
       0.0049058613 0.0027625118 0.0013291207 -0.0035234438
000160 f6 33 ec ba cc 94 01 ba ee 6e c2 39 b2 b3 a9 3b
       -0.0018020857 -0.0004943132 0.00037085213 0.005178892
000170 a3 83 9e bb aa 65 ab ba 85 45 32 bb 92 3e 86 3b
       -0.0048374697 -0.0013076563 -0.0027202081 0.0040968144
000180 79 bf b8 ba 35 68 ac ba 2d 6a a9 bb 60 ff 7a bb
       -0.0014095149 -0.0013153615 -0.005170128 -0.0038299188
000190 29 f3 4f bb bb 01 2c 3b 18 96 ee ba a0 86 08 3a
       -0.0031730628 0.0026246149 -0.001820269 0.0005208049
0001a0 dc d1 0d bb 5c 01 b3 bb b5 9a 47 bb a2 fb 60 3b
       -0.0021639979 -0.0054628085 -0.0030457203 0.0034329672
0001b0 ac ad 46 3a da e1 28 ba f5 16 99 bb 5f 73 8e b6
       0.000757898 -0.0006442346 -0.004671926 -4.2453607e-06
0001c0 63 47 15 bb 72 dc ac bb 45 4d 47 bb 72 df 66 3a
       -0.0022778146 -0.0052753026 -0.0030411046 0.00088070997
0001d0 3c aa b2 bb c4 02 e4 3a 3a bf a6 bb 72 ce 10 bb
       -0.0054524224 0.0017395844 -0.005088714 -0.0022095707
0001e0 ca f9 0e 3b cb 97 a8 bb c8 46 ac bb 1f 88 81 bb
       0.0021816366 -0.0051450483 -0.005257461 -0.0039529945
0001f0 57 43 83 3b 49 1d 2e bb 9c 2f a1 38 60 b3 3b 3b
       0.0040058303 -0.0026567748 7.685946e-05 0.0028640851
000200 d4 0b 23 3b 96 c3 0e 39 fa b7 75 bb dd ca 07 bb
       0.0024878876 0.00013615037 -0.0037493692 -0.0020720281
000210 83 46 87 39 df 8a 80 ba 64 54 88 3b cb 6b bb ba
       0.00025801742 -0.0009807012 0.004160451 -0.0014299093
000220 76 5f ff 3a 1c bf 63 bb 4e f8 89 ba 4c 24 b5 bb
       0.0019483406 -0.0034751361 -0.0010526271 -0.0055280086
000230 55 2a 33 3b 92 a8 6b 3a 92 c4 fa 3a 32 e5 88 b9
       0.0027338464 0.00089896575 0.0019132069 -0.00026110705
000240 72 3e 33 bb 8a f5 63 bb 9e 37 71 3a d7 e0 b9 3a
       -0.0027350453 -0.0034783804 0.0009201708 0.0014181387
000250 30 de b5 3b 43 cc 9c bb 76 7b 90 bb 2c 29 04 bb
       0.0055501685 -0.004785092 -0.004409249 -0.0020166142
000260 e8 c0 aa bb 72 45 24 b9 d4 b3 95 3b 5a bb c3 ba
       -0.0052109845 -0.00015666129 0.0045685563 -0.0014933154
000270 90 27 bd bb a3 20 23 3b ff 2e 24 3b 06 c2 71 3b
       -0.0057725385 0.002489128 0.0025052426 0.0036889329
000280 2e 10 01 bb 95 c7 84 3b 99 7e d7 bb a2 be eb 3a
       -0.0019693482 0.0040521123 -0.006576371 0.001798589
000290 83 ed 0e 3b d5 b7 57 bb 64 68 7d 3b 5a dc b5 bb
       0.0021809048 -0.003291597 0.0038666958 -0.0055499496
0002a0 7a af 92 3b 2a 4f 8d 3b 86 d4 19 bb 2e a2 bf bb
       0.004476485 0.0043124156 -0.002347262 -0.0058481907
0002b0 62 e5 84 3b 80 af 1d bb 07 61 98 3a 89 ce 7f bb
       0.004055665 -0.0024060905 0.0011625596 -0.0039033017
0002c0 0c fc dc bb f6 15 0b bb 8c d7 4e 3b 13 11 5a 39
       -0.0067439135 -0.0021222807 0.0031561581 0.00020796461
0002d0 66 42 6f bb 6c ea fc ba e6 2e e7 39 7a 11 89 3b
       -0.0036508082 -0.0019295937 0.00044094695 0.0041829916
0002e0 18 d4 b7 3b 3d 1f c6 3b 2c 1b 95 bb 19 47 1e bb
       0.0056100003 0.0060462044 -0.0045503583 -0.0024151264
0002f0 3e 7d eb b8 39 34 3f bb 11 dc 03 bb 08 e9 8a 3b
       -0.000112290014 -0.0029175414 -0.0020120183 0.0042392053
000300 8c c7 64 3b b4 58 a3 bb 09 04 16 3a 3f 27 af bb
       0.0034908978 -0.0049849395 0.0005722647 -0.0053452547
000310 b6 b8 5f 3b 4e 88 47 3b 48 91 14 ba 82 93 74 bb
       0.0034137196 0.0030446234 -0.00056674005 -0.0037319367
000320 f2 dd 39 bb 43 05 d7 ba 6f 32 98 3b c7 5c bf bb
       -0.002836105 -0.0016404766 0.004644684 -0.0058399173
000330 60 87 52 ba 07 80 36 bb 97 2a 09 b8 9c a1 7c 3b
       -0.00080310367 -0.0027847306 -3.270301e-05 0.0038548475
000340 ec 0a d3 3a 6c c6 36 bb 3b 57 c5 3b 0f 03 b4 3b
       0.0016101277 -0.0027889265 0.0060223616 0.0054935287
000350 60 71 90 3b 99 ea 3a bb 5e 1a 1e 3b 46 a6 b6 bb
       0.0044080466 -0.0028521179 0.0024124603 -0.0055740206
000360 ea c2 92 3b ef c5 b4 3a ba 3d 36 3b ce 4e a0 bb
       0.004478802 0.0013791899 0.0027807788 -0.0048922068
000370 29 0a 9b bb f8 21 96 bb 11 1c 1e 3b 50 2a 1b bb
       -0.004731436 -0.004581686 0.0024125616 -0.0023676343
000380 ba c3 e0 ba 2d b9 a1 bb 59 b4 c2 3b a2 66 47 3a
       -0.0017148175 -0.0049354048 0.0059419093 0.0007606541
000390 ae bf 60 3b ee 40 9e bb 5a 36 bf bb 84 1a 9c 39
       0.0034293937 -0.0048295176 -0.0058353366 0.00029774394
0003a0 96 03 ed 3a 80 23 07 38 5e 65 96 3a 48 10 8d 39
       0.0018082734 3.221957e-05 0.0011474302 0.00026905746
0003b0 46 85 39 38 78 3c 8e bb ae 2f 0b 3b ff fb b2 3b
       4.4231558e-05 -0.0043407045 0.0021238136 0.005462169
0003c0 30 15 bd ba 66 a3 75 bb b0 a7 c3 bb 31 d1 8e 3b
       -0.001442587 -0.0037481426 -0.0059709176 0.0043584337
0003d0 50 0f b9 3b 98 5f ba 3b 5c ad 3d 3b e9 49 1a bb
       0.0056475773 0.005687665 0.0028942442 -0.002354259
0003e0 f0 d8 a1 3a 69 4e ab bb fd 69 b5 ba 24 ff f3 b9
       0.0012347978 -0.005227853 -0.0013840791 -0.00046538666
0003f0 f8 b2 a1 bb da c4 53 3a 86 c7 72 bb f4 34 67 3a
       -0.004934665 0.00080783444 -0.0037045195 0.00088198413

bias f4 [64]
000000 a5 a2 a5 bb a5 b8 9a bb ea 80 17 bb 35 59 d1 ba
       -0.005054789 -0.0047217184 -0.002311761 -0.001597202
000010 f7 f9 29 bb 4b 70 6e bb 7b 61 5b ba dc f4 c6 3d
       -0.0025936344 -0.003638285 -0.0008368713 0.09714672
000020 4e 65 6e 3b 38 67 fb 3d 9e 6e 4e bb 44 70 12 bc
       0.00363763 0.12275547 -0.0031499038 -0.008937899
000030 1a 91 af bc 95 de 51 bb ec fd a7 ba 13 58 09 3e
       -0.021431495 -0.0032023538 -0.0012816763 0.13412504
000040 a1 6d 38 bb f0 90 92 bb 66 39 da ba 42 ef 5f bb
       -0.0028141516 -0.0044728443 -0.0016649186 -0.0034169708
000050 ac 15 98 bb d3 51 a9 bb c2 c4 f2 b9 75 d1 e4 3d
       -0.0046412554 -0.005167225 -0.00046304433 0.11172763
000060 88 b5 ab bb ab b1 c3 3d 1d 41 b1 ba 44 b4 f1 b8
       -0.005240146 0.09555372 -0.0013523434 -0.000115253526
000070 81 5f a5 3d f7 4b dc 3d 85 8d 8c bb 84 f8 ff 3d
       0.080748565 0.10756677 -0.0042893314 0.124985725
000080 50 09 e9 bb 87 d0 aa bc 00 14 b2 bc a7 97 cd 3a
       -0.007111706 -0.020851387 -0.021738052 0.0015685455
000090 b0 f2 4f ba 40 c1 d8 bb fe d3 46 39 f1 cd 5a 38
       -0.00079325866 -0.006614834 0.00018961725 5.2167048e-05
0000a0 80 40 47 bb 1d 59 82 bb 13 33 b7 bb 50 19 6a bb
       -0.0030403435 -0.0039779083 -0.0055908053 -0.0035720654
0000b0 02 cc c7 3d 12 81 fe bb ad 05 2b 3e 7c ee 8e ba
       0.09755708 -0.007766851 0.16701384 -0.0010904814
0000c0 53 ff 9b bb ea 5a 4f bb 7b d3 bc bc e6 ad 45 bb
       -0.0047606616 -0.0031639882 -0.02305006 -0.0030163466
0000d0 17 91 ba bc 6b e8 84 bc 31 a5 13 3e dd d4 5a bb
       -0.022774262 -0.016224107 0.14418484 -0.0033391037
0000e0 cb 7a a2 bc 4a a6 b0 bb f4 27 16 ba 13 fb ae bb
       -0.019833943 -0.005390917 -0.00057279994 -0.005339989
0000f0 1c 54 e5 3d 59 de 8a bc 72 15 83 bc 34 32 91 bb
       0.11197683 -0.016951727 -0.016001437 -0.0044310335

weight f4 [1, 64]
000000 55 fa 9f bb 02 52 ad ba 6e 58 4d bb ae a9 ae bb
       -0.004882137 -0.0013223293 -0.0031333226 -0.005330286
000010 f2 97 cd ba ca 9d 04 3e c3 1b 59 3b 97 3b 17 be
       -0.0015685542 0.12950817 0.003312812 -0.14768825
000020 a1 2d 2d 39 ed ea 1e be f5 74 af 3a 9f 14 1b 3b
       0.00016515564 -0.15519305 0.0013386296 0.0023663414
000030 a1 4a f3 3d 14 16 64 bb b8 c8 1e bb 31 1f 1a be
       0.11879469 -0.0034803199 -0.0024228524 -0.15050961
000040 39 47 8e 3a 94 f2 dd ba a2 c6 4f 3b 29 a6 82 3a
       0.0010854966 -0.0016933256 0.0031704088 0.0009967732
000050 b1 56 bd ba 4c d8 30 b7 be 0a bc 38 33 02 1b be
       -0.0014445392 -1.0540778e-05 8.9665395e-05 -0.15137558
000060 b4 74 b5 3b 06 b0 08 be 0c 68 32 bb e0 03 fd b9
       0.0055375937 -0.13348398 -0.0027222661 -0.00048258808
000070 8b 44 dd bd 24 d3 1a be 2a 5d 6f bb b1 90 18 be
       -0.10804089 -0.15119606 -0.0036524036 -0.14898945
000080 e8 04 c0 b9 0b af c4 3d 5f a7 fc 3d 1c 6c cd b7
       -0.0003662475 0.09603699 0.12336611 -2.4488247e-05
000090 ad 98 86 38 52 58 7c bb 1c f1 10 39 57 f5 91 ba
       6.418056e-05 -0.0038504791 0.0001382273 -0.0011135739
0000a0 7f bb 5e ba 62 ac f4 b8 da 00 65 3b fd 1a 45 ba
       -0.0008496567 -0.000116669355 0.0034943135 -0.0007518975
0000b0 c8 3e 07 be da 30 72 bb 1e f3 2a be f3 85 5d bb
       -0.13207543 -0.0036955387 -0.16694304 -0.0033801764
0000c0 9a e8 7e 3b 75 23 d2 b8 8e fd f6 3d 3c 77 fc 3a
       0.0038895966 -0.00010020185 0.120600805 0.0019261609
0000d0 23 0a 00 3e ff e3 01 3e 68 52 18 be 73 f1 00 bb
       0.12503867 0.1268463 -0.14875185 -0.0019675165
0000e0 3a c9 03 3e 22 1a ec 38 28 a6 8b ba 40 c7 d0 3b
       0.1286973 0.000112582245 -0.0010654377 0.0063714087
0000f0 ce 1e 1b be 31 85 00 3e 39 f2 00 3e 4e df b5 ba
       -0.1514847 0.12550808 0.125924 -0.0013875754
