pre_trained_models/2u3d/diode_pair_2u3d_1N4148_l_1.70k_2.50k_3x16_2.78e-06.pth (torch, 7165 bytes, 7 tensors)

weight f4 [16, 2]
-0.2921196 0.056142814 0.40886518 0.07072858 -0.30100632 0.070645936 -0.13726676 0.09955309
-0.045101747 0.07929577 0.022978306 -0.019767772 0.009082727 -0.003648546 0.0034610806 -0.00846103
0.00013150334 -0.005580415 0.023108708 -0.009363148 -0.02784444 -0.021128617 0.42487812 0.09820746
0.023166452 -0.0061460766 -0.002901904 -0.027349278 0.0055198926 -0.026709966 -0.027225621 -0.021287078
00000000: b390 95be 02f6 653d c756 d13e 25da 903d
00000010: 801d 9abe d1ae 903d a88f 0cbe 7ee2 cb3d
00000020: 9cbc 38bd d265 a23d 003d bc3c 06f0 a1bc
00000030: b8cf 143c 721c 6fbb 4cd3 623b 22a0 0abc
00000040: 29e4 0939 eadb b6bb 794e bd3c e467 19bc
00000050: 061a e4bc ec15 adbc a089 d93e fe20 c93d
00000060: 92c7 bd3c 0765 c9bb df2d 3ebb 980b e0bc
00000070: 37e0 b43b dcce dabc 4408 dfbc 3d62 aebc

bias f4 [16]
0.11018895 0.12200718 0.071744226 -0.18520094 -0.28622642 0.026329333 -0.01382364 -0.008772805
0.013559921 -0.010310122 0.021180402 0.07172861 -0.02675438 0.013484703 0.012421319 0.02847201
00000000: bfaa e13d e6de f93d a3ee 923d 51a5 3dbe
00000010: 458c 92be 9db0 d73c 8c7c 62bc d0bb 0fbc
00000020: 6e2a 5e3c c9eb 28bc 8682 ad3c 73e6 923d
00000030: 002c dbbc f2ee 5c3c ca82 4b3c 223e e93c

weight f4 [16, 16]
0.18759665 -0.081240244 0.17998224 0.09314194 -0.75525534 0.0057500657 -0.00354832 -0.00080594874
-0.0028000283 -0.0045274836 0.009871575 -0.039284278 -0.00675199 0.004121788 0.0001885882 -0.005984096
-0.006424688 0.0061444985 0.0028552879 -0.008957949 -0.008166958 0.006758662 -0.008889105 -0.0013289519
0.0018905094 0.00866298 0.0004082662 -0.005484793 0.0043315543 -0.005321677 0.0020506224 0.0010012444
0.007894948 0.0054870113 -0.010369447 -0.008336423 -0.006462532 0.0067855427 -0.006997576 -0.0073953792
-0.0052700057 0.004620555 0.0054295277 -0.0055513657 0.0041186484 0.0043972507 -0.0035544122 -0.0017007594
-0.06787514 0.26066923 -0.09250367 -0.13427031 -2.0848377 -0.0038227756 -0.004414944 0.007946762
0.005032203 -0.0055827037 -0.009843067 0.20820734 -0.0037146388 0.005330239 -0.0057328176 0.0074563343
-0.09396191 0.27398288 -0.10301075 -0.11406482 -1.119821 -0.005152657 -0.00027518914 0.005969022
-0.003320861 -0.0056224335 -0.0022253457 0.22339678 0.0021962035 -0.010024376 -0.008636675 0.0038072416
0.18759392 -0.07877791 0.18756619 0.08537324 -0.69777644 -0.0063823787 -0.004713715 0.005649536
0.00826505 0.0069211638 0.0066574737 -0.041844703 0.00765917 0.008905424 0.00071934797 0.0045024087
0.093597986 -0.13800056 0.049945872 -0.26629934 -1.6831424 -0.0074399533 -0.005497692 0.004829388
0.008926784 -0.005173853 -0.007999483 -0.12228311 0.0014191599 -0.00017480846 0.00321242 -0.0013323422
-0.06316439 0.19871296 -0.05172061 0.068277605 0.6324791 0.00017542146 0.010312508 0.010427794
-0.008141086 0.0067554684 -9.027862e-05 0.18794206 -0.0055216653 0.005470015 0.00023890001 0.005481726
-0.002888878 -0.012982271 -0.007278988 0.003278682 -0.008546892 -0.0051350244 -0.0050087157 0.005385702
0.009413094 -0.0019233183 -0.0006024373 -0.015570211 -0.005476541 0.0052705603 0.004456577 0.0019790975
0.1876771 -0.08263313 0.15971474 0.028360458 -1.0305445 -0.010217611 -0.0006876972 -0.0048462306
-0.0006794367 0.0049086786 -0.004589089 -0.0506218 -0.0009611688 -0.0011525187 0.01003655 -0.00065107184
0.18767484 -0.09346971 0.17900866 0.023861911 -1.0421065 0.003649375 0.0050568273 0.0055143205
0.0034924033 0.003369302 0.0091395555 -0.056236483 0.0012020733 0.0073441556 -0.004171306 -0.0042129518
0.0066640284 0.0014569629 -0.011689289 -0.011323673 -0.008408651 0.0102239195 0.0039018001 -0.00072941557
0.0015835112 -0.00621502 -0.0014886974 0.0027355643 0.00063028914 -0.0041816877 -0.009768987 0.0056069447
-0.0040300763 -0.009382535 -0.011148248 0.004676573 -0.0057920325 0.007068415 0.0026799724 8.8291796e-05
-0.010286379 0.005253535 -0.007668156 0.00037564492 -0.00487433 0.0069847153 -0.001645875 0.006924513
0.16589834 -0.058931336 0.17698172 0.11824482 -0.40516067 -0.00284611 -0.006324975 0.0058130356
-0.010275721 0.0032610549 0.007283872 -0.022747627 -0.005789413 0.0013830195 -0.0092930375 -0.008129595
0.18762146 -0.08089897 0.18759263 0.07331108 -0.7592489 -0.004726197 0.005070308 -0.007795312
-0.001957655 0.0010146301 0.0051647313 -0.04359224 0.006630891 -0.001216704 0.005769857 0.007404237
-0.03726153 0.32668495 -0.1207749 -0.41859162 -3.49349 -0.005158114 -0.009754131 -0.0039134016
-0.005304164 0.004429534 -0.0029456136 0.26722407 -0.009921537 0.004351875 -0.005845293 0.0010453326
00000000: 5619 403e 4961 a6bd 444d 383e 34c1 be3d
00000010: 6a58 41bf 0c6b bc3b ee8a 68bb 4e46 53ba
00000020: ae80 37bb 495b 94bb 63bc 213c 8de8 20bd
00000030: cc3f ddbb 1010 873b c2bf 4539 3c16 c4bb
00000040: 3086 d2bb ca57 c93b c81f 3b3b 5cc4 12bc
00000050: b4ce 05bc c477 dd3b 9ca3 11bc 3a30 aeba
00000060: f8ca f73a 2cef 0d3c 900c d639 c7b9 b3bb
00000070: b6ef 8d3b 7661 aebb bc63 063b 303c 833a
00000080: d059 013c 63cc b33b 9de4 29bc 7e95 08bc
00000090: a6c3 d3bb 4259 de3b ec4b e5bb f054 f2bb
000000a0: 03b0 acbb 0668 973b 2eea b13b 3be8 b5bb
000000b0: baf5 863b d016 903b 24f1 68bb 04ec deba
000000c0: 1f02 8bbd 7076 853e 9072 bdbd 287e 09be
000000d0: fb6d 05c0 8887 7abb 3cab 90bb 2333 023c
000000e0: 2ee5 a43b 1def b6bb d144 21bc 4e34 553e
000000f0: 4c71 73bb 49a9 ae3b 5cda bbbb 4454 f43b
00000100: 1a6f c0bd 7c47 8c3e 4df7 d2bd d19a e9bd
00000110: 4b56 8fbf 9fd7 a8bb 4347 90b9 c997 c33b
00000120: cda2 59bb 643c b8bb 1bd7 11bb 20c2 643e
00000130: 2eee 0f3b 483d 24bc d780 0dbc ea82 793b
00000140: 9f18 403e 5056 a1bd 5a11 403e 2ad8 ae3d
00000150: 7aa1 32bf 4623 d1bb 8275 9abb be1f b93b
00000160: 226a 073c eeca e23b f026 da3b 5a65 2bbd
00000170: c6f9 fa3b 0ee8 113c a092 3c3a f188 933b
00000180: 4db0 bf3d 0550 0dbe 0b94 4c3d 6358 88be
00000190: 3671 d7bf daca f3bb fc25 b4bb d83f 9e3b
000001a0: a541 123c 6d89 a9bb 4310 03bc 916f fabd
000001b0: 1b03 ba3a ca4c 37b9 7787 523b fca1 aeba
000001c0: 555c 81bd 697b 4b3e fed8 53bd 21d5 8b3d
000001d0: 26ea 213f 57f1 3739 cbf5 283c 57d9 2a3c
000001e0: 3162 05bc fa5c dd3b f753 bdb8 e273 403e
000001f0: 16ef b4bb d03d b33b 3c81 7a39 0da0 b33b
00000200: 5553 3dbb 97b3 54bc 9484 eebb 28df 563b
00000210: 4308 0cbc b543 a8bb 2720 a4bb 8b7a b03b
00000220: 6139 1a3c da17 fcba e2ec 1dba 331a 7fbc
00000230: 8e74 b3bb aab4 ac3b 7a08 923b bfb3 013b
00000240: 6d2e 403e 8f3b a9bd 438c 233e 3154 e83c
00000250: e2e8 83bf c467 27bc 9446 34ba 21cd 9ebb
00000260: 3a1c 32ba fbd8 a03b 1260 96bb ce58 4fbd
00000270: f2f6 7bba 1c10 97ba 5870 243c b1ac 2aba
00000280: d52d 403e 0c6d bfbd 0c4e 373e 0e7a c33c
00000290: bf63 85bf 5a2a 6f3b beb3 a53b 79b1 b43b
000002a0: cee0 643b 82cf 5c3b 13be 153c 3a58 66bd
000002b0: e38e 9d3a 3ea7 f03b 73af 88bb cd0c 8abb
000002c0: ec5d da3b 90f7 be3a 6e84 3fbc ed86 39bc
000002d0: 70c4 09bc 3a82 273c 58b5 7f3b 4036 3fba
000002e0: d28d cf3a 5ea7 cbbb 6520 c3ba 2747 333b
000002f0: fd39 253a 8a06 89bb 1a0e 20bc 76ba b73b
00000300: bb0e 84bb 34b9 19bc 24a7 36bc f03d 993b
00000310: 17cb bdbb 2a9e e73b 7aa2 2f3b 4c29 b938
00000320: 3388 28bc d925 ac3b 2845 fbbb 35f2 c439
00000330: d8b8 9fbb 0ae0 e43b 67ba d7ba 06e7 e23b
00000340: 41e1 293e fc61 71bd b23a 353e 572a f23d
00000350: 3871 cfbe cd85 3abb bc41 cfbb 477b be3b
00000360: 7f5b 28bc 6cb7 553b 8cad ee3b 3b59 babc
00000370: 1eb5 bdbb 6f46 b53a d341 18bc fe31 05bc
00000380: d71f 403e 5cae a5bd 4818 403e 1f24 963d
00000390: 235e 42bf 37de 9abb d424 a63b d16f ffbb
000003a0: 004c 00bb 56fd 843a e83c a93b c78d 32bd
000003b0: f247 d93b d079 9fba 1211 bd3b 3e9f f23b
000003c0: 8c9f 18bd 4043 a73e d558 f7bd a451 d6be
000003d0: 5795 5fc0 6505 a9bb cacf 1fbc fe3b 80bb
000003e0: 8dce adbb a025 913b 320b 41bb 98d1 883e
000003f0: f18d 22bc 2c9a 8e3b df89 bfbb 8b03 893a

bias f4 [16]
0.09378605 -0.005497069 -0.0072159767 0.14494544 0.12710853 0.093993306 0.17617752 0.040420905
-0.005345922 0.10411337 0.11691893 -0.010214463 0.0039257756 0.063355066 0.09704153 0.31420195
00000000: e712 c03d c220 b4bb 0074 ecbb 946c 143e
00000010: bd28 023e 907f c03d e167 343e 6490 253d
00000020: d82c afbb 6439 d53d 3173 ef3d 905a 27bc
00000030: cba3 803b 4dc0 813d b6bd c63d 14df a03e

weight f4 [16, 16]
0.00022756527 0.0030928473 -0.007767086 -0.0034630913 0.00016606241 0.0065174066 -0.008469368 0.03521361
-0.009427991 0.0028481276 0.008338528 0.0046843234 -0.0054847766 0.00082349713 -0.006617851 -0.0028215374
0.18091527 0.0062237885 0.010027037 -0.11126326 -0.15234765 0.18784618 0.37553 -0.19692567
-0.010557319 0.20980605 0.24164942 -0.001196361 -0.007801519 0.12224887 0.18624799 0.09412078
-0.009767547 -0.0036969446 0.0071955295 0.0012086564 -0.008368428 -0.008206483 0.004814932 -0.0075379163
0.0049195276 0.0018713353 -0.008577605 -0.009664959 0.0015458489 -0.0011841329 -0.0026992876 0.00088232476
0.011321291 -0.0055632256 0.0062386417 0.0057116263 -0.022160659 0.0019381207 0.0064235465 0.052777026
-0.0029426462 -0.00613938 -0.0024276655 0.004890045 -0.005192793 0.009060595 0.006455908 -0.0024005093
-0.09764808 0.0069764527 0.00081256154 0.3118271 0.33781275 -0.11028841 0.1814957 0.21739039
-0.0033721812 -0.04217867 -0.047127 -0.0048341574 0.0068302182 -0.10575232 -0.09376768 0.30941245
0.0022228074 -0.0041318187 -0.00061089423 0.0057123904 0.0019720823 0.0011129637 0.0006849385 -0.008824243
0.00042596192 -0.007835951 0.0014553454 0.006213644 0.008327688 0.007798531 -0.009704404 -0.00032857023
-0.11888844 -0.0042201686 0.008432316 0.29633206 0.3264724 -0.12610382 0.06237621 0.2520372
0.009136568 -0.08150164 -0.093977526 8.0759695e-05 0.003746631 -0.11878971 -0.1110501 0.27347147
-0.009604653 0.009828967 0.003054679 0.0060605058 -0.0053843027 -0.004686244 0.0073768375 0.00023644688
-0.009844912 0.0019596824 0.0057764533 0.0077795847 0.007439522 -0.010459935 -0.005600294 -0.008303193
-0.14372161 -0.0071585746 -0.003413403 0.16045947 0.18695083 -0.13837783 0.15988038 0.12437829
0.009300059 -0.093852036 -0.098377906 -0.008297982 -0.0003095026 -0.14438303 -0.1258773 0.15793149
-0.14334942 -0.010533642 -0.002096767 0.27071416 0.31128374 -0.14944713 0.03753972 0.25145018
0.012448447 -0.10601929 -0.11990972 -0.0021099704 -0.0029193615 -0.12943935 -0.14107834 0.25209245
0.20800802 0.0065679634 -0.0059746443 -0.09812535 -0.16459794 0.20908417 0.37599564 -0.17582946
0.0009648842 0.22322991 0.25450984 -0.0037118797 0.006185259 0.15644756 0.21412864 0.09267756
0.20551097 -0.005714996 0.009757175 -0.090140805 -0.15070203 0.19903065 0.3759953 -0.17536198
-0.00397412 0.22878319 0.23751864 -0.008835318 0.0058445605 0.14168468 0.21760458 0.08077957
-0.09375385 0.0091417255 -0.003292662 0.30338305 0.30738568 -0.09422786 0.18709083 0.2280643
0.004625007 -0.05572088 -0.06269404 -0.00517321 0.0014076495 -0.10674144 -0.09587168 0.30386314
0.19917838 0.010081017 0.0050783693 -0.09466019 -0.1493057 0.19406757 0.3710249 -0.16623168
0.0012044357 0.22420488 0.24950011 0.0023746816 -0.009949618 0.15374626 0.21403676 0.078663945
0.20096338 -0.0066047045 0.008783541 -0.101291984 -0.14989498 0.1987951 0.3759953 -0.16519192
0.0018403304 0.23391561 0.25915718 -0.008216404 -0.010197958 0.14231327 0.21888652 0.090715915
-0.00278377 -0.003511278 0.0058360896 -0.008483229 -0.01106556 0.0029690613 -0.0065596327 -0.010028161
-0.0095014395 0.0013360786 -0.0057856245 0.0063592633 -0.0055411556 -0.0073513407 -0.0034233117 0.003423877
00000000: 969e 6e39 5eb1 4a3b 0a83 febb 08f5 62bb
00000010: 0a21 2e39 f88f d53b 1bc3 0abc 253c 103d
00000020: dc77 1abc a7a7 3a3b 529e 083c f47e 993b
00000030: a4b9 b3bb f5df 573a 8fda d8bb 8be9 38bb
00000040: da41 393e ecf0 cb3b 7148 243c fedd e3bd
00000050: 0601 1cbe c05a 403e 7845 c03e e2a6 49be
00000060: 9bf8 2cbc 66d7 563e f272 773e 37cf 9cba
00000070: e2a3 ffbb 9e5d fa3d cbb7 3e3e 65c2 c03d
00000080: 1008 20bc 7048 72bb 7ac8 eb3b c76b 9e3a
00000090: bb1b 09bc 7c74 06bc 94c6 9d3b a000 f7bb
000000a0: fd33 a13b 9847 f53a 1589 0cbc c759 1ebc
000000b0: 159e ca3a e834 9bba 88e6 30bb d04b 673a
000000c0: f07c 393c b84b b6bb 856d cc3b 9828 bb3b
000000d0: 458a b5bc 8a08 fe3a 9d7c d23b b92c 583d
000000e0: 69d9 40bb da2c c9bb 7819 1fbb ac3c a03b
000000f0: 4e28 aabb e472 143c 158c d33b dd51 1dbb
00000100: b7fb c7bd ba9a e43b 1502 553a cda7 9f3e
00000110: cbf5 ac3e e4de e1bd 02da 393e 969b 5e3e
00000120: d0ff 5cbb 8bc3 2cbd 3e08 41bd da67 9ebb
00000130: 06d0 df3b ac94 d8bd 4509 c0bd 4f6b 9e3e
00000140: 85ac 113b 3564 87bb 6b24 20ba 012f bb3b
00000150: 0d3e 013b dde0 913a 728d 333a 8f93 10bc
00000160: a453 df39 5c62 00bc 4ac1 be3a d39b cb3b
00000170: db70 083c d28a ff3b 38ff 1ebc f343 acb9
00000180: c87b f3bd 5749 8abb b227 0a3c d6b8 973e
00000190: 6427 a73e 5c21 01be 327e 7f3d 050b 813e
000001a0: 8bb1 153c 55ea a6bd 4a77 c0bd 885d a938
000001b0: 0a8a 753b 0548 f3bd 3c6e e3bd 7404 8c3e
000001c0: d65c 1dbc ad09 213c 0231 483b 3597 c63b
000001d0: ce6e b0bb 108f 99bb 66b9 f13b baee 7739
000001e0: 8e4c 21bc 046e 003b 6748 bd3b e3eb fe3b
000001f0: 3cc7 f33b 2660 2bbc ac82 b7bb 1e0a 08bc
00000200: c22b 13be 7a92 eabb 66b3 5fbb 7d4f 243e
00000210: 0a70 3f3e ebb2 0dbe afb7 233e 0bba fe3d
00000220: 465f 183c 7f35 c0bd 5b7a c9bd 42f4 07bc
00000230: bc44 a2b9 25d9 13be fbe5 00be cbb8 213e
00000240: 31ca 12be 4c95 2cbc ea69 09bb 0c9b 8a3e
00000250: 9560 9f3e ab08 19be 40c3 193d 14be 803e
00000260: 92f4 4b3c a420 d9bd 3a93 f5bd 6e47 0abb
00000270: c252 3fbb c08b 04be d776 10be 4312 813e
00000280: 0e00 553e 1238 d73b f3c6 c3bb f2f5 c8bd
00000290: 5d8c 28be 291a 563e 8082 c03e a30c 34be
000002a0: 48f0 7c3a 6296 643e 1d4f 823e 0243 73bb
000002b0: b7ad ca3b ca33 203e 8a44 5b3e bccd bd3d
000002c0: 7871 523e dc44 bbbb 8fdc 1f3c be9b b8bd
000002d0: a251 1abe b1ce 4b3e 7582 c03e 1792 33be
000002e0: 5639 82bb 2446 6a3e 1638 733e 02c2 10bc
000002f0: ba83 bf3b ca15 113e bcd3 5e3e c26f a53d
00000300: 0502 c0bd 2dc7 153c b4c9 57bb 0655 9b3e
00000310: a861 9d3e 89fa c0bd bd94 3f3e b089 693e
00000320: 5f8d 973b 943b 64bd bc65 80bd 0884 a9bb
00000330: e180 b83a 429b dabd 5f58 c4bd f393 9b3e
00000340: 6bf5 4b3e da2a 253c 7368 a63b 34dd c1bd
00000350: 98e3 18be a6b9 463e faf6 bd3e a338 2abe
00000360: 28de 9d3a f795 653e f57c 7f3e 8ca0 1b3b
00000370: b903 23bc a96f 1d3e 742c 5b3e 901a a13d
00000380: 58c9 4d3e 476c d8bb d7e8 0f3c 2c72 cfbd
00000390: 127e 19be f190 4b3e 7582 c03e 1228 29be
000003a0: 3e37 f13a 9387 6f3e 40b0 843e 199e 06bc
000003b0: 5615 27bc 92ba 113e ca23 603e 44c9 b93d
000003c0: e96f 36bb 781d 66bb ab3c bf3b 3efd 0abc
000003d0: 534c 35bc 9594 423b 30f2 d6bb 284d 24bc
000003e0: edab 1bbc 5c1f af3a 5695 bdbb 5e61 d03b
000003f0: 9592 b5bb 84e3 f0bb a459 60bb 2063 603b

bias f4 [16]
-0.010992705 0.1138743 -0.0014565842 -0.016249254 0.10621125 -0.0069841454 0.11696673 0.002807998
0.079499125 0.12512949 0.12387218 0.1217151 0.110250816 0.12180796 0.11575463 -0.0020131175
00000000: bf1a 34bc ee36 e93d dbea beba 281d 85bc
00000010: 4985 d93d 42db e4bb 418c ef3d 6406 383b
00000020: 70d0 a23d f221 003e b3b0 fd3d c445 f93d
00000030: 2ecb e13d 7476 f93d c310 ed3d 82ee 03bb

weight f4 [1, 16]
0.020795576 -0.27113852 0.004450355 0.042072833 0.3216717 0.007290138 0.32477176 -0.0017106847
0.21889956 0.31178662 -0.27504098 -0.26988778 0.2987969 -0.26032358 -0.27061716 0.003957487
00000000: 7c5b aa3c abd2 8abe 49d4 913b 9054 2c3d
00000010: 27b2 a43e 1ce2 ee3b 7c48 a63e 0e39 e0ba
00000020: 3527 603e 7fa2 9f3e 2cd2 8cbe bb2e 8abe
00000030: e8fb 983e 2249 85be 558e 8abe cfad 813b
