pre_trained_models/2u3d/diode_pair_2u3d_1N4148_l_0.45k_0.65k_3x16_1.06e-06.pth (torch, 7165 bytes, 7 tensors)

weight f4 [16, 2]
0.26255167 0.07439141 2.6118823e-05 -0.0005140219 -0.00054765656 -0.00021798072 -0.24321915 0.07508538
-0.24271958 0.07642281 -0.00053664675 -8.7424334e-05 0.26130494 0.07188308 0.26206988 0.10371482
0.19637327 -0.038232338 0.2601886 0.07380428 -0.0004217646 -0.00079632254 -0.00052582996 -0.0006275513
-0.23964366 0.058210753 0.26294506 0.103594474 -0.00043949025 -0.0009350562 0.0012877937 -0.0012318699
00000000: 2c6d 863e 865a 983d bf19 db37 6dbf 06ba
00000010: 9c90 0fba c191 64b9 710e 79be 5dc6 993d
00000020: 7b8b 78be 9083 9c3d c1ad 0cba 9557 b7b8
00000030: c3c9 853e 7037 933d 062e 863e 7068 d43d
00000040: 1316 493e 8399 1cbd 7137 853e b326 973d
00000050: 4920 ddb9 4dc0 50ba dad7 09ba 4182 24ba
00000060: 2665 75be 666e 6e3d bca0 863e 5729 d43d
00000070: 626b e6b9 8f1e 75ba 30cb a83a b276 a1ba

bias f4 [16]
0.06476415 0.0010014945 -0.00017486268 0.043697264 0.039697155 -0.0006774516 0.07014597 -0.010667274
0.27578795 0.063980564 0.0010135269 -0.00032999768 0.08479894 -0.009633798 -0.00042771673 -0.0012013356
00000000: 11a3 843d 9444 833a 585b 37b9 e7fb 323d
00000010: 7c99 223d 0297 31ba b1a8 8f3d cac5 2ebc
00000020: 1434 8d3e 3e08 833d 52d8 843a 8a03 adb9
00000030: 11ab ad3d 14d7 1dbc 2b3f e0b9 2276 9dba

weight f4 [16, 16]
0.21464145 0.00037792107 4.745188e-05 -0.024677305 -0.023640491 -0.0003224016 0.2135188 0.23202132
0.45127422 0.21258125 -5.7812187e-05 -8.924879e-05 -0.03679181 0.23194751 4.6172037e-05 -0.00023772399
-0.00027916208 -0.0002659973 0.00028406945 -1.6982898e-05 0.0004208445 -3.5725487e-05 3.8500043e-06 -5.546199e-05
-0.00022956109 -0.00013990205 8.269725e-05 0.00044013478 -0.00028910872 0.00033708205 0.00035280158 -0.0002812341
0.2151328 0.0002520807 -0.00022244881 -0.025695127 -0.024393674 0.00031640838 0.2141147 0.23209147
0.45225498 0.21497554 -0.00019389324 -0.00040238502 -0.03728762 0.23413013 0.00017437933 -7.540621e-07
-0.0002679231 0.00032182178 6.4023974e-05 9.800625e-05 -0.00021462253 0.00012707207 -0.00026956137 4.5829296e-05
-0.00047895097 -0.00010160667 -0.00018832118 0.00042821505 0.00011439841 6.235966e-05 0.00018842977 9.3284936e-05
0.21728812 -2.0397036e-05 -8.611803e-06 -0.028044939 -0.02748634 0.0004558437 0.2164838 0.23567928
0.45389697 0.21654443 -0.00033647736 -0.00020887122 -0.039634448 0.23574682 0.0004245079 0.00010520603
0.07905214 -0.00024973624 7.619577e-05 -0.20203412 -0.20835577 0.00042359787 0.08533149 -0.0012015834
0.38238874 0.078453586 0.00044773874 0.0004550821 -0.14308043 -0.00018037195 -9.938837e-05 0.00035394522
0.00016331492 0.00016343885 -6.7640125e-05 -6.521423e-05 0.0003551531 -0.00010920228 0.0002816429 -0.0001542411
0.00013457151 -0.00059672294 -0.00025829143 -0.0003628646 -0.0006060159 -0.0003895262 -0.00019879895 0.00039823336
-5.3278734e-05 0.00019938414 6.523928e-05 -0.00033319287 -0.0003243598 0.0003748378 -5.9731414e-05 -0.00011261212
-0.00021487096 -0.0004076484 0.00023298031 -8.8038025e-05 0.00017361548 4.562618e-05 0.00016611307 0.0003898036
-0.00057889847 0.00037172518 -0.00040859726 -0.00029039738 -0.00010351164 -7.678893e-05 0.00020041007 2.1262316e-05
0.0002489186 -0.0005250946 0.00029793935 0.0004142612 -0.00025935646 4.1753927e-05 0.00018150693 -3.707374e-05
-0.02645775 -0.00017558127 0.00027698246 0.15850319 0.156905 -0.00043671025 -0.02428323 -0.06534282
-0.24498126 -0.026755223 -0.00021275277 -0.00033191172 0.18006524 -0.065096736 0.00018308607 -0.00011620814
-0.026703835 -8.5232656e-05 0.0004195865 0.15838693 0.15664755 -0.0003595513 -0.024211524 -0.06652034
-0.24425347 -0.026752252 -0.00044667936 -7.893529e-05 0.18013681 -0.06693194 0.0002645278 0.0002605003
-0.0001603334 8.8949746e-05 0.00030394076 -0.00033271717 0.0003740761 0.00024275295 -0.0003181942 -0.00038250827
0.00017165871 -0.00041295608 -0.00015223326 8.105863e-05 -0.00059769355 4.039039e-05 0.00037401644 -3.8036167e-05
-0.026376203 -0.00019369101 -0.00022612326 0.15772969 0.15594958 0.0004004563 -0.024425894 -0.06546404
-0.24421018 -0.02650337 0.0003735836 8.9820314e-05 0.17939286 -0.06588181 1.52511875e-05 0.00038683182
0.009364157 -8.785545e-05 -4.163102e-05 -0.1550699 -0.16052821 -0.00039603683 0.013044761 -0.05386959
0.22786216 0.008628674 0.00030577218 0.00023973409 -0.100567184 -0.052695166 -0.00028944472 0.0002566742
-0.0008751741 -0.0002432515 -0.000104899234 -0.00071867794 7.3362884e-05 0.0004343417 -0.00051902956 -0.00047439558
-0.0005826411 -0.0009438553 0.0003204178 -0.00033370234 8.697142e-05 -0.0009578579 -0.00036090988 -2.5779224e-05
-0.000106247026 0.00036775685 -9.6734504e-05 -9.354333e-05 0.00044612814 0.00024462203 -0.00026568054 4.869851e-05
-0.0001496105 -0.00028324153 0.00026823353 -0.000295556 -0.00042556523 -0.00024138925 -5.286557e-05 0.00044876814
00000000: f8ca 5b3e b523 c639 1107 4738 0f28 cabc
00000010: b4a9 c1bc 0308 a9b9 aca4 5a3e ff96 6d3e
00000020: 6a0d e73e e6ae 593e 5d7b 72b8 142b bbb8
00000030: 02b3 16bd a683 6d3e d9a8 4138 8c45 79b9
00000040: 805c 92b9 8e75 8bb9 28ef 9439 7f76 8eb7
00000050: cba4 dc39 f3d7 15b8 492f 8136 dc9f 68b8
00000060: 56b6 70b9 acb2 12b9 bf6d ad38 e4c1 e639
00000070: 8493 97b9 63ba b039 3af8 b839 9a72 93b9
00000080: c64b 5c3e b329 8439 2641 69b9 967e d2bc
00000090: 3ed5 c7bc 9de3 a539 e240 5b3e 63a9 6d3e
000000a0: f78d e73e 8c22 5c3e d24f 4bb9 34f7 d2b9
000000b0: e7ba 18bd cfbf 6f3e 98d9 3639 c16a 4ab5
000000c0: 0878 8cb9 30ba a839 9c44 8638 b488 cd38
000000d0: 4c0c 61b9 a63e 0539 ea53 8db9 d538 4038
000000e0: b61b fbb9 aa15 d5b8 1578 45b9 0d82 e039
000000f0: 2ee9 ef38 16c7 8238 3b95 4539 f8a1 c338
00000100: c780 5e3e 4d1a abb7 6a7b 10b7 80be e5bc
00000110: 082b e1bc 4efe ee39 eead 5d3e e955 713e
00000120: 2f65 e83e d3bd 5d3e 3a69 b0b9 7104 5bb9
00000130: bb57 22bd 9d67 713e 7c90 de39 0fa2 dc38
00000140: 17e6 a13d 08ef 82b9 4bcb 9f38 08e2 4ebe
00000150: 375b 55be 5816 de39 47c2 ae3d 737e 9dba
00000160: 75c8 c33e 46ac a03d 7abe ea39 1698 ee39
00000170: ad83 12be 3a22 3db9 ba6e d0b8 b991 b939
00000180: 843f 2b39 c860 2b39 04da 8db8 a0c3 88b8
00000190: d833 ba39 8703 e5b8 78a9 9339 c8bb 21b9
000001a0: c41b 0d39 666d 1cba 4a6b 87b9 dd3e beb9
000001b0: 0add 1eba 5239 ccb9 b074 50b9 fac9 d039
000001c0: 9b77 5fb8 c611 5139 12d1 8838 64b0 aeb9
000001d0: d60e aab9 e185 c439 1e88 7ab8 2c2a ecb8
000001e0: fc4e 61b9 a4b9 d5b9 2d4c 7439 0ea1 b8b8
000001f0: 8d0c 3639 bd5e 3f38 a32e 2e39 8e5e cc39
00000200: 38c1 17ba 1ce4 c239 ff38 d6b9 7a40 98b9
00000210: 6314 d9b8 be09 a1b8 2b25 5239 7a5c b237
00000220: 4a81 8239 81a6 09ba be34 9c39 3231 d939
00000230: 3cfa 87b9 f020 2f38 e552 3e39 a07f 1bb8
00000240: ecbd d8bc 3d1c 38b9 f537 9139 a94e 223e
00000250: b4ab 203e 42f6 e4b9 a0ed c6bc 75d2 85bd
00000260: 5edc 7abe c52d dbbc 6316 5fb9 7004 aeb9
00000270: 0663 383e 7051 85bd cbfa 3f39 c5b4 f3b8
00000280: 00c2 dabc efbe b2b8 f2fb db39 2f30 223e
00000290: 3768 203e 2982 bcb9 3f57 c6bc d13b 88bd
000002a0: 951d 7abe 8a27 dbbc 4a30 eab9 108a a5b8
000002b0: c975 383e 9d13 89bd 52b0 8a39 c293 8839
000002c0: 2b1f 28b9 888a ba38 3d5a 9f39 8b70 aeb9
000002d0: a51f c439 808b 7e39 4dd3 a6b9 648b c8b9
000002e0: 49ff 3339 0782 d8b9 cea0 1fb9 05fe a938
000002f0: 89ae 1cba da68 2938 a317 c439 0689 1fb8
00000300: e812 d8bc 8919 4bb9 801b 6db9 e483 213e
00000310: 3fb1 1f3e 56f4 d139 d018 c8bc 0312 86bd
00000320: 3c12 7abe 981d d9bc 8bdd c339 ea5d bc38
00000330: c3b2 373e 0bed 86bd 5adf 7f37 b0cf ca39
00000340: 1f6c 193c 093f b8b8 f89c 2eb8 a5ca 1ebe
00000350: 8261 24be 2aa3 cfb9 b1b9 553c 5ca6 5cbd
00000360: b354 693e 485f 0d3c 0c50 a039 2161 7b39
00000370: 2bf6 cdbd e3d6 57bd 9dc0 97b9 3a92 8639
00000380: f16b 65ba 5411 7fb9 59fd dbb8 a965 3cba
00000390: 66da 9938 5bb8 e339 7c0f 08ba 4cb8 f8b9
000003a0: 62bc 18ba 0f6d 77ba c0fd a739 c5f4 aeb9
000003b0: 6d64 b638 c118 7bba 8138 bdb9 7640 d8b7
000003c0: f0d0 deb8 7dcf c039 f1dd cab8 b12c c4b8
000003d0: 4ee6 e939 9d40 8039 0a4b 8bb9 a141 4c38
000003e0: c3e0 1cb9 0980 94b9 b2a1 8c39 dbf4 9ab9
000003f0: 661e dfb9 6f1d 7db9 f9bb 5db8 a448 eb39

bias f4 [16]
0.040942736 -0.0003874915 0.0420366 -6.6501685e-05 0.045570645 0.22134016 -0.00018025415 0.00020503401
0.0002560846 0.19965538 0.20106988 -0.00021137022 0.19974834 0.16333826 -0.00031143543 -9.282243e-06
00000000: 92b3 273d 3b28 cbb9 922e 2c3d d276 8bb8
00000010: 49a8 3a3d ffa6 623e 9b02 3db9 66fe 5639
00000020: 1843 8639 7672 4c3e 43e5 4d3e 43a3 5db9
00000030: d48a 4c3e 2542 273e 2848 a3b9 eeba 1bb7

weight f4 [16, 16]
-0.059992425 0.00016008201 -0.05903774 -0.0002272313 -0.05671139 -0.1465646 7.452874e-05 -0.00024342036
0.00014061935 0.29273334 0.2940806 -0.0001816115 0.29407305 -0.14921807 -9.2902286e-05 0.00018788334
-0.00015684009 -9.3923016e-05 -0.0003578619 6.276596e-05 -0.00020503787 0.00014178322 6.9266636e-05 -0.00040368337
-0.00021812932 -0.000489606 0.000154459 0.00032666876 0.00025648324 -0.0004590695 0.00043186912 0.00046437042
-7.7379074e-05 6.627574e-05 -0.00014498022 -0.00035167433 8.668687e-05 -0.00020107241 -0.0003333128 0.00023881659
-0.00035673092 -0.00012179965 -3.8802016e-05 0.0003047982 -0.00014191374 -0.00045849348 0.0002473209 0.0004631991
-0.05932367 0.00046648583 -0.059450656 -0.00012545618 -0.056599718 -0.14592725 -0.0003206918 9.2836184e-05
-0.00019616034 0.29146218 0.29309633 -0.0003370333 0.29381815 -0.14921315 0.00029910303 -0.00025884254
-0.00030220923 0.0003931568 -0.00043376902 4.2666426e-05 -0.00012463327 0.00010070153 0.00042709103 3.9152743e-05
-4.709311e-05 -0.00019680925 -0.0002855615 0.0001678435 0.00010258976 0.00023936978 0.00019867686 -0.00023265764
7.795011e-05 -0.00040162195 -0.00029367156 0.0003868854 -0.00044044777 -0.00017473802 0.00034233998 5.119289e-05
-1.8373397e-05 0.00014861165 -0.0003336254 7.0043943e-06 -0.0002626743 0.00037779615 -1.4748898e-05 -0.00039929227
0.3070736 0.00026636446 0.3067945 0.00020834852 0.3053465 0.41402107 0.00043812173 -0.00033421803
-0.0003079054 -0.03559748 -0.0361628 -0.00041611987 -0.03743613 0.43427047 -0.0002294771 -0.00019176712
0.30682158 0.00035822924 0.3069713 0.0003715102 0.3054561 0.4139008 0.00028037946 0.00041992517
-0.00026211984 -0.035773844 -0.036602147 -5.1297106e-05 -0.03706751 0.43535748 -0.00039712412 -0.00036770027
0.00025638158 0.00014613621 -0.0004938298 -1.1822969e-05 -5.453578e-05 -0.00036532487 0.00021039599 5.5172488e-05
-0.00043634616 9.9401295e-05 -4.493558e-06 -7.6227756e-05 0.00038148765 -0.0004051094 7.5787575e-05 0.00039095557
-0.00030287905 0.0003656087 0.00012801573 0.00017130858 -0.0003764506 0.0003279825 0.00034059965 0.00027416708
-0.00043616496 -0.00045807206 0.00012770106 0.00037148828 -0.00038392044 7.506093e-06 0.0001525314 -0.00033512354
-0.070255 0.00023032358 -0.06947458 -0.0004092279 -0.06637723 -0.12443715 -0.00031861686 0.00017310576
2.452861e-05 0.22816241 0.23176801 -0.00031095246 0.2326395 -0.07752439 0.00046680335 -0.00024462145
-0.059646893 -0.00030239444 -0.058951523 0.00042030885 -0.0562111 -0.14653352 9.854405e-05 0.00023941525
-5.1614625e-05 0.29311198 0.29404625 -0.00022547002 0.29403818 -0.14922728 -0.0002318903 0.00042261966
0.28938964 -8.121323e-05 0.29105306 -4.792809e-05 0.2929211 0.4150018 -0.0004409437 0.0004053374
-0.00042441013 -0.15966558 -0.15844294 0.00041264878 -0.15901595 0.4365603 0.00032911063 -0.00037935053
-0.00012376769 0.00023672482 -0.00035190885 -9.4917494e-05 0.00026577624 -0.0002231503 -0.0003650782 5.604684e-05
0.00020803922 0.0004638082 -0.00025780476 0.00034848053 -0.00019068793 2.9689429e-05 0.00015906105 0.00022839796
5.7983652e-05 8.41074e-05 -0.00011828092 -0.00030702626 -0.00037495003 9.358326e-05 -0.00028179603 0.00029925533
-0.00045752112 -0.0017606055 -0.001673369 0.00043506833 -0.0009932827 -0.00030735292 0.00030795415 -0.000451994
-0.00013365824 0.0004114171 0.00018027799 -0.00031142108 0.00016465255 -0.00036318906 0.00034308087 -0.00029149404
-0.00042752043 -0.00031813528 -0.00042557894 0.0004512436 0.0001402757 -0.0001526108 -0.00027688264 0.0002877519
00000000: 9eba 75bd b0db 2739 8fd1 71bd f044 6eb9
00000010: 344a 68bd 0815 16be 504c 9c38 a83e 7fb9
00000020: 3873 1339 25e1 953e bb91 963e f76e 3eb9
00000030: be90 963e 9fcc 18be 89d4 c2b8 8d02 4539
00000040: 7175 24b9 89f8 c4b8 699f bbb9 38a1 8338
00000050: 6fff 56b9 a5ab 1439 3e43 9138 77a5 d3b9
00000060: a5b9 64b9 e758 00ba 46f6 2139 bd44 ab39
00000070: 9978 8639 44af f0b9 7e6c e239 be76 f339
00000080: 9346 a2b8 84fd 8a38 d505 18b9 ee60 b8b9
00000090: a9cb b538 f7d6 52b9 7dc0 aeb9 d76a 7a39
000000a0: 9d07 bbb9 b06e ffb8 59bf 22b8 52cd 9f39
000000b0: aece 14b9 f461 f0b9 d9aa 8139 88d9 f239
000000c0: 60fd 72bd ab92 f439 8882 73bd e38c 03b9
000000d0: 1bd5 67bd f46d 15be 8622 a8b9 0cb1 c238
000000e0: 64b0 4db9 883a 953e b910 963e d8b3 b0b9
000000f0: 556f 963e 55cb 18be eed0 9c39 42b5 87b9
00000100: d671 9eb9 9d20 ce39 7e6b e3b9 baf4 3238
00000110: fdaf 02b9 b92f d338 30eb df39 f037 2438
00000120: d885 45b8 955e 4eb9 6ab7 95b9 25ff 2f39
00000130: 7525 d738 56ff 7a39 ea53 5039 8ff5 73b9
00000140: 2679 a338 c990 d2b9 eef7 99b9 e1d6 ca39
00000150: e6eb e6b9 e139 37b9 187c b339 f2b7 5638
00000160: 9220 9ab7 a3d4 1b39 71ea aeb9 4a07 eb36
00000170: 8cb7 89b9 f112 c639 0972 77b7 1a58 d1b9
00000180: c038 9d3e d5a6 8b39 2b14 9d3e 2178 5a39
00000190: 6056 9c3e 92fa d33e b4b3 e539 fc39 afb9
000001a0: 5d6e a1b9 aace 11bd 721f 14bd aa2a dab9
000001b0: a156 19bd b358 de3e ca9f 70b9 1815 49b9
000001c0: b817 9d3e b7d0 bb39 582b 9d3e 41c7 c239
000001d0: be64 9c3e ceea d33e e5ff 9239 6729 dc39
000001e0: 216d 89b9 9887 12bd 22ec 15bd d927 57b8
000001f0: 1ad4 17bd 2de7 de3e 1935 d0b9 e5c7 c0b9
00000200: f46a 8639 243c 1939 5b74 01ba 445b 46b7
00000210: 59bd 64b8 1389 bfb9 be9d 5c39 0269 6738
00000220: 64c5 e4b9 aa75 d038 5fc7 96b6 77dc 9fb8
00000230: 6802 c839 dd64 d4b9 25f0 9e38 2bf9 cc39
00000240: bdcb 9eb9 2baf bf39 f63b 0639 4ca1 3339
00000250: 585e c5b9 11f5 ab39 8392 b239 15be 8f39
00000260: 12ad e4b9 6429 f0b9 7ee7 0539 50c4 c239
00000270: ee48 c9b9 d9dc fb36 d6f0 1f39 85b3 afb9
00000280: dae1 8fbd 0483 7139 b048 8ebd a48d d6b9
00000290: c9f0 87bd e8d8 febd 080c a7b9 b983 3539
000002a0: cac2 cd37 68a3 693e 9854 6d3e 5507 a3b9
000002b0: 0d39 6e3e 1bc5 9ebd 49bd f439 8940 80b9
000002c0: 4d50 74bd b28a 9eb9 2777 71bd e65c dc39
000002d0: 9c3d 66bd e20c 16be 6fa9 ce38 8b0b 7b39
000002e0: c87c 58b8 c612 963e 3b8d 963e 266c 6cb9
000002f0: 2c8c 963e 09cf 18be 9427 73b9 0d93 dd39
00000300: e12a 943e 0551 aab8 e804 953e 6506 49b8
00000310: c1f9 953e 1e7b d43e 762e e7b9 7783 d439
00000320: 5d83 deb9 607f 23be de3e 22be c858 d839
00000330: 14d5 22be d584 df3e 7b8c ac39 91e3 c6b9
00000340: a3c7 01b9 5639 7839 6880 b8b9 710e c7b8
00000350: e257 8b39 74fd 69b9 f767 bfb9 d613 6b38
00000360: 1a25 5a39 482b f339 f829 87b9 44b4 b639
00000370: 67f3 47b9 900d f937 a0c9 2639 1c7e 6f39
00000380: 7933 7338 d162 b038 960d f8b8 5ef8 a0b9
00000390: f194 c4b9 2142 c438 06be 93b9 5fe5 9c39
000003a0: 72df efb9 1ec4 e6ba f254 dbba e219 e439
000003b0: 0931 82ba 3624 a1b9 e874 a139 9cf9 ecb9
000003c0: 9c26 0cb9 78b3 d739 0109 3d39 3b46 a3b9
000003d0: 95a6 2c39 696a beb9 89df b339 abd3 98b9
000003e0: d224 e0b9 65cb a6b9 3d20 dfb9 e494 ec39
000003f0: f916 1339 2606 20b9 8f2a 91b9 68dd 9639

bias f4 [16]
0.24191695 -0.00020424109 -0.00017087847 0.24132201 -0.00041808837 -0.00027096574 0.045971114 0.046083212
-0.0005106963 -0.00015033779 0.2240171 0.24116816 0.17507975 -0.00043318473 -0.0011730664 -0.00050002406
00000000: 14b9 773e 8d29 56b9 d72d 33b9 1e1d 773e
00000010: df32 dbb9 6810 8eb9 354c 3c3d c0c1 3c3d
00000020: 40e0 05ba fea3 1db9 bd64 653e c9f4 763e
00000030: 1b48 333e 121d e3b9 94c1 99ba 0c14 03ba

weight f4 [1, 16]
-0.3404054 0.0003293699 -0.000467401 -0.33910713 0.00043264625 0.00044997176 0.32704806 0.32675156
-0.0003373514 2.5505695e-05 -0.2894902 -0.3398114 0.3499966 -0.0003514025 0.00027909182 0.00037213566
00000000: 9e49 aebe 48af ac39 800d f5b9 739f adbe
00000010: ccd4 e239 30ea eb39 d872 a73e fb4b a73e
00000020: 8ade b0b9 10f5 d537 0f38 94be c3fb adbe
00000030: c132 b33e 723c b8b9 1253 9239 341b c339
