pre_trained_models/2u3d/diode_pair_2u3d_1N4148_l_1.70k_2.50k_4x32_2.76e-06.pth (torch, 18699 bytes, 9 tensors)

weight f4 [32, 2]
000000 5a b4 8a 3d eb 28 f1 3d 2e 2f 2e ba 9a e5 4f bc
       0.067726806 0.117753826 -0.00066446036 -0.012689019
000010 79 a3 4e bc a0 83 34 bb e2 2d e7 39 3d 2c 3d 3b
       -0.012612217 -0.0027544275 0.0004409394 0.002886548
000020 64 d6 f9 bb ed ac 96 3a 48 2b 6a 3c a2 68 75 bc
       -0.0076244343 0.0011495628 0.014292546 -0.01497856
000030 83 4c 5a be c0 5b 83 3d 1d 16 90 3e b7 d0 d0 3c
       -0.2131825 0.06413984 0.2814187 0.025490148
000040 a6 0e 65 3c 22 3b f8 bb 7d 63 46 bc 80 59 f8 bb
       0.013980543 -0.0075754086 -0.012108681 -0.0075790286
000050 2a 52 4c 3b 0c e8 e6 bb f4 7e b0 bb 1e 1e 0f 3b
       0.0031176903 -0.007046705 -0.0053862277 0.002183802
000060 8c 4e 29 3c e4 c9 a7 bb 74 b8 1f 3c 19 6b 3a bc
       0.010333668 -0.005120503 0.009748567 -0.011378073
000070 99 07 1e bd 20 29 c5 bc 9b 82 89 3e 08 15 49 3d
       -0.038581464 -0.024067461 0.26857457 0.049092323
000080 2e ae f8 3b 12 28 18 bc 6b 3b 8d 3c 2a 00 69 bb
       0.007589123 -0.009286897 0.017240247 -0.0035553076
000090 51 0d b6 bb 92 69 d0 bb 60 16 54 3c 9f 1e a8 bb
       -0.0055557867 -0.006360241 0.012944788 -0.0051306034
0000a0 9f ae 5e be c1 3d 6f 3d 26 ec 6d be d3 82 82 3d
       -0.217463 0.058408502 -0.23234615 0.06372609
0000b0 9c 77 ba bc 0e d5 0c bc 7d 6c 8b 3e fd d0 33 3d
       -0.022762112 -0.008595718 0.27231207 0.04390048
0000c0 5f d9 5e ba 72 00 bb 3b bc 01 b1 bc fc c7 f3 bb
       -0.0008501019 0.00570684 -0.021607272 -0.0074396115
0000d0 5d bf 61 3b 8e 1c 14 3d 5d a5 ba bb 8a fb b2 bb
       0.0034446337 0.036160044 -0.0056959824 -0.0054621147
0000e0 01 ea b3 bb 06 c6 84 bc 3b de f3 bd b5 96 39 3d
       -0.005490542 -0.016207706 -0.119076215 0.04530974
0000f0 06 b2 89 3e 96 7d 08 3d 03 84 79 3e 15 5a 09 3d
       0.26893634 0.033322893 0.24366765 0.033533175

bias f4 [32]
000000 99 cf 06 be cc cb 11 bc a0 99 7b bb 10 0a c2 bc
       -0.1316513 -0.008898687 -0.0038391128 -0.023686439
000010 c2 8b 8e bc 99 40 a5 3c 86 2a b4 3b 53 7c de 3d
       -0.017400626 0.020172404 0.0054982333 0.10863557
000020 a6 9a 7b bc 1e 8a bc bb 18 1c 31 bc 25 97 5b bc
       -0.015356695 -0.0057537695 -0.010809921 -0.013402735
000030 9b 1a a6 3b 26 93 66 bb b4 38 1e 3d ab f7 c2 3d
       0.0050690896 -0.0035182922 0.038628295 0.09519895
000040 a0 d7 7b 3a bf 27 87 bc b0 61 a4 bc f3 92 04 bc
       0.0009607021 -0.016498445 -0.020066112 -0.008091676
000050 50 6c e8 3c 17 7c d4 3c dc e8 a1 3b 62 c3 ec 3d
       0.02837196 0.025938077 0.004941089 0.11560704
000060 91 3c af bc 44 8c b2 3a 4e 3e 05 be ce be cf bb
       -0.021391185 0.0013622125 -0.13012049 -0.0063398844
000070 ef 58 03 bc 35 cf e0 bc 00 b2 00 3e 26 63 e9 3d
       -0.008016809 -0.027442554 0.12567902 0.11395864

weight f4 [32, 32]
000000 66 48 02 3d 67 47 7f 3b f5 d8 2d 3a 7a a3 fd 3a
       0.031807326 0.0038952471 0.00066317554 0.0019351088
000010 c7 c3 38 b9 9d 9b 93 bb 73 96 d1 bd 58 ed 0e 3e
       -0.0001762054 -0.0045046345 -0.10233774 0.13957727
000020 7e 0b 4c ba cd 75 34 bb 1c 40 1e bb f4 de 79 ba
       -0.0007783695 -0.0027536035 -0.00241471 -0.0009531819
000030 dd 18 8a 3b e3 d9 cd b9 dc f3 59 3c 5e a7 da 3d
       0.0042143897 -0.00039262985 0.0133027695 0.10676454
000040 ca 1a b5 3b 28 26 c5 ba 62 d3 0b 3a c4 43 ae 3b
       0.005526875 -0.0015041279 0.00053339277 0.005318137
000050 76 a3 c9 bd 68 a9 d5 bd 9a b9 ab 3b 80 f4 d5 3d
       -0.09845631 -0.10432702 0.0052406313 0.10447025
000060 b9 b2 cf bb 02 5d 7b 3b 62 98 27 be 7b 27 3d 3b
       -0.006338444 0.0038354998 -0.16366723 0.0028862644
000070 99 f4 ca ba b4 21 0e bd dd 0e fe 3d 80 96 e6 3d
       -0.0015484273 -0.03470011 0.12405179 0.11259174
000080 1b 12 39 3b b3 ed 06 bb 0b 59 9f 3a cd 7f 43 bb
       0.0028239551 -0.0020588457 0.0012157274 -0.0029830814
000090 f2 d0 a2 bb da 86 aa 3a 55 5e 52 3b 3c 19 65 3b
       -0.004968756 0.001301016 0.0032099683 0.0034957668
0000a0 5c ba f1 b9 60 99 73 bb df 0d 18 3a 17 43 00 ba
       -0.0004610595 -0.0037170276 0.0005800407 -0.00048928097
0000b0 ba cb 19 ba 1c 25 35 3b b6 0a 79 bb 4d 65 27 ba
       -0.00058668444 0.0027640527 -0.003800077 -0.00063856394
0000c0 df fe 09 3b f8 5a 6d 3b c8 17 a4 3b 86 21 1b 3a
       0.0021056456 0.0036217552 0.0050077178 0.0005917776
0000d0 3e 73 0e bb cf c1 b5 3b 26 15 a8 3b 88 33 a4 bb
       -0.002173617 0.0055467854 0.005129474 -0.005011026
0000e0 22 57 b8 bb 54 df 3d b8 a1 64 62 39 e9 e0 3c 3a
       -0.0056256214 -4.5269102e-05 0.00021590527 0.0007205145
0000f0 47 ef 0d 3b 72 1b 69 bb 10 e5 03 bb b1 6f 0d bb
       0.0021657513 -0.0035569337 -0.0020125546 -0.0021581466
000100 54 de 8e 3b ff 6b 83 3b 9b 9c 7e b8 05 44 3d bb
       0.0043599997 0.004010677 -6.070417e-05 -0.0028879654
000110 0d 52 85 b9 60 d8 88 bb 02 c5 4e bb 5b a4 9f bb
       -0.0002542887 -0.0041761845 -0.0031550531 -0.0048718876
000120 65 86 ac 3b 80 74 9a ba 07 bd 02 3b 6c 11 77 bb
       0.0052650445 -0.0011783987 0.0019949095 -0.0037699593
000130 55 1c b1 bb 7c be 99 3b cd 6c 2d bb 5e 0f d9 ba
       -0.005404989 0.004691897 -0.0026462555 -0.0016560366
000140 c5 e6 50 3b 45 96 87 3b ba 44 b8 bb 52 13 1a 3b
       0.003187583 0.0041377866 -0.005623427 0.002351005
000150 07 81 0d 3a a4 a2 b6 bb eb 9c 63 ba d4 1e e5 39
       0.000539795 -0.0055735875 -0.00086827454 0.00043701252
000160 10 01 39 ba 42 60 78 bb 9c fd 96 3b b4 be 64 bb
       -0.0007057348 -0.003789917 0.0046078693 -0.0034903707
000170 82 e6 70 3b af 42 96 bb 5f e4 8a ba a5 fe ff 3a
       0.0036758487 -0.004585586 -0.0010596624 0.0019530846
000180 82 05 94 3c 0a 82 b3 bb 46 58 1f ba ce 92 3b bb
       0.018069033 -0.0054781483 -0.00060785224 -0.0028621438
000190 ab a9 3c bb 2a 3a 6e bb 92 88 03 3e c7 f8 1a bd
       -0.0028787653 -0.0036350586 0.12845066 -0.03783491
0001a0 75 3a 39 ba 2a 6e 57 3b 5d 38 93 bb 32 f0 95 3b
       -0.0007065901 0.003287206 -0.004492803 0.0045757527
0001b0 96 a5 bc ba f0 5d ef 3a 61 0b 2c 3d 73 4d 19 bd
       -0.001439261 0.0018262248 0.04200304 -0.037427377
0001c0 89 0e 8c 3b d8 24 3f bb 71 aa ca 3a d9 1d 35 3b
       0.0042741937 -0.0029166248 0.0015462172 0.0027636199
0001d0 f5 c5 07 3e d9 5a 0d 3e a9 f1 b0 3b 01 fc 05 bd
       0.13259108 0.13804187 0.005399902 -0.032711033
0001e0 a8 74 8c ba ca 05 25 3b e3 3f 8f be 48 9d f7 b9
       -0.0010715919 0.0025180453 -0.2797843 -0.00047228695
0001f0 8c fc 94 bb 4e 05 95 3d 7b 24 f9 bc 22 a8 09 bd
       -0.0045467075 0.072764024 -0.030412903 -0.03360761
000200 5a 7e 3f 3b f1 e3 1b bb 27 31 e0 bb 42 ca 9f bb
       0.0029219599 -0.0023786987 -0.006841797 -0.004876406
000210 eb 81 83 ba a4 dd b3 bb e3 77 2c bb da 05 84 bb
       -0.0010033225 -0.005489068 -0.0026316575 -0.004029018
000220 67 b1 5d 3b ed 9b 2c 3a 83 dc a4 3b d8 e5 32 3a
       0.0033827664 0.0006584514 0.00503117 0.00068244105
000230 10 97 a2 3b 97 22 c7 ba b9 66 d3 b9 62 60 a7 3a
       0.0049618557 -0.0015192804 -0.0004032159 0.0012769813
000240 5c 21 0c 3b 85 ee a6 3a 81 68 33 bb 3e e9 74 ba
       0.0021382188 0.0012735879 -0.0027375522 -0.0009342617
000250 01 b8 13 bb 73 af 5b ba 87 2b 11 bb c9 6e 80 bb
       -0.0022540095 -0.0008380331 -0.0022151188 -0.0039194566
000260 3a 96 0a 3a 18 61 9f 3b 79 17 87 bb d2 22 96 3b
       0.0005286668 0.0048638694 -0.004122671 0.0045817876
000270 98 63 7f 3b 27 cf b7 bb 2e 15 4e 3a 87 ce 3c ba
       0.0038969275 -0.0056094113 0.00078614324 -0.0007202406
000280 16 c5 0f bb fc 7f d8 3a 45 56 9d ba 0d 67 95 ba
       -0.002193754 0.0016517635 -0.001200386 -0.0011398509
000290 21 ee 26 bb 8c e5 b6 3b d7 ae 88 bb 42 d2 7e bb
       -0.0025471526 0.0055815633 -0.004171233 -0.0038882648
0002a0 ea bc ea 3a 15 48 97 bb 60 24 c0 3a 56 dc f2 3a
       0.0017909084 -0.004616747 0.0014659278 0.00185288
0002b0 9a 9b 88 3b 96 a1 ea 3a 4e 5d 5a bb f1 16 10 3b
       0.00416894 0.001790094 -0.0033319774 0.002198633
0002c0 0b 28 9e ba dd cd 1e 3b c6 b6 04 39 45 bf 5a 3a
       -0.0012066377 0.002423159 0.0001265659 0.00083445414
0002d0 ae 3d 53 3a cd a4 5b bb bc 85 a4 ba d2 1a 06 3b
       0.0008058202 -0.0033514977 -0.0012552063 0.0020462763
0002e0 b5 6c 8c bb 02 d0 34 bb 1a f5 99 bb 19 0a 0c 3b
       -0.00428542 -0.0027589803 -0.004698408 0.0021368323
0002f0 06 20 ee ba ef ff 3d bb a8 69 ef ba de 37 66 ba
       -0.0018167503 -0.002899166 -0.0018265741 -0.00087821286
000300 d2 b6 20 3c e4 51 33 bb fe fa c9 3a 12 71 73 ba
       0.009809213 -0.0027362043 0.0015409885 -0.0009286563
000310 4f 33 84 39 6b f3 93 ba 31 08 06 3e ee 41 10 bd
       0.0002521523 -0.0011287754 0.13089062 -0.035219125
000320 8f 4d 32 bb a9 bb 9e 3a 33 e5 62 bb 3c f7 16 ba
       -0.0027206873 0.001211037 -0.0034621477 -0.00057588867
000330 eb aa 2d bb c7 15 42 3b 0c 6c 2d 3d a7 b3 1c bd
       -0.002649958 0.002961503 0.04233937 -0.038257267
000340 88 62 b6 3a 6f 15 32 bb 59 c0 13 3a be 8f 14 bb
       0.0013914863 -0.002717342 0.0005636267 -0.0022668685
000350 78 63 0f 3e c6 38 14 3e 22 e8 f2 3b 07 e8 f8 bc
       0.14002788 0.14474782 0.0074129263 -0.030384077
000360 fe 6b 8f bb 62 50 87 bb fc c8 a0 be 6c 50 e2 3a
       -0.0043768873 -0.0041294554 -0.3140334 0.0017266399
000370 94 a0 35 3b f4 31 8e 3d f8 54 0b bd 68 f2 0a bd
       0.002771412 0.069431216 -0.03401658 -0.033922583
000380 28 9c 48 3d 8d 9b 9a 3b 15 22 c8 3b 48 c7 80 3b
       0.048977047 0.00471825 0.0061075785 0.003930006
000390 bc dc 76 3b 17 be 89 bb 56 9d 8f bd 12 9b 12 3e
       0.003766819 -0.0042035687 -0.07012431 0.14316967
0003a0 ac 4e 65 bb d2 30 67 3b 8a 28 2f 3a f7 9e 3b 3b
       -0.003498952 0.0035276902 0.0006681761 0.0028628686
0003b0 fe 07 3c bb 60 10 50 39 be 6c a2 3c 26 6e 03 3e
       -0.0028691287 0.00019842526 0.019827243 0.12834987
0003c0 4f f6 80 bb 72 17 58 bb 64 2b 3c ba 60 43 41 3b
       -0.0039356123 -0.003297296 -0.00071780966 0.0029489622
0003d0 3a bc 8e bd 84 b5 a3 bd f5 e0 ce 3b 15 15 08 3e
       -0.06969495 -0.07993606 0.006313438 0.13289292
0003e0 7d 9e 03 3c 3a 99 ef ba e4 e7 74 bd 55 1e 11 bb
       0.008033392 -0.0018279918 -0.05979146 -0.0022143323
0003f0 8d 0b ac 3b a8 3a 90 bc 0e ba 09 3e a3 9d 03 3e
       0.0052504004 -0.017606094 0.1344988 0.12853102

bias f4 [32]
000000 74 7b 85 3d 7d 40 a0 bb 53 5d 98 bb 94 19 a4 3d
       0.065176874 -0.0048905 -0.004649797 0.08012691
000010 3b b2 b2 ba 21 fd b7 bb e0 49 a9 3d 21 eb b7 3d
       -0.0013633439 -0.005614892 0.08266044 0.08980394
000020 8e f7 83 bb ee 12 54 bb 3e 83 7f 3e e2 7d 9a 3d
       -0.0040273136 -0.0032359916 0.24952409 0.075435415
000030 2a b3 ad 3d 0c 4c 11 3b 24 ba a2 3d 13 4a 85 3d
       0.084814385 0.0022170572 0.0794566 0.06508269
000040 de 8a 46 ba a0 f6 17 bb a7 44 ab bb 52 2f 5a bb
       -0.00075737934 -0.0023187771 -0.00522669 -0.0033292365
000050 7f 3a 8b bb 8e d1 56 3b 29 c5 fe ba 1b 65 03 3b
       -0.0042489166 0.0032778713 -0.001943742 0.0020049277
000060 d0 8e 04 bb d5 9f b8 3d d2 f4 3d 3a 45 d3 54 3a
       -0.0020226724 0.090148605 0.0007246259 0.000811864
000070 5d 7e b0 3d 9a 51 5b 3e c4 0e b9 bb 09 76 4e 3b
       0.08617852 0.21417847 -0.005647512 0.003150346

weight f4 [32, 32]
000000 b6 dc 13 3e 6a 52 1d bb fc 1c 8d bb fa 3d cb bd
       0.14439663 -0.0024005421 -0.0043064337 -0.099239305
000010 f4 79 6a 3a 63 5e be ba 9d b8 ca bd de 52 22 3e
       0.0008944564 -0.0014523979 -0.098984934 0.15851924
000020 23 54 7f bb a0 fe e8 3a 40 8a ac 3f 34 5f fb bd
       -0.0038960062 0.001777608 1.347969 -0.12274018
000030 a8 3e 23 3e ba eb 8e 3b e7 a6 18 3e 99 ce 08 3e
       0.1594187 0.004361597 0.14907418 0.13360061
000040 1a 85 4e bb 85 94 38 bb af 23 31 3b d0 b2 ad bb
       -0.003151244 -0.0028164696 0.0027029326 -0.005300857
000050 1f 44 5f bb eb 36 15 3b 23 2f ae ba b0 2a 5d 3a
       -0.0034067703 0.002276833 -0.0013289194 0.0008436842
000060 ff a3 31 bb 0d 56 22 3e a8 6d b6 ba db fd 9e 3b
       -0.0027105806 0.15853138 -0.0013918178 0.0048520393
000070 08 20 1d 3e b2 0d 23 3e e1 f5 9e 3b b7 77 4f ba
       0.1534425 0.15923193 0.0048510884 -0.0007914262
000080 a9 23 43 bb 6a dd 96 b9 ea 62 29 3a 24 f7 83 bb
       -0.0029775894 -0.00028775196 0.0006461578 -0.004027264
000090 07 ba 86 3b 00 eb 70 bb df 6d 97 bb fd 39 ca 3a
       0.0041115317 -0.0036761165 -0.004621252 0.0015428659
0000a0 e4 b1 9e 3a 9d c3 9a 3a 62 4d fd bb a3 05 8c 38
       0.0012107459 0.0011807565 -0.007730172 6.67677e-05
0000b0 3a 11 ff ba 34 c1 9a bb 1e 44 d9 ba e0 79 de ba
       -0.001946009 -0.0047227386 -0.0016576087 -0.0016973577
0000c0 e5 0d 51 3b 67 7a 87 3b 32 4c db 3a 14 8c 82 3a
       0.003189915 0.0041344645 0.0016731082 0.000995996
0000d0 18 9f 0e bb 37 d8 01 3b 45 58 60 ba 02 43 8e ba
       -0.0021762308 0.0019812712 -0.0008558075 -0.001085371
0000e0 a7 e2 89 3b 4d ea 5f 3a 6b 62 84 bb cc 02 ea 3a
       0.0042079273 0.00085416884 -0.0040400526 0.0017853617
0000f0 58 3e aa bb 97 b9 05 3b bf f7 8c 3b 39 c0 4f bb
       -0.0051954202 0.002040481 0.0043019946 -0.0031700267
000100 13 2c 56 b9 8e 48 71 ba 6e 2d e7 ba 5e 57 74 bb
       -0.0002042505 -0.0009204232 -0.001763744 -0.003728352
000110 0e 06 88 3a 47 78 0c 3a 06 b3 7d b9 7e 26 42 ba
       0.0010377781 0.0005358499 -0.00024194652 -0.00074062485
000120 9f 33 ca bb 00 38 6d bb 9c 14 0a ba 3b 06 c3 bb
       -0.0061707045 -0.0036196709 -0.0005267353 -0.0059516705
000130 98 ce aa ba 20 fa 6d 3b 1c 07 76 3b 78 3a a0 bb
       -0.001303154 0.0036312416 0.0037540859 -0.0048897825
000140 25 61 38 bb 60 88 b1 bb f7 fd 81 3a 4b 91 9e 38
       -0.0028134075 -0.0054178685 0.0009917606 7.56109e-05
000150 c3 f8 1e bb 64 dd ec 3a fe 89 ad bb 89 c4 37 3a
       -0.002425716 0.0018071351 -0.005295991 0.0007010182
000160 c7 43 9d 3b 96 c5 9b ba 90 83 41 bb 79 7f b5 bb
       0.0047993395 -0.0011884447 -0.002952788 -0.0055388776
000170 79 dc 5e 3b e3 0f 4d ba 8e b4 3d 3a 9a b3 08 3b
       0.0034005924 -0.00078224967 0.00072366826 0.0020859004
000180 f8 4f f2 3a 65 53 82 3b 32 f1 a4 3b 9c eb 01 bc
       0.0018486967 0.0039772266 0.0050336355 -0.007929709
000190 90 57 8f bb 1a 00 7a bb 43 dc b7 bb 60 b9 61 bb
       -0.004374452 -0.0038147033 -0.005610974 -0.0034442768
0001a0 a3 52 0c 3b 80 7b d4 ba 60 c1 2e ba 04 71 c6 3a
       0.002141156 -0.0016211122 -0.00066663884 0.0015139882
0001b0 02 72 9e bb e2 17 8d 3a 91 c6 88 bb 0d b0 31 bb
       -0.004835368 0.0010764564 -0.0041740616 -0.002711299
0001c0 05 64 05 ba b0 cf bb 3a dd f4 0d ba 04 ca f0 ba
       -0.00050884514 0.0014328863 -0.00054152106 -0.0018370752
0001d0 2c 16 3d bb 46 8a 0b bb da 6c 2e bb 98 d8 74 3b
       -0.0028852327 -0.0021292134 -0.0026615174 0.0037360545
0001e0 db 87 80 bb 5a d9 73 3b 40 b3 43 3b fc 36 33 b9
       -0.0039224452 0.003720841 0.002986148 -0.00017091254
0001f0 0c 9f 0b 3b 34 78 26 bb d1 bd 14 bb 03 42 a9 3b
       0.0021304516 -0.0025401236 -0.0022696147 0.00516534
000200 73 2f 0b bd 7d e5 9f 3b e2 ed 71 3b 08 b0 e8 3d
       -0.033980798 0.004879652 0.003691547 0.113617
000210 90 b5 23 3a 72 c7 64 bb 92 79 02 3e 6d 4a 3f bd
       0.00062450115 -0.0034908918 0.12741688 -0.046701837
000220 54 0d 5f 3b f4 9b 7d b9 fa 2a 6a 3f 51 c6 ff 3d
       0.0034035044 -0.00024186057 0.9147183 0.12488998
000230 a6 55 3a bd 38 14 16 bb aa 63 2d bd 84 b9 f0 bc
       -0.045491837 -0.0022900235 -0.042331375 -0.029385336
000240 41 4d 9e bb 6e be 5d 39 da ee a4 3b 8a 64 a4 3b
       -0.0048309867 0.00021147143 0.005033356 0.005016868
000250 28 bf 89 bb 77 8b b8 bb a6 50 6f bb a5 d8 5a 3a
       -0.004203696 -0.00563186 -0.0036516576 0.00083483226
000260 c7 65 3f bb 38 84 4a bd a4 5b 0e 39 4d fa 22 bb
       -0.002920495 -0.0494425 0.00013576314 -0.002486843
000270 b9 9f 12 bd 6d bf bb 3c 1f 37 0a 3b aa a6 c0 ba
       -0.035796855 0.022918427 0.0021089984 -0.0014698107
000280 c9 3a bd 39 78 de 97 bb 4c 44 97 3b c6 28 90 bb
       0.00036092688 -0.0046346746 0.004616296 -0.004399392
000290 f2 b6 8f 3b cb 35 e4 3a e5 98 60 bb 46 81 75 3b
       0.0043858225 0.0017411051 -0.003427082 0.0037461086
0002a0 de ff 57 3a 49 b8 3d 3b 9f c7 03 3b 79 d2 aa bb
       0.00082397263 0.0028948954 0.0020107997 -0.0052130786
0002b0 2a 4c 5b bb be f5 a2 3b 68 23 e6 3a dd 00 b8 bb
       -0.0033462145 0.0049731424 0.0017558159 -0.0056153373
0002c0 b1 70 1e bb 9c eb ae 3b 73 18 87 bb d4 c8 78 3b
       -0.0024176056 0.0053381454 -0.0041227876 0.00379615
0002d0 7f 82 33 bb fa bc 01 bb 9a 32 1d 3b f0 0a 21 bb
       -0.0027391014 -0.0019796477 0.002398646 -0.002457317
0002e0 8d c8 85 bb 4c 07 6d bb 55 6e 52 3a 42 64 35 3b
       -0.0040827454 -0.003616768 0.0008027305 0.0027678167
0002f0 59 3c 92 b8 5c f7 7c ba d6 4c a3 3b 5f 9a bf ba
       -6.973063e-05 -0.00096498965 0.004983525 -0.001461815
000300 71 c8 b7 bb 41 ff 49 3b e9 18 a6 bb 18 07 45 bb
       -0.0056086113 0.003082231 -0.0050688875 -0.0030064043
000310 6e da a2 bb d5 59 55 3b 78 04 8d bb c2 64 ed ba
       -0.0049698865 0.0032554765 -0.004303511 -0.0018111693
000320 51 77 a6 ba 06 f5 7e bb 12 1e 68 bb ba 9d 08 b9
       -0.0012700354 -0.003890337 -0.0035418314 -0.00013028728
000330 c8 7a 6d 3b a4 d8 0c 3b 3e 62 79 ba fb 84 db b9
       0.0036236513 0.0021491433 -0.00095132354 -0.00041870013
000340 bc 2d 73 bb a1 41 b0 3b da 22 dd ba c6 a2 78 3b
       -0.0037106117 0.0053789173 -0.0016871348 0.0037938817
000350 91 0b be 3a 07 81 a6 ba 32 fb 54 bb a4 bb 20 bb
       0.0014499297 -0.0012703248 -0.0032498357 -0.0024525905
000360 a4 33 22 3b c8 4c 7b bb 62 c5 ff 3a 4c 74 cc 3a
       0.0024750018 -0.0038345326 0.0019513781 0.0015598624
000370 f4 d7 6f ba 41 3d 1e ba c3 85 b5 bb 87 57 59 ba
       -0.0009149306 -0.0006036349 -0.0055396273 -0.00082909357
000380 ee a9 04 bd db c9 a6 3a d2 d9 3f ba b6 09 08 3e
       -0.03238862 0.0012724953 -0.00073185295 0.13284954
000390 96 6e bb 3a 95 c2 d1 39 9d 92 11 3e 34 7a 56 bd
       0.0014299925 0.0004000856 0.14216085 -0.052362636
0003a0 24 57 08 3b 05 28 9d bb 30 2d 61 3f d7 17 08 3e
       0.0020803893 -0.0047960305 0.87959576 0.13290344
0003b0 17 ca 3e bd ba 24 56 bb 38 f1 3c bd 7b d3 0b bd
       -0.046579447 -0.00326757 -0.04612848 -0.03413723
0003c0 db 91 8a bb 07 d6 05 bc 78 f4 b3 3b d7 76 18 3b
       -0.004228813 -0.008168704 0.0054917894 0.0023264193
0003d0 21 7f a7 3b 09 9a 5f bb db 28 ac bb d4 e7 2a bb
       0.0051115905 -0.0034118912 -0.005253894 -0.0026078122
0003e0 75 60 d7 3a 95 27 56 bd ca 7a 2e bb 93 0d e0 3a
       0.0016431945 -0.052283842 -0.002662348 0.0017093889
0003f0 cf 2b 2d bd 67 3f cb 3c e5 e5 a4 b8 e1 2f 99 ba
       -0.042278107 0.024810506 -7.8629506e-05 -0.0011687243

bias f4 [32]
000000 a4 f0 2a 3d d8 03 33 bb aa 69 d0 b9 0a 11 9f 3a
       0.0417334 -0.0027315523 -0.00039751577 0.0012135815
000010 69 8f d1 3d 65 1f 2a bb 46 c6 e0 38 3f 50 e1 3d
       0.102324314 -0.0025958654 0.00010718084 0.11001634
000020 d4 a1 b6 ba 53 01 e6 3d 29 7f e4 3a bc ca 4b bc
       -0.0013933727 0.11230721 0.0017432916 -0.012438472
000030 64 c1 d5 3d 2c c5 74 3d d2 59 6b 3d aa 76 9a bb
       0.10437277 0.05975835 0.057458706 -0.004713853
000040 c8 8c 5c 3d 27 0f 86 bb 04 d7 53 3d 00 76 3c bb
       0.053845197 -0.004091162 0.051718727 -0.0028756857
000050 2e e1 33 bb 70 d9 53 3d 05 5b 2d bb 08 16 65 bb
       -0.002744745 0.051721036 -0.0026451957 -0.0034955759
000060 37 7a 7e bb e1 1c 50 3d 57 e2 e6 3d 98 fd 05 3d
       -0.003883017 0.05080879 0.1127364 0.03271255
000070 72 16 cd 3d 04 7a e3 3d c0 db 70 bb 3a 39 6d bb
       0.10014047 0.11107257 -0.0036752075 -0.003619744

weight f4 [32, 32]
000000 35 1e 4c 3e 97 25 d1 3a 57 4a 4d bb a5 5e 84 3a
       0.19933398 0.0015956637 -0.0031324828 0.0010099007
000010 ef 5e cf bc d9 31 43 3b bb 98 49 bb 96 1a 4b bd
       -0.025313823 0.002978435 -0.00307612 -0.0495859
000020 13 2c 45 3b 47 4b f8 3d 2e 3a 49 3b 54 f4 7b 3c
       0.0030086085 0.12123733 0.0030704844 0.015378077
000030 55 41 e2 bc e1 37 4e 3e 00 4c 48 3e e5 50 83 3a
       -0.027619043 0.20138504 0.19560242 0.0010018615
000040 ef ae 47 3e d4 e6 3d bb 84 ff 4e 3e 1a 36 57 bb
       0.19500326 -0.0028976696 0.20214659 -0.0032838644
000050 d9 2f 1a 3a c1 80 42 3e 71 c4 98 bb 20 f8 8f 3b
       0.00058817636 0.18994428 -0.0046620895 0.0043935925
000060 51 8a 3b 3a f4 df 4d 3e 55 cd 52 bd 2e bf 22 3e
       0.00071540946 0.20104963 -0.05146535 0.15893242
000070 1f b6 bc bc 5b 33 3f bd e6 87 2d bb a4 7f f1 3a
       -0.02303606 -0.046679836 -0.0026478707 0.0018424881
000080 46 38 f9 3a 1c df 73 bb 53 af 52 ba 56 52 a1 ba
       0.0019013963 -0.003721184 -0.00080369896 -0.0012307863
000090 77 8f 3f 3b 87 73 a5 bb 88 81 12 bb 8b dd 15 bb
       0.0029229799 -0.0050491723 -0.0022355039 -0.0022867646
0000a0 0a a3 a1 bb d6 2f 67 bb 10 7a 50 3a 37 6d 96 bb
       -0.004932766 -0.0035276315 0.0007952759 -0.004590656
0000b0 8d 27 82 3b 81 0c bf 39 40 b0 a3 39 5a c4 f5 3a
       0.003972 0.00036439675 0.000312211 0.0018750534
0000c0 78 13 ab bb 16 8e ed 3a 2e 96 69 3b 65 e7 07 bb
       -0.0052208267 0.001812401 0.0035642493 -0.0020737287
0000d0 04 59 6b 3b a4 d6 5b 3b ac 75 7d bb 08 bf a5 ba
       0.0035911212 0.0033544684 -0.0038674874 -0.0012645433
0000e0 22 f1 89 39 60 84 7c bb 93 4c 07 bb 80 16 4a bb
       0.00026310334 -0.003853105 -0.0020645007 -0.0030836165
0000f0 47 40 85 bb 61 76 39 bb 2d 81 41 bb 41 a6 dd ba
       -0.0040665003 -0.002829932 -0.0029526458 -0.001691051
000100 07 e9 22 bd 3a e6 3c 3b 0e 7f 5f bb c8 f3 9f 3a
       -0.039773013 0.002882375 -0.003410283 0.001220339
000110 53 f0 44 3e 12 3f 56 bb 9e 76 75 3b d4 e9 4d 3e
       0.19232301 -0.0032691401 0.0037454735 0.2010873
000120 59 82 98 3a 8d 7a 88 3e 57 26 91 3a d3 d1 2a 3c
       0.0011635526 0.26656 0.0011074048 0.010426003
000130 95 ba 40 3e ac a0 0a bd 32 a1 18 bd 72 77 32 bb
       0.18821175 -0.033844635 -0.037263103 -0.002723184
000140 b7 f3 12 bd 8e 26 d6 3a 4e 55 2b bd 63 80 bf ba
       -0.035876956 0.0016338394 -0.0418294 -0.0014610406
000150 2b 46 e3 b9 5a 8f e2 bc 30 49 33 3b fc ea cc bb
       -0.00043349093 -0.027656246 0.0027356856 -0.0062535983
000160 44 15 a2 ba 8a 46 02 bd 39 d5 4d 3e b5 df ef 3c
       -0.0012365957 -0.031805553 0.20100869 0.029281477
000170 7b b1 40 3e a2 d4 47 3e b8 01 e9 3b 44 e4 47 3b
       0.18817703 0.19514707 0.0071108006 0.0030501047
000180 cb 8b 44 bd 8b 65 60 ba 96 55 82 bb 3f 4d 38 bb
       -0.04798488 -0.0008560053 -0.003977488 -0.0028122214
000190 d8 de 2f 3e e0 26 92 3b 7e 4f a3 3b fe e6 33 3e
       0.17174852 0.0044602007 0.0049838414 0.17568585
0001a0 8e 13 4f 3a 18 a0 85 3e c4 bd fb b7 5a bc 93 3c
       0.0007899337 0.26098704 -3.0009898e-05 0.018034149
0001b0 4e 25 33 3e 6a 67 2e bd 4c e3 20 bd e0 1f e8 ba
       0.174947 -0.042579092 -0.039279267 -0.0017709695
0001c0 19 22 34 bd d0 8b 55 bb af b5 41 bd 00 37 b7 bb
       -0.04397783 -0.0032584555 -0.047292408 -0.0055912733
0001d0 43 40 06 bb a4 e8 2a bd 90 60 b9 3b 19 a4 c2 3a
       -0.002048508 -0.04172577 0.005657263 0.001484993
0001e0 f4 81 f1 ba d1 22 4d bd 2c 0c 3c 3e 38 d9 34 3d
       -0.001842557 -0.05008203 0.18364018 0.04415247
0001f0 8a 5b 2b 3e 2e 0e 35 3e a5 82 90 3b c9 32 28 3b
       0.16734138 0.1768119 0.0044101053 0.0025665036
000200 21 4a 30 ba fa 1c 50 3b 55 8f 3d bb 13 02 05 3a
       -0.0006724913 0.0031755553 -0.0028924544 0.00050738564
000210 3f 6e 48 3b a6 1e e5 3a bf 5d b2 3b 8a 8b 7a ba
       0.003058329 0.0017480447 0.0054433043 -0.0009557536
000220 47 99 ff 3a d6 33 e3 bb 26 fe 0c 3b 9a 28 a5 3b
       0.0019500636 -0.0069336696 0.002151379 0.0050402405
000230 c9 59 41 bb 07 69 2a bb a3 7e 06 3b c5 8c 9c bb
       -0.002950298 -0.0026002543 0.0020522259 -0.004777523
000240 db 46 31 3a dc 54 f7 3a 58 75 35 3a ea 04 0c 3b
       0.00067625724 0.0018869895 0.00069220876 0.0021365234
000250 a6 45 21 bb c2 bd 8c b8 ea 18 53 3b 24 4b a7 bb
       -0.0024608164 -6.711065e-05 0.0032210895 -0.005105393
000260 b0 31 71 bb 2e 0a 47 bb c1 8a be bb 7e b2 2a 3b
       -0.0036803298 -0.0030371058 -0.0058148806 0.002604633
000270 41 ed c1 3b cb 67 80 bb 48 6f 08 3a a0 a2 4f 3a
       0.0059181754 -0.003918623 0.00052045705 0.00079206564
000280 60 4e 42 3a cf aa e4 3a 2b d3 1e bb 48 19 5c b9
       0.00074121915 0.0017445924 -0.0024234753 -0.00020990253
000290 3d 15 82 ba ac d2 55 bb f4 1f 21 3b 6e 95 31 3b
       -0.0009924542 -0.003262679 0.0024585696 0.0027097124
0002a0 59 c1 83 bb f5 eb 87 3b 57 4e c8 ba 4a b6 93 3b
       -0.0040208516 0.0041480013 -0.0015282136 0.0045078145
0002b0 10 8a 61 bb f3 bc d3 3a 7b 84 98 39 1a 1d 75 3b
       -0.0034414567 0.0016154334 0.00029090405 0.003740138
0002c0 53 f4 84 bb 9e ae 6d bb cd ce 11 bb ac e9 93 ba
       -0.004057446 -0.003626741 -0.0022248507 -0.001128485
0002d0 10 96 9f bb 4c 62 a3 3b f8 df 3a bb 82 ab d3 3b
       -0.0048701838 0.004986083 -0.0028514843 0.0064596543
0002e0 19 00 ab 3b 69 c7 e3 3a 09 75 50 3a 38 a8 b5 b9
       0.0052185175 0.0017378154 0.000795201 -0.00034648343
0002f0 c6 70 83 ba 0a c0 4c ba 44 3e db 38 4a b5 18 bb
       -0.0010028116 -0.00078105985 0.00010454332 -0.0023301416
000300 19 29 25 bd 72 3b b6 ba 3c f4 a7 3b b8 13 f5 ba
       -0.040322397 -0.0013903214 0.0051255506 -0.0018697893
000310 13 95 41 3e a9 49 1e 3b 37 0e 1e bb fc 93 54 3e
       0.18904524 0.0024152792 -0.002411736 0.20759577
000320 a8 1a be ba 69 f4 8e 3e da a9 de 3a 60 b1 06 3c
       -0.0014503794 0.27920845 0.0016987876 0.008221
000330 1c d4 44 3e 42 96 0b bd d8 5c 01 bd 28 a5 6b 3b
       0.19221538 -0.034078844 -0.031582683 0.0035956595
000340 3d d6 02 bd d4 02 42 3b c6 87 2f bd e8 81 b4 bb
       -0.031942595 0.0029603736 -0.042854093 -0.00550865
000350 4a 42 a1 3b f2 0d e6 bc 75 60 8b bb ea d1 ff b9
       0.0049212324 -0.028082822 -0.004253442 -0.00048793788
000360 70 6b 41 39 7b 57 28 bd 7f 10 50 3e ba 7a 0b 3d
       0.00018445938 -0.041099053 0.20318793 0.034052588
000370 4f a7 44 3e 2e 01 51 3e d7 63 0d bb 39 1a 8e bb
       0.19204448 0.20410606 -0.0021574402 -0.004336622
000380 43 b7 58 3a 66 08 7c 3b 3a fe 4f ba 1e 0d 55 ba
       0.0008267054 0.0038457154 -0.0007934306 -0.000812726
000390 dd 0d b2 bb ce 4a ce ba 32 d1 b6 bb 66 64 8d 3a
       -0.0054337815 -0.0015738846 -0.0055791372 0.0010787367
0003a0 07 86 4e bb f2 a6 21 bb 4d 83 89 3b 8a fb c9 39
       -0.0031512992 -0.0024666158 0.0041965605 0.0003852512
0003b0 53 d9 59 3b 54 7c 1d 3a 64 cd 88 3b 69 52 ce 3a
       0.0033241108 0.0006007601 0.004174875 0.0015741113
0003c0 92 b0 84 bb 69 7c aa bb 0f 9e a5 bb 07 3c 98 39
       -0.004049369 -0.005202819 -0.0050542424 0.00029036423
0003d0 f3 db 33 3b 93 2f aa ba 18 e4 12 3b 4f 51 5d 3b
       0.0027444332 -0.0012984149 0.0022413787 0.0033770388
0003e0 a4 30 8a 3a cf eb 3c bb a5 9b d1 ba f5 00 52 3a
       0.001054306 -0.0028827076 -0.001599182 0.0008011007
0003f0 d2 34 a5 3b b1 ac 87 3a 09 82 61 3b 0c 42 9d 3b
       0.005041697 0.0010351149 0.0034409782 0.004799133

bias f4 [32]
000000 4e 9c 15 3d 08 2f 2e 3a 87 a6 04 3e 3c bf 05 3e
       0.036526017 0.00066445814 0.1295415 0.13061231
000010 be 75 cb 39 89 77 58 bb 60 45 03 3e f6 d4 db ba
       0.00038806902 -0.0033030233 0.12819433 -0.0016771841
000020 05 54 09 3e 02 60 0e 3e 28 bf eb 3c 02 f5 56 3b
       0.13410957 0.13903812 0.028777674 0.0032799845
000030 c0 c9 86 ba fb 4a b4 bb 1d c5 06 3e f0 1d 0e 3e
       -0.0010283515 -0.0055021024 0.1316113 0.13878608
000040 47 75 0f 3d 26 45 1e 3d 98 c7 87 bb 23 b6 c3 ba
       0.035023954 0.038640164 -0.0041436665 -0.00149316
000050 0c c8 a4 bb ec 5c 18 3d a9 05 0d 3e 0b e7 09 3a
       -0.0050287303 0.037197992 0.1377169 0.00052605633
000060 5a 88 57 bb db 66 88 b9 c8 95 36 b7 e7 78 0c 3e
       -0.0032887668 -0.00026016575 -1.0882919e-05 0.13717996
000070 10 61 26 bb 0b 52 bc bb 26 69 16 3d 08 b1 3c ba
       -0.0025387444 -0.005747085 0.03672137 -0.00071980106

weight f4 [1, 32]
000000 7f 52 3b 3e 5b 40 e2 ba e6 92 39 be 8d db 2f be
       0.18293189 -0.0017261611 -0.18122444 -0.17173596
000010 31 bd 62 bb 01 52 03 39 71 49 3f be 67 8c 5f b8
       -0.003459763 0.00012523682 -0.1868036 -5.3298103e-05
000020 2b 97 34 be fe c1 40 be fa a3 40 3e 80 d3 67 bb
       -0.17635791 -0.18824002 0.18812552 -0.0035373867
000030 0b ae c9 b6 8e 8f 13 ba 9f ef 3a be ff c2 40 be
       -6.010528e-06 -0.00056289963 -0.1825547 -0.18824385
000040 9d 9a 39 3e 10 9e 40 3e 04 c9 74 ba 95 a9 a3 3b
       0.18125387 0.18810296 -0.0009337815 0.004994581
000050 b4 25 00 3b 3a d3 3b 3e ac a3 42 be 15 80 96 b9
       0.0019553723 0.18342295 -0.19007748 -0.00028705658
000060 00 b0 4c 39 f6 ba 0a 3b fe ab 70 3b 94 b0 44 be
       0.00019520521 0.0021168566 0.003672361 -0.19207984
000070 b1 13 a8 3a 4d b4 81 bb 64 93 3d 3e 38 10 9d 3b
       0.0012823251 -0.003958261 0.18513256 0.004793193
