pre_trained_models/2u3d/diode_pair_2u3d_1N4148_l_1.70k_2.50k_2x32_2.91e-06.pth (torch, 8687 bytes, 5 tensors)

weight f4 [32, 2]
00000000: 0ada 68be d5e5 5c3d d653 8eba 1681 753b
00000010: e1e1 5a3e 9e1f ba3c 69ac 1d3e 6296 b2bc
00000020: 2189 843b 2793 2bbb 22b8 deb9 66b8 d43a
00000030: c070 843e cb61 7e3c 0283 443b b0ba bab9
00000040: 0e82 7b3e cec7 e93c b0af b0bb b9cb ccbb
00000050: 478c 813e 1c16 f93c 45aa 53be 9877 0c3d
00000060: 4144 853e 273e 543c 30bf 7cbc d52c 8f3a
00000070: 1a5a 753e c1b8 b63c 4594 23be 24b2 ccb9
00000080: b4f3 f03a e243 24ba 67a9 983d 258f 09be
00000090: acc6 b4bb 418f daba 0907 1f3b 6dbc a4bb
000000a0: 25b8 b33b 2d79 14b7 41be 6ebe 5756 6a3d
000000b0: 8a62 a4bd 908a 85bd 8b0a db39 d0b9 e83b
000000c0: 2dc7 323e 90b9 cfbd 8866 013c 424a 683a
000000d0: 1570 813e c038 d43c 194b 6abe e9d5 553d
000000e0: dc2b 8abb eb5d 12bc a713 5634 ae87 383b
000000f0: 0ba0 3dbb a690 4cbb 3ab9 69bb c992 b7bb
-0.22739425 0.053930122 -0.0010858725 0.0037460974 0.21375228 0.022720154 0.153978 -0.021800224
0.0040446674 -0.002618024 -0.0004248033 0.0016229271 0.2586727 0.015526245 0.0029985313 -0.00035615778
0.2456133 0.028537657 -0.0053920373 -0.0062498716 0.25302336 0.03040605 -0.20670421 0.03429374
0.26028636 0.012954271 -0.015426442 0.0010923395 0.23960152 0.022304894 -0.15974529 -0.00039042637
0.0018383176 -0.0006266219 0.07454186 -0.13433512 -0.0055168476 -0.0016674773 0.0024265668 -0.005027345
0.005484598 -8.849701e-06 -0.23314764 0.057211246 -0.08026607 -0.06520569 0.0004177879 0.0071022287
0.17458792 -0.10142815 0.0078979805 0.0008861163 0.25280824 0.025905967 -0.2288021 0.052205954
-0.004216654 -0.008933525 1.9937453e-07 0.0028157043 -0.0028934504 -0.0031214147 -0.0035663382 -0.005602215

bias f4 [32]
00000000: 01b3 543d 6c31 6dbc f7af f33d 4bee 143e
00000010: 7007 d23a a229 c3bb 796c 153e ea44 b8bb
00000020: 8e49 063e 2e7b d73b d58c 073e 2b2d bf3d
00000030: 227e 2d3e ed19 a5bc 5703 083e dc63 133e
00000040: 5384 b0ba f787 133f dc26 a5b9 6e3d 033c
00000050: 0c17 c1bb 9b78 403d 22d5 953e 7eea c9bc
00000060: 9cd3 043f ef05 3abc 6084 0f3e 458c 713d
00000070: 2c83 c63c ede3 2abc d66a d63b 38ee 2f3b
0.051928524 -0.014477115 0.11898797 0.14544027 0.0016023945 -0.0059558908 0.1459216 -0.0056234496
0.13113996 0.0065759635 0.13237317 0.09334787 0.16942647 -0.020153964 0.13282524 0.14393562
-0.001346717 0.5762934 -0.00031500205 0.008010251 -0.00589264 0.04699002 0.2926417 -0.024647947
0.5188539 -0.011353954 0.14015341 0.058971662 0.02423247 -0.010430318 0.0065434976 0.002684487

weight f4 [32, 32]
00000000: 53bc beb9 3b18 02bb 721b c6ba 311c 5cba
00000010: d4d6 fbba d651 883a fec8 e3ba 3409 20ba
00000020: 7e6a 99ba f8b6 dfba 1ed9 66b8 ba15 d3b8
00000030: 4ec5 feb9 d0e0 d339 db49 ffba ee38 74ba
00000040: a3e5 d2ba d893 ec39 ce8c 63ba bea3 8aba
00000050: 9c1f b639 2882 82ba d73f b03a d221 c8ba
00000060: 8296 14bb 524b e939 ac2e 21ba 09bd c538
00000070: d0fd 1437 a51d 4fba f0b6 d9ba d147 57ba
00000080: 2d04 dcb8 62bc 0a3b 462b 6a3a 200f 31ba
00000090: 76bd db3a f006 23ba 56ed bb3a 1066 9f39
000000a0: f634 09bb ab80 02bb fb62 d738 2e3f 81ba
000000b0: b539 03bb 2cf2 9aba 74cf 0db9 d52c cb39
000000c0: 4a75 e3ba 669b b6ba ee23 d0ba 821a c63a
000000d0: 6feb c0ba aa7d 8a3a 049f 73ba 78ff ddb7
000000e0: f00f f7ba 52a1 233a dbef 04bb e67f fdba
000000f0: 42fb 8e3a 70a9 6db9 ce4f c3ba d08f c23a
00000100: 6e99 4aba 667b a139 b981 ceba 54db ffba
00000110: 5088 3c3a fc16 16ba 35a6 523a ba19 d7b8
00000120: 047a f3b9 d315 ca3a a698 f0ba b5ea 3cba
00000130: 96ab df3a 5a64 e339 6012 083b 2000 0a3b
00000140: 4f1c a73a 0889 f23a 02f8 ffba 977d 9eba
00000150: aa1a 9639 fac6 7cb9 fe64 61ba 7e24 6db9
00000160: 0bf1 abba b648 e4ba a4e7 34ba 34c9 dd3a
00000170: a424 5f39 8d69 3939 31c9 b0ba 4d1b 123a
00000180: 1de3 05bb 1c55 11bb ea7d 21ba 8985 2ebb
00000190: 82a0 4eba 02f0 34bb b9f3 1cbb 9240 db39
000001a0: c0e8 433a 8ab9 633a 5e18 cdba e53a c1ba
000001b0: a551 3d3a fa00 d2bb 0605 baba 2822 3bba
000001c0: 32e1 9b3a 88c4 283a 4402 f23a 7ece 4cba
000001d0: 3530 44ba f30b 24bb 43d7 043b 5cf4 8fbc
000001e0: 444a ef37 a83d a3ba 5c9a 56b8 a47a 5339
000001f0: 384f 6fb9 9b03 06bb d83e 0c3b 0a39 ba3a
00000200: 5256 eaba 5959 153a f312 8c3a baf6 69ba
00000210: 40e0 cbba 3d9d 9e3a 7e58 42ba 7b35 1b3a
00000220: deff ba3a 0546 9439 48a7 beba e6e4 1dba
00000230: 56a7 fbba 401a 04bb fc65 f8b9 90dd e239
00000240: b4bb 9db9 d733 27ba 540f 163a f08f 06bb
00000250: 463a eab7 c15f b0ba 8dcf 08bb 5c4b f73a
00000260: f759 90ba 8a34 e23a 2cf0 133a 76e4 7739
00000270: 68fd d4ba 6691 59b9 aca4 abba 43c4 9039
00000280: de9a 3b3a 84e4 dcba 30a9 37ba fc1b b8b9
00000290: 1ca9 e83a 6812 e5ba 601b fdba 6d68 b9ba
000002a0: 8472 daba e864 7cb9 5b70 42ba 324f e13a
000002b0: 52a1 bbba 69a0 b83a 5020 523a bf78 82ba
000002c0: f5b7 983a e29b f1ba babb ce3a b9ca 543a
000002d0: 8e3a f5b9 b82c 86ba 9461 fc3a 947f 65ba
000002e0: f800 e839 974d 083b 18af de39 2771 bdba
000002f0: 6a8e f4b8 eedc b9ba c21d 3939 dccd b1ba
00000300: 007c 1cbe 52ba 5ebc 8493 003e 7a20 2f3e
00000310: eea8 ec3a 00ba fcba 7402 343e 0115 daba
00000320: 8b6d 153e 8736 ba3a 966d 183e 9afe d2bd
00000330: 09df 333e f71c c0bc 57f3 143e c68f 74bc
00000340: 3494 85b9 e414 273f 31a8 bcb9 c8b7 b53a
00000350: 7a06 b33a c2e0 26be 6c7c 633e f7bf cbbd
00000360: 566d 983e 733c 383a 5560 1f3e 3ae2 15be
00000370: d2ba 673d 05b6 2abb 9454 b5ba 0288 e5ba
00000380: 7ae2 3b3a f46f e5ba 5817 c03a 57c2 8cba
00000390: 7855 9aba a49c a1ba efa1 a63a 9249 78b8
000003a0: a3df c5ba 1d7c c2b9 80a8 ba3a 0161 21ba
000003b0: 7db9 01bb 00f4 a13a 8e26 8d39 1d92 083a
000003c0: b424 9dba acba 7b38 b06a 6cb8 7673 42ba
000003d0: 2d0a c2ba d12b 11b9 91eb b6b9 1a90 b9ba
000003e0: 220f 4eba d3e2 2bbb 6de5 1dbb 8836 85ba
000003f0: edd3 00bb 9162 8eba 02f0 6eba b0d8 bf3a
-0.00036379937 -0.0019850868 -0.001511438 -0.0008396535 -0.0019213804 0.0010400366 -0.0017378626 -0.0006104887
-0.0011704711 -0.0017068079 -5.503848e-05 -0.00010065311 -0.0004859366 0.00040412555 -0.0019476967 -0.00093163445
-0.0016090166 0.0004512358 -0.00086803443 -0.0010577363 0.00034737296 -0.0009957002 0.001344676 -0.0015268868
-0.0022672717 0.0004449734 -0.0006148617 9.4289026e-05 8.880583e-06 -0.0007900841 -0.0016610306 -0.00082123006
-0.00010491195 0.0021169414 0.000893284 -0.0006754268 0.0016764838 -0.00062189903 0.0014337699 0.00030402886
-0.0020936108 -0.0019913118 0.000102704355 -0.0009860748 -0.002002341 -0.001182144 -0.0001352409 0.0003875258
-0.001735368 -0.001393181 -0.0015879849 0.0015114101 -0.0014718602 0.0010566015 -0.00092934095 -2.6464215e-05
-0.0018849354 0.0006241995 -0.0020284567 -0.0019340485 0.0010908621 -0.00022665202 -0.0014901103 0.0014843885
-0.0007728551 0.00030800252 -0.0015755213 -0.0019520321 0.0007191943 -0.0005725471 0.0008035631 -0.00010256791
-0.0004643948 0.0015417881 -0.001835604 -0.0007206605 0.0017064686 0.00043371582 0.0020762905 0.0021057203
0.0012749525 0.0018503973 -0.0019528868 -0.0012091872 0.00028630096 -0.00024106717 -0.0008598118 -0.00022615676
-0.0013118101 -0.0017416689 -0.0006900972 0.0016920925 0.00021280587 0.00017682296 -0.0013487694 0.0005573526
-0.002042956 -0.0022175973 -0.0006160425 -0.0026629886 -0.0007882194 -0.0027608876 -0.002394898 0.00041819044
0.0007473342 0.000868701 -0.0015647521 -0.0014742283 0.0007221944 -0.006408808 -0.0014192171 -0.00071385736
0.0011892675 0.0006437977 0.001846381 -0.0007812752 -0.000748399 -0.0025031536 0.0020269908 -0.017572574
2.8525603e-05 -0.0012454288 -5.1165334e-05 0.00020168215 -0.00022822327 -0.0020448926 0.0021399762 0.0014207673
-0.0017878509 0.0005697213 0.00106868 -0.000892501 -0.0015554503 0.0012101304 -0.0007413699 0.000592075
0.0014266928 0.00028280928 -0.0014545703 -0.0006023183 -0.001919965 -0.0020157248 -0.0004737823 0.00043271156
-0.00030085223 -0.0006378269 0.000572433 -0.002053257 -2.792211e-05 -0.0013456271 -0.0020875663 0.0018867063
-0.001101314 0.001725809 0.00056433934 0.00023640864 -0.0016249837 -0.00020748898 -0.0013095341 0.00027612047
0.0007156561 -0.0016852771 -0.0007006107 -0.00035116065 0.0017750594 -0.0017476799 -0.0019310527 -0.0014145501
-0.0016666208 -0.00024070183 -0.0007417255 0.001718974 -0.0014315045 0.0014085892 0.0008015679 -0.0009954198
0.0011651503 -0.0018433298 0.00157725 0.0008117366 -0.00046773668 -0.0010236716 0.0019255155 -0.00087546674
0.0004425121 0.00207982 0.00042473595 -0.0014453278 -0.00011661353 -0.0014180222 0.0001765406 -0.0013565379
-0.15281677 -0.013594227 0.12556273 0.17102233 0.0018055716 -0.0019281507 0.17579061 -0.001663834
0.14592569 0.0014206924 0.14885554 -0.10302468 0.1756555 -0.023451312 0.14545952 -0.014926856
-0.00025478157 0.6526625 -0.00035983467 0.0013863975 0.0013658546 -0.16296676 0.22215432 -0.09948724
0.29770917 0.00070280506 0.15564092 -0.1463708 0.05657465 -0.0026048434 -0.001383441 -0.0017511847
0.00071672315 -0.0017504678 0.0014655394 -0.001073907 -0.0011774739 -0.0012330008 0.0012713055 -5.9196325e-05
-0.0015096556 -0.00037095035 0.0014240891 -0.00061561173 -0.0019794398 0.0012356043 0.0002692234 0.0005209761
-0.0011989088 6.0016915e-05 -5.6366145e-05 -0.0007417718 -0.0014804058 -0.000138446 -0.00034889256 -0.0014157325
-0.00078605313 -0.0026227727 -0.0024093047 -0.0010163346 -0.0019657568 -0.0010863115 -0.00091147434 0.0014636721

bias f4 [32]
00000000: 50b8 70b9 42c9 21ba 40dc 96ba df8e d9b9
00000010: 80b8 c939 d211 55ba fea6 bc3d 8ab8 e9ba
00000020: 5176 3c3a 7066 5dba e3f6 073e 2b62 7fba
00000030: 90af 05ba 0562 0a3e abce b43d 9217 efb9
00000040: 23a9 b13d 096b 8b39 2242 6aba dc45 073e
00000050: 20eb e5ba e0bd aeba 4d13 093e 74b4 b53d
00000060: 484b 2eba 310c 0b3e d547 00bb 9283 60ba
00000070: 5d26 c43d 1512 5cbb c298 13b9 da7f bb3d
-0.00022956845 -0.00061716523 -0.0011509731 -0.00041495913 0.0003847517 -0.00081279606 0.09211539 -0.0017831486
0.00071892614 -0.00084457453 0.13277774 -0.0009742106 -0.0005099708 0.13513954 0.08828481 -0.00045603194
0.086748384 0.00026591893 -0.0008936246 0.13210243 -0.0017541386 -0.0013331734 0.13386269 0.08872309
-0.0006648791 0.1357887 -0.0019574065 -0.00085645274 0.0957763 -0.0033580114 -0.00014075919 0.09155245

weight f4 [1, 32]
00000000: 901e a639 6414 b03a 1b55 0a3b 56c5 20ba
00000010: d3db 8cb9 dafb eb3a 00a9 8c3e 5b20 b13a
00000020: fa53 a2bb 1c91 faba 682d 92be 768d bbb9
00000030: 1408 c138 ae23 92be 5f39 803e a840 8d39
00000040: 4e62 8c3e f025 f339 245e 3639 8258 94be
00000050: a777 cb38 0c01 ecb9 9957 92be a45b 773e
00000060: 0d4f 3ab9 c4e7 92be ce71 ce3a cbc7 843a
00000070: 75d1 803e 9970 b5ba d7f3 b2b7 8dd0 87be
0.00031684758 0.0013433811 0.0021107856 -0.0006132921 -0.00026866663 0.0018004135 0.27472687 0.0013513671
-0.0049538584 -0.0019116732 -0.28550267 -0.00035772816 9.204462e-05 -0.28542846 0.2504377 0.00026941788
0.2741875 0.00046376837 0.00017391943 -0.28973776 9.702081e-05 -0.00045014208 -0.28582457 0.24156052
-0.00017767791 -0.28692448 0.0015750469 0.0010130344 0.25159803 -0.0013842761 -2.13328e-05 -0.265263
