pre_trained_models/1u3d/diode_pair_1u3d_1N4148_l_0.40k_3.00k_3x32_2.34e-06.pth (torch, 13693 bytes, 7 tensors)

weight f4 [32, 2]
00000000: edf9 1c3e d727 c23b 06ae 4fb9 d8db 1ebb
00000010: ccb2 c9bd e777 173d e273 a03e f6ac f93c
00000020: 3292 e7b9 cfd7 15ba add0 c5ba 1b3c 99ba
00000030: 1504 803a 692d 08b9 e96a 5fbe 7cc6 a13d
00000040: d5b0 2dbe 6003 ab3d fecf d7ba 7218 20bb
00000050: c5a4 0b3e 2c3c 7e3b fcaf fbba 0fb5 27bb
00000060: e89c 8aba bf7b b1ba 7fe8 b4bd 6e27 213d
00000070: 290f 1d3e 47fb ab3b 4b6f 913e a050 123d
00000080: 4d84 9eb9 006f e8b9 7458 a53e 2c82 7fbb
00000090: 8578 193b 5a3f 29bb 802a ee39 a65c b3ba
000000a0: b72d a43d 4831 e1bc 5b25 bf3a 795f 23bb
000000b0: 46e9 a43e fb1b e63c fa20 22bb 5803 fbba
000000c0: b6e7 1cb9 e2c6 beba 74bc f9ba fd78 a43a
000000d0: d082 74bc 1caf 693d 0c7f ddbb 72c1 683b
000000e0: 78bb a33e d552 b43c 502e 7aba 1388 ceba
000000f0: 598b a7b9 3bc9 23bb f455 eb36 9a89 27ba
0.15329714 0.0059251594 -0.00019805887 -0.0024239924 -0.09848556 0.036979582 0.31338412 0.030477982
-0.00044168677 -0.0005716057 -0.0015092097 -0.0011690886 0.0009766842 -0.00012986887 -0.21818127 0.07899186
-0.16961987 0.08350253 -0.0016465185 -0.0024428633 0.13637073 0.003879319 -0.0019202228 -0.0025590097
-0.0010575326 -0.0013540908 -0.088334076 0.039344244 0.15337814 0.0052484605 0.28405222 0.03572142
-0.0003023468 -0.0004433319 0.32294047 -0.00389875 0.0023417783 -0.0025825114 0.00045426562 -0.0013684228
0.08016532 -0.02748932 0.0014583276 -0.0024928732 0.32209224 0.028089514 -0.0024738894 -0.0019150777
-0.00014963638 -0.0014555121 -0.0019053356 0.0012548264 -0.014923766 0.057051763 -0.00675953 0.0035515693
0.31978965 0.022012154 -0.0009543644 -0.0015757106 -0.00031956544 -0.002499177 7.013552e-06 -0.00063910487

bias f4 [32]
00000000: 00cb 0c3e 431e 0b3b 7b1b 12be 2aec 8a3d
00000010: 456a 863a 1737 faba 5912 bcba 0b5c 0a3c
00000020: d351 4fbd a5d9 273a 081a 003e 42bb ee3a
00000030: 64cd f435 41b1 11be fbb6 0e3e c590 953d
00000040: 729d 583a 642d 9f3c 6986 42ba 1e97 a6ba
00000050: 5aa2 333e 56fa 843a 1b10 853d 957a 083b
00000060: cef6 16bb 7f8a ecbb d384 1ebe 5b72 a6bc
00000070: 065f 853d f732 363b 88d4 e6ba 1883 003a
0.13749313 0.0021227754 -0.14268295 0.06783326 0.001025506 -0.0019089904 -0.001434873 0.008444796
-0.050615143 0.0006402976 0.1250993 0.0018213766 1.8239193e-06 -0.14227773 0.13936989 0.07303003
0.0008263207 0.019430824 -0.00074205414 -0.0012709831 0.17542401 0.0010145407 0.064972125 0.0020825018
-0.002303529 -0.0072186585 -0.15480356 -0.0203182 0.06512265 0.0027801374 -0.0017610947 0.0004902347

weight f4 [32, 32]
00000000: acc2 e63d ae60 d639 a5c9 89be 28bb 193e
00000010: a904 9239 e2f5 a739 098c b439 9f98 f9bd
00000020: 1a90 e7bd 5687 1d3a 35b2 be3d 7b7b 4db9
00000030: 811a b1b9 1175 46be 3ac6 ea3d 2e45 f63d
00000040: 751a 8138 cb1d 783e 5447 f3b9 3dca 2c3a
00000050: aa3b 003e e359 4139 8fee 233e 3f78 c639
00000060: 1dcf 213a b7f7 cdba 4f02 09be 4d43 a8bb
00000070: 30ab 243e 5955 0b39 1553 51b9 49da 133a
00000080: 3fbe a7b9 49b2 8c39 62a5 6eba aef0 6cba
00000090: 0ea6 19ba e6ee 5739 f45f 6538 eb73 8eb8
000000a0: f101 36b7 b589 d539 b620 c039 28e6 0eba
000000b0: c80b a439 dedf 76b9 e14a 8839 6672 9cb8
000000c0: 1a25 4fba 18d7 fab9 6b44 263a 75aa 2fba
000000d0: a84f 8539 764a 5eb9 d755 89b8 ca6b 2c3a
000000e0: 5add dab7 fc3c 25ba 0e12 7c39 48fd b6b9
000000f0: ad8e 7339 4c13 9139 184d e5b9 4df0 26ba
00000100: e5ad 15ba b4d4 da38 d327 9f38 6232 6b3a
00000110: c6d9 8a39 5b55 f239 26ba fa39 ebaa d1b8
00000120: 077d 4c3a feff c839 3a52 af39 ca28 1339
00000130: db0d c639 4662 1dba c5e3 3fba 5512 5b38
00000140: 5156 2839 9b43 c4b8 c1da 4bb9 fa0a 233a
00000150: c0ac f5b9 d440 f639 54c0 97ba e91c 28ba
00000160: 9f59 01ba 8261 e3b9 562e 343a e667 9db9
00000170: 8cd3 0eba ccee d239 d895 ee39 8254 143a
00000180: 3ade dd3d 1ccd e9b9 dd8b 2ebd 2c26 163e
00000190: 7ea8 173a 50c0 6939 d65b e0b9 7493 fdbd
000001a0: f10a d8bd a2f7 f539 bba5 b53d c1cf 9f39
000001b0: 67c8 fa39 716b 90bc 2f6b e73d 3ae3 f63d
000001c0: bd59 8ab9 64fe 7f3e 8ff8 25ba 2193 47ba
000001d0: 69fc ce3d 28a7 9eb8 8400 233e e198 adb9
000001e0: b0da f539 7e19 3c3b 4dcd bebd 6988 6f3c
000001f0: 635d 233e 71b3 10ba 0ac3 b339 aac0 443a
00000200: 278b e93d 4dc5 ed39 a77b ec3d 0088 133e
00000210: 3af1 7e3a 4dc8 473a c98c 42ba 2f8d c3bd
00000220: d45e 97bd df7e 6d38 0b2d b73d 3ac7 dfb9
00000230: adef 2f39 d71b ff3d 434c f33d 7c48 f43d
00000240: 7503 443a a416 843e 69b2 3dba e819 0cb9
00000250: 5413 b13d 8440 a639 feac 243e 8399 8ab9
00000260: 56ba 43ba 1e95 393b 705b a33d cb12 853c
00000270: 00fa 253e a0a4 b238 62e3 dc39 c8cf 2fba
00000280: 7a05 2dba 9e84 b3b9 6c18 91ba aa94 083a
00000290: f4a6 0dba 3533 2b39 607f 89b8 918c fbb9
000002a0: 825c 6cba 444a 0739 f3b3 41ba 8e03 443a
000002b0: ef2a 2bb8 1e37 50b9 3964 4eba e284 3fba
000002c0: 1639 1aba da99 75ba c92d 3dba bdbf bfb9
000002d0: 3e8f 3dba 4ee9 373a fedd ea39 78d7 1bba
000002e0: af88 af37 b0a7 8dba ff50 7ab9 9fd2 5eb9
000002f0: 5532 123a 256b 7737 72fa 6d39 9784 8439
00000300: be89 f6b9 43e0 f6b9 ccd1 92b9 dfb1 a3b9
00000310: e6b1 3939 19fb 2e3a 8240 1bba 4402 0fba
00000320: f0e6 fd38 1979 fc38 8bbf 6cb7 41df 48ba
00000330: 3725 ee39 1765 1c3a 9c46 c3b9 33b4 cf39
00000340: ee46 47ba 1205 8fb9 f1aa a6b8 eba8 9339
00000350: 1c9a 3b3a 765b 3dba 424f 83b9 67c9 9db9
00000360: bf3b 0eba 1326 d7b9 b9d9 bbb9 c581 b4b8
00000370: 3b43 80b8 3cc0 313a a342 a2b7 c4b6 bdb8
00000380: 8bfd b1b7 050b 5639 5791 a6b9 61e5 51ba
00000390: 4cf8 113a f865 44ba c4c5 43ba b4ff f339
000003a0: 61a0 c7b9 35f0 41ba 56a4 e638 3048 403a
000003b0: e82e 143a c1fd 20ba debb fdb9 2d73 4eba
000003c0: 192b 8d39 b07f 92b8 ed21 4e38 e63f 133a
000003d0: e4af 37ba 6d1e b5b9 70cc 2bba 2152 8938
000003e0: 6fbe d239 e510 02ba 4074 f3b8 50db 10ba
000003f0: 95ee fe39 8e6f 283a 8a5c b8b9 c3f4 2439
0.112675995 0.00040889293 -0.26911655 0.150128 0.00027850762 0.0003203592 0.0003443661 -0.12187313
-0.11306782 0.00060092413 0.09311334 -0.00019596324 -0.00033779818 -0.19380595 0.1146359 0.12024914
6.156127e-05 0.24230115 -0.00046401715 0.0006591415 0.1252276 0.000184394 0.16008972 0.00037855093
0.0006172525 -0.0015714084 -0.13379787 -0.005134976 0.16080928 0.00013287867 -0.00019962744 0.0005640132
-0.00031994467 0.00026835714 -0.00091036235 -0.00090385496 -0.0005861231 0.00020592994 5.4687218e-05 -6.792679e-05
-1.0848497e-05 0.00040729126 0.00036645465 -0.0005451166 0.00031289295 -0.00023543785 0.0002599573 -7.459968e-05
-0.0007901952 -0.00047843973 0.00063425925 -0.00067011203 0.00025427085 -0.00021199309 -6.548658e-05 0.0006577341
-2.60907e-05 -0.0006303338 0.00024039319 -0.00034902454 0.00023227437 0.00027670932 -0.00043735723 -0.0006368205
-0.0005709811 0.00010434669 7.589129e-05 0.0008972046 0.00026483665 0.00046221432 0.00047822407 -9.9977326e-05
0.0007800613 0.00038337702 0.00033439865 0.00014034208 0.00037775826 -0.00060037186 -0.0007320012 5.2230742e-05
0.00016053884 -9.358601e-05 -0.00019441081 0.0006219592 -0.0004685875 0.00046969077 -0.0011577704 -0.00064129994
-0.0004934314 -0.00043369463 0.00068733597 -0.00030022784 -0.0005448393 0.0004023224 0.0004550654 0.00056583446
0.10833402 -0.00044594042 -0.042613853 0.14662999 0.00057853 0.00022292254 -0.00042793032 -0.1238164
-0.10548962 0.00046914542 0.08869501 0.00030481632 0.00047833027 -0.017629357 0.112997405 0.12055059
-0.0002638827 0.24999386 -0.00063312886 -0.00076131715 0.10106737 -7.5651624e-05 0.15918165 -0.00033111035
0.00046892976 0.0028701718 -0.09316502 0.014619925 0.15953593 -0.0005519903 0.00034286856 0.0007505516
0.11403494 0.00045351163 0.11547022 0.14407349 0.00097252766 0.00076210947 -0.00074214913 -0.09548413
-0.07391134 5.662336e-05 0.08944138 -0.0004268231 0.00016778587 0.12456482 0.1187978 0.11927888
0.0007477322 0.25798523 -0.0007236363 -0.00013361091 0.08646265 0.00031710055 0.16081616 -0.00026435786
-0.0007466426 0.002831764 0.07976425 0.016244313 0.16208649 8.518365e-05 0.00042131083 -0.0006706682
-0.00066002423 -0.00034240348 -0.00110699 0.0005210141 -0.0005403601 0.00016326907 -6.5563945e-05 -0.0004797918
-0.000901647 0.0001290227 -0.000738918 0.00074773363 -4.0809562e-05 -0.00019856959 -0.00078732107 -0.0007305873
-0.000588314 -0.0009368934 -0.00072166004 -0.00036573215 -0.00072311226 0.0007015661 0.00044797355 -0.0005944888
2.0925274e-05 -0.0010807421 -0.00023872031 -0.00021250032 0.0005576958 1.4747294e-05 0.0002269538 0.0002527579
-0.00047023402 -0.00047087864 -0.000280036 -0.00031222307 0.00017709247 0.00066749897 -0.0005922393 -0.00054553547
0.000121069956 0.000120388526 -1.4111293e-05 -0.0007662662 0.00045422625 0.00059659913 -0.00037245906 0.00039616376
-0.0007601817 -0.00027278863 -7.947337e-05 0.0002816388 0.0007156448 -0.00072234066 -0.0002504532 -0.0003009543
-0.0005425773 -0.00041036363 -0.00035829635 -8.60724e-05 -6.116038e-05 0.00067806593 -1.9342935e-05 -9.046265e-05
-2.121811e-05 0.00020412735 -0.00031770274 -0.00080068974 0.000556831 -0.0007492001 -0.0007468129 0.00046539085
-0.0003807573 -0.00073981594 0.000109978646 0.00073349755 0.00056527415 -0.0006141328 -0.00048395892 -0.0007875439
0.00026925726 -6.985606e-05 4.9145823e-05 0.00056171266 -0.0007007106 -0.0003454568 -0.0006553596 6.547967e-05
0.00040196205 -0.0004961624 -0.00011608796 -0.0005525844 0.00048624413 0.00064253144 -0.00035164162 0.0001573144

bias f4 [32]
00000000: 40e8 063d b3c3 1eb9 14af 31ba 49c7 113d
00000010: 0f73 563d 8f66 a7b9 e882 17b9 a9cf 5eba
00000020: 2b32 f53c c327 9fbc 4fe0 9cbb e4e2 7db9
00000030: d6c9 29ba affa dd3d ea36 eb3c 0c34 f4b9
00000040: 10f2 c9bc bf99 c13c 664c 4cb9 cad8 e3b8
00000050: c52e 92ba 1d4b e43d 216e b33d 0cae 1ebd
00000060: d1e6 f2bc b521 72b8 786f 173d 57c1 b63d
00000070: 8732 063d d59e 573d 0beb 76bb a222 d33c
0.032936335 -0.00015140958 -0.0006778103 0.035590444 0.052355822 -0.00031929134 -0.00014449249 -0.00084995717
0.029931149 -0.01942814 -0.004787482 -0.00024212484 -0.0006476914 0.1083883 0.028712709 -0.00046578085
-0.024651557 0.023632882 -0.00019483417 -0.000108645836 -0.0011152854 0.11147139 0.0876124 -0.038740203
-0.029651077 -5.772869e-05 0.03697154 0.089235954 0.03276303 0.05264171 -0.0037676718 0.02577335

weight f4 [32, 32]
00000000: a4ed 14bd a082 423a ab57 89b9 86a3 cabc
00000010: a3b2 cebb 11f2 0e3a 41ab c5b8 20f6 65ba
00000020: 9015 05bd a694 91be c1bc 1f3a 94cc 8139
00000030: 305a 7639 a77e 833e cd3f 14bd 3b4d 233a
00000040: 2d54 a2be 7782 26bd 9c34 21b8 7e65 5a39
00000050: 1b46 81b9 e9c2 773e fa75 5b3e 2b74 0ebe
00000060: 979d 9abe 547e 65ba 421a f4bc 6bb0 5f3e
00000070: f928 f0bc b466 f2bb 9cf3 1239 d19e f3bc
00000080: 102f df38 634a 90b9 f719 ddb9 2472 f139
00000090: 867c 20ba 2306 a0b9 e694 f0b9 9753 ef38
000000a0: 8e57 6b39 f088 dd39 175b 8239 39dc 253a
000000b0: 7e13 b8b9 c0da 6eba 062b 10ba 1a6d 0537
000000c0: e66c 0dba 9ab3 5a39 3368 8ab7 0a11 2fba
000000d0: 63d5 3839 f424 56ba b927 cdb9 2422 fc39
000000e0: 0dbd afb8 5b95 24ba ea1b d539 2719 5539
000000f0: 1676 c6b8 5616 01ba 9281 e2b9 1d18 193a
00000100: dcc4 893a 0811 6b39 5775 22ba 552f 8039
00000110: 5789 d837 d6ed aeb9 9dba c1b9 b872 2bba
00000120: 7e06 aeb9 48cc e739 c20d 113a 1607 83b7
00000130: a96c 2939 6f3a fd38 9da7 32b9 9f9a 48b9
00000140: 26c2 e938 bbd4 8539 2b51 08ba e2c2 41b9
00000150: 5503 4f39 3bf2 8039 a0bc 00ba ce0f 8ab9
00000160: 8907 fdb9 d7b8 05b9 66fd 6bba 1da5 b639
00000170: a89d a8b9 fb85 7738 26af 0bba 03c7 ec38
00000180: 92cc 413e c7bc f138 9e61 6e3a f5ab 383e
00000190: e335 253e b9f7 4039 567b a5b9 b489 0fb9
000001a0: 4023 3e3e 5115 8f3e 6343 4fb8 3e26 acb9
000001b0: 3161 1a3a e9a0 f7bd e223 483e 7cc9 b238
000001c0: b483 9c3e b793 503e b9a2 cab9 c706 8439
000001d0: ddad 27b9 e6b2 eebd 602b a9bc 20a1 103e
000001e0: 31e9 ae3e d87f b7b9 bf58 423e df10 7b3e
000001f0: 5285 3c3e 2647 253e 65fc b2b9 0c55 533e
00000200: 11b7 86bc a3a8 9fb9 5d9e 2739 da17 61bc
00000210: 3165 47bc 44b3 003a 2ed4 db36 aa7d 9639
00000220: a1b9 8bbc 6a47 55bc 3add 293a 811c 78b9
00000230: 535b bdb8 5c26 f03b 05ba 55bc c230 0f3a
00000240: 30f5 e6bc edd4 fbbb 6ae3 ff38 3908 d2b9
00000250: e675 ab39 524f d9bb 8ad5 62bc ecae 123d
00000260: a875 00bd 7db8 7cba 868e 15bc 99ac 50bc
00000270: 9056 50bc 05af 50bc 8235 4f39 0794 1b3c
00000280: e17d debb 8561 24ba 80d7 9039 a751 fbbb
00000290: 9453 b3bb 967a d939 4b08 8e39 8762 ab39
000002a0: f8cd f2bb 41ff 193b f089 173a 4104 213a
000002b0: d371 57b8 8332 283c 0065 02bb d110 183a
000002c0: 0452 f7bb 5d56 7bba 0503 f739 d72c bc39
000002d0: 085b d939 59f7 6bbb b544 ffbb 7e61 573c
000002e0: 4609 62bc 3a0a cf39 6515 afbb e6b7 95bc
000002f0: f484 d3bb e1b4 cfbb bc8d e1b9 2200 383c
00000300: 66ad 0abd 9266 ac39 d6b1 45b8 7a0e dabc
00000310: 996a 11bc af8b 863a b8e0 91b9 46db 14ba
00000320: efa5 07bd b4e9 8bbe 4a18 ee39 f59e ce39
00000330: 5e77 e7b9 3fd0 7a3e 275a 05bd d775 3b3a
00000340: 582b 9dbe d40f 08bd 48bb dd39 fae6 a7b9
00000350: c1ed 8e39 cbef 643e c774 453e 0e8a f4bd
00000360: fe9b 97be 346e bbb9 abd7 d8bc a448 533e
00000370: 7b32 ebbc f6a9 2abc 0e78 92ba b091 7fbc
00000380: 82b7 49b9 9098 12ba b6b1 44ba c179 36ba
00000390: 60fb f7b9 38a2 89b9 e2d0 27b9 d656 5a3a
000003a0: 7ffe 22ba e4b8 79ba 1372 3fb9 8927 ba36
000003b0: 3e51 023a 0324 50ba 1c48 73b8 043d 1c3a
000003c0: 6f16 a7b9 6540 2aba 7c7c 1cb9 2030 ae38
000003d0: c293 aeb8 71a0 a9ba 3295 a3b9 b353 98b8
000003e0: 1421 2a3a 00b9 f3b8 a527 a6b8 4202 fbb7
000003f0: a17b a7ba 81ff 07ba 6404 413a db96 7cb8
-0.036359444 0.00074199773 -0.00026195994 -0.024736177 -0.0063079163 0.0005452941 -9.4255905e-05 -0.0008772332
-0.032491267 -0.28433722 0.0006093495 0.0002475722 0.00023493986 0.25682566 -0.036193658 0.0006229465
-0.31704846 -0.040651765 -3.8434388e-05 0.00020827909 -0.0002465703 0.24195446 0.21431723 -0.13911502
-0.30198357 -0.0008754481 -0.029797677 0.21844642 -0.029316412 -0.007397497 0.00014014397 -0.029738816
0.00010642235 -0.00027521243 -0.0004217175 0.00046052143 -0.0006122071 -0.0003052215 -0.00045887305 0.00011411978
0.00022443963 0.0004225443 0.000248634 0.0006327066 -0.00035109738 -0.0009111576 -0.0005499575 7.95282e-06
-0.000539495 0.00020857007 -1.6499404e-05 -0.0006678259 0.000176271 -0.00081689586 -0.00039130243 0.00048090622
-8.379864e-05 -0.0006278359 0.00040647323 0.00020322633 -9.463371e-05 -0.0004924288 -0.00043202617 0.000584008
0.0010510939 0.00022417691 -0.00061972946 0.00024449328 2.581316e-05 -0.00033365068 -0.00036950866 -0.0006540227
-0.00033192703 0.00044211955 0.0005533361 -1.5619717e-05 0.00016157575 0.00012074864 -0.00017037844 -0.00019131087
0.00011146469 0.00025526233 -0.0005200083 -0.00018478514 0.000197423 0.00024594538 -0.000491092 -0.00026333187
-0.00048261535 -0.00012752727 -0.0009002298 0.00034836764 -0.0003216092 5.9014168e-05 -0.00053285284 0.00011290426
0.18925694 0.00011526938 0.00090935256 0.18034346 0.16133837 0.00018402831 -0.00031563145 -0.00013688841
0.18568134 0.2794595 -4.9415405e-05 -0.0003283489 0.00058891164 -0.12091238 0.19544938 8.525231e-05
0.30569232 0.20368849 -0.0003864968 0.00025182051 -0.0001599113 -0.11655216 -0.020650566 0.14123964
0.34162286 -0.0003499973 0.18979166 0.24518155 0.18410233 0.16140422 -0.00034138854 0.20637912
-0.016444715 -0.00030452487 0.00015985356 -0.013738597 -0.012170122 0.0004909525 6.5514096e-06 0.00028703857
-0.017056288 -0.013017515 0.00064798037 -0.00023661742 -9.029233e-05 0.0073287915 -0.013044839 0.00054622826
-0.028193086 -0.007685295 0.00012201707 -0.00040060448 0.00032703503 -0.00663177 -0.013844857 0.03581135
-0.031362206 -0.0009640528 -0.0091282185 -0.012736463 -0.012715951 -0.01273704 0.00019760992 0.009495742
-0.0067899083 -0.0006270635 0.0002762638 -0.007669646 -0.00547261 0.000414808 0.0002709053 0.0003268907
-0.0074098073 0.002349809 0.0005780747 0.00061422965 -5.1366e-05 0.010265949 -0.0019896626 0.00058008457
-0.007547619 -0.0009587759 0.0004711376 0.00035891563 0.0004145729 -0.0036005585 -0.007790173 0.013145803
-0.013796156 0.00039489736 -0.0053431266 -0.018276166 -0.006455058 -0.006338701 -0.00043020945 0.0112305
-0.033856772 0.00032882817 -4.7134083e-05 -0.026618231 -0.0088755125 0.0010265018 -0.00027823984 -0.0005678426
-0.03311723 -0.2732674 0.00045412994 0.00039409814 -0.0004414869 0.24493502 -0.03255668 0.00071510434
-0.3069713 -0.03321822 0.0004229194 -0.00032024813 0.0002726149 0.22357099 0.19282828 -0.11940394
-0.296112 -0.00035749527 -0.026470026 0.20633179 -0.028710594 -0.010416498 -0.0011174695 -0.015598699
-0.00019237216 -0.00055921916 -0.00075032876 -0.0006960892 -0.000472988 -0.0002625154 -0.00016004176 0.00083289796
-0.00062177324 -0.0009526147 -0.00018257675 5.5478345e-06 0.00049712125 -0.00079399365 -5.800287e-05 0.000596002
-0.00031869436 -0.0006494581 -0.00014923693 8.3059305e-05 -8.3244886e-05 -0.0012941492 -0.00031200942 -7.263515e-05
0.00064899144 -0.00011621602 -7.922881e-05 -2.9922583e-05 -0.0012777933 -0.00051879144 0.000736302 -6.0221977e-05

bias f4 [32]
00000000: a02b 093e 72b0 e2b8 6b63 cfb9 0b02 003c
00000010: 06ae cfb9 5a67 dcba 8735 fc3d 816e edb9
00000020: 8eb5 d93a ae6f e2b8 5e8c e93c d7ba 08b9
00000030: cc3f d4b8 745c 083e 0dcb 84b9 2298 083e
00000040: 6e94 a5b9 807f 0f3b ce2a 093e cbec 083e
00000050: cdcd 54b9 45bc a7b9 2691 123e 4bbf 5a3a
00000060: dccb 00ba 9417 c6b9 e68c b13a 2f22 4abc
00000070: f44d fab9 72ab 2eba e94b 863a 5fc6 d8b9
0.13395548 -0.00010809385 -0.0003955619 0.007812987 -0.00039611774 -0.0016815469 0.12314897 -0.00045286494
0.0016609894 -0.00010797322 0.028509315 -0.00013039574 -0.00010120831 0.13316518 -0.00025328287 0.13339284
-0.0003158184 0.0021896064 0.13395235 0.1337158 -0.00020294562 -0.00031992994 0.14313182 0.0008344545
-0.000491319 -0.0003778307 0.0013546019 -0.012337252 -0.00047741795 -0.00066631206 0.0010246012 -0.00041346528

weight f4 [1, 32]
00000000: 9334 66be 999f 3837 beff 9337 9169 4b3e
00000010: bb69 f1b9 3c2c 1cbb e1a2 47be fa0b feb9
00000020: acc2 403e f6f5 90b7 7eec bb3e 338f 7cb9
00000030: 77d3 32ba ca99 62be 6e4f 0e39 8dcc 62be
00000040: c1b1 2c3a b021 413e e5b1 65be c38a 63be
00000050: cdc9 ddb9 3304 9a38 95de c2be 672a 3c3e
00000060: 6722 32b9 cdd8 4e39 5f83 3e3e a2a1 d23e
00000070: 932c dcb7 6b58 82b9 1a4f 3f3e eca0 3f37
-0.22480993 1.1004414e-05 1.7642855e-05 0.19864489 -0.00046045877 -0.0023830077 -0.19495727 -0.00048455579
0.18824261 -1.7280672e-05 0.36703867 -0.00024085939 -0.0006821672 -0.22128978 0.00013571765 -0.22148342
0.00065877667 0.18860507 -0.22431143 -0.22220902 -0.00042302758 7.3440744e-05 -0.38060442 0.1837555
-0.00016988219 0.00019726456 0.18604802 0.4113894 -2.62468e-05 -0.0002486141 0.18682519 1.1421955e-05
