pre_trained_models/1u3d/diode_pair_1u3d_1N4148_l_0.90k_1.30k_2x16_1.68e-06.pth (torch, 5295 bytes, 5 tensors)

weight f4 [16, 2]
00000000: f39b 58be 0bd6 913d bf9b 923e 4ad7 023d
00000010: 3a23 42bd 7eeb a23d ec46 37be 2e35 093d
00000020: 76e3 2b3c f856 b13b 59ac f7bb 17cc c6bb
00000030: 645d da3e 2f19 2f3d 7f16 35bc ff68 9bbb
00000040: 50f4 c23e db5d 123c 7402 1f3c 5c22 21bc
00000050: 32d0 e33a 055c c63b d1f5 113c 2846 12bc
00000060: d037 7a3c 200c 59bc b6e6 813e 2cc8 04bd
00000070: 5887 18be 856f 473d a70d c33e d64a 353b
-0.2115324 0.071209036 0.2863445 0.031943597 -0.047396876 0.07955073 -0.17898148 0.03349798
0.010491243 0.005411979 -0.0075583872 -0.00606681 0.42649376 0.042748626 -0.011052727 -0.004742741
0.3807702 0.00893351 0.009705175 -0.009834852 0.0017380773 0.00605345 0.008908705 -0.008927859
0.015272096 -0.01324752 0.2537133 -0.03241746 -0.1489538 0.048690338 0.38096353 0.0027663014

bias f4 [16]
00000000: 54ea 913d 74ab 0f3e eaf9 dd3d 4394 47be
00000010: a6af e2bc 4e8e 9abb b58c 003e 300e aab9
00000020: 4e3a 1b3e 53c3 883b d9df a9bc 967f 6abc
00000030: 7f60 3c3c 7592 2a3e e75c 55be 9b05 263e
0.07124773 0.14030248 0.10838683 -0.19490151 -0.027671646 -0.004716671 0.12553675 -0.00032435497
0.1515896 0.004173675 -0.020736622 -0.014312645 0.011497616 0.16657431 -0.2083622 0.16213076

weight f4 [16, 16]
00000000: 6e4f 0d3e 38ca 63bc 10e2 c33d ca8c 43bf
00000010: e494 293c 949c b6ba d78d 9abd 53c9 d83a
00000020: de0a c6bd 4d9c aabb 6055 1c3c 0470 b63b
00000030: d306 103b 3764 7fbd b0f3 37bf 2eba ecbd
00000040: 7a7d 0eba 20ef 97bb d425 12bb 0292 5c3b
00000050: dfa8 01bc 898b 773b db9e fb3a 0090 c3bb
00000060: e3d4 043b 705a 223a 8f3f 19ba 74fe 623b
00000070: fe19 b33b 7847 013b f77f 29bb 7a11 563b
00000080: 56a6 9abb 71ed c0ba c4ef caba 76d7 9abb
00000090: 6c6b e1b9 a95d d9ba 60c2 fbba 2fab 80bb
000000a0: 7718 053b a494 e039 7f7b afbb 6a1b 683b
000000b0: 1363 5fbb 3d08 903b 787c 473b 8352 7a3b
000000c0: 2f22 153e 1da8 34bc ecd9 c23d 1f8c 43bf
000000d0: 89b3 0c3c c464 e63a cb01 98bd b8b0 a1bb
000000e0: a9a3 b8bd 06dc 92b9 5d7f 253c 6ecb a139
000000f0: 715e f7b9 60b5 88bd 2478 38bf 563e ffbd
00000100: 185c 78bb bb73 ffb7 3ed9 60bc ac43 b7b8
00000110: 3475 d8bb 11d8 96ba 7861 88bb 936d d239
00000120: 70f0 93bb b7a7 833b 8f57 993a 5b94 f8b9
00000130: 23be 973b 241c 3dbb 6a1e 7dbb dd26 38bb
00000140: 70ab 62bd 6215 403e a17e 213d ed8e 413f
00000150: 0409 f03b febb ef3a 8389 813e 3956 273b
00000160: c80e 853e 4845 9dbb ef95 1837 e0de 89ba
00000170: 277f c1ba 601a 813e b3e1 2e3f 2953 963e
00000180: 6e0d 4ebd 1b59 383e ff9e 0f3d 68bc 433f
00000190: fd9d 5c3a e06b ea3a f9d6 723e d604 383b
000001a0: 44dc 813e 3849 283b 07c3 acbb f8a0 1fba
000001b0: 061a 153b 76b2 813e c643 3d3f a147 8d3e
000001c0: f7c1 04bc 74dc 4abd 9e42 90bc 62e7 19bf
000001d0: c05e d03b 8cf8 803b 25c2 dfbd 8904 c33b
000001e0: cc37 63bd cfda d53a e56e 4abb 1697 833b
000001f0: 0a80 5a3b 2a67 f83d 48dc 0ebf 85ff 67bd
00000200: 9821 0ebe 1714 203e 611d 00bd 2fbc 973f
00000210: eb5b 26bb 1140 7f3a 560b 693e e6fb b23b
00000220: c230 8c3e 78e8 0b3b a1d6 4d3b 943a 643a
00000230: b12b 3e3b 7c6a 7f3e be19 4b3f ace0 9f3e
00000240: 1778 0f3b 1ca7 75bb a2dc f1ba 2770 423a
00000250: 4054 9bb9 d601 0aba f139 783a a243 bb3b
00000260: 623e 8239 7fde bebb 084f 80ba ac64 0eba
00000270: 76f0 113b 00e9 b8bb ab8c c7bb 4185 c43b
00000280: a7f8 18bc 5844 05bc 6490 35bc f681 31bc
00000290: ec17 e43a b657 5bbb 4c2a 65bc 34b4 323b
000002a0: 48b8 53bc 7267 813b 14eb 5e3b 7632 5ebb
000002b0: ae53 cb3b 9a0d 92bb feb7 f7bb 67d0 c4bb
000002c0: fc64 153e e5c6 6dbb c269 d13d 43fd 42bf
000002d0: 5283 333c f0f3 6ebb 0011 98bd c21f 6cb9
000002e0: 1795 d1bd 9e77 5d3b d0a9 233c f410 153b
000002f0: d861 c03b c938 8bbd 811b 3cbf 7752 fbbd
00000300: 6492 a0bd d0de 173e 2d1c 193c 91f1 8c3f
00000310: 57e5 9f3b d409 573b 2a7d 6f3e f3d4 c43a
00000320: 0132 803e 0019 25bb 7236 873a f3ad 9e3a
00000330: 6ebb c73b c83d 843e 4fae 373f 99fb 903e
00000340: b1d9 47bd 60ae 363e 6631 153d c045 423f
00000350: bf79 2c3c edf1 463a 2518 7e3e 2f7f 863a
00000360: a953 853e 06dd 13bb 53de 3aba 6147 c9ba
00000370: 0891 c4ba d656 803e 24c4 3a3f fa6b 8e3e
00000380: 5628 60bb 1225 e7bb fd16 f33a 4632 7939
00000390: 83f4 d9ba 4e61 f9b7 cc70 9cbb 9c8a 1c3b
000003a0: 5d0f a2bb 5cea bebb fd1f f8ba 17c9 40bb
000003b0: 1616 783b 24ea 21bb 2d9e 203b 9b1c 2abb
000003c0: 6053 a0bb 10f5 dbb9 6533 cbbb 3aa6 b03b
000003d0: 494d 613b ca9b a9bb f80f 06bb eb30 8b3a
000003e0: 4645 633b 954e d8ba e2f2 8a3b 4d84 94bb
000003f0: eb08 02bb bf11 153b 0e68 2b3b 2101 78bb
0.13799831 -0.013903193 0.095646024 -0.763867 0.01035044 -0.0013932162 -0.07546585 0.0016539491
-0.096700415 -0.005206621 0.009541839 0.0055675525 0.0021976724 -0.06235143 -0.7185621 -0.115589485
-0.00054355676 -0.00463666 -0.002230038 0.0033656363 -0.007913797 0.0037772378 0.0019197123 -0.005968094
0.0020268492 0.0006193286 -0.0005845958 0.003463653 0.005465745 0.0019726437 -0.0025863627 0.0032664225
-0.004719536 -0.00147192 -0.0015482833 -0.004725392 -0.0004299538 -0.0016583699 -0.0019207709 -0.0039266567
0.0020308772 0.00042835355 -0.005355298 0.003541673 -0.0034086152 0.0043955133 0.003043918 0.0038196153
0.14563821 -0.011026409 0.095142215 -0.7638568 0.008587726 0.0017577638 -0.07422217 -0.0049343966
-0.09015591 -0.0002801122 0.010101167 0.0003085988 -0.00047181876 -0.066752195 -0.7205832 -0.124630615
-0.003789669 -3.045226e-05 -0.01372367 -8.738725e-05 -0.0066057686 -0.0011508485 -0.00416201 0.0004013596
-0.0045147464 0.004017796 0.0011699068 -0.0004741278 0.0046308204 -0.0028855884 -0.0038622865 -0.0028099336
-0.055339277 0.18758157 0.039427403 0.7560871 0.0073252935 0.0018290279 0.25300226 0.002553357
0.2598784 -0.0047995187 9.094815e-06 -0.0010518692 -0.0014762626 0.25215435 0.6831314 0.2936032
-0.050305776 0.18002741 0.03506374 0.7645936 0.0008415876 0.0017884932 0.23714818 0.0028079054
0.25363362 0.0025678407 -0.0052722725 -0.0006089355 0.0022751107 0.25331467 0.7393154 0.2759371
-0.008102885 -0.049526647 -0.01760989 -0.6011869 0.0063589513 0.003935879 -0.10925702 0.0059514684
-0.055473134 0.001631582 -0.0030888852 0.0040158136 0.0033340477 0.12129052 -0.5580487 -0.056640167
-0.13880002 0.15632664 -0.031278018 1.1854304 -0.0025384377 0.00097370247 0.2275823 0.0054621575
0.2738095 0.002134828 0.0031408446 0.00087062386 0.0029017741 0.24942964 0.79336154 0.312261
0.0021891647 -0.0037483638 -0.0018452595 0.00074172247 -0.00029626675 -0.0005264556 0.0009469083 0.0057148496
0.0002484201 -0.0058248634 -0.0009789178 -0.00054318714 0.002226857 -0.00564301 -0.006089767 0.0059973304
-0.009336627 -0.00813397 -0.011081789 -0.010834208 0.0017402149 -0.0033469028 -0.013987135 0.0027268054
-0.012922354 0.003949099 0.003401463 -0.0033904589 0.0062050438 -0.004457188 -0.0075597754 -0.006006289
0.14589304 -0.003628188 0.1022525 -0.76167697 0.010956602 -0.0036461316 -0.074251175 -0.00022518545
-0.10233515 0.0033793221 0.009989217 0.00227457 0.005871039 -0.0679794 -0.7347947 -0.12271588
-0.07840422 0.1483109 0.009345097 1.101122 0.0048796344 0.0032812255 0.2338759 0.0015017077
0.2503815 -0.0025191903 0.0010315909 0.0012106284 0.0060953414 0.25828385 0.7175035 0.28316954
-0.04879159 0.17839956 0.036424063 0.7588768 0.010527073 0.00075891503 0.24813898 0.0010261292
0.2604039 -0.002256216 -0.0007128466 -0.0015356356 -0.0014996836 0.2506625 0.72955537 0.27816755
-0.003420373 -0.0070539797 0.001854628 0.00023765219 -0.0016628656 -2.9728424e-05 -0.0047741886 0.0023886329
-0.004945679 -0.0058262777 -0.0018930432 -0.0029416734 0.003785496 -0.002470621 0.0024508343 -0.0025956992
-0.0048927516 -0.0004195352 -0.006201195 0.0053909095 0.003437834 -0.005176042 -0.0020456295 0.0010619437
0.0034678741 -0.0016502911 0.0042403797 -0.004532373 -0.0019841741 0.0022746173 0.002615455 -0.003784247

bias f4 [16]
00000000: 170f 223e 3e41 34bb a793 80bb 9516 223e
00000010: 0186 3bbb 38bb e7bc bd47 d2bc 94af ea3d
00000020: 037f 1cbc 0405 b6bb 1107 4bbb cf43 223e
00000030: 0dc3 debc bc87 e1bc 810e 30bb 749b 20bb
0.15826069 -0.0027504708 -0.0039238515 0.15828927 -0.0028613808 -0.028287515 -0.025668973 0.1145927
-0.009551766 -0.005554797 -0.0030979554 0.1584618 -0.027192617 -0.027530544 -0.0026864114 -0.002450672

weight f4 [1, 16]
00000000: 9b4e c3be ec55 0fbb 2f59 26bb b521 cbbe
00000010: 9bee 15bb 369a a83e 78e4 a43e 8d7e d9be
00000020: a800 d93e 8420 563b 37c6 00bc fba1 c9be
00000030: 0376 af3e c6bc a83e f726 bcba cfba 30ba
-0.3814591 -0.0021871282 -0.0025382747 -0.39674154 -0.0022877816 0.32930154 0.32205558 -0.42479363
0.42383313 0.003267319 -0.007859758 -0.39381394 0.34269723 0.32956523 -0.0014354874 -0.0006741704
