pre_trained_models/1u3d/diode_pair_1u3d_1N4148_l_1.70k_2.50k_3x16_4.54e-06.pth (torch, 7165 bytes, 7 tensors)

weight f4 [16, 2]
000000 be e0 84 be a6 1a cb 3d 62 29 89 be fe 63 c4 3d
       -0.25952715 0.09917192 -0.26789385 0.095893845
000010 9b a0 a3 3b 9d 6b ff ba f2 02 87 be 8e 5d b1 3d
       0.004993511 -0.0019487027 -0.26369435 0.08660422
000020 f1 f7 23 3e 15 ef 94 bc c2 4b 3a 3e bc b3 06 bc
       0.16012551 -0.01818041 0.18192962 -0.008221563
000030 38 42 7a 3b 2f 1c ad ba 99 01 b6 3a 45 3e 4c bb
       0.0038186442 -0.0013207252 0.0013885974 -0.0031165045
000040 ae e6 ec 3e ce 55 41 3d 90 ea b4 bd 93 41 06 3d
       0.46269745 0.04720097 -0.08833802 0.03277738
000050 2c 58 4e 3a 5b c2 11 bb 37 99 80 3e 9d 1a db 3c
       0.0007871415 -0.002224109 0.25116894 0.026746089
000060 4e be dd 3e 15 d4 6e 3d 64 d8 93 39 36 e1 f2 ba
       0.43309253 0.058307726 0.00028199248 -0.0018530253
000070 b3 1d ba 3e 6f 32 91 3d 76 2a 79 3b e4 85 f8 ba
       0.36350784 0.070896976 0.0038019693 -0.0018960801

bias f4 [16]
000000 ba 4b 7c bd 41 f4 2f bd df d7 90 ba 6a 12 8e bc
       -0.061595656 -0.042957548 -0.0011050663 -0.017342765
000010 92 0b 63 3e 88 ca 56 3e 82 dd 7a 39 9d 16 28 3b
       0.22172382 0.20975697 0.00023924376 0.0025648244
000020 a3 59 54 3d c7 40 2b be 38 b7 d5 3a db 66 27 3e
       0.051843297 -0.1672393 0.0016305214 0.1634783
000030 fb e9 60 3d 68 24 a1 bb 35 86 6e 3d f9 57 ed b8
       0.05491064 -0.00491767 0.05823346 -0.00011317427

weight f4 [16, 16]
000000 8b 33 ca bd 63 1c bb bd fc c1 d4 ba 62 b0 89 bd
       -0.09873112 -0.09136274 -0.0016232128 -0.067230955
000010 77 02 41 3e 82 dc 2d 3e ed af f1 39 2c f2 27 3a
       0.18848597 0.16978648 0.00046098177 0.0006406631
000020 2c f7 80 3e 0b 8a 04 bb 27 72 96 3a e5 d9 14 3e
       0.25188577 -0.0020223882 0.0011478112 0.14536245
000030 1f dd 5c 3e 97 71 2d b9 90 82 24 3e d0 d1 f4 b9
       0.21568726 -0.00016540881 0.1606543 -0.0004669563
000040 4e f1 60 ba 76 e1 bc b9 04 0f 4d 39 ed b9 ad 3a
       -0.0008580879 -0.00036026136 0.00019555917 0.0013254263
000050 2f 86 03 bb 59 d7 ff 39 70 5d a1 ba de bc 81 ba
       -0.0020068993 0.00048797837 -0.0012311172 -0.0009898206
000060 da db 86 39 23 7a f9 ba 61 4b 0e ba 32 6b 67 3a
       0.00025722274 -0.0019033592 -0.00054281024 0.0008827924
000070 4f 87 11 3a 44 70 51 ba 6f a2 81 3a 52 76 8e ba
       0.00055514736 -0.0007989446 0.0009890328 -0.0010869002
000080 c8 5d 13 be d9 d8 17 be ff 94 bb ba fa 67 10 be
       -0.14391243 -0.14828815 -0.0014311372 -0.14102164
000090 a0 ef 30 3e af 7b 27 3e 9a a1 e0 3a 22 e2 9d 3a
       0.1727891 0.16355775 0.0017138005 0.0012045542
0000a0 c1 0c 80 3e a5 84 ac 3a 69 bd 4e 39 63 9d 27 3e
       0.2500973 0.001316209 0.00019716252 0.16368632
0000b0 4a 53 6a 3e 70 36 47 3a bb 74 44 3e a6 5a e0 3a
       0.22883335 0.00075993594 0.19185154 0.0017116859
0000c0 d3 54 29 be b8 80 2c be 24 f4 bf 3a 02 95 23 be
       -0.16536264 -0.16845977 0.0014644903 -0.1597481
0000d0 ab 85 30 3e 4e 50 29 3e ec a1 71 ba c0 d2 5b ba
       0.1723849 0.1653454 -0.00092175486 -0.0008385591
0000e0 66 9c 7d 3e 16 50 37 bb 9c f6 21 ba 87 00 26 3e
       0.24766693 -0.002797132 -0.000617841 0.16211139
0000f0 c5 d0 61 3e d1 73 7d ba 20 85 3d 3e 8e 63 78 38
       0.22052296 -0.0009668442 0.18507814 5.9220525e-05
000100 52 2c 75 bd 72 df 31 bd 5d 67 84 ba 49 39 a5 bc
       -0.05985672 -0.043425985 -0.0010101605 -0.020168917
000110 73 eb c7 3d ff db 91 3d e8 42 8c ba 0e 29 63 3a
       0.09761705 0.07122039 -0.0010701092 0.00086654804
000120 09 13 0a be 39 ed 44 bf 18 f5 55 3a c5 3e 7d 3c
       -0.13483824 -0.76924473 0.0008161827 0.01545686
000130 d5 8b f9 bd 68 c8 ef b9 30 02 b9 bd 82 0c 66 b9
       -0.12184874 -0.00045734947 -0.0903362 -0.00021939169
000140 bb 39 48 3e 12 5a 39 3e de 13 1c 3a 95 37 1b 3e
       0.19553272 0.18100765 0.0005953888 0.15157922
000150 1b e8 f5 be 44 27 be be 8e 73 a8 ba ac 26 8c b9
       -0.48028645 -0.37139332 -0.0012851821 -0.00026731694
000160 43 0a 97 3d 53 2c 47 3f 8d b5 12 3a 47 80 12 be
       0.07375004 0.7780201 0.0005596511 -0.14306746
000170 5e 8d 7f 3e 9e b3 83 39 19 46 35 3e 2a 2b 2d 39
       0.24956271 0.00025120092 0.17702521 0.00016514646
000180 2c 55 bc bd ba b8 b1 bd 39 a3 c1 3a 34 07 86 bd
       -0.09195933 -0.08677812 0.0014773376 -0.06544343
000190 7d 3a 2e 3e 27 13 26 3e 0b db d4 ba a3 9c 58 3a
       0.17014499 0.16218244 -0.0016239596 0.0008263087
0001a0 19 58 83 3e 02 ea 49 3e f6 e4 27 39 4e 38 10 3e
       0.2565315 0.19718173 0.00016011656 0.14083979
0001b0 c9 1f 64 3e bb b3 c3 3a 50 89 2a 3e 48 c1 e8 3a
       0.2227775 0.0014930883 0.16653943 0.0017757798
0001c0 b5 6a d5 b8 1a a0 51 bb 0a dc d7 ba 07 96 47 bb
       -0.00010176507 -0.0031986297 -0.0016468775 -0.0030454413
0001d0 b8 83 4a 3a a5 23 cc ba 89 ab f4 b9 dd 81 5c 3a
       0.0007725316 -0.0015574588 -0.0004666711 0.0008411685
0001e0 45 a9 ee ba 9b 0f 8a ba 01 77 c8 39 22 d1 4d 3a
       -0.0018208405 -0.0010533215 0.00038235637 0.00078512926
0001f0 1a 6f 08 bb 52 e6 e0 3a 5a a6 09 bb 5e ec d2 3a
       -0.0020818175 0.0017158485 -0.0021003694 0.0016092171
000200 4b d5 2d b9 e8 39 c1 3a 4e a0 a1 38 e1 d6 97 ba
       -0.00016578023 0.0014741989 7.706937e-05 -0.0011584425
000210 e6 62 e4 b9 9d d0 78 ba 51 1c cc 39 42 24 da 3a
       -0.00043561234 -0.0009491535 0.0003893101 0.0016642886
000220 c9 24 7e b8 9f 92 d1 ba 6d 2c 05 39 6b 6f d8 b9
       -6.0592578e-05 -0.0015989131 0.00012700418 -0.00041281743
000230 b9 ad a3 3a a7 30 db 3a 38 eb 94 3a ce 14 11 ba
       0.0012487686 0.0016722874 0.0011361605 -0.0005534411
000240 00 23 81 b9 c8 d6 5d 3a f5 da 21 ba 3e 5e 0f ba
       -0.00024630874 0.0008462486 -0.000617429 -0.000546906
000250 35 30 b1 ba 7c c4 f7 ba 2d 25 26 3a f9 74 f8 38
       -0.0013518395 -0.0018903161 0.0006337937 0.000118473494
000260 29 4b 86 3a 2d 50 fb ba 02 c5 c8 ba 35 89 4f b9
       0.0010245788 -0.0019173675 -0.0015317502 -0.00019792172
000270 c9 76 88 ba 87 c2 52 3a 03 a4 1b 3a 0a 0d 6e 3a
       -0.0010411377 0.0008039851 0.00059372204 0.00090809225
000280 8c 21 a6 38 bd f8 28 ba 3e a7 c7 3a ed 05 ad 39
       7.9217454e-05 -0.00064457563 0.0015232337 0.00033001546
000290 20 74 ae b7 ed a4 4b ba 6a 4c ea ba 17 7a 92 b9
       -2.0796491e-05 -0.00077684113 -0.0017875556 -0.00027938254
0002a0 30 18 56 3a 72 e0 ce 38 81 45 ac 3a 2c d4 a5 ba
       0.00081670564 9.864652e-05 0.0013143272 -0.0012651733
0002b0 5c a8 a8 3a 48 e2 26 ba df 62 5c ba e7 5f c8 ba
       0.0012867558 -0.0006366116 -0.0008407067 -0.001528737
0002c0 4f ba 23 3a a9 44 b7 ba 1a 3a 58 ba 82 6b 55 3a
       0.00062457187 -0.0013982254 -0.0008248404 0.0008141325
0002d0 33 ed c6 ba d3 d9 7e ba bd 66 99 3a 93 f1 c5 b9
       -0.0015176892 -0.00097217894 0.0011703592 -0.00037754755
0002e0 6b 31 91 ba 42 34 2c 3a e9 ec b6 ba 3d 19 a2 ba
       -0.001107735 0.00065690663 -0.0013956103 -0.0012367141
0002f0 98 f9 e8 39 10 ca 9d ba 5f 60 6b 3a 11 ec a8 ba
       0.0004443645 -0.0012038369 0.0008978899 -0.0012887736
000300 97 a7 8e 3e 03 a8 8e 3e 5d f1 bb 3a f2 54 88 3e
       0.27862236 0.27862558 0.00143389 0.26627308
000310 ee 23 a2 3b 87 11 1f 3c a5 89 8a ba 49 39 a3 b9
       0.004948131 0.009708769 -0.0010569586 -0.00031132463
000320 59 23 b6 bd a1 b0 32 3d f9 c9 81 ba 12 5d f6 3b
       -0.08893461 0.043625478 -0.0009902111 0.007518419
000330 9e f2 64 bd 1f 27 82 3a df fd 94 bc de cb e4 ba
       -0.05589544 0.0009929872 -0.018187461 -0.0017455777
000340 01 16 2d be 74 9b 31 be 7e 9b ea 39 40 8d 25 be
       -0.16902925 -0.17344457 0.0004474781 -0.16167164
000350 42 15 0b 3e 00 e7 0a 3e f3 e0 57 39 fa 2b 84 ba
       0.13582328 0.13564682 0.00020587798 -0.0010083907
000360 9b 52 58 3e e9 ca b1 3b b7 0c 9e ba 92 90 04 3e
       0.21125261 0.0054258 -0.0012058233 0.12945774
000370 a9 72 40 3e ac 8a da 3a b6 b6 21 3e 57 12 db 39
       0.1879374 0.0016673408 0.15792355 0.000417846
000380 20 76 1e bb be fa ee ba 0a c0 b7 3a 43 29 da ba
       -0.0024179295 -0.0018232686 0.0014019024 -0.0016644377
000390 05 10 da ba ca d6 72 3a 2c 32 1c 3a 6b 12 95 b8
       -0.0016636854 0.00092635734 0.0005958404 -7.108304e-05
0003a0 52 9b c9 ba 49 0e 05 3a 0a 96 85 39 ea 98 0e b8
       -0.0015381372 0.0005075676 0.00025479525 -3.399785e-05
0003b0 be 9c f2 ba 92 b3 60 3a 27 51 d2 ba 50 1e de ba
       -0.0018509848 0.000857168 -0.0016045914 -0.001694629
0003c0 ba 86 41 3e 14 c5 43 3e 4f 81 a6 3a 0a 17 3a 3e
       0.1889905 0.19118148 0.0012703332 0.18172851
0003d0 62 dc 4b bb 43 41 5d 3b 40 4c 5a ba 1c d7 b4 ba
       -0.00311067 0.0033760823 -0.0008327402 -0.0013797018
0003e0 0b ee 16 be 47 0f 2e 3f 66 87 52 b9 63 53 c4 3b
       -0.14739244 0.6799206 -0.000200776 0.005991386
0003f0 a7 e3 96 bd 76 36 a8 3a 17 48 c5 bc a9 26 86 ba
       -0.0736764 0.0012833613 -0.024082227 -0.001023491

bias f4 [16]
000000 43 14 0e 3e 06 e7 e9 ba bc dc 7f 3d 26 26 7d 3d
       0.13874917 -0.001784534 0.062466368 0.06180396
000010 46 1b 21 3e 73 ba e2 bd be 39 00 3e 68 bd 2b b9
       0.1573306 -0.110707186 0.12522027 -0.0001637839
000020 0f 67 ca ba 75 92 00 ba 5d 97 09 ba 21 4e ce b9
       -0.0015442091 -0.00049046363 -0.000524869 -0.00039349592
000030 ba 1d cb 3d 2a 62 3d 3d 92 f8 1c 3b 26 03 89 3d
       0.09917779 0.046236195 0.002395187 0.06690054

weight f4 [16, 16]
000000 f2 05 83 b8 5c 98 b3 3a 79 cf a3 b9 45 3d 76 39
       -6.247674e-05 0.0013702023 -0.00031244362 0.00023483213
000010 1b 67 fd ba 96 da 98 ba 44 ee 1d 3a 59 85 82 3a
       -0.0019333096 -0.0011661823 0.0006024579 0.0009957954
000020 e0 b0 7c 3a d9 3b 84 ba e2 05 ea 3a af 62 9c ba
       0.00096393935 -0.0010088637 0.0017854536 -0.0011931265
000030 1f 50 c8 ba 4b 7a 1e 3a 13 6b fd 39 81 30 35 39
       -0.0015282667 0.0006045445 0.00048335697 0.00017279574
000040 7c 53 ae bb cc cd 96 ba b2 8f 19 b9 8e ad c4 ba
       -0.0053200107 -0.0011505424 -0.00014644748 -0.0015005337
000050 b0 c1 d0 ba fb 4f 77 b9 0c 32 4c bb a0 38 ef b9
       -0.0015926864 -0.0002358555 -0.003115776 -0.0004562782
000060 29 84 ba 37 45 35 a5 39 c1 78 82 3a 80 92 8b 3a
       2.223447e-05 0.0003151094 0.00099542 0.0010648519
000070 6b 05 78 ba 9e fb 65 ba dd 48 4e ba 36 ce f1 b9
       -0.00094612566 -0.00087731506 -0.0007869134 -0.0004612074
000080 00 9f 4e 3e 3d 71 a7 ba d8 cf 87 3e 7a 33 8b 3e
       0.20177841 -0.0012774837 0.2652576 0.2718771
000090 10 70 77 bc 5b 42 83 bf 48 be 53 3e fc bd 76 bb
       -0.015102401 -1.0254625 0.20678055 -0.003764986
0000a0 29 25 0c ba 89 65 91 ba de b2 97 b9 99 46 da ba
       -0.00053461135 -0.0011092882 -0.0002893423 -0.001665312
0000b0 5b 76 2e be 74 ca 7d 3e f8 14 9b 3a 14 bc 1c bd
       -0.17037337 0.24784261 0.0011831811 -0.038265303
0000c0 9f 5c bc ba 0d dd a9 ba 23 7d f6 39 41 90 9a ba
       -0.0014370865 -0.0012959555 0.0004701401 -0.0011792259
0000d0 4d c4 eb ba 98 11 ff b9 40 75 ce ba 5c ca d0 b8
       -0.0017987579 -0.00048650499 -0.0015751496 -9.955905e-05
0000e0 38 42 aa ba 65 66 85 ba 99 4c 5d 3a b6 a8 e6 3a
       -0.0012989705 -0.0010177611 0.0008441895 0.0017597887
0000f0 4e fa 83 b9 cc d2 e4 39 4b c9 ed 39 df 3d c5 ba
       -0.0002517276 0.00043644605 0.00045354138 -0.0015048346
000100 ef 6c e2 be a3 7c b5 3a d3 45 79 3a 17 de ff ba
       -0.44223735 0.0013846349 0.0009509001 -0.0019521144
000110 af d5 c0 be 33 6a 33 3f fd fc d5 be 3e c5 2d bb
       -0.37663028 0.7008392 -0.41794577 -0.002651527
000120 ca d0 d9 ba ed 70 cc b9 f5 a7 bf ba 9c 08 e0 b8
       -0.001661801 -0.00038994048 -0.0014622199 -0.00010682756
000130 88 14 3d 3e d0 8a c0 38 54 11 eb 39 cb 28 30 3e
       0.18464863 9.181129e-05 0.00044835603 0.17203061
000140 bf c7 d3 ba 54 9d 3c 3a 56 5f e6 ba dc a5 78 3a
       -0.0016157551 0.00071950746 -0.001757602 0.0009485164
000150 05 07 cd 3a 7b 2d ab b9 9b 58 81 3a 21 a1 0d 3a
       0.0015642351 -0.00032649547 0.0009868325 0.0005402733
000160 f0 9d 8e 3a fc 57 92 3a e9 2d 43 3a 0f b6 c3 39
       0.0010880809 0.0011165137 0.0007445501 0.00037328943
000170 ea 61 a9 ba 2d 62 2a ba 51 b7 92 3a ee ab b6 ba
       -0.0012922857 -0.00064996147 0.0011193549 -0.0013936737
000180 39 0d 2e 3c 4b 00 cb 37 7b 6f e5 bd f2 dc e4 bd
       0.01062327 2.4199622e-05 -0.11202904 -0.111749545
000190 24 2d 00 3f df 61 3a bf 17 e8 c3 ba ce 8b da 3a
       0.5006888 -0.7280559 -0.0014946487 0.0016673745
0001a0 ce 16 ff ba 56 8c 7d ba 8c fc 7c 3a d3 ff 79 ba
       -0.0019461752 -0.0009672096 0.00096506695 -0.0009536717
0001b0 80 4c 2c 3e 0a 15 96 bd 0b 84 f5 3a 59 cd b2 3d
       0.16826057 -0.07328232 0.0018731368 0.08730573
0001c0 d4 bd bd ba 8f 15 46 3a 1c 41 eb 39 f8 38 7c b9
       -0.0014476129 0.0007556313 0.00044871203 -0.00024053815
0001d0 5e 85 05 3a a6 8e cc 3a 31 71 d7 b9 58 f5 a4 3a
       0.00050934206 0.0015606477 -0.0004109233 0.0012585325
0001e0 81 2a 4d 39 ed a8 6e b9 54 20 e1 ba 2b 5e 82 3a
       0.00019566157 -0.00022760378 -0.0017175772 0.0009946277
0001f0 8d 8d 5d ba af d8 5a ba c5 e5 82 ba 1f d8 a8 39
       -0.00084515737 -0.00083483284 -0.000998669 0.0003220448
000200 51 a6 47 3c 1a c6 fa b9 a5 b8 e4 bd eb 14 e9 bd
       0.012185649 -0.00047831313 -0.11168031 -0.11380943
000210 f0 9c 01 3f 72 1e 3a bf 0f cf 3b 3a 1f 68 82 3a
       0.5063009 -0.72702706 0.0007164338 0.0009949243
000220 e4 5e a6 ba 20 42 cb b9 d2 d7 18 3a 0b 14 ca 3a
       -0.0012693075 -0.00038768444 0.00058304996 0.001541735
000230 70 d2 1d 3e fc b4 95 bd d8 5f 9e 3a dc 0a b3 3d
       0.15412307 -0.07309911 0.0012083007 0.08742306
000240 0d 20 43 3a ae 9b 05 ba 4c 91 d0 39 4c 66 b4 ba
       0.00074434356 -0.00050967454 0.00039781106 -0.0013763397
000250 4f 69 ef 38 c6 56 be ba 07 af 7b ba 5b 22 19 39
       0.00011416023 -0.001452171 -0.0009600971 0.00014604015
000260 13 95 91 b9 19 ce 27 ba 40 af be 3a e2 9f 58 ba
       -0.00027767624 -0.00064012554 0.0014548078 -0.00082635705
000270 70 96 8d 3a 8a 73 76 b8 8c 5c d7 ba 25 3c 76 39
       0.001080228 -5.8758575e-05 -0.0016430779 0.00023482794
000280 68 de 1d 3e 02 85 66 39 37 75 88 3e c2 38 8b 3e
       0.15416873 0.00021984059 0.26651928 0.2719174
000290 1c 73 ac be ea f1 3f 3f 4b 8a 2c 3e 05 69 0a bb
       -0.3368157 0.74978507 0.1684963 -0.0021119725
0002a0 0a bf 14 ba ef 52 f2 ba 6c 71 f7 38 fa 6c d4 3a
       -0.0005674219 -0.0018487851 0.00011799004 0.0016206794
0002b0 98 c5 28 bd a7 49 7c 3e 71 f3 7c ba 04 80 70 3d
       -0.041204065 0.24637471 -0.00096493127 0.058715835
0002c0 a9 02 49 3e 33 03 92 ba 24 b7 82 3e 11 93 8b 3e
       0.19629921 -0.001113987 0.2553035 0.2726064
0002d0 2e c4 28 bd 49 f6 8c bf 46 c5 4e 3e 6c 62 6f ba
       -0.041202717 -1.101266 0.20192441 -0.00091317925
0002e0 80 6d 92 ba 74 be 80 ba 6c 31 22 3a a6 a7 cf 3a
       -0.001117155 -0.0009822384 0.0006187174 0.001584281
0002f0 c0 44 4a be 63 c6 7d 3e c8 cf cf b8 39 7e 84 bd
       -0.19752789 0.2478271 -9.9092314e-05 -0.064693876
000300 8b bf f6 b8 2c 15 c7 3a 08 1b 8c b9 07 63 dd ba
       -0.00011765872 0.0015188805 -0.0002672302 -0.0016890474
000310 0b 81 44 ba e9 89 b5 3a 0c 07 51 ba 53 22 ab b9
       -0.00074960355 0.0013850305 -0.00079737674 -0.00032641235
000320 11 51 27 3a bc c7 ac ba 40 e4 90 3a b8 80 92 3a
       0.0006382624 -0.0013182084 0.0011054352 0.0011177277
000330 2c 82 b8 ba 5b fc d6 ba 06 22 04 3a ee 23 61 38
       -0.001407688 -0.0016402112 0.000504047 5.3677642e-05
000340 95 71 25 3e fc bc b7 ba 13 b0 88 3e 38 39 8b 3e
       0.1615661 -0.0014018114 0.26696834 0.27192092
000350 30 ff ab be 7d 46 39 3f 3d b8 34 3e 31 df d5 ba
       -0.3359313 0.7237318 0.17648406 -0.0016317127
000360 92 89 8e 3a 93 8c 95 3a 58 75 d8 3a 36 c3 e6 ba
       0.0010874739 0.0011409692 0.0016514463 -0.0017605785
000370 3c d7 34 bd d6 0e 7e 3e 57 96 6e ba 35 ea 60 3d
       -0.044150576 0.24810347 -0.0009101382 0.054910857
000380 7f 9a 4f 3e ba 22 9c 3a 48 d3 86 3e 3f 33 8b 3e
       0.2027378 0.0011912205 0.2633307 0.27187535
000390 7d 84 0d bc d3 a2 72 bf be 5e 57 3e 11 d0 38 bb
       -0.008637545 -0.947797 0.21032235 -0.002820019
0003a0 9b 68 90 3a 81 fe 74 3a 3e 04 ca b9 b6 69 95 3a
       0.0011017503 0.00093457854 -0.00038531603 0.0011399302
0003b0 bd 96 1f be c2 73 79 3e 76 7a 8a 3a 85 37 fe bc
       -0.15584846 0.24360564 0.0010565061 -0.031032333
0003c0 74 b7 67 b8 32 69 bb 39 58 ac f4 b8 de c7 5b ba
       -5.5245546e-05 0.00035745796 -0.00011666928 -0.00083839695
0003d0 d0 8c 3e ba 55 85 55 39 1c 7f 8e b9 15 1f 29 3a
       -0.00072689075 0.00020362933 -0.00027179054 0.000645147
0003e0 ba 9f d8 ba c1 5c c5 ba 8d 02 54 ba dc 60 10 3a
       -0.0016527094 -0.001505755 -0.00080875383 0.0005507597
0003f0 64 07 9f ba 7e 1e 4d b8 c7 9c 84 ba c5 0d 48 b9
       -0.001213294 -4.8904207e-05 -0.0010117524 -0.00019078616

bias f4 [16]
000000 0c b3 8d ba de 2d 63 39 3e ba 35 3d 11 02 7c 38
       -0.0010810806 0.00021665494 0.044367068 6.0083406e-05
000010 67 f2 c0 bc 9b bb 2b b8 1f 8b 44 3e 84 c2 b3 ba
       -0.023553086 -4.09443e-05 0.19193695 -0.0013714586
000020 f1 b7 42 3e bb 34 be ba bb e4 91 bc ab 3b 14 3d
       0.1901548 -0.0014511565 -0.017809262 0.036189716
000030 f8 f9 6a ba 44 b4 8f bc ff 0a 43 3d cd a8 24 3a
       -0.000896364 -0.017542012 0.04761791 0.0006281257

weight f4 [1, 16]
000000 05 39 6c 39 28 22 1c 3a c7 1c 80 3e ab 53 2c b8
       0.00022527955 0.00059560174 0.25021955 -4.1085917e-05
000010 fd 4f 36 3f 23 fc b3 ba c7 60 d1 be b6 08 0f 3a
       0.712158 -0.0013731759 -0.40894148 0.0005456315
000020 2f e3 d4 be 92 5b 87 3a f5 77 96 3e a8 1f 80 3e
       -0.41579577 0.0010326973 0.29388395 0.25024152
000030 d1 93 79 39 cd 4e 98 3e 70 1b 80 3e 9d 3b 76 b9
       0.00023801556 0.2974762 0.25020933 -0.00023482596
