pre_trained_models/1u3d/diode_pair_1u3d_1N4148_l_0.45k_0.65k_4x16_9.69e-07.pth (torch, 9035 bytes, 9 tensors)

weight f4 [16, 2]
-0.0012644051 -0.0010257434 0.0022649239 -0.0009968901 0.0020315421 -0.0012514819 -0.0002801595 0.0002015905
-0.08054423 0.06535376 0.23130053 0.0338074 0.003404507 -0.004131278 -0.23291148 0.0636387
0.2259714 0.02879577 0.0034451266 -0.003471171 -0.0010305052 -0.0038817993 0.44736055 0.056267593
-0.0019202676 -0.0025138778 -0.0036458445 -0.0027243958 -0.24066861 0.07090332 -0.001869689 -0.0031137655
00000000: 65ba a5ba 3d72 86ba 1e6f 143b 15aa 82ba
00000010: 9f23 053b c408 a4ba 5fe2 92b9 0a62 5339
00000020: 60f4 a4bd 31d8 853d 0cda 6c3e a179 0a3d
00000030: 261e 5f3b ac5f 87bb 5980 6ebe 0255 823d
00000040: 0c65 673e 1be5 eb3c a2c7 613b 967c 63bb
00000050: 0412 87ba c965 7ebb 710c e53e d978 663d
00000060: 7db1 fbba dfbf 24bb 1fef 6ebb c78b 32bb
00000070: d571 76be c335 913d 5a10 f5ba 5110 4cbb

bias f4 [16]
-0.003846459 -0.0009240925 -0.0030098436 -0.00087768305 -0.19704935 0.14127871 -0.0009002487 0.06288778
0.14930815 -0.0027649188 -0.0031593589 0.07707426 0.0018419541 0.00020224214 0.051381618 -0.0011088424
00000000: e014 7cbb cc3e 72ba cc40 45bb 5014 66ba
00000010: 4ec7 49be 5eab 103e abfe 6bba 4fcb 803d
00000020: 3ce4 183e a433 35bb 3f0d 4fbb 1cd9 9d3d
00000030: b96d f13a f610 5439 8875 523d 9456 91ba

weight f4 [16, 16]
0.00041437635 0.00071926677 0.00078068837 0.00091838307 -1.3159983 -0.03578103 0.0014269586 0.15598693
-0.02634027 0.00010092197 0.0012358666 -0.12630871 -0.0002760685 0.00046098066 0.14510049 -3.0816995e-05
0.0003310078 -0.0009014929 -0.0007927458 0.0011652883 -0.3413253 0.21541838 0.00091577676 -0.08612624
0.21694815 -0.00033904242 0.0014686675 0.28079146 0.00022506797 0.00047357613 -0.09850745 0.0012930111
0.00047949713 -0.0012407581 0.0010121136 -0.00051074283 -1.2590457 -0.03280955 -8.513607e-05 0.13220638
-0.026748925 -0.00064091774 5.5569984e-05 -0.13326354 0.0007270676 0.0006078943 0.12490473 -0.0006576735
-0.0006929517 0.0006100204 0.0013429391 2.0937956e-05 -0.3547733 0.21609005 0.0013055084 -0.08456715
0.21917656 0.001328652 -0.0006313045 0.28006274 -0.0007506526 0.0012835717 -0.098643005 -0.0010775935
0.00027555213 0.0012831662 -0.000495357 0.0004783931 -0.00041288987 -0.0004786623 -0.00022576228 0.00033046654
-0.0010714252 -6.0646296e-05 0.00015453827 -0.00039297334 0.001146555 -7.745358e-05 0.0003100365 0.00048624616
-0.0012484342 0.00025885014 -0.00093032303 0.00048134077 -0.00041594377 0.00011034472 0.00023352986 -0.00090169604
0.0013028372 -0.0007297851 0.0006584191 -0.00085824705 -0.0006624307 -0.0003120522 -0.0010750311 -0.0004327995
-0.0012615694 -0.0005235681 0.0011027132 -0.0006667939 0.75657725 -0.020499764 -0.00035877677 0.24887593
-0.017115919 -0.00036849134 0.0006313777 -0.09150505 0.001180526 -0.00021231087 0.25008717 2.6653706e-05
-0.00048683808 0.00079397956 0.0007804652 -0.0014480015 -0.33669373 0.21834466 0.00093105994 -0.08587013
0.220351 -0.0007332317 2.9818868e-05 0.27823082 0.0010264966 8.28703e-05 -0.09869676 0.0012197653
0.0006043362 -0.0010696715 -0.0012591085 -0.0007466504 0.0010716644 -0.0018262747 -0.00078583736 -8.67061e-05
0.0005751378 -0.0002801352 0.00024717476 -0.0019503729 0.0009731264 -0.0013837345 -0.000976428 0.00010092395
-0.0010717884 -0.00053357234 0.00046600305 0.0011602729 0.70654094 -0.01892198 -0.0008729984 0.24903797
-0.020770002 0.0010061208 -0.0004146906 -0.093170494 0.0013192705 -0.00041662573 0.25184697 0.00021537615
0.001371935 -0.0009236069 0.0010886707 5.418189e-06 -0.77134013 0.31898192 0.0006453955 -0.08725516
0.34661078 -0.00019895055 0.0005854393 0.3531059 0.00024375 0.0003642891 -0.10381917 -0.0008812633
0.0004650194 5.0403098e-05 0.0011909293 0.0009231856 0.0014299162 -0.00013957206 0.00059371383 -0.00082615734
-0.0015638607 -0.0010635159 -0.0014128132 -0.0010224531 0.00069752947 -0.0012289527 -0.0012718453 0.0013413202
-0.0011454234 0.00044898526 -0.0009952747 1.9943289e-05 1.0018063 -0.0007769238 -0.0012220786 0.10630778
-0.004665134 0.0003546829 0.00084798376 -0.026535656 3.104497e-05 0.001220569 0.1162641 0.00040163443
-0.00021044668 0.00112778 -0.0012481376 -0.0011608443 -0.35464066 0.21543542 -0.0003725866 -0.08593794
0.22042072 0.0011693402 -0.00079460634 0.28114706 0.0013053148 -0.00097350916 -0.09918574 0.0006515216
-0.001171751 0.0013271489 0.00065079605 -0.001510672 -1.2697058 -0.03467305 -0.0011327153 0.11930824
-0.026967993 -0.001111374 0.00031070388 -0.13809673 0.0010410757 0.0015020493 0.11217264 -0.00047130088
-0.0008289841 0.0014600068 -6.372078e-05 4.890931e-05 -0.3621513 0.21415229 0.0009869863 -0.084225215
0.21688032 -0.00040775302 0.0004918196 0.2788851 0.0011121314 -0.0013247646 -0.09911639 -0.0012845873
00000000: a740 d939 2d8d 3c3a 1ca7 4c3a a5bf 703a
00000010: a272 a8bf 218f 12bd c908 bb3a 0abb 1f3e
00000020: 8dc7 d7bc 12a6 d338 cdfc a13a 1257 01be
00000030: 49bd 90b9 c7af f139 3995 143e 7f41 01b8
00000040: 1d8b ad39 2a52 6cba 45d0 4fba 96bc 983a
00000050: 31c2 aebe a396 5c3e bd10 703a f462 b0bd
00000060: a827 5e3e 81c1 b1b9 4e80 c03a e6c3 8f3e
00000070: 3900 6c39 504a f839 46be c9bd 417a a93a
00000080: 0465 fb39 efa0 a2ba e6a8 843a 5fe3 05ba
00000090: 6928 a1bf 4f63 06bd 148b b2b8 1c61 073e
000000a0: 9020 dbbc 4303 28ba d113 6938 3d76 08be
000000b0: ae98 3e3a 195b 1f3a 0dce ff3d b967 2cba
000000c0: 34a7 35ba c7e9 1f3a 8f05 b03a eba3 af37
000000d0: d9a4 b5be b646 5d3e 981d ab3a 8b31 adbd
000000e0: d26f 603e 2a26 ae3a 217e 25ba 6264 8f3e
000000f0: 71c7 44ba 853d a83a 5805 cabd 0a3e 8dba
00000100: fb77 9039 ea2f a83a d8da 01ba d6d0 fa39
00000110: 2479 d8b9 f7f4 fab9 9aba 6cb9 7842 ad39
00000120: 106f 8cba 775e 7eb8 8d0b 2239 fd07 ceb9
00000130: 0048 963a 936e a2b8 658c a239 dbee fe39
00000140: 80a2 a3ba 47b6 8739 ece0 73ba 775c fc39
00000150: 0713 dab9 df68 e738 b2df 7439 cc5f 6cba
00000160: f6c3 aa3a 0d4f 3fba c299 2c3a fcfb 60ba
00000170: f9a6 2dba f09a a3b9 0fe8 8cba 5ee9 e2b9
00000180: 3f5b a5ba 0f40 09ba ea88 903a c8cb 2eba
00000190: 0caf 413f 1fef a7bc 341a bcb9 55d9 7e3e
000001a0: af36 8cbc 1232 c1b9 0a83 253a 0067 bbbd
000001b0: e1bb 9a3a c49f 5eb9 6d0b 803e 6696 df37
000001c0: 4d3e ffb9 1123 503a 2298 4c3a deca bdba
000001d0: 1f63 acbe be95 5f3e 6012 743a aedc afbd
000001e0: b1a3 613e 5936 40ba 8823 fa37 4574 8e3e
000001f0: 838b 863a a7ca ad38 8721 cabd 88e0 9f3a
00000200: 516c 1e3a 3834 8cba ac08 a5ba dcba 43ba
00000210: 1777 8c3a 9c5f efba a700 4eba fcd5 b5b8
00000220: d8c4 163a 1cdf 92b9 3c97 8139 a8a3 ffba
00000230: 6819 7f3a 6d5e b5ba f9f6 7fba 22a7 d338
00000240: 407b 8cba 6fdf 0bba df51 f439 4c14 983a
00000250: dedf 343f 4502 9bbc eed9 64ba cf03 7f3e
00000260: da25 aabc d0df 833a d56a d9b9 2cd0 bebd
00000270: 5feb ac3a 8f6e dab9 16f2 803e 98d6 6139
00000280: 80d2 b33a 361e 72ba bab1 8e3a e4cd b536
00000290: 8c76 45bf 9951 a33e c22f 293a d5b2 b2bd
000002a0: f876 b13e 629d 50b9 2b78 193a 4cca b43e
000002b0: 2497 7f39 0efe be39 259f d4bd 9404 67ba
000002c0: d9cd f339 ea67 5338 f518 9c3a f001 723a
000002d0: 076c bb3a 175a 12b9 76a3 1b3a 7b92 58ba
000002e0: 75fa ccba ac65 8bba 252e b9ba d503 86ba
000002f0: 69da 363a cf14 a1ba 0cb4 a6ba 3dcf af3a
00000300: 0822 96ba c865 eb39 e173 82ba e34b a737
00000310: 303b 803f 79aa 4bba 272e a0ba e5b7 d93d
00000320: fbdd 98bb bcf4 b939 3a4b 5e3a 4e61 d9bc
00000330: 4836 0238 80fb 9f3a df1b ee3d 7692 d239
00000340: 5aab 5cb9 04d2 933a 8c98 a3ba 7927 98ba
00000350: 7693 b5be 1a9b 5c3e ba57 c3b9 3b00 b0bd
00000360: f8b5 613e 8c44 993a 214d 50ba 82f2 8f3e
00000370: 1917 ab3a 1833 7fba e521 cbbd e0ca 2a3a
00000380: 7095 99ba baf3 ad3a 2f9a 2a3a be01 c6ba
00000390: b885 a2bf 5405 0ebd 9e77 94ba e157 f43d
000003a0: fbeb dcbc 86ab 91ba f8e5 a239 3b69 0dbe
000003b0: b474 883a 69e0 c43a c5ba e53d ef18 f7b9
000003c0: 2e50 59ba b35d bf3a d5a1 85b8 f923 4d38
000003d0: e56b b9be bd4a 5b3e c45d 813a 457e acbd
000003e0: e015 5e3e afc7 d5b9 74ed 003a 07ca 8e3e
000003f0: f0c4 913a b9a3 adba 89fd cabd 995f a8ba

bias f4 [16]
0.11430673 0.1099736 0.11809514 0.110180534 -0.00068363664 -0.0016385594 0.07887737 0.1096099
8.129775e-05 0.080917984 0.14065957 0.0007362211 0.0031655438 0.11108805 0.1191615 0.11075933
00000000: a619 ea3d d739 e13d dddb f13d 55a6 e13d
00000010: 1436 33ba eec4 d6ba 758a a13d 287b e03d
00000020: 667e aa38 54b8 a53d 1009 103e f6fe 403a
00000030: 0375 4f3b 2282 e33d f20a f43d cad5 e23d

weight f4 [16, 16]
-0.00079963147 0.0012497106 0.00037820672 -0.00038950122 -0.0010811664 -0.0014272333 -0.00024377664 0.00032612562
0.00040321835 -0.0004959019 -0.00047695616 0.00057325966 0.00072459027 -0.00026720518 -0.00027783797 -0.00023773566
0.087772086 -0.41059667 0.07893255 -0.39040014 -0.00086000655 -0.000907768 0.111657746 -0.41014412
0.0004839087 0.110773474 -0.30287266 -0.0014291486 0.088810526 -0.39840755 0.07812692 -0.38599682
-0.060377225 0.24468987 -0.04653189 0.24113247 0.0009947373 -0.0002907951 -0.3279272 0.24320081
-0.0005898475 -0.31748745 0.21886662 0.0011853185 -0.42182696 0.24033366 -0.031511962 0.23969126
-0.0013981754 0.00024099094 0.0006353169 -0.001050792 0.0005970773 0.001012228 0.00066949136 -5.6419223e-05
0.0014873652 0.0008158472 -0.0006528517 0.00094650075 -0.001489946 0.0012543192 0.0014768003 -0.0005609938
0.11566682 0.32709724 0.12771001 0.3214923 -0.0014896354 -0.0009365898 -0.18662143 0.31977275
0.000876484 -0.1787652 0.3306009 0.0005656283 -0.23997766 0.32698405 0.14737982 0.32156503
0.00040530864 -0.0020328735 -0.00082596665 -0.0022947537 0.000715608 0.0007508737 -0.00086807564 -0.0023611253
-0.00012171995 -0.001201426 -0.0020705166 -0.001201375 -0.0007589943 -0.00020544026 -0.0011883355 -0.0012826119
0.36538082 -0.05307976 0.37972832 -0.050952457 -0.00088640314 0.00083261204 0.12557393 -0.053460937
0.0007790534 0.13089709 0.04221464 -0.0003866355 -0.11608169 -0.05024722 0.38469344 -0.050989535
0.08633668 -0.41402182 0.08457792 -0.39582255 0.00059342774 0.0005603415 0.051988304 -0.41891587
0.00089187967 0.052544333 -0.19033393 0.00031823208 0.015655177 -0.40359 0.08802309 -0.38256708
0.36372724 -0.05319907 0.37912446 -0.051686194 -0.00018437431 0.0013353943 0.13604237 -0.052471455
-0.00051616103 0.14466648 0.04095343 0.000105002095 -0.10032686 -0.05177319 0.3814168 -0.049871363
-8.8352266e-05 -0.000831476 0.0011171021 0.0010772643 0.0006328928 0.00050328125 -0.0014567614 -0.00035547867
-0.0002041842 -0.0014836977 -0.0009563399 -0.00096499885 0.0003503112 5.249936e-05 -0.0011570565 -4.0473096e-05
-0.00084146776 -0.00038928684 -0.00016078351 -0.0006192431 0.0010674009 -5.0840918e-05 -5.6962603e-05 0.0007244925
0.0011797375 0.00037988927 -7.622964e-05 -0.00025871777 0.00044133776 0.00087538175 0.00022219379 -0.0009493768
0.36342895 -0.054307908 0.37913328 -0.050153676 0.0004648325 0.0006069548 0.1342072 -0.05329397
0.00013102945 0.14431633 0.03955947 0.00016775151 -0.10211846 -0.05156927 0.38131374 -0.048688848
0.12570956 0.34382224 0.14672789 0.33303225 -0.00011320021 0.00029387473 -0.18957415 0.34132186
-0.00064584264 -0.185983 0.37130705 0.0006822805 -0.25213847 0.34161162 0.1681361 0.3384709
-0.0012072746 -0.0012766607 -0.00051194255 0.0012363695 0.00073738664 -0.000483706 -0.0011242579 0.001005495
0.00023749657 0.0010276388 -0.0014324465 -0.0012929662 -0.00091922964 0.0002340075 0.00021849188 -0.0013197255
-0.0005713508 0.0009045934 -0.0012792469 -0.0002082209 -0.000599828 0.0012477104 0.00028902522 -0.0014373258
-0.0012117559 0.0004632961 0.0006307329 -0.00089883513 0.00041874713 0.001483259 -2.4961799e-05 -0.0008534085
0.37384227 -0.052782215 0.38157958 -0.051192883 -0.0001665445 -0.0014069012 0.11108005 -0.0532481
0.00073778984 0.11827094 0.047208745 -0.00019752416 -0.13416758 -0.051682215 0.39106604 -0.05009452
00000000: 5c9e 51ba 54cd a33a 0c4a c639 f835 ccb9
00000010: edb5 8dba 0112 bbba 4b9e 7fb9 d7fb aa39
00000020: 0d67 d339 6aff 01ba f90f fab9 ce46 163a
00000030: 6ef2 3d3a ac17 8cb9 c8aa 91b9 ae48 79b9
00000040: dac1 b33d ba39 d2be 64a7 a13d 87e2 c7be
00000050: 1072 61ba 47f7 6dba d1ac e43d 69fe d1be
00000060: 20b5 fd39 34dd e23d 2012 9bbe 4552 bbba
00000070: 4be2 b53d 13fc cbbe 0201 a03d 60a1 c5be
00000080: 1c4e 77bd fb8f 7a3e 3998 3ebd 6eeb 763e
00000090: d861 823a dc75 98b9 13e6 a7be a209 793e
000000a0: ff9f 1aba b78d a2be 921e 603e b05c 9b3a
000000b0: b4f9 d7be 071a 763e b012 01bd a071 753e
000000c0: fb42 b7ba 83b2 7c39 658b 263a bbba 89ba
000000d0: 2e85 1c3a bcac 843a ce80 2f3a aea3 6cb8
000000e0: b2f3 c23a 94de 553a 2324 2bba 971e 783a
000000f0: 4b4a c3ba f867 a43a 3291 c13a a80f 13ba
00000100: bae2 ec3d 4a79 a73e 6ac6 023e a49a a43e
00000110: df3f c3ba 7a85 75ba b019 3fbe 41b9 a33e
00000120: d8c3 653a 390e 37be 8544 a93e ac46 143a
00000130: b4bc 75be 746a a73e bcea 163e 2ca4 a43e
00000140: 9b7f d439 f539 05bb af85 58ba 9463 16bb
00000150: a497 3b3a 48d6 443a 928f 63ba 1cbd 1abb
00000160: e743 ffb8 2b79 9dba 81b1 07bb 7577 9dba
00000170: 3ff7 46ba 736b 57b9 ecc1 9bba 501d a8ba
00000180: 3213 bb3e 2a6a 59bd c06b c23e 86b3 50bd
00000190: 825d 68ba a643 5a3a 7496 003e dbf9 5abd
000001a0: 6339 4c3a e309 063e 42e9 2c3d 57b5 cab9
000001b0: 3dbc edbd 07d0 4dbd 8af6 c43e 67da 50bd
000001c0: 49d1 b03d abfa d3be 3037 ad3d 41a9 cabe
000001d0: 4390 1b3a e2e3 123a b0f1 543d 247c d6be
000001e0: 08cd 693a ba38 573d e6e6 42be 63d8 a639
000001f0: 493f 803c 59a3 cebe 7345 b43d d5df c3be
00000200: 753a ba3e 45e7 59bd 9a1c c23e e7b4 53bd
00000210: 9a54 41b9 6608 af3a b14e 0b3e 4fec 56bd
00000220: fb4e 07ba 7323 143e c9be 273d 9234 dc38
00000230: 2b78 cdbd 2010 54bd 1049 c33e ea45 4cbd
00000240: c349 b9b8 69f7 59ba ba6b 923a fe32 8d3a
00000250: b8e8 253a a2ee 033a cdf0 beba 8a5f bab9
00000260: 471a 56b9 a278 c2ba e2b2 7aba faf7 7cba
00000270: f9a9 b739 c232 5c38 60a8 97ba a8c1 29b8
00000280: f295 5cba 3219 ccb9 ff97 28b9 b354 22ba
00000290: 08e8 8b3a 053e 55b8 21eb 6eb8 deeb 3d3a
000002a0: 6ca1 9a3a e02b c739 7add 9fb8 83a4 87b9
000002b0: 5a63 e739 e079 653a b1fc 6839 99df 78ba
000002c0: 5c13 ba3e f871 5ebd c21d c23e f16d 4dbd
000002d0: c3b4 f339 0c1c 1f3a 9d6d 093e c74a 5abd
000002e0: f364 0939 a9c7 133e 1c09 223d 74e6 2f39
000002f0: 7c23 d1bd 4d3a 53bd 8e3b c33e f56d 47bd
00000300: 02ba 003e 7809 b03e d63f 163e 3483 aa3e
00000310: e665 edb8 3313 9a39 ba1f 42be bdc1 ae3e
00000320: c44d 29ba 5472 3ebe f51b be3e 12db 323a
00000330: 4b18 81be b8e7 ae3e df2b 2c3e 0f4c ad3e
00000340: 6a3d 9eba a055 a7ba e233 06ba ad0d a23a
00000350: 2e4d 413a ec99 fdb9 d65b 93ba d0ca 833a
00000360: 8008 7939 d6b1 863a eec0 bbba bf78 a9ba
00000370: 75f8 70ba e95f 7539 f81a 6539 a4fa acba
00000380: b4c6 15ba 3c22 6d3a 67ac a7ba df55 5ab9
00000390: c73d 1dba 378a a33a 4f88 9739 a764 bcba
000003a0: c8d3 9eba 8de6 f239 c557 253a ce9f 6bba
000003b0: 4a8b db39 ea69 c23a 0e65 d1b7 46b7 5fba
000003c0: 4168 bf3e 2a32 58bd 665e c33e a1af 51bd
000003d0: 73a2 2eb9 c567 b8ba f07d e33d ae1a 5abd
000003e0: 3d68 413a 0938 f23d f55d 413d 7d1e 4fb9
000003f0: 3a63 09be bbb0 53bd cf39 c83e e92f 4dbd

bias f4 [16]
-0.0015875096 0.03301021 0.052581668 -0.0009623304 0.115696795 0.000683146 0.09938513 0.0065373434
0.10038066 -0.00060416496 -0.00080213306 0.100845166 0.11395394 -0.0011471633 -0.000641098 0.096107006
00000000: fc13 d0ba b735 073d e05f 573d e644 7cba
00000010: 71f2 ec3d 2715 333a 6e8a cb3d 3637 d63b
00000020: 6094 cd3d d360 1eba 3d46 52ba e987 ce3d
00000030: af60 e93d 6a5c 96ba 5c0f 28ba c0d3 c43d

weight f4 [16, 16]
0.00029820958 0.0007383103 0.0008546064 0.00022740896 0.00056156784 0.0004980506 0.0005057858 0.0003129737
0.0013852214 0.0009714291 -0.00036673297 4.4326793e-05 -0.0012696522 0.0009318251 -0.00085894053 -0.0012706432
0.0011573189 0.37635583 0.00011123212 0.000740713 -0.5623121 -0.00016049008 0.104998566 0.26086456
0.11114031 -9.085266e-05 -0.00033413435 0.11052571 -0.56228226 -0.00077873137 -0.0008723916 0.09578253
-0.0008398361 0.00010173165 -0.0011290216 0.0014455044 0.0011188097 0.00044518066 -0.00096973946 0.00062487804
-0.001229673 0.00012453075 -0.0009680127 -0.00019534248 -0.00043336378 0.0014416521 -0.0006542569 0.0012283302
0.0011199786 -0.40642402 -0.2211533 0.0011826649 0.03176634 -0.00019667589 0.25313708 -0.2796593
0.2501209 0.0010004572 -0.0008325218 0.25012133 0.03872905 0.00045574672 0.001164786 0.27137986
4.02833e-05 0.0013071947 0.32178238 -0.00020508462 0.23249662 -0.0010679992 -0.18064554 -5.366523e-05
-0.18449645 0.0014299398 -0.00020276444 -0.18483901 0.22861618 0.0011345965 0.0009874238 -0.17516041
0.00038407 -0.40807512 -0.21965349 0.001038929 0.0305787 0.0019010091 0.25164232 -0.28212237
0.2501209 0.0012578019 0.00082065986 0.25012133 0.038308565 0.00069674983 0.0005091401 0.26656568
0.00058995135 -0.001081047 0.0005704938 -0.0009441313 0.00046700268 -0.0010355766 0.0012970824 0.0014654134
-0.0014728099 0.000629856 -3.4837217e-06 -0.0006331422 -0.0010797427 -6.885263e-05 0.0011524223 0.00051322253
0.0013313441 -0.0008074813 0.0003580612 -0.0014092877 0.0009640055 0.0007128323 -0.0014260537 0.0014848242
0.0009673877 0.0005256371 -0.00079898123 -0.00094733457 -0.0012225106 0.0014665057 -0.00011321125 -0.0006322352
-0.0014059582 -0.00048812572 -0.0015370098 0.0013652846 0.00036786348 0.0010895854 -4.0763523e-05 -0.0009499078
0.00024600793 -0.000114708164 0.00020660322 -0.0012574233 -0.0014416316 -0.001398179 0.00064746494 -0.0007736731
-0.0004069684 -0.001217536 -0.0014949358 -2.0778885e-05 0.0004806175 0.0014322643 -0.0011124919 -0.001072325
0.0010080767 -0.0006347326 0.00041414838 -0.000743485 -0.001059538 -0.0010188624 0.0005460013 -0.00079134345
0.0011093847 -0.0012805609 0.39144713 0.0010978869 0.28137892 -0.0016358411 -0.15269224 0.00089051074
-0.16293621 0.0002468053 0.0013995584 -0.16137853 0.28178206 0.0011834719 -0.0013117288 -0.14597218
-0.0008516569 -0.0012551633 0.0010576744 0.0003839271 -5.1609222e-05 -0.00071832264 0.00095230195 0.0004111226
0.00081155385 0.00034662246 -0.0011345313 -0.0014535816 -0.0010878656 -0.0008660186 -0.00040865544 -0.00040539913
0.001166262 -0.4069341 -0.22276965 0.0007211753 0.03181758 -0.00053763774 0.25320274 -0.27817646
0.25012085 -0.0004029116 -0.0009214529 0.2501212 0.03857364 0.0013834138 -0.00028348755 0.2733671
0.0001559826 0.00088028447 -0.00066035666 -0.00089758646 0.00043213513 -0.00040834027 -0.0015350301 0.0009098216
-0.000804379 0.0013412618 -0.0011437228 0.00074952614 0.00046696587 -0.001275437 0.0013055207 0.0005398614
0.0011434399 0.00016231347 -0.0003026213 0.00027495887 -0.0006799527 -0.00108365 -0.0006304738 -0.0009998898
-0.00011553706 -0.0013006688 0.0005529911 0.00088073267 -0.0009866921 0.0013346367 6.794618e-05 1.4058219e-05
-0.0012050292 0.00045737022 0.3917301 -0.00011830373 0.27873862 0.0003780465 -0.15220298 0.0009940646
-0.16009545 -0.00097012706 -0.0014705017 -0.1609389 0.2738609 7.553914e-05 -0.0006247276 -0.14538403
00000000: 0359 9c39 2a8b 413a aa07 603a a174 6e39
00000010: 2e36 133a 9c8f 023a b696 043a 9e16 a439
00000020: 5190 b53a 81a7 7e3a 1146 c0b9 88eb 3938
00000030: 756a a6ba b945 743a 862a 61ba b68b a6ba
00000040: 2eb1 973a b6b1 c03e 4a45 e938 682c 423a
00000050: b0f3 0fbf 3a49 28b9 7d09 d73d 0a90 853e
00000060: 889d e33d 2788 beb8 c12e afb9 4e5b e23d
00000070: bbf1 0fbf c723 4cba 36b1 64ba a229 c43d
00000080: 7228 5cba c458 d538 aefb 93ba 1477 bd3a
00000090: 06a5 923a 2367 e939 1d36 7eba dbce 233a
000000a0: fb2c a1ba 7894 0239 3cc2 7dba d9d4 4cb9
000000b0: 1a35 e3b9 d1f5 bc3a 7082 2bba ecff a03a
000000c0: 3fcc 923a cf16 d0be 0376 62be a603 9b3a
000000d0: 6c1d 023d c83a 4eb9 2f9b 813e 812f 8fbe
000000e0: d90f 803e c621 833a 983d 5aba e70f 803e
000000f0: 5aa2 1e3d 4af1 ee39 bcab 983a 4df2 8a3e
00000100: ddf5 2838 2d56 ab3a a9c0 a43e fc0b 57b9
00000110: 9813 6e3e 1bfc 8bba 25fb 38be 9a16 61b8
00000120: a3ec 3cbe d16c bb3a 2a9d 54b9 7046 3dbe
00000130: 5c1a 6a3e beb6 943a 726c 813a 405d 33be
00000140: 015d c939 39ef d0be d8ec 60be ac2c 883a
00000150: 2f80 fa3c 482b f93a 43d7 803e 5872 90be
00000160: d90f 803e d4dc a43a 8d21 573a e70f 803e
00000170: 71e9 1c3d 17a6 363a d077 053a 4c7b 883e
00000180: f7a6 1a3a ebb1 8dba 318d 153a 947f 77ba
00000190: 0ad8 f439 2fbc 87ba dd02 aa3a 1d13 c03a
000001a0: 4d0b c1ba ec1c 253a e2c9 69b6 74f9 25ba
000001b0: 2786 8dba f964 90b8 e00c 973a c889 063a
000001c0: 7f80 ae3a 27ad 53ba 29ba bb39 d9b7 b8ba
000001d0: 50b5 7c3a 5edd 3a3a 6cea baba 6f9e c23a
000001e0: 4a98 7d3a e9ca 093a b972 51ba 8c56 78ba
000001f0: a63c a0ba c437 c03a d46b edb8 96bc 25ba
00000200: 2148 b8ba 20eb ffb9 7e75 c9ba 59f3 b23a
00000210: cddd c039 6bd0 8e3a 80f9 2ab8 3c03 79ba
00000220: a0fa 8039 7a8f f0b8 a1a3 5839 20d0 a4ba
00000230: 21f5 bcba 1a43 b7ba a3ba 293a 53d0 4aba
00000240: 605e d5b9 bb95 9fba b9f1 c3ba 514e aeb7
00000250: 64fb fb39 d1ba bb3a 09d1 91ba 428d 8cba
00000260: 7121 843a 2f64 26ba 0e22 d939 6fe6 42ba
00000270: 32e0 8aba 598b 85ba 8721 0f3a 2972 4fba
00000280: c668 913a 7ed8 a7ba c26b c83e f9e6 8f3a
00000290: e610 903e b869 d6ba 5b5b 1cbe 2a71 693a
000002a0: c0d8 26be a665 8139 6371 b73a 6a40 25be
000002b0: bd45 903e ba1e 9b3a 51ee abba bb79 15be
000002c0: ba41 5fba 4b84 a4ba aaa1 8a3a d349 c939
000002d0: fb76 58b8 d14d 3cba e7a3 793a f18b d739
000002e0: 75be 543a e1ba b539 8eb4 94ba 1b86 beba
000002f0: b696 8eba 8605 63ba ce40 d6b9 c08b d4b9
00000300: 42dd 983a ab59 d0be ba1d 64be 410d 3d3a
00000310: 2753 023d 42f0 0cba caa3 813e 256d 8ebe
00000320: d70f 803e e13d d3b9 a88d 71ba e30f 803e
00000330: 65ff 1d3d aa53 b53a 0ea1 94b9 c6f6 8b3e
00000340: 438f 2339 e4c2 663a c91b 2dba 024c 6bba
00000350: 3290 e239 8116 d6b9 1033 c9ba 1881 6e3a
00000360: f6dc 52ba 47cd af3a f8e8 95ba d97b 443a
00000370: 19d3 f439 902c a7ba 011e ab3a 7c85 0d3a
00000380: 7adf 953a b132 2a39 25a9 9eb9 5b28 9039
00000390: da3e 32ba 4309 8eba 6146 25ba bc0e 83ba
000003a0: 7d4c f2b8 347b aaba 9bf6 103a f8e0 663a
000003b0: e553 81ba faee ae3a 547e 8e38 97db 6b37
000003c0: 12f2 9dba 31cb ef39 d990 c83e d519 f8b8
000003d0: d4b6 8e3e 8b34 c639 19db 1bbe 464b 823a
000003e0: 10f0 23be 2050 7eba d9bd c0ba 2bcd 24be
000003f0: 7f37 8c3e c46a 9e38 c2c4 23ba 8ddf 14be

bias f4 [16]
-0.0015016606 0.11300092 -0.0014826666 0.09452873 0.044912122 0.09519467 -0.00032344792 -0.00058347936
0.00040595213 0.00016846707 0.047713883 -0.0006341712 0.09595492 -0.0011620158 -0.00092020945 0.062105566
00000000: 5ed3 c4ba 076d e73d 0956 c2ba 4798 c13d
00000010: c6f5 373d 6cf5 c23d 7294 a9b9 a3f4 18ba
00000020: f9d5 d439 89a6 3039 a26f 433d 823e 26ba
00000030: 0384 c43d c84e 98ba 363a 71ba 6862 7e3d

weight f4 [1, 16]
0.0006858502 0.5829009 -0.00087515125 -0.28785062 0.32351646 -0.28618503 -0.0008989644 0.00021809674
-0.0010944417 0.00046692186 0.36866155 0.0007794277 -0.29126504 0.00073232834 -0.0011107621 0.35685563
00000000: a1ca 333a fe38 153f 686a 65ba 2861 93be
00000010: f3a3 a53e d886 92be 7ba8 6bba e6b0 6439
00000020: 5f73 8fba 31cd f439 35c1 bc3e 8252 4c3a
00000030: b120 95be b9f9 3f3a fe96 91ba c8b5 b63e
