pre_trained_models/3u3d/diode_pair_3u3d_1N4148_l_1.70k_2.50k_4x64_1.65e-06.pth (torch, 56459 bytes, 9 tensors)

weight f4 [64, 2]
0.19173317 0.043390226 0.0003970161 -0.013734866 0.15630396 0.039453566 0.004912407 -0.008450984
0.2798731 0.013929874 -0.18083087 0.008016182 -0.018092485 -0.009773488 -0.14787434 -0.0020667554
-0.02070494 -0.0011434429 0.17811415 0.04956286 0.01604459 -0.015247102 -0.011096806 -0.013402302
0.0040928833 -0.0045029586 -0.009979088 -0.010123592 -0.20843005 0.053798296 0.010489972 -0.003827578
0.26674205 0.015548573 -0.16749895 0.011913613 -0.23262052 0.011368992 0.16494885 0.03372819
-0.016829189 -0.005035755 0.022212686 -0.008646311 -0.1613939 0.0532366 -0.0050602662 -0.011468816
0.17719917 0.045239434 -0.18854862 0.007236926 0.17964207 0.044240363 -0.014289431 -0.011242734
-0.008995674 -0.020732788 -0.1941058 0.044203956 -0.19277811 0.04977739 0.18799971 0.014124381
-0.20756087 0.05173398 0.2796371 0.02397768 -0.0037745826 -0.005322464 -0.1947344 0.043263998
0.15230785 0.009841271 0.1525281 0.0411919 -0.26841775 0.023988193 0.162889 0.043265305
-0.17122148 0.0070734997 -0.020012368 -0.014622998 0.18198492 0.0174925 0.18693547 0.050605886
-0.0071169045 0.0032331059 -0.20367323 0.044807367 0.010246666 0.0010833001 -0.18548185 0.05617642
-0.019083852 -0.0063640727 -0.024744501 -0.01594354 0.012706584 -0.011711895 0.15857144 0.03558059
0.1381535 0.0030326024 0.008805003 -0.016993841 -0.0044507952 0.0014396826 -0.01329853 -0.008774867
0.18133307 0.040310986 -0.21823964 0.0097910315 0.22100331 0.014093846 -0.19800664 0.049709436
0.1175978 -0.007971907 0.01770706 -0.021704854 0.023844091 -0.020301158 -0.024222812 -0.013518399
00000000: b355 443e f3b9 313d 9926 d039 3408 61bc
00000010: 250e 203e 109a 213d 42f8 a03b ff75 0abc
00000020: 874b 8f3e 203a 643c ba2b 39be 4e56 033c
00000030: b136 94bc fb20 20bc 5f6c 17be 6772 07bb
00000040: 689d a9bc 94df 95ba 8e63 363e 6d02 4b3d
00000050: f26f 833c fbce 79bc 61cf 35bc 5495 5bbc
00000060: 981d 863b 8e8d 93bb 547f 23bc 6cdd 25bc
00000070: b06e 55be 9a5b 5c3d 22de 2b3c 1ad8 7abb
00000080: 6a92 883e 71bf 7e3c d884 2bbe 5131 433c
00000090: 1334 6ebe 0245 3a3c 5ae8 283e 9226 0a3d
000000a0: 5edd 89bc fa02 a5bb 61f7 b53c 42a9 0dbc
000000b0: 7144 25be 9f0e 5a3d 97d0 a5bb b3e7 3bbc
000000c0: b373 353e fc4c 393d e412 41be bc23 ed3b
000000d0: 17f4 373e 6235 353d 381e 6abc 7233 38bc
000000e0: 9762 13bc cfd7 a9bc acc3 46be 350f 353d
000000f0: a067 45be 60e3 4b3d ff82 403e f369 673c
00000100: d68a 54be 03e7 533d 982c 8f3e d76c c43c
00000110: fd5e 77bb 1068 aebb 7468 47be 9735 313d
00000120: 97f6 1b3e 483d 213c 5430 1c3e d6b8 283d
00000130: 0d6e 89be e382 c43c 60cc 263e f636 313d
00000140: af54 2fbe d1c8 e73b faf0 a3bc 4d95 6fbc
00000150: 415a 3a3e 6e4c 8f3c 036c 3f3e 1e48 4f3d
00000160: ec34 e9bb 84e2 533b b78f 50be ee87 373d
00000170: a2e1 273c 85fd 8d3a f4ee 3dbe 3f19 663d
00000180: bd55 9cbc b689 d0bb fbb4 cabc 079c 82bc
00000190: 472f 503c 3fe3 3fbc 8d60 223e f4bc 113d
000001a0: 1c78 0d3e a0be 463b dc42 103c ab36 8bbc
000001b0: fad7 91bb bbb3 bc3a 14e2 59bc 76c4 0fbc
000001c0: 60af 393e 221d 253d 367a 5fbe 906a 203c
000001d0: b14e 623e e0e9 663c 41c2 4abe 1f9c 4b3d
000001e0: 1ed7 f03d 9a9c 02bc 650e 913c 61ce b1bc
000001f0: af54 c33c 9d4e a6bc eb6e c6bc 467c 5dbc

bias f4 [64]
0.051289175 0.02355386 0.028660847 -0.011394867 0.0587475 -0.00018293162 0.013101413 0.12317662
-0.023189556 0.017765312 0.019649835 0.008577559 -0.008654017 -0.005329829 0.03417426 -0.0032278101
0.047460034 0.109833956 0.0022255017 0.05576479 -0.009741595 -0.023537599 -0.0106240865 0.007859639
0.030834123 0.008958385 0.036487736 0.01127078 -0.013113441 0.050886393 0.0315967 -0.017284336
0.03997828 0.075804785 -0.006314322 0.054544624 0.10586535 0.019277068 0.12001109 0.022917448
0.0003506358 0.0016221405 0.090976484 0.023196122 -0.019112473 0.058461804 -0.023486042 0.0038448367
-0.0003779915 0.02439121 -0.010621638 0.04342622 0.10559423 -0.012663026 -0.009932415 -0.0049647163
0.050856285 0.005034441 -0.0055021066 0.037008755 0.11671786 0.009891787 0.017966507 0.01881937
00000000: 9914 523d 06f4 c03c 27ca ea3c 89b1 3abc
00000010: 38a1 703d 55d1 3fb9 4fa7 563c 0644 fc3d
00000020: 06f8 bdbc 8f88 913c b1f8 a03c e488 0c3c
00000030: 94c9 0dbc d9a5 aebb 4ffa 0b3d ab89 53bb
00000040: 7465 423d a0f0 e03d b9d9 113b 9f69 643d
00000050: 369b 1fbc ecd1 c0bc a610 2ebc b7c5 003c
00000060: d897 fc3c 31c6 123c 2a74 153d 14a9 383c
00000070: c2d9 56bc 406e 503d 8b6b 013d e197 8dbc
00000080: 44c0 233d 8a3f 9b3d 5fe8 cebb 2f6a 5f3d
00000090: efcf d83d f1ea 9d3c 60c8 f53d 5fbd bb3c
000000a0: 8ad5 b739 019e d43a e151 ba3d cb05 be3c
000000b0: c391 9cbc a575 6f3d cd65 c0bc a8f9 7b3b
000000c0: 292d c6b9 13d0 c73c 6106 2ebc b1df 313d
000000d0: ca41 d83d 9578 4fbc 91bb 22bc 0faf a2bb
000000e0: ae4e 503d f4f7 a43b 044b b4bb 7e96 173d
000000f0: c609 ef3d 2911 223c 7f2e 933c 142b 9a3c

weight f4 [64, 64]
-0.0005380218 0.0037574773 -0.003333235 0.003874831 -0.004496179 -0.003029408 -0.003712692 -0.0041578976
-0.0023918133 -0.005133202 0.0042476975 0.0030716727 -0.002098383 0.0016935773 0.0016294876 0.0012735184
0.0024876313 0.0005051746 0.00075087976 0.0035899845 0.0009394394 0.0040848064 -0.0026593176 -0.0005021127
-0.00177891 -0.0037467645 0.0012548267 0.0028294444 0.004143736 -0.0021312507 -0.003485626 -0.0014826568
0.002828725 0.0034474488 -0.0023166304 -0.00037618197 -0.003932817 0.003691201 0.0041490556 -0.0018814135
-0.0039686505 -0.0025970635 0.00039464267 -0.0018390811 0.0004684011 0.0016888578 -0.0030351928 -0.00097366725
0.0029581916 -0.00045775037 0.0032431362 4.7547346e-05 -0.0042576687 0.0021781754 -0.0031263034 0.0017526015
-0.0015579668 -0.0025444785 -0.0048476374 -0.002284395 0.0019308499 -0.00150225 -0.0008038419 -0.0021419153
-0.0027509977 -0.0017006032 0.002163577 -0.00061229913 -0.001856232 -0.0038403112 -0.0029445658 -0.0003464503
0.00062813313 0.00016183117 0.002533917 -0.0011273978 -0.0018354573 -0.00035427965 0.0028866718 -0.0026311844
-0.0018973548 0.003957413 0.002058691 0.0041804775 -0.004076441 -0.0043016984 -0.0008947995 0.0011186224
0.003991548 -0.001059953 0.0011503557 -0.001450373 -7.597456e-05 0.003010291 0.0016506007 0.003842568
-0.0035380987 -0.0016178816 -0.0043614167 0.00373166 -0.0040626666 -0.0029228074 0.0009452723 -0.0018379751
-0.0038125883 0.0033274544 -0.0009167362 -0.003277876 -0.0043664845 -0.00016835699 -0.0037319434 -0.00045656142
0.00063022994 0.004146941 0.0014981908 0.002415477 0.00016683666 0.0013728468 0.0027974737 0.00056209636
-0.0042107888 0.0037104415 0.0016472337 -0.0032025669 0.00095632166 -0.0006183871 0.0005130794 0.0005088603
0.0015759483 0.002309992 -0.004086534 0.00079591776 0.001586187 -0.0045778826 -0.0011396102 -0.00044436558
0.0036226972 -0.0009507148 0.0016503911 0.0016044435 0.002726356 0.0019172798 -0.0016947878 -0.00031245573
0.00028998358 0.00102744 -0.0023568212 -0.0031681503 0.0008231396 0.002757282 0.0025289287 0.0031283186
-0.003489249 0.0032425984 -0.0024289517 -0.0020612774 0.0038147448 -0.0032879882 -0.0019432388 0.000699774
-0.00072631094 0.0026351018 0.0026797107 -0.0008057735 -0.0004795437 -0.003152869 -0.004203095 0.00048772173
-0.00078437483 0.0003115585 -0.0049494295 -0.00037390576 -0.0058547175 -0.002471469 0.001938937 -0.0006081193
0.0024360018 -0.00027402112 0.004376311 -0.004175602 0.0022494611 -0.0016138923 -0.00037872005 0.00017593922
0.00065698393 -0.0040293075 0.0012494585 -0.0048112287 -0.0012490895 0.0036228758 0.0013751487 0.0013654645
0.09005592 0.0015317491 0.06480665 0.0022141547 0.1271126 -0.010828454 0.0015124208 -0.051975142
-0.00021038365 0.07975469 -0.001080809 0.00096202706 -0.0017393741 -0.00047884675 -0.08196008 -0.0019879898
0.12479362 -0.06311713 -0.06643666 0.07334819 -0.0021776445 0.0009101037 -0.05813849 -0.0018168658
0.077799775 -0.031919166 0.08234381 0.00096192054 -0.0033794916 -0.06692903 -0.06932155 0.09049844
-0.08355313 0.12319523 -0.0011581928 -0.07480401 0.08092426 0.06689847 -0.08566473 0.06911958
-0.025557127 0.0029064128 0.06948256 0.07971069 0.0023509958 -0.08020604 0.0027746498 -0.06962815
0.013224651 -0.0028032055 -0.0009092829 0.07124698 0.06395912 -0.00029299344 0.0033770227 0.0035883097
0.08697747 -0.02284408 0.116668805 -0.073759526 0.06193987 0.0018039207 -0.0009808133 0.0007459234
00000000: 080a 0dba 0240 763b 6772 5abb e0f0 7d3b
00000010: af54 93bb 0889 46bb a350 73bb f93e 88bb
00000020: f8bf 1cbb 6b34 a8bb 4530 8b3b 1e4e 493b
00000030: 0685 09bb 06fb dd3a 8894 d53a 30ec a63a
00000040: 8707 233b b26d 043a b0d6 443a f245 6b3b
00000050: b644 763a d7d9 853b f247 2ebb 37a0 03ba
00000060: 512a e9ba 478c 75bb ff78 a43a 336e 393b
00000070: 2dc8 873b 74ac 0bbb 1a6f 64bb b555 c2ba
00000080: 2162 393b 98ee 613b 9cd2 17bb 4a3a c5b9
00000090: dcde 80bb 14e8 713b cdf4 873b c399 f6ba
000000a0: 740b 82bb 7f33 2abb 0be8 ce39 520d f1ba
000000b0: bb93 f539 aa5c dd3a 16ea 46bb b43d 7fba
000000c0: 38de 413b 37fe efb9 cc8a 543b 936d 4738
000000d0: ea83 8bbb b8bf 0e3b abe2 4cbb 8cb7 e53a
000000e0: b134 ccba 44c1 26bb eed8 9ebb cab5 15bb
000000f0: 9214 fd3a 25e7 c4ba ebb8 52ba 605f 0cbb
00000100: 154a 34bb c6e6 deba ccca 0d3b b382 20ba
00000110: cf4c f3ba bbad 7bbb 9ef9 40bb c6a3 b5b9
00000120: 4da9 243a 39b1 2939 1310 263b 31c5 93ba
00000130: ba93 f0ba 9cbe b9b9 512e 3d3b f36f 2cbb
00000140: aab0 f8ba 30ad 813b 1beb 063b 63fc 883b
00000150: aa93 85bb 43f5 8cbb fa90 6aba bd9e 923a
00000160: 88cb 823b 1fee 8aba 88c7 963a 711a beba
00000170: 8854 9fb8 4d48 453b f858 d83a 98d3 7b3b
00000180: 72df 67bb 190f d4ba 37ea 8ebb de8e 743b
00000190: 1e20 85bb 928c 3fbb 26cc 773a 36e8 f0ba
000001a0: 9edc 79bb 6c11 5a3b 2051 70ba a2d1 56bb
000001b0: ba14 8fbb fc88 30b9 9f93 74bb a35e efb9
000001c0: 0436 253a 10e3 873b f15e c43a fb4c 1e3b
000001d0: e0f0 2e39 18f1 b33a d255 373b a659 133a
000001e0: a8fa 89bb e12a 733b fee7 d73a 28e2 51bb
000001f0: a9b1 7a3a 411b 22ba 2d80 063a 0965 053a
00000200: 0d90 ce3a 3c63 173b 55e8 85bb 23a5 503a
00000210: 9be7 cf3a 1002 96bb f95e 95ba bdf9 e8b9
00000220: c66a 6d3b 6439 79ba f051 d83a 314c d23a
00000230: aaac 323b 3c4d fb3a a423 deba 19d1 a3b9
00000240: f008 9839 2aab 863a e674 1abb bea0 4fbb
00000250: f7c7 573a 84b3 343b 62bc 253b 7a04 4d3b
00000260: e2ab 64bb c681 543b 0c2f 1fbb 7f16 07bb
00000270: cc00 7a3b 4a7b 57bb 46b4 feba 0a71 373a
00000280: e765 3eba acb1 2c3b 169e 2f3b 8b3a 53ba
00000290: 446b fbb9 5da0 4ebb 1eba 89bb e7b4 ff39
000002a0: 819e 4dba ad58 a339 d32e a2bb c808 c4b9
000002b0: eed8 bfbb 5ff8 21bb ee23 fe3a 326a 1fba
000002c0: 54a5 1f3b 7eaa 8fb9 2867 8f3b 7dd3 88bb
000002d0: b26b 133b 3d89 d3ba f28e c6b9 537c 3839
000002e0: 7239 2c3a 4808 84bb dfc4 a33a 83a7 9dbb
000002f0: 7db8 a3ba c56d 6d3b 553e b43a 63f9 b23a
00000300: 3d6f b83d f9c4 c83a 59b9 843d 5a1b 113b
00000310: ce29 023e d469 31bc 6c3c c63a e3e3 54bd
00000320: 6e9a 5cb9 6d56 a33d efa9 8dba 8b30 7c3a
00000330: b6fb e3ba b90d fbb9 b0da a7bd ef48 02bb
00000340: cc93 ff3d 8e43 81bd f20f 88bd 9337 963d
00000350: d0b6 0ebb 0794 6e3a a022 6ebd e623 eeba
00000360: 7d55 9f3d acbd 02bd dfa3 a83d 6529 7c3a
00000370: 767a 5dbb 1612 89bd 75f8 8dbd 3f57 b93d
00000380: e71d abbd c84d fc3d 80ce 97ba d832 99bd
00000390: 9ebb a53d 1102 893d fd70 afbd 918e 8d3d
000003a0: 2e5d d1bc 8479 3e3b df4c 8e3d 5c3f a33d
000003b0: 2a13 1a3b 1043 a4bd e6d6 353b 3499 8ebd
000003c0: 35ac 583c fcb5 37bb f15c 6eba f0e9 913d
000003d0: 00fd 823d ea9c 99b9 0a51 5d3b d929 6b3b
000003e0: 3e21 b23d 8223 bbbc 0ef0 ee3d 3c0f 97bd
000003f0: a9b4 7d3d 8971 ec3a a28e 80ba 128a 433a

bias f4 [64]
0.002186197 -0.0039334428 -0.002718167 0.029270384 -0.0011161815 0.021706114 0.0165908 -0.0031880857
0.00063676893 0.027638145 0.023203425 0.0015122083 0.02042534 0.024816738 0.034907155 -0.000616605
-0.0016765888 0.019637693 0.030625211 0.0016523825 -0.0036414615 0.017054828 -0.0016131431 -0.0059167943
0.029155439 0.028394086 0.027756395 -0.0045772125 -0.002065629 -0.005335829 0.031082349 -0.0075101196
-0.0035964802 -0.00031723775 0.002072546 -0.0007259427 0.021882348 -0.0012463093 0.030844215 -0.0013265118
0.023850504 0.0023536147 0.0012023756 0.01567814 0.0013282992 -0.0033174702 0.0013911112 0.020064635
0.034859642 -0.0004625607 0.026888995 -0.0030931595 -0.0018727802 0.0002385528 -0.002530803 0.00047441572
0.019988468 -0.00034989748 0.0240409 -0.0031472796 -0.0022272284 -0.0037528458 0.031137837 0.02341193
00000000: 4d46 0f3b 1ce4 80bb 4623 32bb 72c8 ef3c
00000010: d64c 92ba 05d1 b13c 6ee9 873c 34ef 50bb
00000020: d7ec 263a 6469 e23c 1c15 be3c 4a35 c63a
00000030: 0b53 a73c 794c cb3c cefa 0e3d a9a3 21ba
00000040: fcc0 dbba 3adf a03c b9e1 fa3c c294 d83a
00000050: 96a5 6ebb 91b6 8b3c 1a70 d3ba abe1 c1bb
00000060: 63d7 ee3c b79a e83c 6161 e33c 71fc 95bb
00000070: 815f 07bb 2ed8 aebb 69a0 fe3c 7317 f6bb
00000080: edb2 6bbb ee52 a6b9 8dd3 073b 314d 3eba
00000090: 9c42 b33c 335b a3ba 02ad fc3c 5ade adba
000000a0: 2262 c33c 1a3f 1a3b 0899 9d3a 716f 803c
000000b0: 531a ae3a ea69 59bb f255 b63a 975e a43c
000000c0: fcc8 0e3d d983 f2b9 4f46 dc3c 9bb6 4abb
000000d0: 1378 f5ba 0824 7a39 d4db 25bb 00bb f839
000000e0: dbbe a33c 7272 b7b9 6cf1 c43c 9742 4ebb
000000f0: b1f6 11bb 4ef2 75bb c714 ff3c 60ca bf3c

weight f4 [64, 64]
0.003553973 -0.0003771928 0.0037376217 -0.0036418813 -0.004203473 8.489968e-06 -0.001836407 -0.0016828454
-0.0007307012 -0.0038223744 -0.005005914 -0.001439929 -0.0020841488 -0.0052239858 -0.0030374401 0.0013692968
0.0035397406 -0.0041515306 0.0023789643 0.0007368394 -0.00039167074 -0.00013837537 -0.0022936785 -0.002072609
-0.0029443232 0.000248263 -0.004993598 0.002002585 -0.000480267 -0.003823439 -0.003330054 0.0009301637
0.0028422342 -0.0019761221 -0.0010972111 -0.0042994716 -0.003744827 -0.0037898994 -0.0013419851 -0.0018560357
-0.0018514042 0.0030713286 0.0017391944 -0.005910969 -0.00046783194 0.00057255203 -0.0018253021 1.7038628e-05
-0.0040654335 0.0019685358 -0.0015643823 0.0043464405 0.0010090021 -0.0015534443 0.003458044 -0.00023290508
-0.0058758007 -0.0011963492 -0.00031619077 -0.0024294967 0.0039136326 -0.0008172354 0.0016486105 -0.004529857
0.0030971991 -0.00058113434 0.0027890773 -0.007318185 0.0018425396 -0.0054101394 -0.0072801965 0.0005483094
-0.0036134443 -0.0052477927 -0.0023939442 0.0031858059 -0.00027915894 -0.0039482284 -0.0020868068 0.0007370505
0.0043159975 -0.006789676 -0.0061629904 0.0018570547 0.002556702 -0.004031497 -0.004041967 -0.0015088425
-0.009336305 -0.004861841 -0.009829901 -0.0009916615 0.00031381892 -0.0039924746 -0.007797219 0.00051288283
-0.0018457453 -0.0027097263 0.0014353287 -0.0006115969 -0.005828789 0.0037139114 -0.007632938 -0.0038396898
-0.009187841 0.003990455 -0.00022200991 -0.004233226 -0.00092705106 0.0033743833 -0.002869921 -0.005684967
-0.0008374044 0.0009919477 -0.009734794 -0.0037448304 0.0007839873 0.0019428576 -0.0015873321 -0.0010823612
-0.00090597547 -0.0020724307 -0.0021415018 0.0017511507 -0.0023224603 0.0006378848 -0.0034163129 -0.010107291
0.0030032464 -0.0021135113 -0.0015695657 0.0035685005 -0.0019942895 0.0025457058 -0.0025931029 0.0011632103
0.0032866376 -0.0017844281 -0.0037252072 -0.0009682123 0.002194717 -0.0023223506 -0.0009744204 0.0026824977
0.00012087317 -0.0032949909 -0.008190015 -0.00022629036 -0.0019067146 0.0034016925 -0.0019210584 0.00023909996
-0.0071188067 -0.0052385563 -0.0027452034 0.00108058 0.0030413882 -0.0018785329 -0.0025371572 -0.002946647
0.0029545436 0.0032036935 -0.0024626672 -0.0035611484 -0.0044240323 -0.00383152 -0.0036081416 0.0041920105
0.0012412518 0.0039060065 0.003065545 -0.0005098895 0.0005422088 -0.002906006 -0.0015639812 -0.0015579107
-0.0052379705 -0.00080719247 -0.00034313762 -0.003063842 -0.00022074583 -6.641281e-05 0.0034960369 0.00016249335
-0.00034110423 0.001015188 0.0025642887 -0.0011961316 0.0037407435 -0.0027337992 0.0034098178 -0.00699592
-0.0008745983 0.0015137984 -0.00010291816 -0.09784265 0.00090514164 -0.010865903 -0.009397697 0.002989527
-0.0020887633 -0.008101591 0.12282851 -0.002380333 -0.12554073 -0.014121883 0.1522291 -0.0014767798
0.001929821 -0.001061236 0.13196588 -0.00044355672 0.0016403992 -0.023827724 -0.00067954836 -0.0008901848
0.13581547 -0.004381498 0.12743679 -0.0023167757 0.00077068695 0.0003701371 0.12763214 -0.0016244829
-0.0024992912 0.0012158145 0.003838521 0.0006257536 -0.13717055 0.0022641583 0.081148885 0.00407224
0.15309577 0.0006585681 -0.001028278 -0.021306751 -0.002078089 -0.0007623982 0.0044112746 -0.01265411
0.12128046 -0.0019461748 0.13728535 0.0003561001 0.0036627091 0.003361817 0.00033685876 0.0052066804
-0.14874431 0.002017627 -0.14943646 0.0020055023 -0.0007913437 0.0019971034 -0.16587847 0.11617601
00000000: c6e9 683b f6c1 c5b9 e3f2 743b a1ac 6ebb
00000010: 4abd 89bb 2370 0e37 98b3 f0ba ec92 dcba
00000020: 878c 3fba cd80 7abb a608 a4bb 00bc bcba
00000030: 3796 08bb f82d abbb ca0f 47bb fa79 b33a
00000040: fefa 673b 9009 88bb 66e8 1b3b 7528 413a
00000050: 2859 cdb9 db18 11b9 8a51 16bb 9cd4 07bb
00000060: 8cf5 40bb 4c29 8239 56a1 a3bb cd3d 033b
00000070: 58cc fbb9 a992 7abb 093d 5abb 3bd6 733a
00000080: c744 3a3b d481 01bb 4cd0 8fba 95e2 8cbb
00000090: c56b 75bb f65f 78bb 8ce5 afba 3946 f3ba
000000a0: d1aa f2ba 5848 493b aef5 e33a cdb0 c1bb
000000b0: 5747 f5b9 5117 163a fa3e efba 2dee 8e37
000000c0: 5437 85bb 8d02 013b f60b cdba 966c 8e3b
000000d0: 7e40 843a f19c cbba 5aa0 623b fb37 74b9
000000e0: ca89 c0bb d1ce 9cba 68c6 a5b9 3138 1fbb
000000f0: ee3d 803b bd3b 56ba 3016 d83a 326f 94bb
00000100: 61fa 4a3b 4457 18ba f4c8 363b 63cd efbb
00000110: 5f81 f13a 8a47 b1bb b78e eebb 6cbc 0f3a
00000120: 89cf 6cbb adf5 abbb b8e3 1cbb f4c8 503b
00000130: 145c 92b9 2460 81bb cfc2 08bb 9f36 413a
00000140: 366d 8d3b ee7b debb e9f2 c9bb 6a68 f33a
00000150: 578e 273b a61a 84bb 7a72 84bb 5ac4 c5ba
00000160: 4df7 18bc 1450 9fbb 980d 21bc a3fa 81ba
00000170: 1088 a439 4ed3 82bb d07f ffbb fc72 063a
00000180: efec f1ba aa95 31bb a421 bc3a 9353 20ba
00000190: 6dff bebb 1865 733b ba1d fabb 4ea3 7bbb
000001a0: 9988 16bc 5dc2 823b 55cb 68b9 e0b6 8abb
000001b0: 5805 73ba c224 5d3b 4915 3cbb f648 babb
000001c0: 4285 5bba 3e04 823a af7e 1fbc d46b 75bb
000001d0: 7f84 4d3a 7ca7 fe3a 070e d0ba 04de 8dba
000001e0: fc7e 6dba 9ed1 07bb 7058 0cbb de86 e53a
000001f0: 6b34 18bb b937 273a 38e4 5fbb 0d99 25bc
00000200: 1dd2 443b d682 0abb e3b9 cdba 81dd 693b
00000210: a0b2 02bb dbd5 263b 0cf1 29bb dc76 983a
00000220: a164 573b 79e3 e9ba 9b22 74bb a1cf 7dba
00000230: 3ed5 0f3b 9432 18bb 3f70 7fba d8cc 2f3b
00000240: 4a7d fd38 c6f0 57bb 6a2f 06bc 5b48 6db9
00000250: baea f9ba eeee 5e3b 06cc fbba e8b6 7a39
00000260: e144 e9bb 32a8 abbb dfe8 33bb 40a2 8d3a
00000270: 0752 473b 1b39 f6ba 6f46 26bb 881c 41bb
00000280: 04a1 413b 0ff5 513b b364 21bb 2862 69bb
00000290: 79f7 90bb 3d1a 7bbb 9276 6cbb 225d 893b
000002a0: 80b1 a23a eafb 7f3b 50e7 483b 1baa 05ba
000002b0: 0423 0e3a b172 3ebb 80fe ccba cf32 ccba
000002c0: 48a3 abbb c599 53ba 27e7 b3b9 bdca 48bb
000002d0: 0278 67b9 1b47 8bb8 c41d 653b fa62 2a39
000002e0: 3cd6 b2b9 0f10 853a a00d 283b 84c7 9cba
000002f0: 4327 753b 8a29 33bb 4077 5f3b 083e e5bb
00000300: 4c45 65ba a56a c63a c4d5 d7b8 ba61 c8bd
00000310: 0747 6d3a e706 32bc ccf8 19bc f1eb 433b
00000320: a2e3 08bb 89bc 04bc 848d fb3d 5cff 1bbb
00000330: c08d 00be 785f 67bc f2e1 1b3e 8290 c1ba
00000340: 0cf2 fc3a 2c19 8bba 1022 073e 2d8d e8b9
00000350: aa02 d73a 5c32 c3bc b823 32ba 4a5b 69ba
00000360: 3613 0b3e ab92 8fbb ca7e 023e 0cd5 17bb
00000370: ed07 4a3a f60e c239 00b2 023e 9aec d4ba
00000380: 26cb 23bb f75b 9f3a b28f 7b3b 9d09 243a
00000390: 7076 0cbe 4662 143b 6331 a63d 6d70 853b
000003a0: 23c5 1c3e c2a3 2c3a 49c7 86ba 7f8b aebc
000003b0: 8c30 08bb addb 47ba 748c 903b 2f53 4fbc
000003c0: e461 f83d ca16 ffba 8894 0c3e f2b2 ba39
000003d0: 100a 703b ee51 5c3b 6b9c b039 cd9c aa3b
000003e0: 6e50 18be 2a3a 043b df05 19be bf6e 033b
000003f0: 2d72 4fba d6e1 023b 0cdc 29be b0ed ed3d

bias f4 [64]
-0.0001624774 0.0009639891 -0.0041686697 0.011926909 0.013921349 -0.004171091 -0.0019534277 -0.0037489033
-0.001994894 -0.0032895333 0.010069903 -0.0005617852 -0.0009911107 -0.009902071 0.0077229883 -0.0028584278
-0.0024662707 -0.008224633 -0.0018665841 -0.001838982 -0.0013779815 -0.0043631187 0.015809622 -0.0012450817
-0.010712478 -0.00037602714 -0.0024756503 -0.0020441522 0.0063646487 -0.0041818926 -0.0020300376 -0.00356426
-0.0019677132 -0.0036288607 -0.0030630853 -0.0020729343 -0.008367313 0.0077235023 -0.0031526654 -0.0025716107
-0.00020159176 -0.0018115295 -0.0032483977 0.010642428 -0.00036751712 -1.6313496e-05 0.0038056297 -0.0038250329
-0.002931542 0.002287047 -0.0015411576 -0.004875354 0.005809858 -0.0024511246 -0.0030720762 -0.0037744485
-0.003941266 0.01138232 -0.0027061396 -0.0009102072 -0.0014856997 -0.0007173887 -0.0069209626 -0.004387353
00000000: b25e 2ab9 37b4 7c3a 5699 88bb 1569 433c
00000010: 5f16 643c a6ad 88bb 1405 00bb 29b0 75bb
00000020: c4bc 02bb 3695 57bb 3cfc 243c c444 13ba
00000030: 28e8 81ba 4c3c 22bc 1f11 fd3b 7654 3bbb
00000040: 28a1 21bb 9cc0 06bc 2ba8 f4ba ff09 f1ba
00000050: 639d b4ba 7ef8 8ebb 2e83 813c 0232 a3ba
00000060: 6483 2fbc 8225 c5b9 853e 22bb 2ff7 05bb
00000070: 8b8e d03b 4208 89bb 610a 05bb 5c96 69bb
00000080: c0f4 00bb 2ed2 6dbb 0bbe 48bb 11da 07bb
00000090: 0e17 09bc 6f15 fd3b f39c 4ebb 7888 28bb
000000a0: 6062 53b9 d870 edba 12e3 54bb 945d 2e3c
000000b0: 50af c0b9 f7d8 88b7 df67 793b 67ad 7abb
000000c0: 1d1f 40bb 48e2 153b ab00 caba 6fc1 9fbb
000000d0: 9f60 be3b 0ca3 20bb e354 49bb bd5c 77bb
000000e0: bc25 81bb e97c 3a3c 7d59 31bb f99a 6eba
000000f0: cfbb c2ba 240f 3cba 3ec9 e2bb c9c3 8fbb

weight f4 [64, 64]
0.0042580892 0.0015260697 0.0015848622 -0.009174199 0.0013044527 0.0021437176 -0.0033725225 0.0029941858
-0.0009229457 0.0009710883 0.0023277854 0.0029564875 -0.002213941 -0.003387936 0.00037125192 0.0038997182
-0.0016259758 -0.0014597254 0.0005416917 0.0022700827 -0.004835638 0.0027167387 -0.0030323903 -0.0006207878
-0.003417544 -0.0016851514 8.841269e-05 -0.0025306751 0.0040867073 -0.0031554953 -0.00017623244 -0.0012189454
0.0039023561 0.00059928925 0.0037652866 0.0023939405 0.00026535714 0.003283954 -0.0036512527 -0.0024273512
-0.0034748851 -0.00087594625 -0.0025914237 -0.0029004128 0.0031591512 0.0018426067 -0.0037507291 0.0016137386
-0.004094856 5.8677993e-05 -0.0004765053 -0.00019938067 -0.003491932 0.0037634678 0.0022710394 -0.00074186624
-0.0027157383 -0.002444379 0.0017738617 -0.00087826257 0.0010080463 0.00070056325 0.0005799864 0.0012536616
-0.0018112904 -0.0040520676 0.0038663852 -0.0030091815 -0.0032687644 -0.0022769987 -8.576281e-05 0.002924042
-0.004657232 -0.004853614 -0.0010438836 -0.0013059506 0.0034462563 0.0012366408 0.0024221055 -0.0018094825
-0.0011356017 -0.0018515459 -0.002565922 -0.0039319145 -0.0014382869 0.004025778 -0.0035690647 0.0016135182
0.0026666329 -0.0028494184 0.0035398304 0.0001305276 -0.0009888286 -0.002870627 -0.00045208464 -0.0010788513
-0.002712422 0.0019813671 0.0022049488 2.3750126e-05 0.0017786737 -0.0012218775 0.003728901 0.0028098086
0.0032730168 0.0025141628 -0.0034694974 -0.0014281227 0.0027142928 0.0016518506 -0.00016892097 0.0021011094
0.0002407404 0.001935624 -0.0014469859 0.003297264 0.0029614002 -0.0024740512 0.0005633074 0.0008027038
0.0037991747 -9.815379e-05 -0.0039713806 -0.0019896661 -0.0038640099 -0.0036449556 0.0035072588 -0.0021900218
0.002686697 0.00047874355 -0.0041651623 -0.003784632 -0.0007753606 -0.00032308558 -0.0015025752 0.00028244368
-0.0052088164 -0.00025539065 -0.0066755507 -0.0040233284 0.00088481646 0.0016484412 -0.0021842085 0.0025277724
-0.003981348 -0.0016011699 0.00090633985 0.0030175867 -0.0027350655 -0.003015179 -0.0017252732 -0.0010734092
0.0013031282 0.0029855072 -0.0036784892 -0.0038266224 -0.0052296645 -0.0039781295 -0.0016926862 -0.0007971545
-4.76289e-05 -0.0007884408 0.0027047766 -0.0022330624 0.0010561539 0.00076642184 -0.002280124 -0.0031535204
-0.0003658926 -0.0012892853 0.002245792 0.0012442196 -0.002307691 0.0025072007 -0.0038521206 0.00022721704
-0.0014285578 -0.0038103587 -0.00059251965 -0.0011276326 -0.004530138 -0.004408964 -0.00077698607 9.237855e-05
-2.539204e-05 0.0006299799 -0.0025806178 0.0025942554 0.003054205 -0.0006304811 -0.002263392 -0.0046883523
-0.001832186 0.00013973817 -0.00078095356 0.00012433277 -0.002856718 -0.005547288 0.0011779553 0.0032764482
-0.0016659063 -0.0022635784 -0.0036518492 0.0012396118 0.0037652971 -0.0033930754 -0.0014254043 0.0033562202
0.00080482994 -0.005560836 0.0021326784 0.0033571064 -0.004340618 0.0036533144 -0.0075432016 0.0006453965
-0.0022643346 0.002184901 -0.003794529 -0.0029586244 0.00024162157 -0.0041334974 0.00036729686 -0.0017911295
-0.00102367 0.0019367577 -0.00057242846 0.0014457522 -0.0030021558 -0.0015120979 -0.003270511 0.0026299478
-8.021021e-05 0.0025984873 -0.0011935547 -0.003335901 -0.0044804118 -0.004066452 -0.00195632 0.0009411093
-0.00087418035 -0.0009889936 -0.0022250416 0.0038164223 -0.0011715894 -0.0050048935 0.00035681305 -0.003673495
0.0036114012 0.00050016755 -0.0031564122 -0.0040073213 0.002519728 0.0013261908 -0.0017971831 -0.00332378
00000000: 7187 8b3b 6706 c83a 27bb cf3a 614f 16bc
00000010: 2bfa aa3a 9d7d 0c3b 8a05 5dbb 1a3a 443b
00000020: d6f1 71ba a290 7e3a c28d 183b a1c1 413b
00000030: c417 11bb 2208 5ebb 97a4 c239 6a92 7f3b
00000040: b21e d5ba 4254 bfba 5100 0e3a abc5 143b
00000050: 4674 9ebb 500b 323b 11bb 46bb 5dbc 22ba
00000060: e0f8 5fbb 4ce0 dcba 346a b938 afd9 25bb
00000070: c9e9 853b 6dcc 4ebb 09cb 38b9 05c5 9fba
00000080: acbe 7f3b 9f19 1d3a 07c3 763b a8e3 1c3b
00000090: a21f 8b39 9b37 573b db49 6fbb 3214 1fbb
000000a0: e6ba 63bb c29f 65ba e0d4 29bb da14 3ebb
000000b0: c309 4f3b 9f83 f13a cbce 75bb 1584 d33a
000000c0: 242e 86bb 041d 7638 75d3 f9b9 d710 51b9
000000d0: e6d8 64bb 83a4 763b b8d5 143b cd79 42ba
000000e0: 87fa 31bb e031 20bb ec80 e83a 343b 66ba
000000f0: 6c20 843a 01a6 373a 3a0a 183a e751 a43a
00000100: d268 edba 35c7 84bb 2e63 7d3b b035 45bb
00000110: c438 56bb b339 15bb 8fdb b3b8 49a1 3f3b
00000120: b29b 98bb 110b 9fbb ecd2 88ba 6e2c abba
00000130: 96da 613b c816 a23a 30bc 1e3b 282c edba
00000140: 78d8 94ba 92af f2ba 0729 28bb 4ad7 80bb
00000150: e684 bcba acea 833b f8e6 69bb b07c d33a
00000160: adc2 2e3b 4fbd 3abb 80fc 673b 3cde 0839
00000170: 959b 81ba 2121 3cbb c605 edb9 3e68 8dba
00000180: e4c2 31bb d3d9 013b e780 103b 023b c737
00000190: 6322 e93a 6827 a0ba 9460 743b c424 383b
000001a0: 1c80 563b a7c4 243b 8260 63bb d92f bbba
000001b0: 47e2 313b e982 d83a 6120 31b9 c4b2 093b
000001c0: 426f 7c39 c4b4 fd3a caa8 bdba e916 583b
000001d0: 0d14 423b b123 22bb ebaa 133a 8a6c 523a
000001e0: 93fb 783b ead7 cdb8 5b22 82bb 0f65 02bb
000001f0: 543b 7dbb 35e0 6ebb 0ada 653b 7886 0fbb
00000200: 4c13 303b dfff fa39 ea7b 88bb 9707 78bb
00000210: 9241 4bba d063 a9b9 0ff2 c4ba f314 9439
00000220: b8ae aabb f4e5 85b9 94be dabb 20d6 83bb
00000230: 07f3 673a 8210 d83a f024 0fbb fca8 253b
00000240: f875 82bb 59de d1ba 7097 6d3a b4c2 453b
00000250: c93e 33bb 4f9a 45bb 9022 e2ba a3b1 8cba
00000260: bacd aa3a 80a8 433b cf12 71bb 12c8 7abb
00000270: 9b5d abbb f85a 82bb 20dd ddba 22f8 50ba
00000280: 24c5 47b8 5eaf 4eba 9f42 313b 9258 12bb
00000290: a56e 8a3a b3e9 483a 226e 15bb 4bab 4ebb
000002a0: 46d5 bfb9 3cfd a8ba 232e 133b 1515 a33a
000002b0: a13c 17bb d94f 243b dc73 7cbb 1c41 6e39
000002c0: 723e bbba 36b7 79bb 5253 1bba 12cd 93ba
000002d0: 8d71 94bb 1279 90bb a7ae 4bba 5bbb c138
000002e0: fe00 d5b7 3c25 253a 951f 29bb 6204 2a3b
000002f0: 0f29 483b df46 25ba 6b55 14bb c0a0 99bb
00000300: f625 f0ba ae86 1239 e8b8 4cba 535f 0239
00000310: c637 3bbb 06c6 b5bb 9f65 9a3a aeb9 563b
00000320: 8a5a daba 8b58 14bb dd53 6fbb 787a a23a
00000330: 34c3 763b 5c5e 5ebb a2d4 baba 08f4 5b3b
00000340: 39fb 523a ac37 b6bb 68c4 0b3b e602 5c3b
00000350: be3b 8ebb 726c 6f3b f62c f7bb d32f 293a
00000360: 3b65 14bb 8e30 0f3b a2ad 78bb 7be5 41bb
00000370: cc5b 7d39 4a72 87bb c091 c039 55c4 eaba
00000380: aa2c 86ba ceda fd3a 060f 16ba 657f bd3a
00000390: d1bf 44bb 9631 c6ba 1256 56bb 345b 2c3b
000003a0: 8736 a8b8 624b 2a3b 0d71 9cba 229f 5abb
000003b0: 6bd0 92bb df3f 85bb 9a35 00bb c7b4 763a
000003c0: 4029 65ba 1ea1 81ba 01d2 11bb f11c 7a3b
000003d0: 0490 99ba 1700 a4bb a312 bb39 05bf 70bb
000003e0: 42ad 6c3b ad1d 033a cfdb 4ebb d94f 83bb
000003f0: 0522 253b 94d3 ad3a 758f ebba c6d3 59bb

bias f4 [64]
-0.0027707117 -0.001632426 -0.0016455419 -0.0011955897 0.012523422 -0.0031317258 -0.00037203307 -0.0009913383
-0.0055285543 -0.0005781466 -0.002545583 -0.0059314836 -0.003717535 -0.0014609267 0.051641043 -0.0032701786
0.030317701 0.024137659 -0.0013121071 -0.004294811 -0.0033597401 -0.0008610276 -0.002108592 -0.004312653
-0.004583636 0.02911508 -0.001889076 -0.0038351635 0.047473595 -0.0023969533 0.04841663 0.037526056
-0.004828437 0.036930118 -0.0042345547 -0.0028763807 -0.0022947993 -0.0007754269 -0.004066054 0.00921122
-0.00073054223 -0.0011708781 -0.0011322723 -0.0044445414 -0.0022135004 0.023357537 0.03103705 -0.0011149187
0.019098684 0.06171345 -0.002959414 -0.0015275072 -0.0009666169 -0.0032417173 0.02044668 -0.0026455666
-0.0019129593 -0.0007834338 -0.0042909402 0.0048952526 -0.0054114447 -0.0033130306 -0.003867849 -0.0011588378
00000000: d494 35bb 21f7 d5ba 39af d7ba 55b5 9cba
00000010: 0a2f 4d3c a43d 4dbb 6f0d c3b9 cbef 81ba
00000020: e028 b5bb c38e 17ba ccd3 26bb e45c c2bb
00000030: e3a1 73bb 917c bfba 8f85 533d 7e50 56bb
00000040: d45c f83c 57bc c53c 02fb abba 7cbb 8cbb
00000050: 162f 5cbb 96b6 61ba 4e30 0abb 2851 8dbb
00000060: 5332 96bb c082 ee3c df9a f7ba 5e57 7bbb
00000070: ac73 423d 3416 1dbb 8450 463d ecb4 193d
00000080: de37 9ebb 0944 173d 05c2 8abb a981 3cbb
00000090: 5864 16bb 0546 4bba 883c 85bb a8ea 163c
000000a0: dc81 3fba 2678 99ba c168 94ba 84a3 91bb
000000b0: 6010 11bb 4e58 bf3c 6941 fe3c 7722 92ba
000000c0: d874 9c3c 3ec7 7c3d baf2 41bb a336 c8ba
000000d0: 9064 7dba fe72 54bb cc7f a73c 3e61 2dbb
000000e0: 43bc faba 5a5f 4dba 049b 8cbb 5b68 a03b
000000f0: 7d52 b1bb 6e1f 59bb bd7b 7dbb 25e4 97ba

weight f4 [1, 64]
2.0710988e-05 0.00010010258 -0.002792856 0.0001619988 0.10873116 -0.0026194204 0.0011238527 0.0031582627
7.050722e-05 -0.0009265781 0.00014850774 4.8203812e-05 -0.0014586915 0.00093827234 -0.11881383 0.0020215216
0.114939295 -0.10858911 -0.00010684361 0.0015967343 0.0018629775 0.0007131119 -0.0003489545 -0.0023502754
-4.053872e-05 -0.119534165 0.0019536351 -0.00016853398 -0.12063764 -0.0037203892 0.12211705 -0.11378995
4.4109005e-05 -0.118768126 -0.0011889904 0.003890885 -0.00022993343 0.0018964824 4.6747577e-05 -0.09417468
-0.0024741672 5.723085e-05 -0.001136703 0.00057580613 -0.0036512283 0.113770366 -0.115927055 0.0003742103
0.114019215 -0.1159997 -0.0017185521 0.00035195015 0.0015700258 0.0012300644 0.12133221 0.0006963093
-0.001082083 -0.00068322255 0.0022027045 0.09608847 -0.00022200479 0.00031457123 0.0026770947 0.0035316802
00000000: 82bc ad37 2aee d138 5908 37bb 39de 2939
00000010: 71ae de3d 95aa 2bbb 3d4e 933a dbfa 4e3b
00000020: 47dd 9338 9be5 72ba beb8 1b39 732e 4a38
00000030: 9131 bfba 64f6 753a aa54 f3bd 817b 043b
00000040: 4b65 eb3d f863 debd 3a11 e0b8 8349 d13a
00000050: 272f f43a 21f0 3a3a e1f3 b6b9 1407 1abb
00000060: 1f08 2ab8 54ce f4bd 8f08 003b 7fb8 30b9
00000070: de10 f7bd c6d1 73bb 8118 fa3d b50a e9bd
00000080: af01 3938 b43c f3bd e6d7 9bba 38fe 7e3b
00000090: 491a 71b9 6493 f83a d412 4438 a8de c0bd
000000a0: a325 22bb 280b 7038 6cfd 94ba b2f1 163a
000000b0: 7249 6fbb 7000 e93d 2a6b edbd a831 c439
000000c0: e882 e93d 4091 edbd 0a41 e1ba f385 b839
000000d0: 53c9 cd3a 1d3a a13a 067d f83d 8788 363a
000000e0: aed4 8dba 4a1a 33ba 405b 103b 08ca c43d
000000f0: f5c9 68b9 09ed a439 3272 2f3b c373 673b
