pre_trained_models/3u3d/diode_pair_3u3d_1N4148_l_1.70k_2.50k_2x16_2.17e-6.pth (torch, 5287 bytes, 5 tensors)

weight f4 [16, 2]
0	0x3cfa7158	0.030571625
1	0xbc042fb1	-0.008068011
2	0x3f256d6e	0.646201
3	0x3e324958	0.17410791
4	0xbd05f24b	-0.03270177
5	0xbc827590	-0.015925199
6	0xbca65092	-0.02030209
7	0xbd097d06	-0.033566497
8	0xbf0a806f	-0.54102224
9	0x3e25fac5	0.16208942
10	0x3cc4da32	0.024029825
11	0xbd057d0d	-0.03258996
12	0xbc7eac51	-0.015544013
13	0xbd32397f	-0.043511864
14	0xbef45b1f	-0.4772577
15	0x3dcb362f	0.09922444
16	0xbc73a17a	-0.014870042
17	0xbd2f419d	-0.042787183
18	0xbefff0e2	-0.49988467
19	0x3dea6742	0.11445476
20	0x3b93bb76	0.004508431
21	0xbcea99b8	-0.028637752
22	0x3f06d965	0.5267547
23	0x3e053f6f	0.13012479
24	0x3d12e6b3	0.035864543
25	0xbc8c5df2	-0.01713464
26	0x3d2f0306	0.042727493
27	0xbd170eb4	-0.036879256
28	0xbcfe63aa	-0.031053383
29	0xbca547d4	-0.020175852
30	0x3f2ecc2b	0.68280286
31	0x3d256cfd	0.040387142

bias f4 [16]
0	0xbc9312c9	-0.017953293
1	0x3db2ca7e	0.087300286
2	0xbbb6b92e	-0.0055762744
3	0x3cef8c31	0.029241653
4	0x3e2d72a3	0.16938262
5	0x3c8f97e9	0.017528491
6	0xbd230085	-0.039795417
7	0x3e1de842	0.1542063
8	0x3d36a1e4	0.044587985
9	0x3e02c3c1	0.12769987
10	0x3cb2acd9	0.021810936
11	0x3ddd2177	0.107973985
12	0xbd4b4162	-0.0496229
13	0x3d0590ad	0.032608677
14	0x3d061352	0.03273327
15	0x3ec178ed	0.37787572

weight f4 [16, 16]
0	0xbc637644	-0.013883177
1	0xbd838050	-0.06420958
2	0xbbc826ce	-0.0061081415
3	0x3c699c42	0.014258446
4	0x3e80563b	0.2506579
5	0x39e34ade	0.00043352594
6	0xbc4fb2fd	-0.0126769515
7	0x3ea1ce7b	0.31602845
8	0x3a100b7c	0.00054948754
9	0x3e9c4e9a	0.30528718
10	0xbc1e75c6	-0.009671634
11	0xbdeb149d	-0.11478541
12	0xbc4e9bd1	-0.012610392
13	0x3c270e45	0.010196273
14	0xbc182f26	-0.009288585
15	0x3d81aaaf	0.063313834
16	0xbc3caeaf	-0.011516257
17	0xbc802b75	-0.015645722
18	0xbb64a9cc	-0.0034891246
19	0x3b2ccfc0	0.0026368946
20	0xb7093eae	-8.18043e-06
21	0xbc244461	-0.010026068
22	0x3bde7ecc	0.0067900177
23	0xbc14e455	-0.009087642
24	0xbc4065f8	-0.011743061
25	0xbb95fcfb	-0.0045772768
26	0xbb9cb509	-0.0047823233
27	0xbc148e82	-0.00906718
28	0x3c454132	0.01203947
29	0xbb9708c7	-0.0046092006
30	0x3c791bf4	0.015204418
31	0xbadcd0c6	-0.0016846887
32	0x3c449a17	0.0119996285
33	0xbe4239a2	-0.18967298
34	0xbc8723dc	-0.016496591
35	0xbc22561a	-0.0099082235
36	0x3d29b33f	0.041430708
37	0xbc208e52	-0.009799557
38	0x3b6a306c	0.0035734428
39	0x3ded9f81	0.116026886
40	0xbb4731f3	-0.0030394762
41	0x3d98a090	0.074525
42	0xbba9b0fd	-0.0051785694
43	0xbe24862d	-0.16066809
44	0xbc0d06c6	-0.008607572
45	0xbc83ed7c	-0.016104452
46	0x3b5bd236	0.0033542044
47	0x3e3fa6cb	0.1871597
48	0x3a7d9be3	0.0009674413
49	0xbc5a2e4c	-0.013316702
50	0xbc1f5290	-0.009724274
51	0x3c5e8b74	0.013583053
52	0x3c139372	0.009007322
53	0x3c653e2c	0.013991874
54	0x3c167865	0.009183978
55	0xbc95236f	-0.018205373
56	0xbc3d8ad7	-0.0115687465
57	0xbbb74b90	-0.0055937245
58	0x3bcb46d5	0.006203512
59	0xbc559516	-0.013036033
60	0xbc1e4111	-0.009659068
61	0xbc771a8a	-0.015082011
62	0x3c7f6d12	0.015589969
63	0x3bb305f2	0.005463355
64	0x3c7bda89	0.015371927
65	0xbc479148	-0.012180634
66	0x3c76a1a6	0.015053188
67	0xbae44f58	-0.0017418666
68	0xbc797260	-0.015225023
69	0x3c2d404c	0.010574412
70	0x3c694b00	0.014239073
71	0xbc58bc70	-0.013228521
72	0xbc4e81c5	-0.012604182
73	0x3c814a30	0.015782446
74	0xbc8fbfae	-0.017547455
75	0x3aa65c8b	0.0012692375
76	0xbb225fc4	-0.002477632
77	0x3c892a0c	0.016743682
78	0x3c4db6ec	0.012555819
79	0x3c826a3a	0.015919793
80	0xbc076152	-0.008262949
81	0xbd85be74	-0.06530467
82	0xbc8c0c16	-0.017095607
83	0xbc201a4f	-0.009771897
84	0x3e80562b	0.2506574
85	0xbc003135	-0.007824232
86	0xbb8b88c1	-0.0042582457
87	0x3ea88891	0.32916692
88	0xbc1a0b62	-0.009402128
89	0x3e96d4c0	0.2945919
90	0x3c57bc89	0.013167509
91	0xbdef8ae9	-0.11696417
92	0xbc21efda	-0.009883845
93	0xba8ff00e	-0.0010981576
94	0xba9a72eb	-0.0011783516
95	0x3d68a77f	0.05680036
96	0xbc24113a	-0.010013873
97	0xbc5d2598	-0.013497733
98	0x3c101a4d	0.008795333
99	0x3bcf6efb	0.0063303686
100	0xbbc3c7c1	-0.0059747403
101	0x3bee7c44	0.007277997
102	0x3b5c2f76	0.0033597625
103	0xbbe63d78	-0.0070263706
104	0x3c73edbd	0.014888224
105	0xbc7ef0a2	-0.015560301
106	0xbb97e312	-0.004635223
107	0x3b6b8cc1	0.003594205
108	0xbc4d0299	-0.012512826
109	0xbb9ea01b	-0.0048408634
110	0x3c3cfdbf	0.011535107
111	0x3ba391f3	0.0049917637
112	0xbbb0a74f	-0.0053910385
113	0xbdb87c10	-0.09008038
114	0xbc479f8a	-0.012184033
115	0xbc71bc51	-0.014754371
116	0x3e805721	0.25066474
117	0xbba72900	-0.005101323
118	0xbc3a6466	-0.011376476
119	0x3ea807a6	0.32818335
120	0x3a36b111	0.0006969134
121	0x3e9a91a3	0.30189237
122	0x3bc25232	0.0059302086
123	0xbdc61f41	-0.0967393
124	0x3ba5d348	0.005060587
125	0xbc753e74	-0.014968503
126	0x3c07cf36	0.008289149
127	0x3d6bef64	0.057601348
128	0x3abfe119	0.0014639228
129	0xbb5dd3d0	-0.0033848174
130	0xbc208905	-0.009798293
131	0xbc66429d	-0.014053968
132	0xb9ea0321	-0.0004463429
133	0x3beeed4e	0.0072914725
134	0x3bbbd727	0.0057324353
135	0xbc33169c	-0.010930683
136	0x3c12ca6a	0.008959392
137	0xbc758fb0	-0.014987871
138	0xbbd24ddd	-0.0064179734
139	0x3c0e24fa	0.008675808
140	0x3c7951d2	0.015217261
141	0x3c8e27e8	0.017353013
142	0x3c23bc28	0.00999359
143	0xbbc856a6	-0.006113845
144	0xbc81cea8	-0.015845612
145	0xba1daf3d	-0.0006015187
146	0xbaf3a04a	-0.0018587199
147	0x3c3b4563	0.011430117
148	0xbc104031	-0.008804367
149	0x3c10bff2	0.008834826
150	0x3c5eac2e	0.0135908555
151	0x3b6962fe	0.0035611982
152	0x3b978a8b	0.00462467
153	0x3af1b1e4	0.0018439856
154	0x3c90bf74	0.017669417
155	0xba0f8798	-0.0005475222
156	0x3c5c7c3a	0.013457352
157	0xbaff7af6	-0.0019491601
158	0x3bf094c5	0.0073419535
159	0x38e29258	0.000108037784
160	0xbbf6f8fe	-0.0075370064
161	0x3ec2c400	0.3804016
162	0xbc2ae31f	-0.010430126
163	0xbc827304	-0.015923984
164	0x3bbb921c	0.0057242047
165	0x3c4803a0	0.0122078955
166	0xbc8754ba	-0.016519893
167	0xbdff4aa0	-0.124654055
168	0xbbb2f3d9	-0.005461198
169	0xbd74d108	-0.05976966
170	0xbc856eff	-0.016288279
171	0x3ecbaecd	0.397818
172	0x3b1de9be	0.002409562
173	0xbc8ba404	-0.017045982
174	0x3a8f0355	0.0010911027
175	0x3e86bda6	0.26316565
176	0x3bb8bc06	0.0056376485
177	0xbbbbce87	-0.005731407
178	0xbb21cc7a	-0.0024688528
179	0xbc806983	-0.015675312
180	0xbca719a0	-0.020397961
181	0xbbc022a4	-0.0058635045
182	0x3c7ddfc8	0.015495248
183	0x3c6e2565	0.014535283
184	0xbc742256	-0.014900764
185	0xbbf1c136	-0.007377769
186	0x3c38d356	0.011280855
187	0x3bca9b1b	0.006183041
188	0xbbfcd8dd	-0.007716282
189	0xbc5db238	-0.01353126
190	0x3c622f88	0.013805278
191	0x3ac57ac4	0.0015066494
192	0x3bf108ea	0.007355799
193	0x3eb2f09d	0.34949198
194	0x3c45adde	0.012065379
195	0xbc709fa9	-0.014686503
196	0x3c1e7c16	0.009673139
197	0x3c071905	0.008245711
198	0x3c796627	0.015222109
199	0xbdc8f028	-0.09811431
200	0xbad79dfe	-0.0016450284
201	0xbdb39a19	-0.08769626
202	0x3c1a5d0c	0.009421598
203	0x3ec1441b	0.37747273
204	0x3bd1607e	0.0063896766
205	0xbad5fa65	-0.0016325234
206	0x3c4d4003	0.012527469
207	0x3e71aa63	0.23600154
208	0x3c75f602	0.015012266
209	0xbc42c064	-0.01188669
210	0xbb4c14a7	-0.003114024
211	0x3b3933c1	0.0028259607
212	0x3c07e2b6	0.008293798
213	0xbc10dbed	-0.008841497
214	0xbc5102fd	-0.01275706
215	0x3bb3075d	0.0054635243
216	0xbc0964a9	-0.008385816
217	0xbc3b624c	-0.01143701
218	0x3c430de9	0.011905172
219	0xbc8473bc	-0.016168468
220	0x3c19eea5	0.009395276
221	0xbc791021	-0.015201599
222	0xbc53fd62	-0.012938829
223	0xbc69850e	-0.014252914
224	0xbba0a47a	-0.0049024196
225	0x3c669a45	0.014074867
226	0x3c77a362	0.015114637
227	0x3c7dfbe7	0.015501953
228	0xbc49c045	-0.012313907
229	0x3b42f8d9	0.0029750376
230	0xbc6057bc	-0.0136927925
231	0xbc0f455c	-0.008744564
232	0x3c4d67a7	0.01253692
233	0xbbfe41ac	-0.0077592935
234	0xbaeafe32	-0.0017928539
235	0xbca80754	-0.020511307
236	0x3b8f7ba0	0.004378751
237	0xba3e32da	-0.0007255502
238	0x3c8d504a	0.017250199
239	0x3bd1410b	0.0063859276
240	0xbc11fa86	-0.008909827
241	0xbc538cf9	-0.0129120285
242	0x3c26822f	0.010162874
243	0x3c89c08b	0.016815444
244	0xbba5a149	-0.005054627
245	0xbb8c90bb	-0.004289714
246	0x3c254e9e	0.010089545
247	0x3bac7d2e	0.005263946
248	0x3c2e2377	0.010628573
249	0xbc3b4c48	-0.011431761
250	0x3c55d7fe	0.013051985
251	0x399cd866	0.00029915868
252	0xbc62f8de	-0.01385328
253	0xba94b1b5	-0.0011344465
254	0xbc4b20bb	-0.01239794
255	0xbbec0f4f	-0.0072039734

bias f4 [16]
0	0x3db94fff	0.09048461
1	0x3b393366	0.0028259396
2	0x3e0f2fe6	0.13983116
3	0xbb455b05	-0.0030114066
4	0xbc854d29	-0.016272144
5	0x3dd0d55f	0.10196947
6	0xbbcb1fef	-0.006198875
7	0x3de4efee	0.111785755
8	0xbc47f14b	-0.012203525
9	0x3b01fbda	0.0019833953
10	0x3e2c5c08	0.16831982
11	0xbbbbdc44	-0.005733045
12	0x3e2a39d9	0.1662363
13	0xbbda1174	-0.0066549126
14	0xbbf4118a	-0.00744838
15	0x3c348de5	0.011020158

weight f4 [1, 16]
0	0xbe9f9a93	-0.31172618
1	0x3c0af4f9	0.008481258
2	0xbe800fc3	-0.25012025
3	0xb95612c8	-0.00020415627
4	0x3c06d184	0.008228663
5	0xbea6653b	-0.32499108
6	0xbbbb5e24	-0.0057180095
7	0xbe94e121	-0.2907801
8	0xbbe37326	-0.006941217
9	0xbbdbc79c	-0.006707145
10	0x3eb5d060	0.3551054
11	0xbbb5f2ff	-0.005552649
12	0x3eaa295b	0.33234677
13	0x3ac05ff1	0.001467703
14	0x3ac36228	0.0014906572
15	0x3c52aa4b	0.012857984
