pre_trained_models/3u3d/diode_pair_3u3d_1N4148_l_0.45k_0.65k_4x16_1.63e-07.pth (torch, 9035 bytes, 9 tensors)

weight f4 [16, 2]
0.0011285928 -0.002969283 0.49301544 0.08158214 -0.0006248998 -0.0027590266 -0.0011318182 -0.00078988174
-0.0017456254 -0.002238289 0.0012110316 -0.00088061445 -0.27083194 0.070745125 -0.00014228992 -0.0021570711
-0.002348846 -0.003123739 0.0017343531 -0.002686289 -0.2759273 0.07234994 0.3539781 0.097793765
-0.22248366 -0.04129749 -0.27100402 0.07033363 0.002681953 -0.00010079572 3.7639453e-05 0.00026250424
00000000: 4aed 933a 4d98 42bb 856c fc3e 8914 a73d
00000010: 51d0 23ba c9d0 34bb 8459 94ba 1110 4fba
00000020: 78cd e4ba 42b0 12bb 7abb 9e3a 09d9 66ba
00000030: 7caa 8abe d2e2 903d a933 15b9 a65d 0dbb
00000040: 19ef 19bb a5b7 4cbb 3c53 e33a 730c 30bb
00000050: 5846 8dbe 352c 943d 9e3c b53e 1948 c83d
00000060: c2d2 63be 8f27 29bd 0ac1 8abe 140b 903d
00000070: b4c3 2f3b 4a62 d3b8 0edf 1d38 b9a0 8939

bias f4 [16]
-0.0011059996 0.08594023 -0.0023402479 -0.0013409208 -0.0029554742 -0.0004456899 0.08198241 -0.0010321575
0.0030258938 -0.00028557627 0.08280348 0.09358429 -0.02620031 0.08327116 -0.0026327407 -0.0016846946
00000000: 30f7 90ba 6e01 b03d d85e 19bb d6c1 afba
00000010: a1b0 41bb 7cab e9b9 65e6 a73d 7549 87ba
00000020: 134e 463b 66b9 95b9 df94 a93d 1fa9 bf3d
00000030: 08a2 d6bc 128a aa3d 0f8a 2cbb f8d0 dcba

weight f4 [16, 16]
0.00041997194 0.29342726 -0.0008879748 -0.00035692408 -0.0006015627 -0.001077988 -0.0539911 0.00031067827
0.0009030904 0.00066489 -0.053306025 0.24291243 -0.12535504 -0.052851617 -0.0008661734 0.00026435836
0.0006658464 0.18354999 -0.0007764949 5.8543505e-05 -0.0006218566 0.00081136706 0.27066433 0.0010058684
-0.00016072339 0.0004924665 0.27067205 0.08807197 0.8367054 0.27066553 -0.00048361177 -0.0005851158
0.00035819647 -0.045476414 -9.686033e-06 -0.00093306263 0.00044500508 -0.00057850877 0.18416475 0.00034689243
-8.491367e-05 0.00020953841 0.18435661 -0.057311445 0.49963042 0.17993736 0.00024529322 0.00087419123
-0.0007495408 -0.00088315667 6.4965134e-06 -0.00012402973 0.00068869774 0.0008629268 -0.00018250725 -0.0010695194
0.000822135 0.000695917 -0.00085032056 -0.0021109665 -0.00080395245 -0.00075180037 -0.000479502 0.00018086388
0.00037571415 -0.046307586 0.00077533815 -0.0006323103 -0.0004445985 -0.00027077593 0.18360509 -0.00079890125
-0.0010752641 -0.00024373962 0.18228863 -0.058880575 0.49837983 0.17997515 -6.385503e-05 0.00015888493
0.00013742212 -0.00095824106 0.0007418381 -0.0002173945 7.890222e-05 -0.0005725363 -0.00058374705 -0.0008585857
-0.00067041034 -0.000982742 0.00010488187 -0.000647478 -0.0010735606 0.00044859495 0.0007351899 -0.0007299408
-0.00042634638 -0.047122184 0.0009760974 -2.2577278e-05 0.0010602358 -0.00064084306 0.1856882 -0.00062133424
-0.0010558339 -9.9691795e-05 0.18398538 -0.05860026 0.49965057 0.18458176 0.0010547708 7.812134e-05
-0.00097021565 -0.00056737114 0.00019939334 -0.0001048018 -0.0004692275 0.0006332192 -0.00055372855 0.00039582656
0.0008104935 0.00046872816 0.00026670372 4.9255697e-05 -0.00035834295 0.0004494987 0.001023625 -0.00048186092
-0.00074817415 -0.04620713 -0.00089790195 0.00078112836 -0.00059560675 0.0008149042 0.1831531 0.00045282373
-0.0010793927 -0.0010328661 0.18372217 -0.059478134 0.49965206 0.18201466 0.00073041604 -0.0010609777
3.547956e-05 0.29761004 -0.0005864679 0.00030712827 -0.00076285074 -0.0010363921 -0.053487293 0.00089335983
0.0009812369 -0.0009231247 -0.052501336 0.24423422 -0.12512918 -0.05326069 0.000707564 -0.0007783279
-0.00026936567 -0.00015494514 0.00015398719 0.00041643885 0.00049851916 -0.00010315051 -0.0010004395 0.0009361168
0.00060801447 4.620833e-05 0.00019112186 -0.0008900985 0.0007230102 0.0008342607 0.00026826994 -0.00066560064
-0.0009857015 -0.00077844004 -0.00045174028 0.00016906887 0.0004049102 -0.0009517641 -0.00071924506 -0.00029350613
-0.00035396696 -0.0005109676 5.504586e-05 -0.0015126606 -0.00041695393 -0.0005545998 -8.843424e-05 0.00012036679
0.00035279122 -0.00033295833 0.00074259244 0.00078157254 -0.00090413325 -0.00023348321 -0.0016674062 0.00052912324
-0.00023528452 -0.00067623943 -0.00096849713 -0.0022000025 -8.8261095e-06 -0.0001201732 0.0009381615 -0.0006162543
-0.00064822886 0.2920015 -0.00030618688 -0.0007964792 0.0005853788 0.00076231704 -0.053556968 0.0004702274
0.0009764754 0.0008383258 -0.052215572 0.24355714 -0.12497334 -0.051042113 -0.00046932878 0.00027241945
0.00072197994 0.29057732 0.00034499384 -0.00033552613 0.0007841703 -0.000792021 -0.053705327 0.00047152172
-0.0009511217 1.2764957e-05 -0.053615384 0.24298912 -0.12501626 -0.052811682 0.00017124129 0.0003434154
-0.0010464825 0.0009941129 0.00048062988 0.0008630133 0.0007633298 0.00056785246 0.00038291575 0.0008025566
0.00034572004 -0.0007798873 -0.00062332925 -0.00048359763 0.00013707762 -7.2135605e-05 -6.987827e-05 -0.00034874456
00000000: ae2f dc39 193c 963e fbc6 68ba 8a21 bbb9
00000010: 30b2 1dba 464b 8dba c625 5dbd 88e2 a239
00000020: 5fbd 6c3a 034c 2e3a 6b57 5abd 09be 783e
00000030: 125d 00be f07a 58bd ea0f 63ba 9499 8a39
00000040: 328c 2e3a 87f4 3b3e b18d 4bba 9c8c 7538
00000050: 1704 23ba ecb1 543a 8494 8a3e 58d7 833a
00000060: db87 28b9 de18 013a 8795 8a3e 145f b43d
00000070: 5332 563f ac94 8a3e 468d fdb9 7562 19ba
00000080: 51cc bb39 7a45 3abd 3281 22b7 c698 74ba
00000090: 924f e939 11a7 17ba af95 3c3e 1ddf b539
000000a0: ae13 b2b8 8ab7 5b39 fbc7 3c3e 68bf 6abd
000000b0: 8fcf ff3e 8041 383e b39a 8039 fb29 653a
000000c0: d57c 44ba a483 67ba a0fc d936 fa0d 02b9
000000d0: b989 343a 0a36 623a 6b5f 3fb9 1e2f 8cba
000000e0: 8c84 573a 336e 363a 0ce8 5eba 2458 0abb
000000f0: 56c0 52ba 7814 45ba ab65 fbb9 47a6 3d39
00000100: 80fb c439 06ad 3dbd 1040 4b3a a0c1 25ba
00000110: 0019 e9b9 eef6 8db9 f902 3c3e 5b6d 51ba
00000120: e0ef 8cba 5b94 7fb9 dfa9 3a3e c22c 71bd
00000130: a42b ff3e 684b 383e e8e9 85b8 599a 2639
00000140: f818 1039 7832 7bba ea77 423a 64f4 63b9
00000150: 4f78 a538 4316 16ba 9a06 19ba b612 61ba
00000160: 7abe 2fba 5acf 80ba 06f4 db38 83bb 29ba
00000170: b7b6 8cba 6531 eb39 c2b9 403a 7f59 3fba
00000180: 3e87 dfb9 3103 41bd cae0 7f3a 5664 bdb7
00000190: 9cf7 8a3a 40fe 27ba 0c25 3e3e 09e1 22ba
000001a0: e863 8aba a011 d1b8 aa66 3c3e d406 70bd
000001b0: 33d2 ff3e 0003 3d3e 3c40 8a3a 13d5 a338
000001c0: 1256 7eba a2bb 14ba 3e14 5139 0ac9 dbb8
000001d0: a602 f6b9 9ffe 253a 1828 11ba f186 cf39
000001e0: 4c77 543a a1bf f539 5ed4 8b39 e797 4e38
000001f0: fadf bbb9 b2aa eb39 282b 863a 47a2 fcb9
00000200: 1e21 44ba b043 3dbd 2e61 6bba a3c4 4c3a
00000210: 7e22 1cba 4c9f 553a 7c8c 3b3e f968 ed39
00000220: 697a 8dba 3c61 87ba aa21 3c3e 589f 73bd
00000230: 65d2 ff3e 0d62 3a3e 6479 3f3a 8110 8bba
00000240: e3cf 1438 5860 983e 32bd 19ba 0f06 a139
00000250: 0cfa 47ba 8cd7 87ba 7e15 5bbd 5d30 6a3a
00000260: d99c 803a dafd 71ba a40b 57bd 8918 7a3e
00000270: dd21 00be e227 5abd d17b 393a b408 4cba
00000280: a639 8db9 c578 22b9 9f77 2139 7a55 da39
00000290: 0eaf 023a 8252 d8b8 2e21 83ba bc65 753a
000002a0: 2963 1f3a d1cf 4138 e267 4839 8055 69ba
000002b0: 6588 3d3a 4ab2 5a3a 95a6 8c39 b47b 2eba
000002c0: a732 81ba 3a10 4cba 8ed7 ecb9 1448 3139
000002d0: 214a d439 cf7f 79ba b88b 3cba bae1 99b9
000002e0: a494 b9b9 75f2 05ba 0be1 6638 7844 c6ba
000002f0: 9c9a dab9 9062 11ba c575 b9b8 6e6d fc38
00000300: d6f6 b839 e990 aeb9 89aa 423a 72e2 4c3a
00000310: 5b03 6dba 2cd3 74b9 de8c daba dcb4 0a3a
00000320: b5b6 76b9 a945 31ba bee2 7dba eb2d 10bb
00000330: da13 14b7 7f05 fcb8 f4ee 753a 208c 21ba
00000340: e7ed 29ba 3881 953e b587 a0b9 d0ca 50ba
00000350: 1b74 193a 3bd6 473a 8d5e 5bbd da88 f639
00000360: 28fa 7f3a 18c3 5b3a ffdf 55bd 0b67 793e
00000370: 06f2 ffbd 8911 51bd 3e10 f6b9 85d3 8e39
00000380: 4143 3d3a 8dc6 943e 4ae0 b439 8ee9 afb9
00000390: c790 4d3a a19f 4fba 1efa 5bbd 9336 f739
000003a0: b254 79ba 1329 5637 ce9b 5bbd 24d2 783e
000003b0: 4304 00be 1051 58bd 3c8f 3339 6f0c b439
000003c0: 202a 89ba e54c 823a 0dfd fb39 d83b 623a
000003d0: 321a 483a efdb 143a 15c2 c839 a962 523a
000003e0: c241 b539 5a71 4cba eb66 23ba 608b fdb9
000003f0: 7ebc 0f39 8247 97b8 9c8b 92b8 b4d7 b6b9

bias f4 [16]
0.09786343 0.21485275 0.07612889 -0.00032441327 0.07790333 -0.00091505045 0.07835088 -0.00052105146
0.07824476 0.09734294 -0.0007404805 -0.0015492107 -4.9044564e-05 0.096017055 0.09783032 -0.0007693645
00000000: 9f6c c83d 5c02 5c3e 77e9 9b3d 0316 aab9
00000010: c88b 9f3d ffdf 6fba 6d76 a03d 2c97 08ba
00000020: ca3e a03d bc5b c73d ce1c 42ba e30e cbba
00000030: 33b5 4db8 97a4 c43d 435b c83d 2daf 49ba

weight f4 [16, 16]
5.698273e-05 0.00018171172 -9.200396e-05 0.0001554911 -1.2920442e-05 -3.5859928e-05 -0.0012404871 0.0007957503
-0.0009210285 -0.0011907858 5.6689973e-05 -6.423803e-05 0.0009093969 -0.0010281939 0.0008235577 0.000417115
0.00092394784 -0.000974358 2.1366045e-06 -0.0005726294 -0.00048514793 -0.0010112897 -0.0008034679 0.0009386632
0.0007870212 0.00059826626 0.00091689365 7.702818e-05 -0.0007956501 -0.001066402 -0.000989952 -0.0007739567
0.30144784 0.06510083 -0.089745805 0.00091477024 -0.09073773 -0.00017787002 -0.08850897 -0.0010775387
-0.08849515 0.30155882 0.00095605716 6.761549e-05 0.0020674823 0.30143458 0.30136853 -0.0009256288
-6.0070775e-05 -0.00069294224 -0.0006551146 0.00015562255 0.0010852966 -0.00032588092 7.86097e-05 0.0010071341
0.00087664934 0.00026940575 0.00017671358 0.00092680193 0.00064685 0.0010544426 -0.00020181507 0.000224126
-0.06595555 0.12397047 0.21946283 -0.00096341927 0.21996716 -0.00010228858 0.21750394 -0.0009152502
0.22019109 -0.06715095 0.0002395924 -0.0014455242 -0.0004852715 -0.0640098 -0.06614555 -0.0002524262
0.30237135 0.06728725 -0.09142317 0.0016941836 -0.09343263 0.0007932838 -0.0883574 0.0010267493
-0.08832955 0.3079517 -0.0006105212 0.0007088024 0.0003663716 0.30154946 0.3014834 0.00052051473
-0.066078916 0.12296866 0.22003247 -0.0013320318 0.22052331 0.0006920776 0.2200676 0.0009212978
0.22016391 -0.066123344 -0.0010035813 0.0001425623 -0.00083061424 -0.06518921 -0.066411085 -0.00014648552
-0.06669073 0.1237892 0.2205747 -0.00019200491 0.21994112 5.6815666e-06 0.22005719 0.00086111214
0.22016014 -0.066264935 -0.0004779988 0.00019901745 -0.001554678 -0.06528717 -0.06605958 0.0005129365
-0.00044538468 -0.00052936055 -0.0009167449 -0.0005241552 0.0004592491 -0.0001452128 0.0007106079 -0.00027305103
-0.00095822476 5.590806e-05 -0.00074757705 0.00042855664 3.4531666e-05 -0.00032511228 0.0006989305 6.839216e-05
0.3572554 0.092603385 -0.087243475 0.00031467032 -0.08834678 6.6088454e-05 -0.083792664 0.00062655733
-0.08255392 0.35962114 -0.0008523186 0.0003990909 -2.2356211e-05 0.35165358 0.351096 0.0001006873
-0.06692773 0.123776525 0.22004083 -0.0019523081 0.21899104 -4.97283e-05 0.220073 -0.0003952462
0.21736784 -0.067617334 0.0010284377 0.00014341783 -0.0006282385 -0.06616188 -0.06326829 -0.00031933794
-0.06663006 0.12406732 0.22001983 6.777158e-05 0.22134233 0.0008438142 0.22005588 -0.00026397736
0.21709785 -0.06621305 -0.0007593225 -0.000800946 -0.0011732982 -0.06605248 -0.0663751 0.0001849001
0.0009871561 -0.0002967966 -0.00048115302 0.00025991036 -0.00028084996 0.0009419534 -0.00092974363 0.00075871166
-0.00071650697 -0.0005744595 0.00102268 0.0008053539 0.0006851075 0.00022701341 0.00023654208 -0.0008134788
0.00015582153 0.0003260738 -0.00040047217 -0.00044880423 -0.0006255382 0.00096428976 -0.00069192715 0.0009039538
0.00065083 0.00045652842 -0.0007459129 -0.0009444539 0.00078870944 -0.0006420428 -0.00094042864 -0.00038444524
-0.0010084985 -0.00039964577 0.00037789947 0.00039092373 7.492564e-05 -0.00020227529 -0.00092125987 0.0007558528
-0.0010213925 -0.00048518938 0.000121892765 -0.00021519794 -4.939619e-05 -2.958263e-05 -0.0009767868 -0.00052200246
0.0006643148 -0.0010176529 -0.00090786436 0.00046987386 0.00013500692 0.00046150666 -0.00025000208 0.00014329428
-0.00068801513 -3.2621524e-06 0.00011041808 -0.00087657943 0.00071993587 0.0003542086 0.00079818355 0.0010472578
00000000: be00 6f38 de89 3e39 40f2 c0b8 530b 2339
00000010: e0c4 58b7 4e68 16b8 d797 a2ba e699 503a
00000020: 2d71 71ba 2414 9cba 65c6 6d38 88b7 86b8
00000030: 9864 6e3a 76c4 86ba 06e4 573a 3ab0 da39
00000040: 1735 723a 0f6c 7fba 9662 0f36 821c 16ba
00000050: 745b feb9 408d 84ba d19f 52ba 9f10 763a
00000060: 1950 4e3a f8d4 1c3a b15b 703a 308a a138
00000070: 2d93 50ba 83c6 8bba 47c1 81ba 5be3 4aba
00000080: 5f57 9a3e 9553 853d a6cc b7bd 31cd 6f3a
00000090: b4d4 b9bd 9f82 3ab9 3144 b5bd 333c 8dba
000000a0: f23c b5bd eb65 9a3e e99f 7a3a cacc 8d38
000000b0: 997e 073b a255 9a3e fa4c 9a3e e6a5 72ba
000000c0: 81f4 7bb8 91a6 35ba ffbb 2bba 9c2e 2339
000000d0: 8340 8e3a ffda aab9 43db a438 d001 843a
000000e0: f1ce 653a 073f 8d39 314c 3939 a0f4 723a
000000f0: 5e91 293a 3935 8a3a 529e 53b9 5d03 6b39
00000100: b413 87bd 3be4 fd3d ddba 603e f98d 7cba
00000110: 123f 613e c383 d6b8 5ab9 5e3e 67ed 6fba
00000120: c679 613e 7086 89bd 183b 7b39 be77 bdba
00000130: 0a6c feb9 9217 83bd 5177 87bd 1258 84b9
00000140: 6bd0 9a3e e6cd 893d 123c bbbd 5e0f de3a
00000150: 9b59 bfbd 60f4 4f3a b9f4 b4bd fd93 863a
00000160: 20e6 b4bd d8ab 9d3e 620b 20ba edce 393a
00000170: 9015 c039 b164 9a3e 085c 9a3e 2773 083a
00000180: 6254 87bd fed6 fb3d 3150 613e 9297 aeba
00000190: ddd0 613e 8b6c 353a 6759 613e 4083 713a
000001a0: a672 613e ad6b 87bd 9a8a 83ba c77c 1539
000001b0: 94bd 59ba ec81 85bd 8902 88bd e899 19b9
000001c0: 2695 88bd 3185 fd3d 56de 613e ed54 49b9
000001d0: 3f38 613e 49a4 be36 ac56 613e 42bc 613a
000001e0: a971 613e e9b5 87bd ea9b fab9 57af 5039
000001f0: 56c6 cbba 48b5 85bd 3f4a 87bd 9676 063a
00000200: 8582 e9b9 c9c4 0aba b551 70ba 7667 09ba
00000210: 5fc7 f039 4444 18b9 1748 3a3a 4a28 8fb9
00000220: 6031 7bba d37e 6a38 0cf9 43ba e6af e039
00000230: 18d6 1038 d573 aab9 6f38 373a c36d 8f38
00000240: 2eea b63e d8a6 bd3d b5ac b2bd 56fa a439
00000250: 28ef b4bd f898 8a38 7d9b abbd 8d3f 243a
00000260: 0812 a9bd 4320 b83e 226e 5fba 133d d139
00000270: 9989 bbb7 f00b b43e dbc2 b33e 1528 d338
00000280: 6811 89bd 8c7e fd3d 6252 613e 97e4 ffba
00000290: 303f 603e 5b93 50b8 d15a 613e 0c39 cfb9
000002a0: ad95 5e3e f57a 8abd a5cc 863a 6e62 1639
000002b0: 5fb0 24ba e17f 87bd ce92 81bd d06c a7b9
000002c0: 5775 88bd 0217 fe3d e14c 613e 9720 8e38
000002d0: 90a7 623e 6a33 5d3a 5456 613e 7166 8ab9
000002e0: e64e 5e3e b59a 87bd 450d 47ba 94f6 51ba
000002f0: 5bc9 99ba 8646 87bd abef 87bd bee1 4139
00000300: 7663 813a 5e9b 9bb9 4443 fcb9 9444 8839
00000310: 0b3f 93b9 6ced 763a 0aba 73ba 47e4 463a
00000320: f8d3 3bba 5397 16ba 720b 863a 631e 533a
00000330: c998 333a 730a 6e39 4808 7839 a33f 55ba
00000340: 0664 2339 e2f4 aa39 77f6 d1b9 7c4d ebb9
00000350: 28fb 23ba 64c8 7c3a 7262 35ba 50f7 6c3a
00000360: 769c 2a3a 355a ef39 5e89 43ba 3a95 77ba
00000370: 65c1 4e3a c34e 28ba 1987 76ba 5e8f c9b9
00000380: 982f 84ba 8c87 d1b9 cf20 c639 e5f4 cc39
00000390: 6621 9d38 dc19 54b9 b480 71ba 6c24 463a
000003a0: 3fe0 85ba 0461 feb9 aea0 ff38 c2a6 61b9
000003b0: c12e 4fb8 3728 f8b7 8707 80ba fed6 08ba
000003c0: 6925 2e3a c462 85ba bffd 6dba 6759 f639
000003d0: a590 0d39 60f6 f139 b612 83b9 4441 1639
000003e0: ea5b 34ba 5aeb 5ab6 4190 e738 40ca 65ba
000003f0: 14ba 3c3a 13b5 b939 313d 513a 2444 893a

bias f4 [16]
0.00037661556 -0.00019742343 0.1031266 -0.0006962166 0.07997021 0.10324197 0.08065792 0.080563165
-2.4285984e-05 0.12500091 0.08041335 0.0809296 -0.00039663204 -0.00036210942 -0.0007447754 -0.00048972823
00000000: 7c74 c539 7303 4fb9 0a34 d33d 4e82 36ba
00000010: 6cc7 a33d 8770 d33d fb2f a53d 4dfe a43d
00000020: c1b9 cbb7 3d00 003e c1af a43d 6bbe a53d
00000030: 0df3 cfb9 81d9 bdb9 083d 43ba 1b61 00ba

weight f4 [16, 16]
-0.00033774477 -0.0010457351 -0.04281659 -0.00064289005 0.09111497 -0.044130597 0.091451645 0.09049578
7.4866894e-06 -0.02589491 0.09043684 0.09077189 0.0002752045 -0.0006229767 4.398687e-05 -3.808983e-05
5.703441e-05 0.0005977157 -0.000988629 0.00013125315 -0.00076104916 -0.0011745112 7.552004e-05 -0.00040911042
0.0004304645 0.00066110416 -0.0009294955 -0.00068110967 1.6553182e-05 -0.000935529 -0.0004657712 0.000613257
-0.00021157064 0.0010766584 -0.053754013 0.001063175 0.23978154 -0.054421 0.23978032 0.23978133
-9.37907e-05 -0.024258062 0.23977937 0.23977745 -0.0009312428 -5.756249e-05 -1.6469443e-05 0.00086069386
2.3777344e-05 -8.278026e-08 -0.0547434 8.5594234e-05 0.23750472 -0.05402518 0.23978017 0.23978138
-0.0008934242 -0.024087265 0.23762895 0.23826283 0.00073753565 -0.00024129968 0.00021705052 -4.7250072e-05
-0.00011875239 0.00094482175 0.35158196 -0.0008610907 -0.056893077 0.35158694 -0.05872266 -0.056951117
0.00088945497 0.31974843 -0.058201816 -0.059203744 0.00017334953 -7.401281e-05 -5.3153693e-05 0.0004304633
-0.0007119902 0.0007668123 -1.9985724e-05 -0.00089067256 0.00056463026 -0.00050424715 -0.0010636862 -0.000757003
0.00030323034 0.00036679223 -0.0004822149 -0.0007141922 0.00094456226 0.0010864715 0.0005220167 -0.0003833762
-0.00028245113 0.00011911117 -0.053836983 0.0010170812 0.23855338 -0.054746747 0.2397816 0.23978251
-0.0009697556 -0.024057973 0.2397806 0.23977883 -0.001074581 -0.00029006106 -0.00057747023 0.00021616789
-0.00079459575 -0.0008831494 -0.00091180793 -0.00088627904 0.00035306992 -0.00015249338 -0.00096773595 -0.00070742477
-0.00012366913 0.0005747169 0.001022446 -0.00067887787 -0.00019370629 -0.00021603212 0.00054801104 -0.0007211864
0.0003062377 0.00022503069 -0.054526933 0.00093510246 0.23791628 -0.05378208 0.23977989 0.23978128
0.00037237225 -0.024438016 0.23977906 0.23977661 0.00025035394 -0.0003003102 0.0009636384 -0.0010179459
-0.0008141468 -0.00077175704 -0.054851368 0.00021821084 0.23785622 -0.053217255 0.23978011 0.23978142
-0.00032270982 -0.024085123 0.23977914 0.23977713 0.00083054404 -0.00047440952 -0.00018491101 -0.0001525963
-0.00071144075 0.00044531992 0.34455505 0.00096667866 -0.05826116 0.34673446 -0.058707274 -0.05981764
-0.0008813413 0.30783236 -0.059763346 -0.058731806 0.0010350586 0.00019118594 -0.00054941623 -0.0006731844
-0.00028881762 0.00029505673 -0.00085219427 -0.0007252923 0.00069594843 5.319966e-06 0.00019625343 -0.0005582472
0.00021192958 0.0003720901 0.0007656341 -0.0005677645 0.0002709992 -0.0006952654 -0.00087640586 0.0002829956
-0.0004272142 -0.0010558995 -0.053785697 -0.0007777899 0.23978095 -0.054435782 0.23978014 0.23821002
0.0001995145 -0.024839751 0.23929907 0.23977715 0.0010807565 0.00035908978 0.00052020524 0.0007569343
-0.0006790766 -0.00071761565 -0.0002240039 -0.00037243127 -0.0006537295 -0.00023802803 0.0003988211 -0.0006047104
-0.0010238946 -0.00089743716 0.00077995314 -0.0009783044 -0.00040867954 0.0009708753 0.0005006575 -0.0005153158
-1.3387953e-05 0.0009091314 0.35158244 -0.00076389365 -0.05803043 0.35158753 -0.057601508 -0.058100056
-0.00070146023 0.320167 -0.056872595 -0.057249613 -0.00039537615 -0.0002512234 -0.00018999269 0.0010440685
-4.3408076e-05 4.667241e-05 -0.0018476306 0.0001791598 -0.00095563143 -0.0018556922 -0.00011668976 -0.0013015646
-0.0005618665 -0.0016159437 -0.00045361088 -0.0003231871 -0.0006832175 0.000884981 -0.00063911045 5.11891e-05
00000000: 5613 b1b9 0c11 89ba 7360 2fbd 9f87 28ba
00000010: 7c9a ba3d 49c2 34bd 004b bb3d da55 b93d
00000020: 2c36 fb36 9021 d4bc f336 b93d 9de6 b93d
00000030: 5349 9039 424f 23ba 8b7e 3838 a5c2 1fb8
00000040: 3b38 6f38 06b0 1c3a e294 81ba 00a1 0939
00000050: 2581 47ba 0ef2 99ba 8360 9e38 df7d d6b9
00000060: f8af e139 f34d 2d3a 63a9 73ba 7f8c 32ba
00000070: b0db 8a37 4a3e 75ba c132 f4b9 fbc2 203a
00000080: 10d9 5db9 a91e 8d3a 2b2d 5cbd 3c5a 8b3a
00000090: 4b89 753e 8ee8 5ebd f988 753e 3d89 753e
000000a0: 80b1 c4b8 d8b8 c6bc b988 753e 3888 753e
000000b0: a51e 74ba 416f 71b8 dc27 8ab7 30a0 613a
000000c0: 7575 c737 eec4 b1b3 9e3a 60bd 0e81 b338
000000d0: 7034 733e 8249 5dbd ef88 753e 4089 753e
000000e0: af34 6aba a852 c5bc 0155 733e 2cfb 733e
000000f0: 2e57 413a 6405 7db9 0e98 6339 612e 46b8
00000100: b40a f9b8 eaad 773a 8d02 b43e d2ba 61ba
00000110: b708 69bd 3403 b43e 2c87 70bd 9345 69bd
00000120: 502a 693a 11b6 a33e 0765 6ebd a07f 72bd
00000130: 29c5 3539 5337 9bb8 58f1 5eb8 ceaf e139
00000140: daa4 3aba e703 493a 04a7 a7b7 067c 69ba
00000150: b203 143a 742f 04ba 636b 8bba 9d71 46ba
00000160: e3fa 9e39 054e c039 cad1 fcb9 a138 3bba
00000170: 809c 773a ef67 8e3a f3d7 083a e2ff c8b9
00000180: f315 94b9 53cb f938 2b84 5cbd 954f 853a
00000190: 5647 743e 203e 60bd 4f89 753e 8c89 753e
000001a0: 3237 7eba 3a15 c5bc 0c89 753e 9588 753e
000001b0: f5d8 8cba 5613 98b9 5f61 17ba 20ab 6239
000001c0: 6b4c 50ba 2783 67ba 6506 6fba 2e55 68ba
000001d0: 3e1c b939 a1e6 1fb9 a9af 7dba 7972 39ba
000001e0: 2ead 01b9 99a8 163a 9803 863a b9f6 31ba
000001f0: a31d 4bb9 ae86 62b9 66a8 0f3a 000e 3dba
00000200: 878e a039 37f6 6b39 a257 5fbd aa21 753a
00000210: 53a0 733e 994a 5cbd dc88 753e 3989 753e
00000220: f53a c339 3c32 c8bc a488 753e 0088 753e
00000230: f041 8339 f472 9db9 ae9c 7c3a 996c 85ba
00000240: 786c 55ba bd4f 4aba d4ab 60bd 87cf 6439
00000250: 9590 733e 56fa 59bd eb88 753e 4389 753e
00000260: 6131 a9b9 2a4e c5bc aa88 753e 2388 753e
00000270: deb8 593a 2bba f8b9 ace4 41b9 4202 20b9
00000280: fb7f 3aba d479 e939 8569 b03e b568 7d3a
00000290: 41a3 6ebd 2e87 b13e 0a77 70bd 5703 75bd
000002a0: d009 67ba 349c 9d3e 69ca 74bd c390 70bd
000002b0: ceaa 873a 1679 4839 b306 10ba a478 30ba
000002c0: 726c 97b9 d8b1 9a39 ca65 5fba 8b21 3eba
000002d0: 4f70 363a 2982 b236 61c9 4d39 5657 12ba
000002e0: 6a39 5e39 1615 c339 d6b4 483a 08d6 14ba
000002f0: e614 8e39 7942 36ba 9abe 65ba 075f 9439
00000300: b8fb dfb9 1c66 8aba 644e 5cbd 99e4 4bba
00000310: 2389 753e 0ef8 5ebd ed88 753e 54ed 733e
00000320: c434 5139 bc7c cbbc d10a 753e 2488 753e
00000330: 2ca8 8d3a 3744 bc39 625e 083a 006d 463a
00000340: 0f04 32ba 5f1e 3cba 97e2 6ab9 e142 c3b9
00000350: 0b5f 2bba 2a97 79b9 dd18 d139 6e85 1eba
00000360: 3434 86ba fd41 6bba c575 4c3a 733a 80ba
00000370: 0a44 d6b9 5782 7e3a 8e3e 033a 4216 07ba
00000380: d29c 60b7 c752 6e3a 9d02 b43e 0940 48ba
00000390: 51b1 6dbd 4803 b43e 8fef 6bbd 53fa 6dbd
000003a0: 33e2 37ba eeec a33e 3df3 68bd 927e 6abd
000003b0: 7d4a cfb9 a2b6 83b9 c638 47b9 20d9 883a
000003c0: 1111 36b8 1ec2 4338 322c f2ba d8dc 3b39
000003d0: 5783 7aba b33a f3ba 56b7 f4b8 4399 aaba
000003e0: 394a 13ba 13ce d3ba 9fd2 edb9 7071 a9b9
000003f0: f319 33ba 12fe 673a fa89 27ba e1b3 5638

bias f4 [16]
0.047881804 0.0003037228 0.10095051 0.1012396 0.14020602 -0.00040279163 0.10107883 -0.0006456574
0.10120536 0.100715496 0.13701713 -0.00091524026 0.10149696 -0.00025958562 0.1390306 -0.00020014965
00000000: b61f 443d fc3c 9f39 24bf ce3d b556 cf3d
00000010: 2b92 0f3e c72d d3b9 6b02 cf3d 5641 29ba
00000020: c144 cf3d ed43 ce3d 384e 0c3e bcec 6fba
00000030: a3dd cf3d fe18 88b9 0a5e 0e3e 43df 51b9

weight f4 [1, 16]
-0.08710049 -0.00050899165 -0.2268473 -0.22671956 0.33953574 -0.0010599843 -0.22830147 1.3859778e-06
-0.22678603 -0.22675917 0.3304759 4.717916e-05 -0.22677737 -0.0009127915 0.3421164 -0.0001042417
00000000: be61 b2bd da6d 05ba a94a 68be 2c29 68be
00000010: a1d7 ad3e 2cef 8aba dcc7 69be d605 ba35
00000020: 993a 68be 8e33 68be 2334 a93e 3de2 4538
00000030: 5438 68be 6748 6fba e129 af3e 569c dab8
