pre_trained_models/3u3d/diode_pair_3u3d_1N4148_l_0.40k_3.00k_4x16_1.16e-06.pth (torch, 9035 bytes, 9 tensors)

weight f4 [16, 2]
000000 fc 26 d5 b9 ae 5c a8 ba 8b a0 8a 3a 97 19 99 ba
       -0.00040655572 -0.0012845004 0.001057641 -0.00116806
000010 01 4b 99 3e 34 29 ab 3d 76 de 8b 38 d2 4f e9 b9
       0.29940036 0.08357468 6.669473e-05 -0.00044500694
000020 5e cb 9e ba 02 75 8e ba 36 4e 96 be 20 b5 be 3d
       -0.0012115052 -0.0010868611 -0.29356545 0.093118906
000030 6e e2 7e 3a 01 bf 2c ba a3 61 96 3e 05 de a6 3d
       0.00097230717 -0.0006589741 0.29371366 0.081478156
000040 e2 20 1d ba 15 2b b0 b8 4f 61 99 be 92 31 bb 3d
       -0.00059939746 -8.400359e-05 -0.29957053 0.09140314
000050 de 84 c7 3e 0a 97 8b bb 36 28 67 39 50 20 64 ba
       0.38968557 -0.0042599486 0.00022044856 -0.00087023247
000060 81 ea 96 be 81 89 bc 3d 4e 22 9a 3e 04 ec ad 3d
       -0.29475787 0.09205914 0.30104297 0.08492282
000070 c1 1a 4e ba fd 7e a6 ba 45 5c 96 be 68 37 be 3d
       -0.0007862263 -0.001270264 -0.2936727 0.09287912

bias f4 [16]
000000 51 0e 4e ba 49 f2 76 3a 0a 97 a4 3d d3 83 74 3a
       -0.00078604097 0.00094202586 0.08036621 0.00093275047
000010 4e e6 4c 3a 46 da 4f 3d 4a 4f ae 38 e2 1e a4 3d
       0.00078163005 0.05074527 8.311735e-05 0.08013703
000020 ff b6 7a ba f2 6b 76 3d 10 e5 1b 3c 25 e9 46 3a
       -0.00095640117 0.06016154 0.009515062 0.0007587842
000030 35 b6 5d 3d ed 21 a1 3d 6d 01 b0 38 17 54 52 3d
       0.054128844 0.07867799 8.3925996e-05 0.051349726

weight f4 [16, 16]
000000 65 be c7 b9 02 8d f3 39 6d 4a 9e b7 66 be d7 39
       -0.00038098093 0.0004645363 -1.8869725e-05 0.00041149853
000010 1b 62 23 b8 de e1 b7 b9 4a 0f d6 38 0e 3c c3 b9
       -3.8953596e-05 -0.00035072764 0.00010207163 -0.00037238043
000020 1d 5a 07 39 8b 29 08 b9 23 e2 f2 b8 0b 95 02 b9
       0.00012908173 -0.00012985447 -0.000115815805 -0.00012453289
000030 25 e1 c6 39 de a9 6d b9 ad b2 dd b9 27 9e 0f b9
       0.0003793325 -0.00022665362 -0.0004228553 -0.00013696459
000040 40 65 e9 39 f6 6a a9 39 91 e4 5b 3e 63 58 10 39
       0.0004451666 0.00032313884 0.2147391 0.00013765837
000050 c7 33 bf 39 90 05 e9 bc 53 f0 bd 39 77 e2 5b 3e
       0.00036468936 -0.028445035 0.00036227945 0.21473108
000060 a4 ef 8d b9 68 79 ff bc 1a 61 b3 3e a6 31 d8 39
       -0.00027072162 -0.03118582 0.3503502 0.0004123572
000070 e3 20 f0 bc 96 e1 5b 3e 16 8e 6a 39 6a bd ea bc
       -0.029312557 0.21472773 0.0002236891 -0.028654773
000080 1e fc a8 38 c3 09 36 37 d0 63 72 bb 8e 07 58 39
       8.057825e-05 1.0850318e-05 -0.0036985762 0.0002060218
000090 ea 77 d3 36 ab ac 5c bd 2e 3c c7 b9 7e f7 43 bb
       6.30225e-06 -0.053875607 -0.00038001075 -0.0029902156
0000a0 ba dd 4b b9 c7 15 33 bd 12 d8 a7 3e 48 49 bb b9
       -0.00019442188 -0.04372194 0.32782036 -0.00035722018
0000b0 0b ef 47 bd 72 23 01 bc 6f 7d 4c 38 c1 18 5b bd
       -0.048811954 -0.007881986 4.875421e-05 -0.053490404
0000c0 a8 76 4c b9 94 66 f0 38 ff 6b 7d b9 6a 1f c0 39
       -0.00019499159 0.000114631985 -0.00024168192 0.000366445
0000d0 1c 1b a9 38 40 64 80 b9 e8 8a e3 39 b4 ae c8 b8
       8.0635975e-05 -0.00024488755 0.00043400307 -9.569284e-05
0000e0 fd 6d d8 39 df ab 7e 39 5f 32 d2 39 80 c3 a4 b9
       0.00041280678 0.00024287355 0.0004009185 -0.00031426176
0000f0 43 66 a5 39 b0 4f e9 b9 a7 89 b1 b9 6a 5e 69 b9
       0.00031547443 -0.00044500595 -0.0003386263 -0.00022255784
000100 50 2e f2 b9 db bf ae b9 b6 72 fe bc 5d 18 50 39
       -0.00046192342 -0.0003333081 -0.031060558 0.00019845502
000110 77 96 72 b9 18 19 57 3e c2 22 64 b9 36 fe ff bc
       -0.00023134971 0.21005666 -0.00021756723 -0.031249147
000120 a1 5e b7 b9 bf 17 58 3e eb d4 90 bd e3 f6 fd b8
       -0.00034974984 0.21102808 -0.07071861 -0.00012109966
000130 94 2c 57 3e 47 90 fe bc 9a 9b 66 38 7b 41 57 3e
       0.21013099 -0.031074656 5.498119e-05 0.21021073
000140 0e 1d eb b9 ec 21 d9 b9 65 9e 06 ba a0 bc dc 39
       -0.0004484434 -0.0004141474 -0.0005135297 0.00042102206
000150 4b d5 bb b9 7c d1 ae b9 fa e0 af 37 f3 67 b1 b9
       -0.00035826335 -0.00033343944 2.0966389e-05 -0.0003383752
000160 41 03 93 39 c7 72 50 b9 ff 39 20 38 48 cc 21 b9
       0.0002804045 -0.00019879184 3.8200986e-05 -0.00015430257
000170 1e 16 38 b9 c7 7f 29 ba ef 35 b9 39 9d 59 74 38
       -0.00017555847 -0.00064658787 0.00035326133 5.8257592e-05
000180 e9 62 b2 b9 97 9b c1 b8 92 eb 5b 3e ca a9 cd b8
       -0.000340245 -9.231938e-05 0.21476582 -9.8067874e-05
000190 96 c3 89 39 4a 6b e4 bc 16 6b ea 39 23 ea 5b 3e
       0.000262764 -0.02788319 0.00044711743 0.21476035
0001a0 40 b6 72 b9 fe 04 fd bc 88 62 b3 3e 3d 90 39 38
       -0.00023146812 -0.03088617 0.3503611 4.424177e-05
0001b0 0b 3e f0 bc 2a e9 5b 3e 91 c2 dd b9 b0 56 eb bc
       -0.02932646 0.21475664 -0.00042297368 -0.02872786
0001c0 1b 69 50 39 93 62 96 b8 28 e6 27 39 86 d2 e9 39
       0.0001987558 -7.170918e-05 0.00016012101 0.00044598075
0001d0 a7 45 a6 b8 56 98 89 39 a7 15 b3 b9 19 8b 9f b9
       -7.9284706e-05 0.00026244175 -0.00034157673 -0.0003043048
0001e0 db ee 50 b9 1f 30 05 b8 41 d5 d6 b9 9d 23 87 39
       -0.00019925406 -3.1754487e-05 -0.00040976147 0.0002577574
0001f0 20 d4 c5 b9 92 3b ec 39 4a a0 68 38 c8 d4 ee b9
       -0.00037732814 0.0004505781 5.546239e-05 -0.00045553432
000200 62 7c 4d b9 bc ba 14 b9 4a c0 42 b9 ea 24 e5 39
       -0.0001959666 -0.00014183944 -0.00018572915 0.00043705787
000210 b9 6e 22 39 18 1b bc b9 9a e1 a2 39 f6 83 db 39
       0.00015490771 -0.0003587834 0.00031067134 0.00041869254
000220 b5 e2 f4 39 40 7c 60 b9 55 f8 d3 b9 ea 19 ed b9
       0.00046708217 -0.00021408591 -0.00040430078 -0.0004522347
000230 ea 3c 8f b9 6e d2 11 39 b0 dd 17 39 51 0e 47 39
       -0.0002732047 0.00013906669 0.00014483067 0.00018983452
000240 4e e6 88 39 61 6a 82 39 ce 20 e9 b9 8e 01 57 b9
       0.00026111532 0.0002487479 -0.00044465665 -0.00020504577
000250 0b 84 fa 38 06 e2 8a b9 10 57 f2 39 03 f7 1d ba
       0.00011945524 -0.00026489812 0.00046222704 -0.00060258823
000260 30 16 07 39 72 63 39 b9 e4 23 84 b9 2f 3d da 39
       0.00012882869 -0.00017680021 -0.00025203743 0.00041625786
000270 4f f9 ed b9 d9 d5 46 b8 11 16 71 38 8f 9c c0 39
       -0.00045389912 -4.740604e-05 5.747943e-05 0.0003673774
000280 06 09 4f b9 8a d2 cf b9 a3 9f fe bc 0d 9f d3 b9
       -0.0001974442 -0.0003963898 -0.03108198 -0.00040363558
000290 17 37 72 38 22 6c 57 3e 73 09 49 b8 91 3e 00 bd
       5.7748603e-05 0.21037343 -4.7930935e-05 -0.031309668
0002a0 95 ce 70 b9 72 24 59 3e e0 0e 91 bd 3b 06 98 39
       -0.00022965141 0.21205309 -0.07082915 0.0002899634
0002b0 7c 61 57 3e 64 69 f6 bc fe 55 d6 b8 ae 77 57 3e
       0.21033281 -0.030079551 -0.000102203325 0.21041748
0002c0 21 a3 92 39 4f 93 4d b9 3e e6 5b 3e 27 26 c8 b9
       0.0002796883 -0.000196052 0.21474549 -0.00038175398
0002d0 b0 20 e3 39 c3 a0 e5 bc 32 9b 1d 38 69 e4 5b 3e
       0.00043321168 -0.028030759 3.7576254e-05 0.2147385
0002e0 8e 36 29 39 2b 6d fb bc cb 61 b3 3e d6 02 c8 39
       0.00016137419 -0.030691704 0.35035548 0.00038149086
0002f0 c1 8f f0 bc 47 e3 5b 3e 92 f7 6d b9 77 6e ee bc
       -0.029365422 0.21473418 -0.00022694308 -0.029105408
000300 eb 98 aa b9 c9 fa 93 b9 6f 54 b7 39 58 88 21 37
       -0.0003253886 -0.00028224874 0.00034967388 9.628093e-06
000310 27 a9 7f 39 37 d2 71 b9 1c fd 92 39 f0 86 7c b9
       0.00024381709 -0.00023061862 0.0002803587 -0.00024082861
000320 9d cc f5 39 e4 0e cf b8 a3 73 33 39 09 6e 92 b9
       0.0004688249 -9.873303e-05 0.00017113848 -0.00027929273
000330 db dc cf b8 95 aa fc b9 69 c9 ed b8 22 ff ec b8
       -9.911667e-05 -0.0004819228 -0.00011338556 -0.00011300879
000340 52 df b8 38 98 59 f8 38 3e e5 5b 3e 74 11 0c b9
       8.8154e-05 0.0001184225 0.21474168 -0.00013357942
000350 14 4b 1c 38 fd b2 e4 bc de 00 b3 b9 51 e4 5b 3e
       3.726322e-05 -0.02791738 -0.00034142187 0.21473815
000360 4d 0a bf b5 f5 78 fe bc 80 61 b3 3e 9e cc ea 37
       -1.4233607e-06 -0.031063536 0.35035324 2.7990256e-05
000370 16 8b f2 bc 53 d4 5b 3e a9 be cb b9 60 8b ea bc
       -0.029607337 0.21467714 -0.0003886123 -0.028630912
000380 ed d5 ac 39 e6 e3 88 b7 d3 f2 79 bd e8 df c3 b8
       0.00032965784 -1.6318587e-05 -0.06102259 -9.3400304e-05
000390 d1 a6 75 b9 fe 20 80 3e 2b 3b 05 b8 ce 1f 75 bd
       -0.00023427165 0.2502517 -3.1764775e-05 -0.059844784
0003a0 35 4e c8 b9 07 15 81 3e 8f 46 ea 3c fe 38 20 b9
       -0.0003820524 0.25211355 0.028598098 -0.0001528002
0003b0 cb 20 80 3e c6 93 71 bd 1a 47 d7 39 a6 68 80 3e
       0.2502502 -0.05897882 0.0004106097 0.2507984
0003c0 c5 b1 0d b9 7b 4e ef b9 e2 0f 78 b9 32 c8 d3 b9
       -0.00013513032 -0.00045644105 -0.0002365704 -0.00040394213
0003d0 c1 31 49 39 96 8d b4 b9 4f 8b aa b8 10 e3 a7 b9
       0.00019187389 -0.00034437765 -8.13218e-05 -0.00032021897
0003e0 8a 84 f1 b8 e5 df 28 39 50 64 49 b8 59 52 80 38
       -0.00011516463 0.00016105136 -4.8015558e-05 6.118854e-05
0003f0 3b 25 07 b9 9b c0 a6 39 3d 1e 82 b8 68 fe 83 b8
       -0.00012888473 0.0003180549 -6.2045154e-05 -6.2939536e-05

bias f4 [16]
000000 77 20 26 b8 d5 37 8d 3d 9a 76 f0 3d 2a 3e 51 b9
       -3.960772e-05 0.06895415 0.117413715 -0.00019954951
000010 50 e1 a4 3d 12 07 16 b9 4e 20 8c 3d 7b 33 80 b9
       0.080507874 -0.00014307749 0.06842099 -0.00024452418
000020 69 1c bd b8 98 1c 86 38 b2 d3 a3 3d 76 8d 8c 3d
       -9.017514e-05 6.394944e-05 0.07999362 0.06862919
000030 0c 5e 54 b9 d7 ba 8c 3d 01 e6 c0 3d 17 cc 40 b9
       -0.0002025293 0.06871574 0.0941887 -0.00018386576

weight f4 [16, 16]
000000 18 72 7d b9 12 cf d1 b7 71 eb bc b7 05 f3 9d 37
       -0.00024170463 -2.5011166e-05 -2.2520982e-05 1.8829023e-05
000010 d3 cb 3e 39 c3 21 aa 39 5e d2 68 b8 b9 78 b3 37
       0.00018195742 0.0003245008 -5.550903e-05 2.1394679e-05
000020 9b e8 bb b9 c1 db 45 38 aa 2b c1 b9 10 9b 3e b9
       -0.00035840724 4.7173122e-05 -0.0003684436 -0.00018177577
000030 6f ff d6 39 12 44 4f 39 54 81 39 b9 3e 3a a9 38
       0.00041007574 0.00019766417 -0.00017691153 8.0693964e-05
000040 ab de 4e b9 97 fb 51 b9 1d 8b bc b6 c8 f3 f5 39
       -0.00019728641 -0.00020025518 -5.6190315e-06 0.00046911673
000050 af 31 b5 b9 5f 33 fe 38 86 bb e9 b9 fc 9a e6 38
       -0.00034560027 0.000121212324 -0.0004458094 0.00010996123
000060 7d e6 d3 39 00 8a f6 38 54 e2 bd 38 b3 bf 45 b9
       0.00040416783 0.000117558986 9.054379e-05 -0.00018858798
000070 9f 4f af 38 f4 ef 8e 39 d9 28 8a 38 2f c2 83 38
       8.359481e-05 0.0002726313 6.587961e-05 6.282736e-05
000080 93 18 ca 38 70 22 68 3e 07 89 73 3e 90 49 d1 39
       9.636688e-05 0.22669387 0.2378274 0.00039918395
000090 20 ae 26 bd 70 b5 e6 b9 93 24 68 3e 4d f4 99 b9
       -0.040693402 -0.000440042 0.22670202 -0.00029364452
0000a0 03 ad cf b9 c0 d0 7b 39 92 87 23 bd fa 32 68 3e
       -0.0003961102 0.00024014991 -0.03992421 0.22675696
0000b0 43 63 30 b9 60 15 67 3e cd 43 7d bc f0 23 43 36
       -0.00016821646 0.22566748 -0.0154580595 2.9078183e-06
0000c0 9c 22 89 38 a7 24 b4 39 54 94 66 b8 ea 65 ec b9
       6.5391156e-05 0.00034359584 -5.4974415e-05 -0.0004508936
0000d0 a6 6d 36 b9 37 08 00 b9 13 9b ca 39 80 f1 8c 39
       -0.0001739772 -0.00012210092 0.00038643982 0.00026882812
0000e0 4d 11 a0 39 80 4e 82 39 b8 ed 6f b9 48 11 84 b9
       0.00030530468 0.0002485402 -0.00022881373 -0.00025189877
0000f0 a6 97 f3 b9 93 b0 b5 b9 c3 b2 93 b9 13 a0 a2 39
       -0.0004646156 -0.00034654568 -0.00028171213 0.00031018312
000100 08 23 53 39 a8 3a c2 b9 9e ea db 38 26 9f 1a 38
       0.00020135578 -0.00037046266 0.000104864346 3.686468e-05
000110 68 ac c0 b9 f2 43 ec b9 29 8c 35 39 b9 a3 a4 b8
       -0.00036749546 -0.0004506405 0.00017313719 -7.850625e-05
000120 59 98 d4 b9 82 98 dd 38 f0 46 1d 39 c2 34 6c 39
       -0.000405493 0.00010566508 0.00014999113 0.00022526368
000130 62 a5 60 39 5e a0 09 b9 62 89 6b 38 72 e9 9e b8
       0.00021423915 -0.0001312508 5.6156314e-05 -7.57751e-05
000140 6b a4 ef 39 3f 9b 63 3e b7 51 99 3e 58 f7 d0 39
       0.00045708133 0.2222719 0.29945156 0.00039857137
000150 b9 98 67 bd ad ce 16 b7 e5 bb 61 3e 31 00 f4 38
       -0.056542132 -8.988817e-06 0.22044332 0.00011634862
000160 d0 69 c6 39 e0 bd f2 b8 57 b7 69 bd 95 97 63 3e
       0.0003784434 -0.00011574826 -0.057059612 0.22225793
000170 e3 c3 3e b9 f0 99 63 3e 3b 3f ba bc 12 8d 80 37
       -0.00018192786 0.22226691 -0.022735229 1.532448e-05
000180 f6 02 33 39 75 3e a6 b9 c9 66 f5 b8 aa 37 98 b9
       0.00017071873 -0.0003170852 -0.000117016556 -0.00029033172
000190 da 6a aa b9 3a d9 88 38 3e 8a b3 b9 8a d0 f0 39
       -0.00032504537 6.525447e-05 -0.0003424454 0.0004593174
0001a0 36 aa 10 b9 2d 17 ce b7 0b eb 28 b9 07 2f 7e b9
       -0.00013796319 -2.4567906e-05 -0.00016109289 -0.00024240847
0001b0 e5 cd a7 b9 7e 25 b8 b9 3a a1 74 b8 6a 89 d5 39
       -0.00032006126 -0.0003512315 -5.8324287e-05 0.00040728907
0001c0 0a 9a c6 b8 32 0b 80 be 27 24 9e be 03 a7 b5 b8
       -9.470068e-05 -0.2500854 -0.30886957 -8.661861e-05
0001d0 1a 3c 2b 3e 59 69 fa b7 11 0b 80 be d8 1c d3 39
       0.16722146 -2.9851379e-05 -0.25008443 0.00040266546
0001e0 61 d3 bc b9 5c 98 e1 39 7e f3 2a 3e 28 0b 80 be
       -0.00036015644 0.0004302886 0.16694447 -0.25008512
0001f0 41 e6 36 39 30 0b 80 be 89 dc 31 3e b4 d6 65 b9
       0.00017442649 -0.25008535 0.17369284 -0.00021919125
000200 39 cd 42 b9 a3 c5 64 3e 8f 0b 80 3e 7e b6 b3 b9
       -0.00018577733 0.22341017 0.25008819 -0.00034277508
000210 fe 8e 37 bd d1 82 29 39 b4 c9 64 3e be 85 cd 39
       -0.044814102 0.00016165829 0.22342569 0.00039200293
000220 75 3c 98 39 f1 47 39 b9 21 d8 32 bd 80 c8 64 3e
       0.00029036743 -0.00017669775 -0.043663148 0.2234211
000230 02 ee 27 38 38 c7 64 3e 0b c7 8e bc 81 ef 48 b9
       4.0037565e-05 0.22341621 -0.017428895 -0.00019162708
000240 41 37 cc 39 55 1f c0 38 40 e2 ac b9 56 09 d5 b8
       0.0003895108 9.1611095e-05 -0.00032974966 -0.000101583704
000250 70 33 9f b8 07 40 b1 b9 09 dc 5b b9 ee 38 a1 b9
       -7.591292e-05 -0.00033807775 -0.00020967437 -0.0003075073
000260 7d 5c 0e 39 8e ec 40 37 09 34 fe b9 25 b8 f4 b9
       0.0001357663 1.1499169e-05 -0.00048485424 -0.00046676505
000270 7a dd 7f b9 fa 1e e7 b7 dc 42 3a 39 ac b3 8a 39
       -0.00024401202 -2.755177e-05 0.0001776325 0.00026455277
000280 4a 67 3e b9 fc 41 fc 38 6e 68 83 38 b8 62 e1 39
       -0.0001815829 0.00012028587 6.266018e-05 0.00042988895
000290 4a 20 7c b9 70 c5 9f b8 59 00 a2 38 eb 60 cd b9
       -0.00024044621 -7.6184864e-05 7.724827e-05 -0.00039172856
0002a0 24 fa 07 39 f6 da 22 b9 96 09 d4 b9 28 bc a3 37
       0.00012967788 -0.00015531093 -0.00040442933 1.9518731e-05
0002b0 50 9d 51 38 f3 8b 07 ba 24 7d 63 39 9d 50 87 b9
       4.997599e-05 -0.00051706954 0.00021695025 -0.00025809268
0002c0 af b8 ab 39 5f 27 cc bc e1 13 1c be 2e 0e 2d 38
       0.00032753262 -0.024921117 -0.15241958 4.125962e-05
0002d0 5e 30 8d 3e 72 26 29 b9 99 e0 c5 bc 25 0d 17 b8
       0.27575964 -0.00016131418 -0.024154948 -3.6013447e-05
0002e0 be 80 ad b9 c6 37 e2 b7 31 33 8d 3e 5b 36 cb bc
       -0.00033093052 -2.6967271e-05 0.27578118 -0.024806192
0002f0 34 2a ab b9 a2 2d c8 bc c6 ef 82 3e cc f5 a7 39
       -0.00032647105 -0.024435822 0.25573558 0.00032035855
000300 af 90 80 39 fe 5a c6 bc e1 48 1e be 96 8e ea b9
       0.0002452186 -0.02421331 -0.15457489 -0.00044738193
000310 56 45 8d 3e 65 df 7d b8 7d c9 c1 bc d4 c8 a2 b8
       0.27591962 -6.0527953e-05 -0.023655647 -7.762169e-05
000320 f2 05 84 b9 fc 50 c6 b8 d3 47 8d 3e ab ab c3 bc
       -0.00025181432 -9.45646e-05 0.2759386 -0.023885569
000330 e8 3c e0 39 ae d7 c7 bc 72 c2 83 3e 3e a7 01 39
       0.00042769988 -0.024394836 0.25734288 0.00012364701
000340 9f 84 c2 b9 95 81 5e 3e f3 c2 a3 3e 77 47 c5 38
       -0.00037101374 0.21729119 0.31984672 9.4070034e-05
000350 0b 80 7d bd bb b4 3a 39 7f d1 5e 3e 8b f4 4d 37
       -0.06188969 0.0001780567 0.21759604 1.2275889e-05
000360 54 d8 9c 39 ec a1 b5 b7 b7 bb 7d bd 39 8c 5f 3e
       0.00029915816 -2.1652282e-05 -0.061946597 0.21830834
000370 2f d6 6f 39 9d 5a 5e 3e c9 43 dc bc 47 46 ad 39
       0.00022872606 0.21714254 -0.026887791 0.00033049492
000380 7f 9d 7c 39 2a f0 68 3e c1 ef 5a 3e a2 7e d9 b9
       0.00024091265 0.22747865 0.21380521 -0.00041483814
000390 da ea 11 bd 70 9c 93 39 71 2a 69 3e 36 b9 7c b9
       -0.035624363 0.0002815458 0.22770096 -0.00024101589
0003a0 37 23 32 39 5d f3 8c b9 3d 31 0c bd ff 11 69 3e
       0.00016988521 -0.000268842 -0.034226645 0.22760771
0003b0 e3 bf b8 38 78 e5 68 3e ca 1c 51 bc 27 23 ce b9
       8.8095454e-05 0.22743785 -0.0127632115 -0.00039317572
0003c0 27 df 94 b9 4f 9a 87 39 c3 6e 2e 35 61 94 84 39
       -0.0002839502 0.00025864175 6.498123e-07 0.00025287553
0003d0 d7 73 f5 39 d9 42 bb 39 30 89 aa 38 c4 78 e2 39
       0.0004681635 0.00035717225 8.131785e-05 0.00043196057
0003e0 28 41 24 b8 42 19 6c 39 a3 a9 58 b9 db f4 c1 38
       -3.916133e-05 0.00022516123 -0.0002066256 9.248565e-05
0003f0 e2 ee e1 39 8a 99 03 39 07 46 d9 b9 87 99 c5 39
       0.00043093326 0.00012550331 -0.0004144164 0.00037689155

bias f4 [16]
000000 8f 9d 71 b9 93 69 37 b9 2d 8c 6a 3d 9e 21 38 b9
       -0.00023042246 -0.0001749157 0.05726259 -0.00017560131
000010 0e c2 aa b9 3a c8 a4 3d 2b 28 95 b9 29 e1 b2 3d
       -0.0003256951 0.08046003 -0.00028449422 0.08734352
000020 fa 89 80 3d 40 5f dc b9 2d c5 0a ba 7e db be 3d
       0.06276317 -0.00042032637 -0.00052936637 0.093192086
000030 62 51 bd 3d 79 22 af 3d ff d3 49 3d 59 67 be b9
       0.09244038 0.08551497 0.04927444 -0.00036316624

weight f4 [16, 16]
000000 dc 0e c7 b8 3f 7f fe 38 fe 0a 14 bd ec 32 88 39
       -9.491827e-05 0.00012135365 -0.036143295 0.0002597788
000010 3a 4b 0a b9 64 49 21 bd 0a 1b 78 39 91 f9 bc 3e
       -0.0001318873 -0.03937663 0.00023661196 0.36909154
000020 e3 f0 19 bd 27 04 d0 b8 e8 f0 a9 b9 f1 6c 80 3e
       -0.037583243 -9.918986e-05 -0.0003241368 0.25083116
000030 e3 77 80 3e f0 b5 23 bd 16 fc 0d bd c1 db 9b b8
       0.25091466 -0.03996843 -0.034664236 -7.431908e-05
000040 81 7e b6 39 e8 b5 c4 b9 03 fc 87 3e ae f8 2a 39
       0.00034807998 -0.00037519564 0.26559457 0.00016305104
000050 c0 57 d6 38 48 b0 8a 3e 59 b6 12 39 03 09 3c bd
       0.0001022066 0.27087617 0.00013991575 -0.04590703
000060 f1 0a 88 3e 1f 7c 99 38 01 75 9c 38 5f e4 91 bd
       0.26570848 7.318728e-05 7.460453e-05 -0.071236365
000070 16 94 8f bd c3 06 8b 3e 63 a4 85 3e a0 af e9 39
       -0.07010667 0.27153596 0.2610198 0.00044572074
000080 b8 79 8a 39 fa a8 cb b9 80 a4 12 bd c7 07 47 b9
       0.000264121 -0.00038845075 -0.03580141 -0.00018981016
000090 36 19 f1 39 ce bc 20 bd 50 c7 62 39 7f 43 bc 3e
       0.00045985886 -0.03924256 0.00021627289 0.36770245
0000a0 49 e6 16 bd b3 8a 90 39 49 dd b6 39 e3 1d 80 3e
       -0.03684071 0.0002756916 0.00034878615 0.25022802
0000b0 eb 1d 80 3e e1 9f 26 bd 75 38 0d bd c5 aa 92 b9
       0.25022826 -0.040679816 -0.03447767 -0.00027974523
0000c0 a5 99 55 39 de 78 ae b9 c3 78 14 bd 26 e7 f4 37
       0.000203705 -0.0003327792 -0.03624798 2.9194704e-05
0000d0 47 2c 79 b8 8d 93 20 bd 38 da 5d 39 7a d3 bd 3e
       -5.9407463e-05 -0.039203215 0.00021157495 0.37075406
0000e0 d5 ef 16 bd 01 ad 4a b9 87 23 8a b9 27 6e 80 3e
       -0.036849815 -0.0001932867 -0.0002634788 0.2508404
0000f0 ab 78 80 3e 1a 8d 26 bd a1 40 0d bd 44 46 4e 39
       0.25092062 -0.04066191 -0.034485463 0.00019671867
000100 6a 13 d7 39 00 e6 7c 38 cb 73 12 bd 97 bc 14 b9
       0.0004102246 6.0295686e-05 -0.03575496 -0.00014184635
000110 8c d2 52 b8 7b 1e 20 bd 69 fc b7 38 11 29 bc 3e
       -5.026399e-05 -0.03909157 8.773135e-05 0.3675008
000120 4c 08 16 bd 96 17 83 39 ed fe 93 39 3e 6b 80 3e
       -0.036629006 0.0002500384 0.0002822796 0.2508182
000130 eb 1d 80 3e b3 f1 27 bd a4 85 0d bd 42 5a e2 b8
       0.25022826 -0.041001987 -0.034551278 -0.000107933316
000140 5e e7 27 39 a0 43 85 39 08 dd 75 b9 66 66 69 b9
       0.00016012552 0.0002541812 -0.00023447361 -0.00022258758
000150 ea 9a 99 39 78 cf f4 b9 bc bb f3 b9 16 36 0e 39
       0.00029297854 -0.00046693883 -0.00046488445 0.00013562324
000160 bd d1 d4 b9 60 1d ae b6 8e 65 a2 39 16 d8 98 b9
       -0.00040592058 -5.189024e-06 0.00030974712 -0.00029152696
000170 62 43 ec b7 6f 1c 50 b7 e1 7a 81 39 21 ac a5 b9
       -2.816477e-05 -1.2404386e-05 0.0002469635 -0.00031599498
000180 26 c6 17 b9 73 d7 49 b9 94 1e 87 3e 7e b5 0a 34
       -0.00014474298 -0.00019249115 0.26390517 1.2918278e-07
000190 d8 15 a4 b9 31 b0 8a 3e 26 82 e9 39 0c b0 3c bd
       -0.00031296792 0.27087548 0.0004453819 -0.04606633
0001a0 66 83 87 3e ff 80 02 b9 cc ad 0f b7 c8 a2 90 bd
       0.26467437 -0.00012445821 -8.563929e-06 -0.07062298
0001b0 fb ed 8f bd c4 06 8b 3e 76 7c 84 3e 57 9d 59 39
       -0.07027813 0.271536 0.25876206 0.00020753346
0001c0 79 3c a4 b9 d2 73 98 38 a0 e7 a3 b9 54 30 8b b9
       -0.00031325573 7.269498e-05 -0.00031262357 -0.00026548153
0001d0 bf af 6f 39 51 63 ce b9 b5 49 2d 39 f3 08 f2 b9
       0.00022858287 -0.00039365378 0.00016526024 -0.00046164505
0001e0 b5 98 a0 b9 e8 bd 21 b9 3c 83 e5 39 f0 19 e9 b7
       -0.00030631354 -0.00015424902 0.0004377606 -2.7787843e-05
0001f0 2a c6 f0 b9 06 ed ff 38 14 de 06 38 90 af 0d b9
       -0.0004592401 0.000122034966 3.2154916e-05 -0.0001351221
000200 da 00 f2 b9 46 80 9b b9 f2 4e d1 b9 e3 08 0d b8
       -0.0004615847 -0.00029659475 -0.00039922405 -3.3625296e-05
000210 27 a2 37 b5 9c b6 26 39 1a ae aa 38 fe f3 cf 37
       -6.8408775e-07 0.00015899021 8.1386606e-05 2.478994e-05
000220 d1 f5 5a 38 7b 0b 92 b9 93 27 7d 39 3e 42 10 b8
       5.2204185e-05 -0.00027855844 0.00024142703 -3.439397e-05
000230 01 83 35 37 ba 14 ed b8 f6 71 94 b9 0c 9d 16 b9
       1.0818942e-05 -0.00011304901 -0.00028313667 -0.00014363619
000240 35 65 ce b7 7b 27 23 39 ff 70 4e 39 c4 7e a7 39
       -2.4604242e-05 0.00015559599 0.00019687785 0.0003194717
000250 df a5 85 39 d5 1d cf b8 50 7a 4a 39 63 0a 07 ba
       0.0002549132 -9.876086e-05 0.00019309786 -0.0005151389
000260 e6 2e 21 b6 83 0e a6 38 ea bd 91 b9 2b b7 25 39
       -2.4018168e-06 7.9182e-05 -0.00027798052 0.00015803862
000270 b9 aa b9 39 ae 0d 25 39 29 23 a3 b9 b7 11 3c b8
       0.00035413148 0.00015740722 -0.0003111598 -4.483919e-05
000280 41 7e 87 37 38 13 11 39 7c 71 14 bd 19 8c af b9
       1.6152046e-05 0.00013835437 -0.03624104 -0.00033482982
000290 cf 8f 71 b9 5a 61 22 bd 90 82 e8 39 ab 28 bd 3e
       -0.00023037124 -0.039643623 0.00044347765 0.3694509
0002a0 a9 01 16 bd 1d b5 ce b8 b9 89 44 39 14 6d 80 3e
       -0.036622677 -9.8565804e-05 0.00018743322 0.2508322
0002b0 01 78 80 3e 64 7a 24 bd 8b 7c 10 bd f6 8f ed 38
       0.25091556 -0.040155783 -0.035275023 0.000113278555
0002c0 47 ed 7c 37 82 18 78 39 06 a5 86 3e 21 26 d8 b9
       1.5075616e-05 0.00023660253 0.26297778 -0.0004122714
0002d0 c7 80 ce 38 3c b0 8a 3e 77 74 91 b9 ab c3 3b bd
       9.846832e-05 0.2708758 -0.00027743328 -0.0458409
0002e0 fe e8 87 3e 3d 92 0f b9 92 db 41 37 5b 32 92 bd
       0.26544946 -0.00013692021 1.1554819e-05 -0.07138511
0002f0 77 7b 8f bd ca 06 8b 3e cb 97 85 3e 7a 38 3d 39
       -0.07005971 0.27153617 0.2609237 0.00018045484
000300 2a 94 62 b9 43 98 96 b8 79 41 87 3e 8b aa 72 39
       -0.00021608235 -7.180918e-05 0.2641714 0.0002314245
000310 78 0a 5a b9 45 b0 8a 3e 6e 40 89 38 d6 01 3c bd
       -0.00020794 0.27087608 6.54467e-05 -0.04590019
000320 ff 47 88 3e ce cc dc 37 5e db 85 b9 e7 5e 91 bd
       0.2661743 2.6321413e-05 -0.00025531178 -0.07098179
000330 d9 d9 8f bd bd 06 8b 3e c9 a4 85 3e e3 db 37 b9
       -0.07023973 0.27153578 0.26102284 -0.00017534154
000340 b3 42 98 39 b6 34 ed b9 9b 64 27 b9 b5 83 76 b9
       0.00029041394 -0.00045243435 -0.0001596384 -0.00023509453
000350 65 ec ff 38 eb 1a a7 b9 ad 26 f5 b9 b2 25 00 b9
       0.000122033794 -0.00031872778 -0.00046758857 -0.00012221074
000360 5b 7b de 37 d3 c5 ae 39 be fe 26 b8 e3 cd 45 b9
       2.6521904e-05 0.00033335257 -3.981473e-05 -0.00018864083
000370 21 84 aa 39 72 a3 78 38 8e 3f 31 39 18 37 79 b9
       0.0003252337 5.9280028e-05 0.00016903711 -0.00023767014
000380 a1 b6 c5 39 d6 c4 64 39 3c 4f b7 bd 78 3f a1 39
       0.00037710837 0.00021817102 -0.0895066 0.000307556
000390 b2 33 b0 38 99 db 11 bd e6 8f 5a 39 4e 32 bf 3e
       8.401963e-05 -0.035609815 0.00020843706 0.37343067
0003a0 86 e9 93 bd 93 d1 e0 39 7d 5e 41 b9 99 a4 d5 bd
       -0.072222754 0.00042880754 -0.00018441114 -0.10431785
0003b0 36 62 d8 bd b1 77 a4 bc 44 19 e0 bd f6 b6 57 39
       -0.10565607 -0.020076605 -0.10942319 0.00020572156
0003c0 9c f7 2b 39 fb fd f7 38 50 52 17 bd 64 41 c0 39
       0.00016400072 0.00011825185 -0.036943734 0.00036669814
0003d0 7c a2 a9 39 d7 04 22 bd b3 81 7a b7 46 c9 bd 3e
       0.00032355252 -0.039555397 -1.4931359e-05 0.37067622
0003e0 29 7f 19 bd 63 d4 ed 38 a3 57 b0 b9 dd 6d 80 3e
       -0.037474785 0.00011340601 -0.0003363463 0.2508382
0003f0 9c 78 80 3e 50 56 22 bd 0f 3e 0d bd d0 0a f5 b9
       0.25092018 -0.039633095 -0.03448301 -0.00046738097

bias f4 [16]
000000 0c 6c fb 3d fa 4e cf 3d ef 89 fa 3d 1e 11 fb 3d
       0.12276468 0.101224855 0.1223334 0.12259124
000010 40 87 fa 3d 22 02 b0 38 bb e6 ce 3d b6 d2 21 38
       0.12232828 8.392731e-05 0.10102602 3.858163e-05
000020 d8 dd 98 b9 de 24 f5 b9 44 b2 fb 3d 1b 5e cf 3d
       -0.00029156986 -0.0004675751 0.12289861 0.10125371
000030 42 26 cf 3d b7 da d5 b8 32 cd 53 3e c7 e1 fb 3d
       0.10114719 -0.0001019737 0.20683745 0.12298923

weight f4 [1, 16]
000000 51 1c 80 be 7c 6e 83 3e 52 1c 80 be 4e 1c 80 be
       -0.25021604 0.2567023 -0.25021607 -0.25021595
000010 5c 1c 80 be e3 0b b7 39 cf 62 83 3e 03 79 db b8
       -0.25021636 0.00034913336 0.25661322 -0.00010465274
000020 68 2c bd 39 a3 ad 11 39 4a 1c 80 be c8 68 83 3e
       0.00036081974 0.00013892962 -0.25021583 0.2566588
000030 cf 6e 83 3e 8f 90 52 b9 81 83 16 bf 53 1c 80 be
       0.25670478 -0.00020081013 -0.5879441 -0.2502161
