pre_trained_models/3u3d/diode_pair_3u3d_1N4148_l_0.40k_3.00k_4x128_8.94e-07.pth (torch, 205719 bytes, 9 tensors)

weight f4 [128, 2]
000000 d8 74 89 ba 5f 39 ad bb a2 40 20 bb 03 29 00 bc
       -0.0010487093 -0.00528638 -0.0024452587 -0.007822278
000010 b7 dc a2 3c eb da b9 bb bf 3f cd 38 63 7b 9e ba
       0.019880636 -0.005671849 9.7870354e-05 -0.0012091215
000020 97 60 21 3e 6b c7 36 3d ad 5d 68 bb 93 4c 72 3a
       0.15759502 0.044623774 -0.0035456226 0.0009242978
000030 ca 3c 1c 3c fc 46 31 bc 6c 2e 17 bb 77 5f 8b 3a
       0.009535978 -0.010820147 -0.002306844 0.0010633309
000040 ab d4 68 ba be 37 24 3a c3 ec a0 3b a3 8c f6 bb
       -0.00088817877 0.000626441 0.0049110367 -0.0075240894
000050 a9 b6 36 3c 9e 0b 0f bc 00 29 0a be 1f ed 25 3d
       0.011151948 -0.008730797 -0.13492203 0.04050934
000060 e7 a0 24 3c d9 e8 3a bc e9 49 0a 3e 0d 42 11 3d
       0.010048128 -0.011408054 0.13504757 0.03546338
000070 cf 89 8b 3e d4 36 aa 3c df 35 03 3e b9 40 94 bc
       0.27253577 0.020778097 0.12813519 -0.018097268
000080 1e 6c 1c 3e 9a 4f 26 3d d8 8a 97 ba 03 81 bf bb
       0.15275618 0.040603258 -0.0011561764 -0.005844237
000090 0b 33 e7 ba 5a fc b6 bb 61 04 7f 3e fe c2 65 3c
       -0.0017639113 -0.005584282 0.24904014 0.014023541
0000a0 39 c2 b4 bb c4 59 7b b9 a2 bc a5 3b 0c 5d d6 bb
       -0.005516317 -0.00023970666 0.005057887 -0.006541854
0000b0 59 de 1e be 5d 36 38 3d 99 28 7f be 35 01 c0 3c
       -0.15514506 0.04497372 -0.2491783 0.023438076
0000c0 31 78 8b 3b 6c 16 35 bc 1a 0d 29 bc 9f cf 82 bb
       0.0042562713 -0.011052709 -0.010318065 -0.0039920355
0000d0 41 b0 b7 39 21 17 83 bb c6 d9 2b 3b 42 f9 81 ba
       0.000350358 -0.00400056 0.0026222332 -0.0009916204
0000e0 0f d3 0f be 1e 19 09 3d 1b a4 68 bb e5 d4 0c 3b
       -0.14045356 0.03347122 -0.0035498205 0.00214892
0000f0 e6 85 01 bb cb 8b 7d bb 26 fb 2a 3e 16 cf 41 3d
       -0.0019763648 -0.003868806 0.16697368 0.047316633
000100 75 ad 23 3e 6b e7 25 3d 3b ea 43 3c 5d f2 1c bc
       0.15984137 0.0405039 0.0119577 -0.009579268
000110 67 bf 23 3d 5b 04 ec bc 6a de c1 bb 71 83 b9 bb
       0.039977457 -0.02881067 -0.0059164064 -0.005661421
000120 0f ae 60 be 95 33 ab 3b c4 49 c5 3b 42 11 da 3b
       -0.21941398 0.005224655 0.0060207564 0.0066548893
000130 92 d9 32 bb 54 e6 54 3b ec 7d 6a bc 17 57 78 bb
       -0.0027290327 0.003248592 -0.014312249 -0.0037893706
000140 c6 8d 1f ba d8 90 8b 3b 3b e2 dd bb bd 85 fa bb
       -0.00060864945 0.00425921 -0.0067713535 -0.0076453374
000150 4a 51 4f 3b ff 11 43 bb 0a 77 94 3b 9c 3b ae ba
       0.0031634145 -0.0029765365 0.004530792 -0.0013292911
000160 d7 d8 e3 3a 03 99 2f 3b f6 20 80 3a 5c 7a 0f 3b
       0.0017383349 0.0026794083 0.0009775448 0.0021893
000170 57 6c d3 3b 49 57 fe bb 02 76 2b be c6 6b 24 3d
       0.006452124 -0.00776187 -0.16744235 0.040141843
000180 5d e2 19 be 96 bb 20 3d 12 cf 33 bc 4d ff ea bb
       -0.15027757 0.039241396 -0.010974662 -0.0071715475
000190 ed 5d cc 3b 60 b8 9e 3a bc b7 30 3e 51 fb f0 3b
       0.0062367828 0.0012109391 0.17257589 0.007354178
0001a0 0d 17 22 bc 6b 83 20 bb 17 c1 bc bb be 8d c3 39
       -0.009893191 -0.0024492394 -0.005760323 0.00037298904
0001b0 08 f2 a6 39 b4 c0 ef bb 8c 3d ae 3b 6a 24 f1 ba
       0.00031842315 -0.007316673 0.0053173956 -0.0018397693
0001c0 4c 8f 40 3c 60 f0 29 bb 2b 1d ea 3b b1 6c 1e bc
       0.011752915 -0.0025930628 0.0071445904 -0.009669469
0001d0 20 45 26 be b7 b7 2d 3d ef a3 75 be 93 76 69 3c
       -0.16237307 0.042411532 -0.23988317 0.014249462
0001e0 90 43 0d be e7 d1 05 3d 3d a7 cd 3a e8 9f 87 bb
       -0.13795304 0.03267088 0.00156901 -0.0041389354
0001f0 c2 23 23 be 8a 9b 20 3c d8 93 a7 bc c4 ac 98 bb
       -0.1593161 0.009802708 -0.02045624 -0.004659267
000200 b2 e8 20 3e d2 75 f9 3b 79 7d 24 3c 87 67 05 bc
       0.15713766 0.007612922 0.010039681 -0.008142359
000210 16 23 4d 3c 5d 4a 7f bb 07 75 70 be da 59 68 3c
       0.012520572 -0.0038954236 -0.23482142 0.0141815785
000220 4b 6e 78 be 3e 6a 55 3c 56 f0 b7 bc d1 ef d2 bb
       -0.24260823 0.013025818 -0.022453468 -0.0064372797
000230 0a 28 00 bc 33 75 77 bb 4d c8 3a 3c 7e 94 3f bb
       -0.007822046 -0.0037759065 0.0114002945 -0.0029232795
000240 ae ac 31 bc 60 51 25 bc 07 ec 25 be bc 3a 26 3d
       -0.010844393 -0.010090202 -0.16203319 0.040583357
000250 76 8a 59 3c 47 79 58 b7 42 ae b1 3b 16 c4 e8 bb
       0.013277641 -1.290284e-05 0.0054223845 -0.0071034534
000260 95 8f 39 3c 98 30 59 bb 65 e0 1f 3e b5 5e 2e 3d
       0.0113257365 -0.0033140536 0.15612943 0.04257079
000270 c7 df 23 3e 04 67 38 3d 9a fc ff 3b 66 3b 37 bc
       0.16003333 0.04502012 0.007812095 -0.011183595
000280 3f ee 72 ba 3a a9 15 3b 5a 7c 1e bb ee be 93 3a
       -0.0009267069 0.0022836463 -0.0024183006 0.0011272111
000290 1c f5 03 bc 0a e3 33 bb 5c 71 24 3e 7b 0f 27 3d
       -0.008054044 -0.0027448558 0.16058868 0.040786248
0002a0 64 9f 0a bc 06 26 9c bb b8 d5 7f 3e 6c f2 48 3c
       -0.008460853 -0.004765275 0.24983871 0.012264829
0002b0 b5 8d 7c 3e c8 97 00 3d 40 f0 9a bb fe 64 21 bc
       0.24663432 0.03139475 -0.004728347 -0.009850739
0002c0 bb 06 2b 3b d9 61 bb bb ef d8 f2 3b 01 67 42 bc
       0.002609654 -0.0057184515 0.0074111144 -0.011865378
0002d0 25 1f 1e be 35 e6 1c 3d 42 11 86 3b 72 c1 4c 3b
       -0.15441568 0.03830548 0.0040914128 0.0031243232
0002e0 5e 14 aa bb 8c 89 33 bc 62 87 6e bb 7f 19 44 bc
       -0.0051904162 -0.010958087 -0.0036396612 -0.011968969
0002f0 06 e4 f3 b8 36 e7 8f 38 21 a8 8b be 89 e3 76 3c
       -0.000116296156 6.861838e-05 -0.2727671 0.015068897
000300 10 bd a9 3a cc 2a 66 3b 0a 6c b5 3b 2f 8e 46 bc
       0.0012950022 0.0035120724 0.005536561 -0.01211886
000310 6e 3c d2 bb d0 5c 44 bc 3a 52 98 3b 4b d4 1c bc
       -0.006415895 -0.011985019 0.004648474 -0.009572099
000320 bf 4e b0 b7 74 0d 68 3b e6 a2 82 bb 4e 0c 9d bb
       -2.1017504e-05 0.003540841 -0.003986704 -0.0047927266
000330 2b 2a 1e 3c b2 71 3c bb 8d 72 28 3c 3f cf 21 bc
       0.009653608 -0.002875429 0.010281217 -0.0098760715
000340 7a ba 44 bc 81 de 32 bc 5f 54 7a bb a3 ca 99 3a
       -0.01200735 -0.010917307 -0.0038197262 0.0011733364
000350 2f a9 9d 3b d0 19 0c bb 0d 68 bb ba 9b b4 8b b9
       0.004811428 -0.002137769 -0.0014297977 -0.00026646708
000360 bf 2f e8 3b 19 29 58 3a 1f e9 fa bb ce 28 21 3b
       0.00708577 0.000824587 -0.0076571847 0.0024590972
000370 06 b0 30 3b 60 b9 e0 3a 06 0d 83 bb dc cf 7a bb
       0.0026960387 0.001714509 -0.0039993552 -0.0038270866
000380 5b cf 26 3e 9f 6f 39 3d ca 56 34 bb 56 18 5d 3b
       0.16290037 0.045272466 -0.002751755 0.003373643
000390 95 4b 1c be 03 1d 2c 3d ce ac f0 3b af 6c e8 bb
       -0.15263207 0.042019855 0.0073448187 -0.007093034
0003a0 54 d8 41 ba 5b 61 27 3b 21 fb 25 be 6f e5 36 3d
       -0.0007394601 0.0025540206 -0.1620908 0.0446524
0003b0 eb 75 90 bd ff 99 c3 bc c5 f0 13 bc b5 c5 86 bb
       -0.07053741 -0.023877142 -0.009029572 -0.004112924
0003c0 9c 8b 04 39 93 85 e2 bb c6 a9 36 ba 7a e2 f9 ba
       0.0001264051 -0.006912896 -0.0006968047 -0.0019064688
0003d0 f6 74 e2 3b ee 7e 11 bc 5e e7 34 bb e6 f9 0c bc
       0.0069109155 -0.00888036 -0.0027603726 -0.008604502
0003e0 30 9c 02 bc f2 aa fd bb 09 34 f2 bb d7 6e 1e bb
       -0.007971808 -0.0077413255 -0.007391457 -0.0024174952
0003f0 e4 cd 2f 3e ee 0b 35 3d 4a 14 1e 3c 9a ea 29 bc
       0.17168385 0.04420083 0.009648392 -0.010370875

bias f4 [128]
000000 e0 62 3f 3c d4 43 02 3b d0 84 f4 ba 98 03 ec 3a
       0.0116812885 0.0019876854 -0.0018655304 0.0018006442
000010 99 26 27 3d 3f 82 23 bc 3b d9 af ba 3b a1 f0 bb
       0.040808294 -0.009979784 -0.001341618 -0.007343439
000020 47 ad 4c bb 82 20 b2 3b c4 23 31 3c c6 f3 ec 3c
       -0.003123121 0.005436004 0.01081175 0.028924834
000030 bb 3c 0d bb c9 08 2d 3d 21 c0 9b 3d 7c d5 96 bc
       -0.002155109 0.042244706 0.07605005 -0.018412344
000040 75 63 3e 3d 7e 2f 56 3a 25 e1 4b bb 90 55 0d bc
       0.04648157 0.0008170529 -0.0031109538 -0.008626357
000050 a7 dd 3e bc 55 1e 10 3a 60 59 18 3d c0 10 cd 3d
       -0.011649526 0.0005497684 0.03719461 0.100129604
000060 04 46 12 39 b0 5c 96 ba 66 e1 26 3a 54 61 0b bc
       0.00013949728 -0.0011471715 0.00063659844 -0.008507092
000070 6e 9c 56 3d 4b 0e 41 bc e1 56 02 3c 20 96 30 3d
       0.052395277 -0.011783193 0.007955284 0.04311192
000080 69 59 5c 3d 5a e6 5f 3b e1 50 ff 3d d7 55 c1 3b
       0.053796206 0.00341644 0.12466598 0.0059001255
000090 e9 fa 58 3c 74 c6 c3 bc 85 7a 67 bc 19 a7 ca bb
       0.013243415 -0.02389834 -0.014128332 -0.0061844704
0000a0 9f 75 7e bc 8a 16 11 3c ec 04 5b bb 5a d9 02 3b
       -0.015530973 0.008855471 -0.0033419682 0.0019965977
0000b0 f9 85 36 bc dd d7 14 bc 3d 06 18 bc 37 42 7d 3d
       -0.01114034 -0.009084669 -0.009278831 0.061830726
0000c0 5c 71 41 3d ec 27 89 bb 7d 9a 43 bc d8 7d 17 bc
       0.04722725 -0.0041856673 -0.011938688 -0.009246312
0000d0 cc 33 6c bb 5a f3 33 bc ba 82 ef 3b d4 a7 d7 bb
       -0.0036041616 -0.0109833125 0.007309285 -0.006581286
0000e0 0e aa 07 bc 65 84 24 bc c4 f1 50 3d 04 03 39 ba
       -0.00828029 -0.010041331 0.051011816 -0.00070576393
0000f0 ac 36 4d 3d e3 af 06 3b 7b 8a 7f 3d 78 15 16 bc
       0.050100967 0.0020551614 0.062387925 -0.009160392
000100 a9 fb ec 3d 49 bc f7 bb fd 28 2f bb 09 36 df bb
       0.11571438 -0.007560287 -0.0026727312 -0.0068118614
000110 e2 fb f0 3b da 89 c6 bb 38 19 df 3a 91 60 85 bb
       0.0073542455 -0.0060589137 0.0017021066 -0.0040703495
000120 58 80 bc 3a eb 7c 62 3d 72 30 5c bc 7f e5 c3 ba
       0.0014381511 0.055294912 -0.013439285 -0.0014945715
000130 60 52 61 bb 40 c8 43 3c fd d9 2c 3d 15 1c 97 ba
       -0.0034381375 0.011949599 0.042200077 -0.0011528755
000140 15 ea 18 bc 81 6e d3 bb dc 8f 94 ba ae 61 5c 3d
       -0.009333153 -0.006452382 -0.0011334377 0.053804092
000150 68 11 dd ba e7 b7 46 3c 0a 93 b6 3d 4f 42 38 bc
       -0.0016866149 0.012128807 0.08914764 -0.011246278
000160 49 05 3b 3c 3e b3 22 bc 6b cd 5b 3d 6f 8c 7d bc
       0.011414834 -0.00993043 0.0536627 -0.0154753765
000170 3c f3 7d bb 33 d2 1a 3c cc 10 80 ba 48 dd 0f 3d
       -0.0038749715 0.009449529 -0.0009770631 0.03512314
000180 7d 0f 6b bc ca 57 11 3c 20 90 bc 3b 3d 34 f7 b9
       -0.014346954 0.008871028 0.0057544857 -0.00047150432
000190 85 cf 4d bc 2b e1 c2 bb cd 16 0d bc df ee a8 ba
       -0.012561684 -0.0059472523 -0.008611393 -0.0012888572
0001a0 d8 ce 06 3c 2c 14 03 bc 8f cd 43 ba a0 34 f5 ba
       0.008228026 -0.008000415 -0.000746929 -0.00187077
0001b0 67 87 2f bc 0e b6 8f bc f5 40 21 bc 29 04 29 bc
       -0.010713435 -0.017542865 -0.009842147 -0.010315933
0001c0 13 d3 35 3d e4 03 73 bc c5 8b 2d 3d a3 5f a7 ba
       0.04439075 -0.014832471 0.042369623 -0.0012769591
0001d0 bc b7 2b bc 30 ea 37 3d 8b 44 0c 3e fc 8c a4 3a
       -0.010480817 0.044901073 0.13698022 0.0012554224
0001e0 7e 7c c6 bb 2e 47 83 bb 76 dd 09 3c 54 e5 f0 bb
       -0.006057321 -0.004006288 0.008414617 -0.007351557
0001f0 df db 90 ba 18 56 b8 ba 97 d9 64 3d 7f 85 a4 bb
       -0.0011051855 -0.0014063744 0.055871572 -0.005020797

weight f4 [128, 128]
000000 c1 dc cb b8 9b 83 f9 b8 db e5 2b 3a 37 2a 26 ba
       -9.720913e-05 -0.00011897759 0.00065573835 -0.0006338688
000010 ac 89 ab b9 96 3e b7 ba df ba fa b9 6c 33 7b 3a
       -0.00032718235 -0.0013980444 -0.00047822946 0.00095825526
000020 b7 25 16 3a e9 f4 42 3a 69 71 70 39 d7 a8 72 3a
       0.0005727666 0.0007437007 0.00022930432 0.00092567265
000030 29 55 b5 b9 78 59 9f 39 4b 06 65 3a 9b 8a 63 ba
       -0.0003458646 0.00030393503 0.00087365945 -0.00086800166
000040 f0 94 e9 ba a1 75 18 3a df ad 66 ba a3 b7 63 39
       -0.0017820876 0.0005815868 -0.00087997125 0.00021716817
000050 11 83 13 3a be 11 74 ba 42 d0 24 b9 59 13 57 39
       0.00056271354 -0.0009310505 -0.00015717841 0.00020511205
000060 f2 ce 8e 39 30 cc 5f 3a b0 9a fe b9 11 63 19 37
       0.00027238537 0.0008537201 -0.00048561906 9.142576e-06
000070 6a 4a 91 ba 36 ad 01 ba 63 2d 0c ba ec 81 a7 b9
       -0.0011084799 -0.000494677 -0.00053473393 -0.00031949522
000080 ea 7d ca b9 db 02 68 39 b6 ac ae 39 38 39 e8 39
       -0.00038622256 0.00022126308 0.00033316546 0.0004429312
000090 eb 35 66 3b 4d 20 4a ba fa 2b 96 ba ed f4 11 3a
       0.0035127352 -0.00077105017 -0.0011457198 0.0005567808
0000a0 d8 89 3e 39 e5 c4 20 ba 24 8a b1 38 6a 83 b5 ba
       0.00018171163 -0.0006132855 8.4657484e-05 -0.0013848369
0000b0 e4 4e fa b8 28 a7 e2 ba 21 38 3c 39 0a b4 02 b9
       -0.000119356235 -0.0017292248 0.00017949987 -0.00012464836
0000c0 56 86 db ba f4 ff 60 3a 55 16 07 3a 5a 0a a3 b8
       -0.0016748409 0.0008583062 0.0005153169 -7.774374e-05
0000d0 86 8b fb b9 a1 59 a6 ba 6f c2 c8 b9 93 8c b4 b9
       -0.00047978404 -0.0012691506 -0.00038291837 -0.0003443701
0000e0 d1 c3 5d ba 6c bd 95 ba c4 fb 88 ba a4 2c 1c ba
       -0.000845966 -0.001142425 -0.0010451009 -0.00059575797
0000f0 3a 4b 93 39 ca a0 a6 3a 4e 01 9e ba a7 5f bf b9
       0.00028094073 0.0012712714 -0.0012054832 -0.00036501625
000100 30 50 fc ba 22 db 35 ba b3 64 b0 ba d0 24 8f 3a
       -0.0019249972 -0.00069372554 -0.0013457745 0.0010921005
000110 5e 3e 85 ba 25 c4 f8 ba 8c a9 ae ba 82 3a 13 39
       -0.0010165682 -0.0018979354 -0.0013325675 0.00014040808
000120 76 e5 06 3a 84 49 4d 39 2f 7f 02 ba 0a fb b2 b9
       0.00051458867 0.0001957771 -0.0004978058 -0.00034137844
000130 c7 57 ca ba 0f 68 e8 36 41 97 fe ba 2d 2d 70 3a
       -0.0015437537 6.926253e-06 -0.0019423739 0.0009162005
000140 0f 7f 47 38 a6 62 bc ba 34 26 1d b9 e6 a3 d5 ba
       4.756363e-05 -0.0014372661 -0.00014986919 -0.0016299456
000150 5f c6 b1 ba fa da 8b 38 7f 21 4c ba 26 e0 4e 3a
       -0.0013563148 6.668824e-05 -0.0007786974 0.0007891677
000160 c4 ac fe b9 77 85 19 ba cc 74 6c 39 f4 62 d8 b8
       -0.00048575376 -0.00058563746 0.00022550224 -0.00010318114
000170 bb f8 6c 3a 1e 92 ae 3a a1 15 b2 ba f7 16 c6 3a
       0.0009039749 0.0013318693 -0.0013586768 0.0015113045
000180 14 20 7d ba 02 d8 49 3a 6f 30 32 ba 21 16 c4 ba
       -0.0009655964 0.0007699729 -0.00067973783 -0.0014960208
000190 9f 98 d0 b9 a6 15 a0 39 06 90 b0 ba 54 c5 16 b6
       -0.00039786563 0.00030533707 -0.0013470657 -2.2466602e-06
0001a0 37 ca b3 3a 1a 3d 36 ba 46 53 82 ba cc 82 24 3a
       0.0013716881 -0.0006951854 -0.000994303 0.0006275594
0001b0 ae 65 1f bb c2 32 a8 ba 0b 64 aa ba dd 80 0d ba
       -0.002432208 -0.001283251 -0.0012999786 -0.0005397925
0001c0 56 56 ec ba b5 ee a7 ba 1f bd 35 39 82 53 32 b9
       -0.0018031101 -0.0012812229 0.00017331958 -0.00017006512
0001d0 8a de 08 3a 1d 73 16 b9 36 02 29 b9 19 78 6e 3a
       0.0005221149 -0.00014347998 -0.0001611792 0.00090968754
0001e0 0c 8c 1e 3a db 1a c5 3a af 67 c0 3a 8e dc 97 3a
       0.000604809 0.0015037911 0.0014679338 0.0011586116
0001f0 cf fb 03 b7 ae 9a 84 39 86 40 c1 39 00 d8 9a ba
       -7.866837e-06 0.00025292247 0.00036859902 -0.0011813641
000200 40 40 77 ba ba f4 bf 3a 99 f3 9b ba 23 30 f4 b9
       -0.0009431876 0.0014645078 -0.0011898159 -0.0004657517
000210 d2 85 f3 ba b4 be 76 38 5c 50 e5 b9 ef 46 bb 3a
       -0.001857931 5.8828577e-05 -0.00043738156 0.0014288108
000220 34 5b d5 ba 4f 01 4a b9 f7 7a 6f 39 ba 10 94 bb
       -0.0016277791 -0.00019264709 0.00022838624 -0.0045185955
000230 61 51 88 ba 16 e5 a5 ba 30 ae 8b 3b 54 8d fa ba
       -0.0010400229 -0.0012656774 0.004262708 -0.0019115605
000240 ee 52 2e ba 51 d8 b8 39 10 5d 3d b9 f6 f1 52 ba
       -0.0006649931 0.00035256383 -0.00018059113 -0.0008046919
000250 a5 ee 94 b9 81 24 4a ba 9f 9d 34 bb 1b 5c 85 ba
       -0.00028406564 -0.0007711128 -0.002755977 -0.0010174544
000260 aa 6e 5f 3a 6a ff cb b9 d6 84 bf ba b9 e6 4c ba
       0.0008523265 -0.00038909476 -0.0014611732 -0.0007816363
000270 00 08 d9 ba fa 8f 92 ba ec 22 e4 b9 51 37 a1 ba
       -0.001655817 -0.0011181824 -0.00043513568 -0.0012299811
000280 93 00 40 bb dc 16 fa 39 89 e6 1d bb 59 ff a4 37
       -0.0029297217 0.00047700747 -0.0024093708 1.9669229e-05
000290 c6 a2 b6 3a d0 92 cd ba 6c 28 c0 ba 70 ee 40 ba
       0.0013934008 -0.0015684012 -0.0014660484 -0.00073597487
0002a0 1d 7b ea 39 09 5a 90 38 63 1c 89 39 3c 20 13 ba
       0.00044723685 6.8832254e-05 0.00026151826 -0.0005612408
0002b0 45 9f cd 38 c5 3f 67 3a fb b6 de b8 cc a1 1b bb
       9.804828e-05 0.0008821453 -0.00010619868 -0.0023747561
0002c0 12 b0 62 bb cd c1 07 ba 3c e3 04 ba 9f a2 34 bb
       -0.003458981 -0.000517872 -0.0005069261 -0.002756275
0002d0 4b 1f a1 3a 60 9b 29 bb f8 7d 10 b9 9f 9d 18 3a
       0.0012292651 -0.0025879964 -0.00013779837 0.0005821827
0002e0 bb d5 f2 b9 45 21 9a ba b1 fe 7d bb c6 af 2c 3a
       -0.00046317079 -0.0011759183 -0.0038756544 0.00065874716
0002f0 e9 af fb ba 4a a7 1d 3a bf aa 28 b6 b9 40 a0 39
       -0.0019202206 0.0006014003 -2.5133338e-06 0.000305658
000300 71 31 c4 ba 7d 34 ac b9 30 e8 04 3a 11 5c b1 ba
       -0.0014968348 -0.00032845503 0.0005069999 -0.0013531466
000310 39 04 4c 3a 71 9e 4d ba 15 0b 1c bb 71 f5 6e ba
       0.00077826116 -0.0007843739 -0.0023810316 -0.0009115553
000320 9c 89 8e ba 7a 6b 0a bb ee 51 dc b9 88 c9 60 3a
       -0.0010874751 -0.002112119 -0.00042022712 0.00085749524
000330 38 f2 e3 ba 13 b8 11 ba 9b d2 ee ba f4 5a a0 39
       -0.0017390912 -0.000555874 -0.0018220724 0.00030585343
000340 fd 77 8f 3a 93 35 84 ba a9 a8 c2 ba 2b a7 28 bb
       0.0010945793 -0.0010086767 -0.001485129 -0.0025734405
000350 6f 63 b6 ba fc 7f 15 3a c2 99 55 3a e3 5c 46 b9
       -0.0013915132 0.000570297 0.0008148217 -0.00018917354
000360 08 02 7f ba 37 8d 63 ba 60 97 07 bb 19 1c de ba
       -0.00097277807 -0.00086804054 -0.0020689592 -0.001694563
000370 33 95 98 b8 5e 18 d0 b8 06 98 ac ba 59 1a 4e 39
       -7.275715e-05 -9.9227516e-05 -0.0013167865 0.00019655506
000380 f9 c5 09 bb 3a e4 36 ba f9 17 09 ba 17 d9 c4 3a
       -0.0021022542 -0.00069767574 -0.00052297075 0.0015018311
000390 55 09 2b bb 42 af a6 3a 42 0f 4e ba a3 fc f9 39
       -0.0026098092 0.0012717026 -0.000786055 0.0004768121
0003a0 55 8e e0 38 6c e5 ee ba b5 f6 2d 39 a0 99 84 3a
       0.00010707664 -0.0018226332 0.00016590471 0.0010116585
0003b0 fc 3e ed ba ba bf 62 bb d0 02 bc 38 78 77 ac ba
       -0.0018100436 -0.0034599141 8.9650624e-05 -0.0013158163
0003c0 a8 98 dc ba 8c 77 04 bb 11 62 8d bb 96 38 1b 3a
       -0.0016830163 -0.0020212857 -0.004314669 0.0005921213
0003d0 de 61 b0 3a 31 a7 19 bb b8 02 85 39 97 68 12 bb
       0.0013456901 -0.00234456 0.00025369762 -0.0022340172
0003e0 35 d5 12 3a cb 8f 66 3a f6 cf 5f b9 d6 84 ba 3a
       0.00056012283 0.00087952305 -0.00021344409 0.0014230262
0003f0 09 ce a7 ba cb 9a 73 ba 2b d7 27 3a 3b 4e 23 39
       -0.0012802492 -0.00092927803 0.0006402607 0.00015574034

bias f4 [128]
000000 9c 31 87 ba 79 9a 66 ba b3 a0 b6 3c 78 7f a4 ba
       -0.0010314467 -0.0008796822 0.022293424 -0.0012550196
000010 3e 92 8e ba 5f 20 9c 3c 87 7a 8c ba b1 8c 87 ba
       -0.0010877324 0.019058404 -0.0010717668 -0.0010341612
000020 24 00 cd 39 e9 e3 34 39 40 bc 05 bb d9 88 85 b8
       0.00039100752 0.00017251041 -0.0020406395 -6.367424e-05
000030 3f 88 78 bb 12 a6 4a ba a9 ff ab ba f1 dd 74 ba
       -0.0037923006 -0.0007730435 -0.0013122457 -0.0009340933
000040 f9 88 8c 3c 4c c5 02 ba 98 a8 af 3c 16 40 84 3a
       0.017155157 -0.0004988506 0.021442696 0.00100899
000050 a0 40 e0 3c d7 cc 40 bb ea c9 a7 ba 45 68 95 3c
       0.027374566 -0.002941897 -0.0012801264 0.018238196
000060 e3 a2 cb ba 2f cb 0b 3a d5 c0 a2 ba c0 5d dc 39
       -0.0015536215 0.0005332706 -0.0012417088 0.0004203152
000070 d9 68 f6 39 bc 4b 22 bb f1 f7 0a ba 50 c5 5d b9
       0.00046998894 -0.002476438 -0.00053012284 -0.00021149707
000080 71 64 8f 3c dd 92 c9 bb 7d 27 4a ba 82 08 5f 39
       0.017503949 -0.0061515407 -0.00077115727 0.00021270107
000090 d3 12 cb ba da 39 ac 3c 10 ef dd b8 7f cb 4b ba
       -0.0015493281 0.02102368 -0.0001058263 -0.0007774159
0000a0 42 70 6b ba 5f 84 4d b9 92 1f c4 b9 46 27 c6 3c
       -0.00089812663 -0.00019599636 -0.00037407555 0.024188649
0000b0 c0 39 f7 38 d6 94 1b ba 4e 02 c1 3c 5f ec 4d ba
       0.000117886346 -0.0005934959 0.02356067 -0.00078553514
0000c0 98 39 be ba ac 61 1f ba 0b 40 1a 3d 93 b1 94 3c
       -0.0014513014 -0.0006079923 0.037658732 0.01815108
0000d0 36 fc c6 ba f4 8e dc bb 53 0d 7a ba 29 3c a4 3c
       -0.0015181366 -0.0067309085 -0.00095387286 0.020048218
0000e0 22 99 96 3c 5f 79 57 b9 71 bc 55 bb 80 d3 9d ba
       0.018383566 -0.00020549212 -0.003261354 -0.0012041181
0000f0 7b f9 21 ba 5c 43 b6 ba 1f 20 81 3c ff 6d 73 39
       -0.0006178838 -0.0013905573 0.015762387 0.00023215263
000100 04 40 d5 ba 1b 43 bd 3c cb 8b bf 3c 22 32 b4 3c
       -0.0016269688 0.023103287 0.023382088 0.021996561
000110 94 f9 26 bb 94 73 1c 3d 62 69 bb 3c 39 fa e0 ba
       -0.002547835 0.03819616 0.022877399 -0.0017164416
000120 c6 49 8d 39 15 6b 4d bb 9f 25 c3 b9 3c cf 71 ba
       0.0002694858 -0.0031344343 -0.00037221328 -0.0009224301
000130 29 99 d8 ba 4e e9 4f ba 1e dd 8f 3c 89 9c 81 ba
       -0.0016525137 -0.00079311884 0.017561492 -0.000988857
000140 a2 e0 82 ba 88 58 5d 39 9e d6 e5 39 34 2f 21 bb
       -0.0009985159 0.00021109183 0.00043838186 -0.0024594786
000150 c6 ca 46 ba 10 30 04 bb 6c b8 f6 ba 7d f2 6e 39
       -0.0007583316 -0.002017025 -0.0018823273 0.00022787783
000160 ab d1 ca ba cb 40 cb ba 73 ab e4 3c f1 05 6f ba
       -0.0015473863 -0.0015506981 0.027913785 -0.0009118012
000170 b7 51 c6 3c 54 c3 76 b9 5d 62 45 3a a1 90 b0 3c
       0.024208887 -0.00023533154 0.0007529611 0.02155334
000180 c9 8c ff 39 51 a8 b8 39 9a 4a 52 bb ea e4 74 ba
       0.00048742283 0.0003522062 -0.0032087923 -0.0009341972
000190 e0 6d db 3c d6 84 2e bb 57 75 1d 3a 70 53 92 ba
       0.02678579 -0.002662947 0.00060065597 -0.0011163782
0001a0 66 a8 9d 3c 1d 62 02 ba 5d cc 47 ba de 40 0d bb
       0.019245338 -0.00049737265 -0.00076217 -0.0021553556
0001b0 41 2c 33 39 ed 67 96 ba 59 a9 a0 ba b2 c5 6e ba
       0.00017087256 -0.0011475064 -0.0012257501 -0.00091084384
0001c0 d6 60 ee b9 57 ff ad ba 37 9f a9 39 97 ca c7 ba
       -0.00045467046 -0.001327495 0.00032352816 -0.0015242872
0001d0 bb fd 9f b8 17 5b ba ba a3 24 c6 3c 0e 0e a6 ba
       -7.628972e-05 -0.0014217821 0.024187392 -0.0012668984
0001e0 92 eb 86 bb 93 bb c6 b7 ae 42 80 ba c0 86 9f b9
       -0.0041174376 -2.3690785e-05 -0.0009785497 -0.0003042724
0001f0 25 13 a2 3c 8e 7f b0 ba b0 b7 93 ba 5b 66 cb ba
       0.01978452 -0.0013465749 -0.0011269953 -0.0015518175

weight f4 [128, 128]
000000 0a e5 41 ba 30 d0 a0 ba 46 98 c2 ba 84 85 8a ba
       -0.0007396495 -0.0012269076 -0.0014846406 -0.0010568355
000010 31 a8 62 b9 8a 8e 64 b9 65 67 20 ba e2 d7 d0 ba
       -0.00021615696 -0.00021796874 -0.00061189226 -0.0015933479
000020 c6 07 ae ba e1 4e 99 3a e1 7b a2 ba 40 6c 4f ba
       -0.0013277463 0.0011696481 -0.0012396538 -0.0007912554
000030 54 39 de b7 5f 98 6c ba f6 02 00 bb 70 d0 2b 39
       -2.6491158e-05 -0.00090253906 -0.0019533015 0.0001638548
000040 72 c7 7c ba da bb df b9 56 58 97 ba a9 ba e9 b9
       -0.0009642757 -0.00042673835 -0.0011546712 -0.00044580296
000050 29 a5 eb ba 09 10 20 b9 18 73 38 3a bd d7 6c 3a
       -0.0017978299 -0.00015264763 0.0007036193 0.0009034833
000060 0c ba a9 ba 8e 3a 25 3a 75 2d 21 3a 99 b0 06 b9
       -0.0012949123 0.0006302976 0.0006148436 -0.00012845024
000070 9e bf 7f ba b8 2c 08 ba 06 cd 76 3a 3a fa 63 38
       -0.0009756031 -0.0005194652 0.0009414706 5.435406e-05
000080 68 c0 ce ba 66 b3 fb ba 65 8f a8 ba 85 1c 16 ba
       -0.0015773894 -0.0019203245 -0.0012860118 -0.00057262956
000090 92 47 90 3a c1 3a 55 ba 7b 14 41 39 73 b9 a7 ba
       0.0011007658 -0.000813406 0.00018413544 -0.0012796357
0000a0 39 39 0d 39 c2 be 08 bb 61 2d 44 3a cf 5c a2 b9
       0.00013468125 -0.0020865654 0.00074835686 -0.00030968196
0000b0 bc 5f 34 3a 05 57 7d 39 2c 40 14 ba fe 10 6e ba
       0.00068807206 0.00024160378 -0.00056553143 -0.00090815115
0000c0 9c 9b 0b 3a e6 20 0d 3a 4b b4 37 ba b6 25 6c 39
       0.0005325617 0.00053836254 -0.0007007762 0.00022520762
0000d0 71 44 8b 3a 7a d4 68 37 de ec 52 3a b7 59 04 bb
       0.0010625256 1.3877749e-05 0.000804616 -0.0020195076
0000e0 83 07 28 3a 6f cb a0 ba 70 46 e0 ba 2d 2f 7c ba
       0.0006409811 -0.0012267659 -0.0017110836 -0.0009620067
0000f0 75 ce aa ba cd e7 bb 3a 21 cd b8 39 65 31 4c 3a
       -0.00130315 0.001433605 0.00035248048 0.0007789343
000100 fc 17 e6 39 61 83 39 3a d3 a5 a4 ba 45 76 a1 ba
       0.00043886888 0.0007076767 -0.0012561626 -0.0012318572
000110 33 0d 89 b9 92 bf e7 b9 24 71 f9 ba c1 3c 7f 3a
       -0.0002614051 -0.00044202484 -0.0019030911 0.0009736531
000120 ec 8b df 39 00 9a 23 ba 4b 8f 93 39 82 7c 84 ba
       0.00042638124 -0.00062409043 0.00028144786 -0.0010107907
000130 49 1f bc ba 29 8d a7 3a 47 7a 4c b9 4c c6 21 3a
       -0.0014352585 0.0012783158 -0.00019500508 0.0006171211
000140 02 ac cf ba b9 17 79 3a 7b a9 89 3a 6d b1 ae 39
       -0.0015844109 0.0009502131 0.001050278 0.0003332006
000150 f7 f1 3e 39 b9 4b 17 38 48 6e 5f ba 99 91 94 ba
       0.00018209951 3.6071728e-05 -0.0008523208 -0.0011334895
000160 cd b6 1e 3a 07 80 35 ba 6d ba bb b8 b8 3e 3c 3a
       0.0006054461 -0.00069236796 -8.9515794e-05 0.00071809767
000170 e9 18 21 bb 89 db 0c 39 42 5c bd 3a 5f b8 fc b8
       -0.0024581498 0.00013433224 0.0014447051 -0.00012050638
000180 45 6c cb b9 77 9e 17 39 d9 39 60 ba 99 69 88 ba
       -0.00038799844 0.00014459515 -0.0008553542 -0.0010407447
000190 48 bd e8 ba 15 c6 f7 ba ac b2 89 3a 06 b2 a1 39
       -0.0017756606 -0.0018903638 0.0010505519 0.0003084095
0001a0 77 b9 ba ba 8d 74 80 3a 45 c4 62 3a ef 46 ce ba
       -0.0014245947 0.000980036 0.0008650462 -0.0015737693
0001b0 99 f8 b0 38 e2 7f a6 b9 d4 77 96 ba 90 8e a0 3a
       8.438639e-05 -0.00031757267 -0.0011479803 0.0012249518
0001c0 65 52 0c ba 1d 04 a3 ba 31 28 68 3a 4d 93 6f 39
       -0.0005352854 -0.0012437139 0.00088560866 0.0002284769
0001d0 b7 6a c1 ba ba c2 33 3a fb 1b 13 ba bf 84 18 ba
       -0.0014756535 0.00068573246 -0.00056117744 -0.00058181206
0001e0 56 83 79 ba 76 74 e7 38 6a b7 4d 3a ee 9f b2 ba
       -0.0009518167 0.00011036631 0.000784746 -0.0013627985
0001f0 97 d9 a2 ba e3 f0 98 3a f6 50 79 3a 91 e6 80 ba
       -0.0012424466 0.001166847 0.00095106603 -0.0009834339
000200 61 34 4a ba 50 68 a8 3a 1a c5 ed b9 bd 74 b7 39
       -0.00077134935 0.001284847 -0.00045351015 0.00034991457
000210 0e 78 6a 3a 1c 13 bf ba cd f9 0b 39 6e e3 05 3a
       0.0008944281 -0.0014577839 0.00013349131 0.0005107437
000220 a1 08 58 3a 68 26 1f ba 6b 2d ab ba 34 5a ac b9
       0.0008241032 -0.00060710916 -0.00130598 -0.00032873603
000230 ad ef a5 3a 2c d8 1d 3a 09 36 84 3a 07 9f 24 3a
       0.001265993 0.0006021287 0.0010086905 0.00062798004
000240 47 60 6c 3a b3 24 0c 3a a2 f6 b9 ba 1c 4c 72 3a
       0.0009017032 0.0005346045 -0.0014187882 0.00092429086
000250 54 20 54 ba ba 99 76 ba 80 34 21 39 bc da 26 bb
       -0.00080919755 -0.00094070623 0.00015373714 -0.0025459966
000260 7e a7 79 3a 85 f6 e5 b7 f5 ed 13 b9 a1 21 a3 3a
       0.00095235545 -2.7413722e-05 -0.00014107658 0.0012445935
000270 f8 f2 9e 3a e7 5a 6f 38 f2 f6 bd ba fe 61 11 3a
       0.0012126854 5.70667e-05 -0.0014493151 0.0005545913
000280 f8 19 a1 3a 9c c4 0a 3a ee 9d 09 39 ce 59 a3 3a
       0.0012291064 0.00052935793 0.00013124172 0.0012462677
000290 e9 22 33 b9 ac f7 18 b9 5b f1 75 ba 88 1f a0 b9
       -0.00017083775 -0.00014588115 -0.0009381973 -0.0003054107
0002a0 42 59 32 b9 2f 25 45 3a 31 5b 1c ba 1a 8a 03 3a
       -0.00017008654 0.00075204944 -0.00059645163 0.0005017832
0002b0 62 5d a8 3a b1 0b 83 b8 61 ca fa 39 1d 22 a8 ba
       0.0012845213 -6.2487445e-05 0.000478345 -0.0012827549
0002c0 c8 69 fa b8 cd 77 f1 b8 a0 92 91 3a a1 5d 48 ba
       -0.00011940632 -0.0001151409 0.001110632 -0.00076433463
0002d0 3b a8 85 3a a7 86 7e ba a8 3b af ba ed d7 e2 37
       0.0010197231 -0.0009709396 -0.0013369219 2.7041848e-05
0002e0 74 d3 04 bb 8f 1c 3a ba c8 48 ac ba d7 51 2a ba
       -0.0020267637 -0.00070995925 -0.0013144249 -0.00064971804
0002f0 fd 7e 4c ba 4e eb 28 3a cb 29 4c 39 3f 9a 37 ba
       -0.0007800905 0.00064437545 0.00019470525 -0.00070038805
000300 45 4f 23 b9 f6 68 ee b9 5a 84 11 bb 13 36 97 ba
       -0.00015574422 -0.000454731 -0.0022204132 -0.0011536501
000310 5d cf 73 3a a0 de 20 37 dc 5b 4f ba 96 38 f4 39
       0.0009300614 9.588577e-06 -0.00079101115 0.00046581466
000320 ba 36 4e ba c3 2d 4c 37 49 5f 9c ba b1 37 d1 38
       -0.0007866431 1.2170002e-05 -0.0011930253 9.97627e-05
000330 e9 b7 a5 3a 0c 50 4f 39 e2 20 68 b8 4d 51 f2 37
       0.001264331 0.00019770878 -5.5343735e-05 2.8886507e-05
000340 56 c8 b9 ba 43 ec b7 3a 42 a5 fc 39 09 89 d3 b9
       -0.0014174085 0.0014032203 0.00048188312 -0.00040347155
000350 f6 e2 44 ba 3a c4 30 38 80 0b 8f ba bd 51 ec 38
       -0.00075106265 4.214442e-05 -0.0010913461 0.00011268582
000360 8c da 68 3a 40 f4 bc ba 53 54 cd 39 23 5c 8c 39
       0.00088826637 -0.0014416054 0.00039163473 0.00026771528
000370 81 d3 aa 39 a9 67 b3 b8 04 c8 94 39 e9 c9 cd b9
       0.0003258251 -8.554693e-05 0.00028377783 -0.00039251082
000380 20 9b 12 3a 0b 40 69 39 b6 fb ca ba 99 ca 9f 39
       0.00055925734 0.0002224447 -0.0015486393 0.0003047779
000390 eb 8a 9c ba 24 1b 05 ba 92 24 2e 3a d1 cb c7 ba
       -0.0011943256 -0.00050775916 0.00066430226 -0.0015243237
0003a0 e0 38 cb b9 36 16 14 3a f5 65 8e ba e0 59 2a 3a
       -0.00038761552 0.00056490616 -0.0010864126 0.0006498378
0003b0 0b ce 62 ba 2c 29 ce 39 ea 2b c5 ba 6a 7c 7b ba
       -0.00086519186 0.00039322057 -0.0015042995 -0.0009593429
0003c0 37 7d ae 3a 28 f1 f4 b9 b0 1f 4c ba 6a 72 9e ba
       0.0013312463 -0.00046718982 -0.0007786704 -0.0012088541
0003d0 75 3f 12 39 9d 2f 4c 3a 17 9b fc b8 74 f3 dc ba
       0.00013947285 0.00077890774 -0.00012045184 -0.0016857223
0003e0 1c 68 05 39 b5 b2 93 ba 78 4e 27 b9 a1 0a 85 ba
       0.00012722652 -0.0011268469 -0.00015955593 -0.0010150262
0003f0 de 40 8b ba 6f 3b 71 3a 25 3b a4 3a ba 57 84 3a
       -0.001062419 0.00092022767 0.0012529833 0.0010096945

bias f4 [128]
000000 c8 b6 a9 ba 5a ef b1 ba 0c 6b cf ba cd b8 24 ba
       -0.001294815 -0.0013575361 -0.0015824749 -0.0006283641
000010 c8 3c 4f ba 25 8f 5b 3b 6b e7 9d ba f0 6d fc b9
       -0.00079054805 0.003350207 -0.0012047117 -0.00048147095
000020 e0 50 13 ba 05 98 fa ba 6d 11 0c ba ed 9d 8c ba
       -0.00056196563 -0.0019118792 -0.0005343173 -0.0010728218
000030 e5 52 20 ba 41 9f 92 ba 1a 3a f7 ba 5b fa a0 b8
       -0.0006115868 -0.0011186377 -0.001886192 -7.676027e-05
000040 8c 1a d7 b9 61 df 8a ba c1 65 8c ba 58 99 db ba
       -0.00041027775 -0.0010595137 -0.0010711477 -0.0016754074
000050 55 34 0b 3b b8 75 e1 b9 7d 56 a8 ba d8 aa a1 ba
       0.002124091 -0.00043003052 -0.0012843158 -0.0012334241
000060 12 11 8a bc c5 c0 aa ba fa b6 3f ba 3c 88 87 b9
       -0.016853843 -0.001302742 -0.00073133374 -0.0002585071
000070 79 fa 9a bb bd 72 ce ba 11 84 0e ba 2e c5 32 ba
       -0.0047295657 -0.0015750747 -0.00054365495 -0.0006819543
000080 7f 84 40 bc a5 f1 f8 bb ca a6 6b bb 98 c9 2d b9
       -0.0117503395 -0.0075971656 -0.0035957568 -0.00016573665
000090 3d 4e e6 3b 09 b9 b4 ba b7 c1 1b ba 11 4d 58 b9
       0.0070283697 -0.0013788055 -0.00059416465 -0.00020628075
0000a0 65 4c 15 ba 65 89 a3 ba 58 c5 fa ba 1b 79 c2 ba
       -0.00056952826 -0.001247686 -0.0019132299 -0.0014837118
0000b0 f3 10 b5 ba 17 aa d3 ba c5 9f 4b b8 e9 39 e9 b8
       -0.0013814255 -0.0016148713 -4.854777e-05 -0.000111210924
0000c0 d0 6b 64 ba 46 1d 1b ba d5 4d c3 ba dd a9 ac ba
       -0.0008713575 -0.0005917143 -0.0014900515 -0.0013173182
0000d0 8c 3b ab ba 19 b0 4a ba 2c fa 87 ba 9f 67 20 3b
       -0.0013064011 -0.0007731929 -0.001037424 0.0024475825
0000e0 9e 2a 77 ba da 3d d7 b9 a1 e9 75 ba db 68 98 ba
       -0.00094286527 -0.0004105408 -0.0009380822 -0.0011627929
0000f0 01 bd 8c ba ee 78 57 ba 8f 77 df b9 31 e2 b5 ba
       -0.001073748 -0.0008219619 -0.00042622953 -0.0013876614
000100 1b fe a5 ba fa 5f 08 ba 34 ed 18 bb 69 67 b6 ba
       -0.001266423 -0.000520229 -0.0023334743 -0.0013916317
000110 5a e7 ae 3b 39 74 e3 b9 53 17 cb ba f5 f0 79 bb
       0.005337638 -0.00043383407 -0.0015494622 -0.0038138006
000120 a6 71 9b ba 39 7f 1a ba 31 4f ab ba 65 ea ca ba
       -0.0011859431 -0.00058935914 -0.0013069866 -0.0015481232
000130 a6 48 4f ba 40 03 1a bb 08 39 1c ba 23 01 8a ba
       -0.0007907249 -0.0023500472 -0.0005959426 -0.0010528903
000140 88 5c 8c bb 13 c7 8d ba fb 29 ab ba ca c8 d9 ba
       -0.0042834915 -0.0010816775 -0.0013058776 -0.0016615626
000150 f2 4d e1 3a 8e 94 fa b8 96 94 db b9 96 03 33 ba
       0.0017189367 -0.000119485994 -0.0004188164 -0.00068288425
000160 29 3b 8a ba d8 c5 b7 ba a9 ad 2a 3a 98 f1 46 3b
       -0.0010546196 -0.0014020754 0.0006510863 0.0030356403
000170 da 81 b7 ba 01 92 b9 ba a7 3e 9b ba 9d a6 46 ba
       -0.0014000491 -0.0014157892 -0.0011844233 -0.0007577928
000180 52 30 e9 ba 48 0e 6a ba d1 e6 85 ba a3 3c 34 bc
       -0.001779089 -0.00089285197 -0.0010215883 -0.011000785
000190 03 c7 83 ba d5 ff b8 ba 3d 71 15 bb 97 b5 cb b9
       -0.0010053817 -0.001411433 -0.002280309 -0.00038854472
0001a0 e7 4f 96 ba a3 4e e8 ba 7d 6e a5 bb bf 5a 14 bb
       -0.0011467905 -0.0017723631 -0.0050485716 -0.0022637097
0001b0 2b 8a 89 ba 33 b2 c3 bb e9 9c be ba 8d ff 80 ba
       -0.0010493448 -0.0059721707 -0.0014542612 -0.0009841785
0001c0 74 93 3b bb 32 40 43 ba 39 23 c2 b9 54 29 a2 bb
       -0.0028621824 -0.00074482255 -0.00037028806 -0.0049487744
0001d0 93 35 71 b9 4a 3f 1b ba c7 cd 8e bc bc 38 88 ba
       -0.00023003509 -0.00059222116 -0.017432107 -0.0010392885
0001e0 7e be 63 ba 42 86 25 bb bc 9c bd ba e1 71 a2 ba
       -0.00086877483 -0.0025257026 -0.0014466266 -0.0012393558
0001f0 76 af 0a b9 0e 81 b6 b9 19 23 9d b8 9d 15 c3 ba
       -0.0001322607 -0.00034809898 -7.492881e-05 -0.0014883761

weight f4 [128, 128]
000000 41 bb dd 3a 01 c1 d0 3a 04 84 9d ba bb 06 68 39
       0.0016916768 0.001592666 -0.0012017493 0.00022127751
000010 69 34 81 3a 15 78 fb 3d 5f f5 f6 ba b7 2f 3a ba
       0.0009857538 0.12278763 -0.0018841437 -0.0007102447
000020 7a c5 6a ba 25 2e 5e ba 5f d4 88 3a 7a 17 06 bb
       -0.0008955818 -0.0008475504 0.0010439268 -0.002046077
000030 d0 de 86 ba 87 2a 64 b9 b5 d1 70 ba 97 92 d4 3a
       -0.0010289792 -0.00021759617 -0.0009186522 0.0016218004
000040 71 95 fe b9 fb da 89 ba 1c ed 1d ba 6d 35 8e 3a
       -0.00048557998 -0.0010517532 -0.0006024407 0.0010849662
000050 62 17 fc 3d 5d eb a0 3a 20 c4 3b ba 51 f0 c2 39
       0.123091474 0.0012277175 -0.0007162709 0.00037181613
000060 e8 ff e9 3d b3 90 43 ba 43 2a 7e 3a 28 20 05 b9
       0.11425763 -0.00074602215 0.00096956285 -0.00012695848
000070 c1 2b ef 38 66 a8 91 39 f5 03 0a b9 ce dd 8b b9
       0.00011404558 0.00027782022 -0.0001316218 -0.00026677403
000080 e7 64 79 be 72 9c d5 ba e1 5e 31 39 2a d4 38 b9
       -0.24354897 -0.0016297235 0.0001691538 -0.00017626645
000090 57 bc fb 3d f5 05 93 ba 4c e0 8b b9 29 21 9f 3a
       0.12291782 -0.0011216985 -0.0002667926 0.001214062
0000a0 9f 87 af 3a 9a 18 40 ba d2 54 4e ba 83 94 9c b9
       0.0013391859 -0.00073278847 -0.00078709156 -0.00029865289
0000b0 5a 7f db ba 3e d4 6f bb bf 7d a7 b9 f6 39 33 be
       -0.0016746328 -0.0036595012 -0.0003194641 -0.17502579
0000c0 85 bd 8e 3a 66 16 00 b9 97 9f fc 3a a1 74 0d 3a
       0.0010890221 -0.00012215375 0.0019273636 0.0005396102
0000d0 e9 06 bd 3a 92 f3 9b 39 0d d8 cd b8 fe c1 26 be
       0.0014421615 0.00029745378 -9.815404e-05 -0.1628494
0000e0 25 32 26 39 a5 d3 c2 ba ee 24 62 ba 01 64 ab 39
       0.00015849674 -0.00148641 -0.0008626719 0.0003269017
0000f0 cb 7a 3e ba 09 38 c8 b9 99 63 f4 39 72 a3 97 3a
       -0.00072662224 -0.00038188722 0.00046613513 0.0011569096
000100 e0 7e 0a ba 04 6c 52 39 78 59 4b be 66 bd 38 ba
       -0.0005283188 0.000200674 -0.19858348 -0.00070472655
000110 38 a5 fb 3d 1f 98 3e ba 44 1d a6 ba 46 ac fe bb
       0.12287372 -0.00072705926 -0.0012673517 -0.0077720014
000120 cf 7f 8f 3a 25 f8 12 38 ad db c0 3a 7c e8 ad ba
       0.0010948124 3.5040215e-05 0.0014713906 -0.0013268138
000130 d4 51 a2 39 00 88 88 3a 0c 23 da 38 61 94 fb b9
       0.00030960015 0.0010416508 0.00010401578 -0.00047985002
000140 34 96 58 ba 11 6f cc ba 31 b5 61 3a cf 3c ea 38
       -0.0008262128 -0.0015597065 0.00086100685 0.00011169316
000150 4a 4a 29 be 79 59 06 3a 85 a8 d1 b9 1a a3 c7 ba
       -0.16532245 0.0005125027 -0.00039989143 -0.0015231103
000160 79 57 27 ba 1f f4 4d b9 36 55 fd 3d ae 57 10 be
       -0.0006383579 -0.00019641266 0.12369768 -0.14095947
000170 07 25 93 3a 9d b3 60 3a 96 b4 98 39 da e7 4e ba
       0.0011226245 0.00085716863 0.00029126246 -0.0007892825
000180 47 3c 22 b9 25 0f 9d ba a6 09 80 b9 90 70 f4 3d
       -0.00015471979 -0.0011982663 -0.0002442125 0.11935532
000190 1e d7 cb b9 fa b8 13 3a 13 56 b4 b9 29 43 4a 39
       -0.00038879452 0.00056351686 -0.00034396406 0.0001928924
0001a0 f3 71 49 39 df 53 e3 ba c6 8b d3 bb 78 cf af 39
       0.00019211303 -0.0017343721 -0.0064558713 0.00033533177
0001b0 24 ab 12 bb 8d 06 bb bb b9 bb 9a 3a 40 96 80 b9
       -0.002237984 -0.005707568 0.0011805213 -0.00024526007
0001c0 21 11 2d ba 3c 6a 2c 3a dc 2b b1 39 8e f0 0d 3b
       -0.00066019787 0.00065771095 0.0003379275 0.0021658274
0001d0 ed 4c 94 ba 7e 40 03 ba 60 b7 88 ba 76 12 36 3a
       -0.001131443 -0.00050068635 -0.0010430627 0.00069455
0001e0 9c 5c 82 3a e6 50 5c 3a 9c a1 7b ba 5e af 1c 3a
       0.0009945813 0.0008404389 -0.0009598972 0.00059770595
0001f0 f1 03 8a ba 67 e7 39 ba d7 bf 9d 39 37 54 08 3a
       -0.0010529739 -0.00070916716 0.00030088305 0.0005200537
000200 a9 07 19 ba 6c e8 83 ba 8a 36 50 b9 e7 7c 9b ba
       -0.0005837628 -0.0010063774 -0.00019856743 -0.0011862785
000210 e4 71 74 ba ef 99 f9 bd 35 be 00 3a a2 ee 04 ba
       -0.00093248324 -0.12187564 0.00049111556 -0.00050709595
000220 57 51 1c ba bb af 44 3a cb b1 ee b9 ec 85 16 bb
       -0.00059630483 0.00075029925 -0.00045527364 -0.0022968007
000230 5c 6f bd ba 25 66 79 3a 46 06 9c ba b9 90 38 b9
       -0.0014452743 0.0009513817 -0.0011903725 -0.00017601521
000240 93 76 5d ba d3 5e 81 3a e0 bd 07 3a 25 78 78 39
       -0.000844815 0.0009870179 0.0005178135 0.0002369588
000250 cc e2 da bd dd 57 7c 3a 02 7a fc b9 85 3d e3 b8
       -0.10687789 0.000962613 -0.00048156088 -0.000108356624
000260 a7 29 80 be d5 89 9c 3a 2c 1f bd 3a ce d0 c1 ba
       -0.25031778 0.0011942933 0.0014428846 -0.001478696
000270 5f fa e9 b9 20 f1 08 3a 8c 72 dc 39 c8 c5 41 ba
       -0.00044627764 0.00052239187 0.00042047014 -0.00073918374
000280 31 0e 00 3e ba e6 09 bc b6 b5 10 ba ef 40 b5 3a
       0.12505414 -0.008416826 -0.0005520241 0.0013828556
000290 1c cc c6 bd 9c 40 a3 ba d1 1d bc ba 34 4d 94 3a
       -0.097068995 -0.0012455168 -0.0014352148 0.0011314512
0002a0 32 5b 1e ba a3 9c b3 3a 46 10 0d ba 54 64 a6 37
       -0.0006040811 0.0013703298 -0.0005381148 1.9835461e-05
0002b0 2d 31 a4 ba c1 e4 e3 ba 94 92 dc ba 87 0e 00 3e
       -0.0012526863 -0.00173869 -0.0016828352 0.12505542
0002c0 49 92 74 3a be 4e c1 ba 25 18 17 ba a6 6c 98 ba
       0.00093296595 -0.0014748198 -0.00057637907 -0.001162906
0002d0 c5 20 5e ba 3e 75 57 ba 48 e9 e2 39 80 20 01 3e
       -0.0008473511 -0.00082190696 0.00043279887 0.12610054
0002e0 9f 26 5f 3a 0f 4a ca 3a 03 9c 3b 38 3e be a8 3a
       0.000851253 0.0015433448 4.472957e-05 0.0012874079
0002f0 e6 de be ba 8c fd f4 b9 3f f4 9e ba 0a f0 fa 39
       -0.0014562279 -0.00046728214 -0.0012127234 0.0004786256
000300 27 75 5e b9 3d 57 bb 3a 00 0f 00 3e 4a 61 c0 3a
       -0.00021215212 0.0014292967 0.12505722 0.0014677432
000310 9b 2e d3 bd 27 65 d7 ba b6 92 d0 3a 4f bc d2 3a
       -0.10311624 -0.0016433344 0.0015912864 0.0016077849
000320 73 ae 6f ba b1 b9 9f 3a d2 d8 d0 38 fd 1c 98 38
       -0.00091431214 0.0012186078 9.958599e-05 7.253324e-05
000330 b4 3c b6 3a db c5 81 3a fd 3c c9 39 f0 4e 76 3b
       0.0013903589 0.0009900884 0.00038383147 0.0037583672
000340 58 1a 94 ba fa 65 ae ba a7 25 97 ba 50 25 80 39
       -0.0011299355 -0.0013305538 -0.0011531607 0.00024441862
000350 a8 0e 00 3e ad 48 fb ba dd a8 79 3a fd 9d 71 b8
       0.12505591 -0.0019171439 0.0009523759 -5.7606016e-05
000360 78 97 4a 3a d2 43 73 3a 18 ce 00 be b1 0e 00 3e
       0.0007728259 0.00092798204 -0.12578619 0.12505604
000370 45 12 93 3a bf d8 1e 3a 66 f3 c1 3a 98 f3 77 3a
       0.0011220655 0.00060595194 0.001479727 0.00094586005
000380 eb 0f 62 39 ee cb 65 3a d2 d1 09 39 0b 46 38 be
       0.0002155897 0.00087660446 0.00013143502 -0.1799547
000390 db e2 20 b8 5a 13 84 b8 55 43 e9 b9 8f d0 b7 ba
       -3.835825e-05 -6.297855e-05 -0.0004449139 -0.0014023947
0003a0 a2 b4 1a 3a 9c 8d 52 ba 45 64 c4 3a 12 02 b5 ba
       0.000590155 -0.00080319657 0.0014983496 -0.0013809821
0003b0 ef 5e f9 b8 15 dc 9a 3b 6c 1e 58 3a c6 5c cf 39
       -0.00011890928 0.004725943 0.00082442793 0.00039551238
0003c0 5a ec bf 3a f7 7c 5e ba ba 06 83 ba 93 4a 18 3a
       0.0014642582 -0.0008487249 -0.0009996512 0.0005809452
0003d0 8b d0 69 ba 4e 87 2e ba 6d 5e c5 bc 3d c0 6d ba
       -0.000891932 -0.0006657735 -0.024092877 -0.0009069478
0003e0 db 6c e0 39 95 81 a0 ba 28 b7 73 39 d5 b9 84 3a
       0.00042805713 -0.001224565 0.00023242517 0.0010126183
0003f0 31 21 06 3a 66 b5 70 3a be 7f 4e bb 65 07 cd 3a
       0.000511664 0.0009182304 -0.0031509246 0.0015642463

bias f4 [128]
000000 c0 5f 2e 3d cb 26 5a 3d 4c af 9b ba b1 1f 88 ba
       0.042571783 0.053259652 -0.0011877804 -0.0010385421
000010 1a fa 00 bb b8 19 1f bb c1 7b 4f ba 30 fd 41 ba
       -0.0019680322 -0.0024276804 -0.0007914864 -0.00074000936
000020 24 a4 b2 b9 5a f0 f8 ba 84 70 1b b9 86 75 6f ba
       -0.000340731 -0.0018992529 -0.00014823867 -0.0009134639
000030 a7 2e 02 bc a3 a9 cb ba 75 96 9b ba 6a 6e 06 bb
       -0.007945693 -0.0015538227 -0.0011870401 -0.002051259
000040 1f 31 d4 ba a2 23 13 ba 39 a9 e0 ba 07 f2 b1 ba
       -0.0016188956 -0.00056129147 -0.0017140276 -0.0013576158
000050 41 57 93 ba b0 04 19 bb f9 b8 8b b9 fd cb 22 b8
       -0.0011241214 -0.0023348741 -0.0002664996 -3.881379e-05
000060 9b b6 94 3d da 2d 9a ba b0 39 c1 ba b8 a7 4f b9
       0.07261392 -0.0011762932 -0.0014741924 -0.00019803538
000070 f5 80 6e ba 8d 9f 40 ba ae b5 3d bb 4c 48 e1 ba
       -0.00090981956 -0.00073479937 -0.00289474 -0.0017187684
000080 f7 ea 04 ba 30 c9 73 b9 99 ba d7 ba 9e 9e 66 b9
       -0.0005070413 -0.00023249234 -0.0016458809 -0.00021993599
000090 5d c2 c8 ba e3 10 a6 3d 4b 8f 86 ba 9a cc 76 ba
       -0.0015316714 0.0810869 -0.0010266093 -0.0009414643
0000a0 9c 4f 19 bb 4b 62 a7 b8 5c 71 b2 ba 17 2f f6 b9
       -0.0023393398 -7.981489e-05 -0.0013614106 -0.0004695586
0000b0 5e 36 c7 3c de 76 80 b9 bd 9b 85 ba 0c 1b 07 bb
       0.024317916 -0.00024502625 -0.0010193508 -0.0020615486
0000c0 e1 9f 3e bb ed d9 f4 3c 78 88 61 ba 7a 98 1a b9
       -0.0029086994 0.029889071 -0.0008603404 -0.00014743386
0000d0 a6 56 d7 ba b8 83 8f ba b2 87 da ba 04 a4 2f 3d
       -0.0016429021 -0.001094929 -0.001667252 0.042881027
0000e0 1c 4c a5 ba 83 7d 9d b9 a0 c6 0b 3d bf 56 8b ba
       -0.0012611183 -0.00030038887 0.03412497 -0.0010630711
0000f0 6b f8 aa 3c b7 bd ea b9 b6 79 cd ba d8 51 1c 3c
       0.020870408 -0.00044773307 -0.0015676531 0.009540997
000100 22 9f 13 ba f3 df 44 ba d1 53 73 ba 6b 8c 2d 3d
       -0.00056313176 -0.00075101777 -0.0009282204 0.04237024
000110 6e bc 1e b9 b8 36 4a ba 62 95 f6 ba b7 d8 89 ba
       -0.0001513825 -0.0007713842 -0.001881283 -0.0010516857
000120 7f 36 88 b7 ce 40 15 b9 8e 7c a9 ba 25 05 67 ba
       -1.623784e-05 -0.00014233889 -0.0012930797 -0.0008812717
000130 ab 4e 27 ba a3 a8 33 ba de 12 2e bb 5a 63 08 bb
       -0.0006382267 -0.0006853437 -0.0026561539 -0.0020811171
000140 5f 51 c6 b9 40 e7 51 3d 5a 54 08 3d c6 3f fb b8
       -0.0003782613 0.051245928 0.03328357 -0.000119804914
000150 06 30 1c b9 57 51 4c 3d 8c 2e 8a ba 8e 15 b3 ba
       -0.0001489521 0.04988226 -0.0010542437 -0.001366304
000160 41 d5 ee 3c 38 3b 10 ba 57 e5 01 bb f3 bb 4b ba
       0.029154422 -0.00055019883 -0.0019820535 -0.0007771842
000170 45 f1 eb b9 82 af 9a ba 0b ae 10 bb 33 0a c4 ba
       -0.00045002453 -0.0011801573 -0.0022076394 -0.0014956653
000180 54 6e 02 bb bf 37 9d b9 5c 8c d4 ba f2 5f 41 ba
       -0.0019902186 -0.00029986908 -0.0016216147 -0.00073766627
000190 c3 13 6d ba 80 6c 15 3d f9 2d 55 3d 02 33 5d ba
       -0.0009043777 0.036480427 0.052045796 -0.0008438082
0001a0 16 e4 f8 ba 9c 22 ff 3c be 2e 4d 3d 6a f5 35 3d
       -0.0018988873 0.031144433 0.050093405 0.0444235
0001b0 0a 87 7f ba d6 e7 9f ba 53 09 00 bb ed cb 3f 3d
       -0.00097476004 -0.001219983 -0.0019536808 0.04682534
0001c0 f2 56 fb b9 2f 80 7f ba 20 c9 3f ba 65 ab cc ba
       -0.0004793923 -0.0009746579 -0.0007316042 -0.0015615044
0001d0 05 36 79 3d 46 90 11 b9 ed 50 c0 3c 44 43 a0 bb
       0.060842533 -0.00013882024 0.023476088 -0.004890831
0001e0 3f 64 71 3d 6a 00 7d ba 43 49 82 b9 e9 33 06 ba
       0.058933493 -0.0009651246 -0.00024850116 -0.00051194296
0001f0 fd 94 e7 3c 6b 9d 04 ba e4 b4 f3 3c 86 5e ab b9
       0.028269285 -0.00050588575 0.029749341 -0.00032686087

weight f4 [1, 128]
000000 00 cb e5 bd eb 34 f1 3d 7c 82 82 3a 8d 69 9e 3a
       -0.1122036 0.117776714 0.00099571 0.00120859
000010 3f 79 a9 3a b4 7f cc 3a 22 b3 22 3a b3 9d 9e 38
       0.0012929811 0.0015602023 0.00062065024 7.563401e-05
000020 b7 4e f7 b8 5a 89 0d 3a 07 b1 a5 35 6c 1f 5c ba
       -0.000117925396 0.000539919 1.234498e-06 -0.0008397016
000030 04 64 86 ba 7f bc d6 38 ef e6 34 3a d3 63 cd 39
       -0.0010253196 0.00010239425 0.0006900867 0.00039175022
000040 e4 10 8f 38 c4 96 51 39 b2 b6 95 3a 5b 2e 00 3a
       6.8219175e-05 0.00019987958 0.0011422245 0.000488972
000050 99 e1 c6 39 12 0e b9 3a 09 5f ef 39 b3 2c 64 39
       0.00037933586 0.0014118573 0.0004565644 0.00021760426
000060 02 4f f9 3d c1 d9 ba 3a 33 2f de 38 b4 25 99 37
       0.12173273 0.001425557 0.000105945765 1.8256578e-05
000070 ec 94 24 3a 54 87 22 3a 5f 75 a5 b9 2d 87 67 37
       0.00062782946 0.0006199975 -0.000315587 1.3800146e-05
000080 fe d1 7c 3a 20 84 4c ba 41 a0 27 3a 0f 63 ac 39
       0.00096443284 -0.00078016706 0.0006394424 0.000328802
000090 65 4b 82 ba e5 fc ef bd d8 e7 c9 ba 93 69 c0 39
       -0.0009940682 -0.11718158 -0.0015404178 0.00036699753
0000a0 bd b0 92 3a 81 00 94 3a 94 0b 30 3a ed c0 5e 3a
       0.0011191588 0.0011291654 0.00067155925 0.0008497376
0000b0 a6 e2 d6 bd 8f ce 8e b9 cc bb 3c 3a 31 6c e2 ba
       -0.104924485 -0.0002723825 0.0007199615 -0.0017274675
0000c0 e3 05 c5 3a 74 13 cd 3d 12 a0 0e ba 95 53 a0 b8
       0.0015031662 0.10013476 -0.00054407225 -7.644963e-05
0000d0 35 67 a6 3a b1 62 3a ba 91 84 8f 39 3a 4c eb bd
       0.0012695553 -0.0007110043 0.00027373855 -0.114891484
0000e0 b7 8d 62 39 2e 85 b1 38 ad c9 eb bd ef 8a 67 ba
       0.00021605832 8.464824e-05 -0.11513076 -0.00088326534
0000f0 fd 14 d0 3d 4c 35 0b ba 36 5e c1 b9 cf 31 a8 bd
       0.10160253 -0.0005310371 -0.0003688202 -0.08212625
000100 95 c2 bf 39 2a 6c 1a 3a 5c 69 51 37 65 0e eb 3d
       0.00036575334 0.00058907515 1.2481902e-05 0.11477355
000110 6a 5c 9a 39 57 4b 24 39 0c d4 9b b8 df 76 2d ba
       0.00029442023 0.00015668325 -7.430473e-05 -0.00066171394
000120 12 2e 8d b9 d6 5e b1 39 ac 50 24 b7 34 7d ea b7
       -0.0002692794 0.0003383073 -9.793945e-06 -2.7953276e-05
000130 f2 8b 81 b8 d1 bc 08 3a d6 04 d6 b9 16 54 0d ba
       -6.177266e-05 0.0005216124 -0.00040820864 -0.0005391253
000140 cc 8d 4b 39 6c cb eb bd d1 e2 e6 bd f8 b7 7c b9
       0.00019412412 -0.11513409 -0.112737305 -0.00024101126
000150 58 3b 1d 3a 3b d1 e8 bd 62 41 44 b9 97 78 78 3a
       0.00059979176 -0.113680325 -0.00018716374 0.00094784185
000160 07 b5 e6 3d c4 fb 52 39 23 44 23 3a 47 19 c4 38
       0.11264997 0.0002012095 0.00062281097 9.3507166e-05
000170 f2 fa 19 b7 61 33 e6 b7 73 6d 74 3b 43 1a a7 b8
       -9.177938e-06 -2.7442062e-05 0.0037296682 -7.968072e-05
000180 3e 42 66 ba 83 b9 ef 38 82 dd 55 3a 02 a4 90 39
       -0.00087836746 0.00011430962 0.00081583124 0.00027588016
000190 8c cc 13 b9 81 6d ed 3d 32 64 eb 3d 55 e6 c3 39
       -0.00014095212 0.11593152 0.1149372 0.0003736491
0001a0 cc 15 1c 3b 94 a1 da 3d 2a 09 e3 bd f8 b0 eb bd
       0.0023816703 0.1067535 -0.11085732 -0.115083635
0001b0 a3 2d f8 39 9d 4f aa ba 3e 4d 07 3b a8 79 e7 3d
       0.00047336248 -0.0012993697 0.0020645405 0.11302501
0001c0 65 9b 14 38 52 82 9a 3a 97 10 91 3a fc a9 9c ba
       3.5430672e-05 0.0011788106 0.0011067566 -0.0011952515
0001d0 15 5e f4 3d 14 0c df b9 1d 38 dc 3d 34 ff 21 38
       0.11932007 -0.00042542873 0.1075289 3.8623068e-05
0001e0 48 d6 f2 bd 98 3f 9c 3a 07 cc 0d b9 54 0d 0b ba
       -0.11857277 0.0011920808 -0.00013522814 -0.0005304415
0001f0 5e 16 e4 3d 9b 86 65 b9 74 6f e6 bd 57 b0 13 b9
       0.11137079 -0.00021889286 -0.11251727 -0.00014084704
