pre_trained_models/1u2d/diode_pair_1u2d_1N4148_l_1.70k_2.50k_2x16_1.34e-05.pth (torch, 5103 bytes, 5 tensors)

weight f4 [16, 2]
000000 3f 30 52 bf 5a 57 51 bd de 9b 8d be fb 8b 26 bd
       -0.8210487 -0.051108696 -0.2765798 -0.04066084
000010 81 f4 b0 3f a4 e3 cd 3d 2f 19 e2 be be 6b 5e 3d
       1.3824617 0.10053185 -0.4415984 0.05430197
000020 cf bd 43 bf e7 0e ef bc 60 ae 37 3e 90 fd c5 3d
       -0.764615 -0.02918191 0.17937613 0.09667504
000030 23 f8 b4 3e 80 91 d0 bc e0 1c b7 3e 10 93 e3 3d
       0.35345563 -0.025460005 0.35764217 0.11112034
000040 f0 ec 1a bf 89 b6 77 3d 92 66 9f 3f 64 53 80 bc
       -0.6051779 0.060476813 1.2453177 -0.015664764
000050 cd e4 e1 be ed d8 66 3d ea e6 78 be 7e 86 41 3e
       -0.44119874 0.05635922 -0.24306837 0.18898961
000060 ce 5f ec be 12 0e 77 3d 90 bf c4 3e 15 91 5d 3d
       -0.46166843 0.060316153 0.384274 0.05409344
000070 7a e5 0a 3f b9 e6 5b be 36 f7 8c 3e b3 e6 fa 3d
       0.54256403 -0.21474732 0.27532357 0.12251034

bias f4 [16]
000000 63 68 1e 3f 3e ac c9 3e d8 54 bb 3e 58 e1 7f be
       0.6187803 0.39389223 0.36588168 -0.24988306
000010 32 26 0e 3f 6f 73 94 3e 94 96 b4 3e b3 ed 71 3e
       0.5552703 0.2899432 0.35271132 0.23625831
000020 e2 78 a6 be 0a 39 b1 3e 16 8a 80 be 66 10 c3 3e
       -0.325141 0.3461383 -0.2510535 0.3809845
000030 ec 62 85 be ce 0a c1 be bd dc c3 3e 04 f1 bf be
       -0.26052034 -0.37703556 0.38254347 -0.37488568

weight f4 [16, 16]
000000 51 3b c0 3a 10 43 55 bc e0 04 50 3a 8c b3 cd bb
       0.0014666115 -0.013016477 0.0007935297 -0.006277507
000010 83 21 c1 b9 b4 14 0d bb 13 6f 0e 3b cf df 5b bb
       -0.00036836797 -0.0021527233 0.0021733686 -0.0033550148
000020 4a 53 cb 3b 66 c4 2f ba 46 67 4d 3b d7 96 5e ba
       0.006204997 -0.0006704986 0.0031342073 -0.0008491105
000030 35 54 d1 bb ff 02 81 38 87 16 6e bb 5d 9f aa bb
       -0.006388212 6.1517574e-05 -0.0036329345 -0.005206986
000040 b1 e5 ed be b0 84 30 c0 42 34 7c 3d 00 b3 d6 3d
       -0.46464303 -2.7580986 0.061573274 0.1048336
000050 8e 6f da be 37 c7 f4 bd fd 10 7b bc c0 78 11 bd
       -0.42663234 -0.1195206 -0.015323875 -0.035515547
000060 c7 73 24 3e e0 cb b4 3d 19 88 eb 3d 28 4b 1f c0
       0.1605979 0.088279486 0.11500568 -2.4889622
000070 38 83 d3 3d 6e 94 61 3f 65 ad 90 3d 41 68 93 3f
       0.10327762 0.8811711 0.070643224 1.1516191
000080 ed 16 bb ba 37 f8 7c 3b 14 19 e0 3a 86 e5 7e ba
       -0.00142738 0.0038600096 0.0017097318 -0.0009723533
000090 24 ce 3d 3b ff c2 34 bb c5 2a e5 3a ab e6 75 b9
       0.002896198 -0.0027582047 0.001748406 -0.00023450951
0000a0 fa 4a 13 bb af 23 f0 ba 67 b3 72 3b 2b 46 04 3c
       -0.002247511 -0.0018321181 0.0037033202 0.00807337
0000b0 ce 30 e9 b9 62 e5 27 3b b8 98 b2 3b 45 b6 f1 39
       -0.00044477585 0.00256189 0.0054503344 0.00046102903
0000c0 b4 e6 d0 ba b4 eb ec 3b 55 98 bb ba 19 18 e5 bb
       -0.0015937896 0.0072302464 -0.0014312366 -0.006991398
0000d0 93 12 91 3b 3b 52 02 3c 8d c6 0f 3a 0e d7 4e 3a
       0.004427263 0.007954176 0.00054846035 0.0007890322
0000e0 b3 98 a7 3b d8 82 36 3b 7a 5c 25 ba e3 55 14 3b
       0.0051146387 0.0027848985 -0.00063080306 0.00226342
0000f0 a3 fc 00 bb 25 b1 f7 3a 36 29 4a 3a ea 4f 66 bb
       -0.0019681833 0.0018897398 0.00077118294 -0.0035142847
000100 f7 cb 09 bf bb 11 10 c0 95 41 13 3e 4d 25 1c 3d
       -0.5382685 -2.2510822 0.14380486 0.03812151
000110 c9 54 01 bf 1b 01 41 3d 13 c2 05 3c 00 2e 87 3d
       -0.50519997 0.047120195 0.008163947 0.06600571
000120 66 9d 93 3d 4f f8 01 3e f2 39 1d 3d 3b b1 3c bf
       0.07207756 0.12692378 0.03838534 -0.7370793
000130 95 7c 3d 3d 80 06 66 3f ab dc 90 bc 6c 92 d8 3f
       0.04626139 0.8985367 -0.017683348 1.6919684
000140 5e d6 8a 3e c5 f4 8b 3e d1 31 8b be ae 8f 17 be
       0.27116674 0.27335182 -0.27186444 -0.14800903
000150 15 bb 85 3e 36 dd db 3d ff 37 74 3d ee 4c fb 3c
       0.26119295 0.10735552 0.059623715 0.030676331
000160 b1 b2 10 be 39 13 bc be b8 0c 21 be 08 f4 62 3e
       -0.14130665 -0.36733416 -0.15727508 0.22163403
000170 f5 3b 13 be de cc d2 be 87 87 26 bd 2e 17 c6 be
       -0.1437834 -0.41171926 -0.040656593 -0.3868956
000180 6e ac 78 be 8b 32 32 3d 75 12 19 3e 85 9e 7b be
       -0.24284527 0.043505233 0.14948447 -0.24572189
000190 37 5e 6d be 27 86 d6 3d 26 05 25 3e b6 08 01 3e
       -0.23180471 0.10474806 0.16115245 0.12600979
0001a0 9b 44 a1 be 93 90 2a 3e 80 51 79 be 1e ac 3a bd
       -0.31497654 0.16656713 -0.24347496 -0.0455743
0001b0 81 f7 81 be bf b6 cc bc 7d d8 46 3e ab e9 ff bd
       -0.25384143 -0.024989484 0.19418521 -0.124957405
0001c0 b3 5f 3e bb 31 87 a4 3b 34 a2 1c 3b 5d 81 88 3b
       -0.002904874 0.005020999 0.0023900392 0.004165812
0001d0 01 9f 60 3b c1 d1 91 bb 08 af 7c 3b 8c a4 b1 bb
       0.0034274461 -0.0044500534 0.0038556475 -0.005421227
0001e0 55 dc c5 bb da 6f f4 ba f0 23 84 b8 f7 e4 78 ba
       -0.0060382285 -0.0018649057 -6.3009444e-05 -0.00094945676
0001f0 e5 b4 90 3a 78 79 2d 3b c0 7a 1e bb 04 80 f4 3b
       0.0011040239 0.0026470106 -0.0024182051 0.0074615497
000200 a2 79 ae 3b 21 fd 75 3b 6e 4b 21 3d 26 35 2b 3e
       0.0053245584 0.003753491 0.039378576 0.16719493
000210 6c d2 6b 3c c4 51 d3 bd 84 54 ab bd cf 51 bb bd
       0.01439343 -0.1031833 -0.083657295 -0.09146463
000220 e4 91 27 3e cf 42 eb 3d 95 79 2f 3e a7 5c 65 bc
       0.16364247 0.11487352 0.17136224 -0.013999141
000230 9f 33 20 3e 83 92 3e 3d 7a 41 da bc 56 f7 22 3b
       0.15644692 0.046526443 -0.02664255 0.0024866662
000240 86 2f 94 3d 28 1a 33 bc 26 31 7a be 3a 2a 0f 3f
       0.07235627 -0.010931529 -0.24432811 0.5592381
000250 e4 cb 9b 3d 67 81 32 bf 81 10 62 bf 81 a4 5f bf
       0.076072484 -0.697287 -0.8830643 -0.8736039
000260 c1 bb 00 3f 29 31 c3 bd b9 84 12 3f 7c 61 ef bb
       0.5028649 -0.09530861 0.5723377 -0.007305322
000270 7b 0d 0e 3f 50 e9 81 3d 9c 67 ec be b1 01 5e 3d
       0.5548932 0.06343329 -0.46172798 0.05420083
000280 d8 2e 7f be d0 bd 40 3d 51 81 1f 3e 73 8f 82 be
       -0.24920213 0.04705602 0.15576674 -0.25500068
000290 50 32 7f be 79 cb e0 3d 0c 9c 25 3e 9b 6c 00 3e
       -0.24921536 0.10976309 0.16172808 0.1254143
0002a0 8b f5 aa be ea e8 2f 3e 28 78 86 be 60 26 3f bd
       -0.3339046 0.17178693 -0.26263547 -0.046667457
0002b0 0b 9a 87 be 2f 29 01 bd 2c 80 5a 3e e8 e0 00 be
       -0.26484713 -0.031533416 0.21337956 -0.12585795
0002c0 bc 23 2b bf f1 84 d0 be 5f 67 b1 3d 36 c7 d5 bd
       -0.668514 -0.40726426 0.086622946 -0.10438387
0002d0 20 1f 21 bf 2c 9f 9b 3c ed 6d 5a 3d dd 59 35 3d
       -0.6293812 0.018996798 0.05332749 0.044275153
0002e0 c0 05 ff bd ba 54 cc 3d 78 65 bb bd 91 3c af be
       -0.124522686 0.09977098 -0.09150213 -0.34225896
0002f0 f8 c7 d5 bd 7e f9 91 3e 6b fe a5 3d ad e0 90 3e
       -0.10438532 0.2851066 0.08105167 0.28296414
000300 b2 b8 b1 bb 93 7e ac ba 5c b1 8c ba 90 f0 fe bb
       -0.0054236287 -0.0013160281 -0.001073401 -0.007780142
000310 53 92 f8 3b a5 79 f6 3b 08 ba e8 b9 b4 4a 05 bc
       0.0075858026 0.0075218254 -0.00044389092 -0.008135486
000320 98 f1 26 39 ac 48 11 3b a4 ff 24 ba b8 25 b4 39
       0.00015920994 0.002216856 -0.0006294197 0.00034360378
000330 18 fb 20 3b 52 3a f6 3b 04 6d 31 bb 0e 0d a4 bb
       0.0024563726 0.0075142765 -0.0027073035 -0.005006439
000340 e9 a3 68 3d a3 0c 4a 3d 9d 59 30 bf de b8 8f 3d
       0.056796942 0.049328458 -0.6888674 0.070176825
000350 c4 5e 60 3d cf e9 4b bd f4 42 64 be 91 a9 28 be
       0.054777876 -0.049783524 -0.22291166 -0.16470934
000360 6b 80 62 3d 64 f5 59 bf 97 cb 92 3d 47 a3 64 3d
       0.05529825 -0.8514006 0.07167738 0.055819776
000370 f0 01 a5 3d 7c 30 ec bd 45 20 cf be a7 a6 63 bd
       0.0805701 -0.11532685 -0.40454307 -0.055578854
000380 a8 9a 4b bb 97 db d4 bb 81 b9 a4 bb 93 22 d4 bb
       -0.0031067524 -0.0064959037 -0.0050269966 -0.006473848
000390 16 3e 0f 3c f7 72 86 bb c2 c9 78 3b 52 68 00 3b
       0.00874283 -0.0041030603 0.0037962054 0.001959343
0003a0 a6 25 be 3b dc 69 f2 3b 0d 4d f5 bb 09 be 1e 3c
       0.005802828 0.0073978733 -0.007485992 0.009688863
0003b0 c3 13 48 3b 86 cd cc ba a0 2b ec 3a 5d a9 25 bb
       0.0030529357 -0.0015625216 0.0018018372 -0.002527795
0003c0 88 9c 34 3e bd 18 8f 3d 1e ff 00 bf 55 92 42 3f
       0.17637837 0.0698714 -0.5038928 0.76004535
0003d0 56 76 3e 3e f8 31 50 bf 54 08 8d bf 0e 9f 96 bf
       0.18599829 -0.81326246 -1.1018167 -1.176729
0003e0 b3 ba 32 3f b3 c2 9a be 5c cd 48 3f 9a 60 40 3d
       0.6981613 -0.3022667 0.78438354 0.046967126
0003f0 bd 1d 41 3f 86 82 d2 bc 6a 83 21 bf bd 0c 2c bd
       0.75436 -0.025697004 -0.63091147 -0.042004336

bias f4 [16]
000000 2c c3 9c 3b 5b 9c be be ea ac d4 bb 58 a9 22 bc
       0.0047840085 -0.37228665 -0.0064903395 -0.00992807
000010 fd 17 78 be 4f 3c 80 3e f7 4b e6 3d c4 15 36 3b
       -0.24227901 0.25046012 0.11244958 0.002778397
000020 5d ac 80 bd 5d a2 67 be 5b e4 fa 3d 18 46 3b bd
       -0.06282876 -0.2262053 0.122505866 -0.045721143
000030 c3 5d bb b9 59 7e fa 3c 3e 88 07 bc b0 6a 3f be
       -0.00035737277 0.030577825 -0.008272229 -0.18693042

weight f4 [1, 16]
000000 1f 3e 73 b7 60 b9 e3 be 07 4b c3 37 a0 22 de 37
       -1.4498392e-05 -0.44477367 2.3280749e-05 2.6480586e-05
000010 0a 06 93 be 80 53 8f be 5a 46 14 3e 56 d3 a8 37
       -0.28715545 -0.27993393 0.14479962 2.0125572e-05
000020 5f 4b 93 3d 8d 74 6c 3e 99 d1 20 3e 1e aa 88 3e
       0.0719211 0.23091336 0.15704955 0.2669229
000030 73 89 9a 36 23 1e 8c be 61 6c ee 37 d5 cf 99 3e
       4.605559e-06 -0.27366742 2.8422279e-05 0.30041376
