pre_trained_models/1u2d/diode_pair_1u2d_1N4148_l_0.90k_1.30k_3x64_1.93e-6.pth (torch, 39027 bytes, 7 tensors)

weight f4 [64, 2]
0.2744946 0.04460576 -0.005916141 -0.0038836135 0.115633585 -0.010197778 0.00898306 -0.006126804
0.21305272 0.056845315 -0.0014088509 -0.0020224892 0.31169286 0.04327446 -0.22254668 0.04643956
-0.00033096835 -0.0027265917 -0.0015027161 -0.0040809684 0.002202799 -0.0028751255 0.086477816 -0.025940865
0.02403209 -0.034615684 0.0018604351 -0.0013132975 0.00017409534 0.006543991 0.31804878 0.050239403
0.2972763 0.031102853 0.007233365 -0.0069556693 -0.00036953244 -0.0038512438 0.000122019585 0.0023689955
-0.00014288847 -0.0115737 0.092246115 -0.018707288 0.0022072373 -0.006581148 -0.0018686197 -0.0066984775
0.0007677404 -0.0031795176 -0.005821387 -0.006199111 -0.004923142 -0.00502499 -0.006362017 0.0014600226
-0.0077927876 -0.009953224 -0.18512927 0.048612155 0.0028324097 -0.007238344 0.07514661 -0.016942322
0.0019077014 -0.0067987023 0.029095277 -0.0054954966 -0.1973243 0.039802186 0.109946445 -0.0093668755
-0.00350145 0.0014765171 -0.20515518 0.043858714 -0.0016044471 -0.0035110624 -0.02526178 -0.011248119
-0.18600552 0.054388035 0.10452069 -0.008156676 0.104295634 -0.008264798 0.00091911486 -0.009519566
0.052818205 0.03801649 0.008140564 -0.003727486 -0.1751275 0.04981368 0.002815378 -0.0017714845
0.01005614 -0.006226966 -0.00985446 -0.00477606 -0.0019746528 -0.0052189003 0.002753751 -0.005372087
0.11120705 -0.0066065425 0.003696456 -0.010506031 -0.004643699 -0.0037225995 -0.001055889 -0.0051690997
0.0024363464 0.0010604608 0.007811865 -0.0007390173 0.010390124 -0.007219834 0.0044625537 -0.0047645476
0.11799716 -0.0076532173 -0.0055479 -0.010308439 -0.007042013 -0.0031185485 0.046213306 -0.0425455
00000000: 8e8a 8c3e 88b4 363d 30dc c1bb 3984 7ebb
00000010: 4dd1 ec3d 9514 27bc af2d 133c 5bc3 c8bb
00000020: 7e2a 5a3e a2d6 683d 31a9 b8ba bd8b 04bb
00000030: 3596 9f3e 8f40 313d 47e3 63be 6837 3e3d
00000040: d285 adb9 9eb0 32bb c9f6 c4ba a5b9 85bb
00000050: d65c 103b 9a6c 3cbb 481b b13d f081 d4bc
00000060: f2de c43c 2dc9 0dbd d8d9 f33a f422 acba
00000070: 5d8d 3639 fa6e d63b 4ad7 a23e d5c7 4d3d
00000080: 9934 983e 69cb fe3c dd05 ed3b 62ec e3bb
00000090: cebd c1b9 2665 7cbb c4e4 ff38 2641 1b3b
000000a0: 55d4 15b9 9e9f 3dbc 88eb bc3d 0740 99bc
000000b0: 4ca7 103b aca6 d7bb 79ec f4ba e77e dbbb
000000c0: 3042 493a 745f 50bb 55c1 bebb ea21 cbbb
000000d0: 4f52 a1bb aca8 a4bb 7778 d0bb 3b5e bf3a
000000e0: a45a ffbb d912 23bc 8792 3dbe 8a1d 473d
000000f0: f39f 393b a12f edbb 77e6 993d a0ca 8abc
00000100: d60b fa3a a6c7 debb 3859 ee3c 9113 b4bb
00000110: 620f 4abe 9e07 233d 9a2b e13d 8677 19bc
00000120: 9578 65bb b187 c13a 3314 52be 32a5 333d
00000130: 504c d2ba da19 66bb cbf1 cebc 084a 38bc
00000140: 3b78 3ebe fdc5 5e3d f20e d63d 94a3 05bc
00000150: f398 d53d 1369 07bc c1f0 703a f4f7 1bbc
00000160: e757 583d 2eb7 1b3d 0060 053c d648 74bb
00000170: a054 33be 6e09 4c3d 3482 383b 2831 e8ba
00000180: 82c2 243c 940b ccbb 9a74 21bc 7f80 9cbb
00000190: 2d69 01bb 4f03 abbb 4678 343b 5508 b0bb
000001a0: 86c0 e33d b27b d8bb 3e40 723b 7d21 2cbc
000001b0: 2c2a 98bb dbf6 73bb c165 8aba 8d61 a9bb
000001c0: 1cab 1f3b 29ff 8a3a acfa ff3b 9dba 41ba
000001d0: 573b 2a3c 5b94 ecbb 9d3a 923b ec1f 9cbb
000001e0: 7fa8 f13d d7c7 fabb 29cb b5bb bae4 28bc
000001f0: b0c0 e6bb 9060 4cbb 2a4a 3d3d 3144 2ebd

bias f4 [64]
0.021099297 0.005263987 0.1473105 0.008301154 -0.033629432 0.004247165 0.018573841 0.033505406
0.0076481528 0.0025967106 0.0016324257 0.1670736 0.1316826 0.0019252328 -0.02063901 0.010757889
0.037119463 0.008525886 -0.01058852 -0.0076298187 0.0067292233 0.15036511 -0.0013918647 -0.01006983
0.00047513752 -0.01064132 0.009851329 -0.011097799 0.004222824 0.022183685 -0.0076304195 0.12776911
0.00757904 -0.018470189 0.06445663 0.1390346 -0.008454271 0.061969437 0.0029526516 0.00634316
-0.0011917324 0.12984358 0.12995492 0.011309307 -0.1598376 0.00011341617 -0.004429202 0.002246606
0.007801355 -0.010190762 -0.0004202533 0.012970403 0.13170926 0.0073176255 0.0057622427 -0.0031475804
-0.005917645 -0.008314859 -0.007746276 -0.003580487 0.14175649 -0.0032319613 -0.010944549 0.17848115
00000000: 6fd8 ac3c 867d ac3b 90d8 163e 9001 083c
00000010: 04bf 09bd cd2b 8b3b 2b28 983c f73c 093d
00000020: 5b9d fa3b 932d 2a3b 1ef7 d53a 5815 2b3e
00000030: ced7 063e 1858 fc3a 2413 a9bc db41 303c
00000040: 940a 183d 28b0 0b3c 797b 2dbc 8f03 fabb
00000050: d180 dc3b 50f9 193e 3b6f b6ba eefb 24bc
00000060: e11b f939 ee58 2ebc 7867 213c 8bd3 35bc
00000070: 9d5f 8a3b 8fba b53c 9908 fabb e8d5 023e
00000080: 9859 f83b cb4e 97bc d601 843d 165f 0e3e
00000090: c883 0abc aad3 7d3d 4681 413b 48da cf3b
000000a0: e733 9cba b7f5 043e e712 053e ac4a 393c
000000b0: 78ac 23be d8d9 ed38 d722 91bb cb3b 133b
000000c0: 82a2 ff3b 27f7 26bc 7155 dcb9 d081 543c
000000d0: cbde 063e b1c8 ef3b 32d1 bc3b a347 4ebb
000000e0: cee8 c1bb 0c3b 08bc 79d4 fdbb 9ba6 6abb
000000f0: 9d28 113e 50cf 53bb c450 33bc c3c3 363e

weight f4 [64, 64]
-0.00030413488 -0.0019489331 0.0004632967 -0.00010078831 0.00042928 -0.0014691544 5.5356388e-05 -0.0019276611
-0.0022973889 -0.001883134 -0.0018465886 -5.3478674e-05 -0.00063361035 -0.0019017166 -0.001271027 -0.00047962184
-0.00061662804 -0.00073774904 -0.0017787069 0.0010295734 0.0011137687 0.0011862043 -0.001129405 -2.8994473e-05
0.001313793 -0.0019608918 -0.0010785126 -0.0010248503 0.00057172857 -0.0002783287 -0.00020178896 -3.0192597e-05
-0.000668443 0.0007094728 0.00095168065 -0.000746302 1.3937984e-05 -0.0007729063 0.0006383406 -0.0014911451
-0.0019368841 0.0008171557 0.00023285356 0.0014579963 -0.0007467901 0.0002438233 6.2443934e-05 -0.0017647792
0.0008301688 0.000980795 -0.0003536422 -0.0009673051 0.00062564603 0.00155443 0.0019743377 0.0007602997
-0.0006388744 0.0003210118 0.0011404561 -0.001412468 0.00089164096 -0.0009750743 0.0012786841 -0.0019742523
-0.13971053 0.0008208854 0.15934557 -0.0013443282 -0.1484674 -0.00040518312 -0.16192004 -0.055822317
-6.465189e-05 -0.0009057383 0.0009517496 0.2783655 0.25928086 -0.0010723332 -0.035654943 -0.17528294
-0.13403136 0.0020054956 0.000925315 -0.0031085357 -0.0013217231 0.1776707 -0.0011878386 0.0018358162
0.0010220672 -0.0012431208 -0.001729886 -0.0009337042 0.0014439516 -0.057157215 0.0012039925 0.1212085
0.00010251197 -0.046284303 -0.033994798 0.13808246 -0.0014335759 -0.038148317 -0.00039981672 -0.007603391
-0.07290496 0.11747302 0.11660414 -0.0011292136 -1.4308395 0.00076402066 -0.071136326 -0.0004189687
-0.0002215141 -0.0010868888 -0.0019507734 0.0031792403 0.12102766 0.001392724 -0.00074208825 -0.0005761172
-0.0034186235 -0.0010722621 -0.0012089744 -0.00042833464 0.13912389 -0.002005438 -0.0005723966 0.48932365
-0.059377357 0.0014543948 0.007707142 -0.0019388427 -0.04694088 0.0019800775 -0.07656418 0.15868294
0.00075734704 0.0019660168 0.0053130374 0.044251807 0.081774 0.0010851119 -0.007257876 -0.08034257
-0.073694974 -0.0007250007 0.0010713188 -0.0035769364 -0.0011749213 0.026331026 0.0017975259 -0.0017124803
0.0009325253 0.0018419401 0.0073154015 -0.0043069725 0.00061886315 0.13587116 0.0018073217 0.035093132
-0.0008112648 -0.057508517 0.16111717 0.014135175 -0.004570627 0.16142835 0.0061705634 0.048017163
0.12643662 0.018569445 0.01625507 0.0015116563 -1.6987351 -0.0012406376 0.120196514 0.002549524
-0.0020060306 0.00060366397 -0.00021802398 0.0076924916 0.012563142 0.00032175056 -0.001234856 0.0005562995
-0.0027859467 -0.0013108287 4.091328e-05 0.0015460923 0.0069359564 -0.0006832656 -0.00076734816 0.17600076
-0.0012880184 -0.0019451608 -0.00085860875 0.00035002912 -0.0024972209 0.00045800727 -0.0021274965 -0.00014897966
0.0011359158 -0.00014872759 -0.0025902702 -0.0013356151 -0.002309441 0.0016639758 -0.0021134862 0.0003017549
-0.0008943951 -0.00055630296 -0.00011690081 0.0015226564 -0.00045631095 -0.0024214063 0.0019050931 0.00026015885
-0.0012513404 -0.0018460569 -0.0010198249 -0.00095500576 -0.0002531083 -0.0024627459 -0.0013719737 -0.00017230771
0.00065174943 0.00047363344 -0.0018377606 0.0008963583 -0.00070525584 -0.0014982583 0.0017481677 -0.0015892279
-0.0028850127 0.0007526207 -0.00016391132 -0.0018022734 -0.002589335 0.0011273656 -0.0019300531 -0.0017034945
8.8804176e-05 0.001710556 -0.0015034664 -0.002744175 0.00037651806 -0.00023612638 -0.0013280497 -0.0006290846
-0.0016055771 0.0012428896 0.001797668 0.00089855836 -0.0011715632 -0.00058824546 -5.976819e-05 0.00038571857
00000000: 4b74 9fb9 5873 ffba a1e6 f239 505e d3b8
00000010: fc10 e139 a490 c0ba 782e 6838 93a9 fcba
00000020: ca8f 16bb 7ed3 f6ba 3b09 f2ba 4a4e 60b8
00000030: df18 26ba 0543 f9ba 9798 a6ba c175 fbb9
00000040: 35a5 21ba 8065 41ba 8023 e9ba c0f2 863a
00000050: e0fb 913a 697a 9b3a 8b08 94ba 2839 f3b7
00000060: 9433 ac3a 4e82 00bb e15c 8dba 4554 86ba
00000070: 0ee0 153a a5ec 91b9 5097 53b9 1c46 fdb7
00000080: 733a 2fba eafb 393a 357a 793a 7ba3 43ba
00000090: 2fd7 6937 dd9c 4aba 5056 273a 8772 c3ba
000000a0: 0cdf fdba 6436 563a 272a 7439 3d1a bf3a
000000b0: 3cc4 43ba d2aa 7f39 55f4 8238 2a50 e7ba
000000c0: af9f 593a 058e 803a 0d69 b9b9 bf92 7dba
000000d0: 6502 243a 04be cb3a e463 013b d94e 473a
000000e0: 237a 27ba 794d a839 5b7b 953a 9022 b9ba
000000f0: 03bd 693a 219c 7fba 8599 a73a 7562 01bb
00000100: 4710 0fbe b030 573a 7c2b 233e 2b34 b0ba
00000110: d707 18be c26e d4b9 5ece 25be f1a5 64bd
00000120: b895 87b8 126f 6dba d67e 793a ec85 8e3e
00000130: 76c0 843e 888d 8cba eb0a 12bd 5f7d 33be
00000140: 843f 09be a26e 033b d790 723a 93b8 4bbb
00000150: ab3d adba 4fef 353e 40b1 9bba c59f f03a
00000160: e2f6 853a 36f0 a2ba 58bd e2ba d4c3 74ba
00000170: fa42 bd3a af1d 6abd 49cf 9d3a 293c f83d
00000180: b2fb d638 9c94 3dbd 213e 0bbd 7d65 0d3e
00000190: d3e6 bbba 6941 1cbd 7e9e d1b9 de25 f9bb
000001a0: 324f 95bd b295 f03d 27ce ee3d 1f02 94ba
000001b0: c025 b7bf 8f48 483a ecaf 91bd 07a9 dbb9
000001c0: 3d46 68b9 f075 8eba 18b1 ffba cd5a 503b
000001d0: 5add f73d 108c b63a b388 42ba 9206 17ba
000001e0: fc0a 60bb 258b 8cba 7376 9eba 1a92 e0b9
000001f0: 7e76 0e3e ab6d 03bb e30c 16ba a188 fa3e
00000200: ac35 73bd 64a1 be3a 318c fc3b c420 feba
00000210: 1545 40bd 30c4 013b aecd 9cbd c87d 223e
00000220: b388 463a 4ad8 003b fd18 ae3b 6241 353d
00000230: 2079 a73d 503a 8e3a 7ad3 edbb a58a a4bd
00000240: 64ed 96bd f90d 3eba 7e6b 8c3a 096b 6abb
00000250: d1ff 99ba 2ab4 d73c f69a eb3a 4e75 e0ba
00000260: b774 743a 416d f13a 09b6 ef3b 8121 8dbb
00000270: 343b 223a cf21 0b3e a7e3 ec3a d1bd 0f3d
00000280: 0fab 54ba 0d8e 6bbd e6fb 243e 3997 673c
00000290: 33c5 95bb 794d 253e 7032 ca3b a5ad 443d
000002a0: 9a78 013e f31e 983c 5a29 853c c522 c63a
000002b0: 2770 d9bf e49c a2ba 9729 f63d ea15 273b
000002c0: 9c77 03bb 343f 1e3a 5e9d 64b9 4c11 fc3b
000002d0: a3d5 4d3c a1b0 a839 e4da a1ba a1d4 113a
000002e0: 6e94 36bb 1dd0 abba 4d9a 2b38 40a6 ca3a
000002f0: 0547 e33b 2e1d 33ba dd27 49ba 8b39 343e
00000300: bad2 a8ba c4f4 feba 4214 61ba 1d84 b739
00000310: 6aa8 23bb b220 f039 786d 0bbb 6c37 1cb9
00000320: 02e3 943a c2f3 1bb9 86c1 29bb ce0f afba
00000330: fe59 17bb c319 da3a 6a82 0abb db34 9e39
00000340: d775 6aba dcd4 11ba a528 f5b8 df93 c73a
00000350: 053d efb9 75b0 1ebb 51b4 f93a ee65 8839
00000360: 0404 a4ba 64f7 f1ba a5ab 85ba 5a59 7aba
00000370: 9fb3 84b9 0566 21bb ccd3 b3ba 80ad 34b9
00000380: 2ada 2a3a 0152 f839 03e1 f0ba 96f9 6a3a
00000390: ebe0 38ba 3561 c4ba c622 e53a a44d d0ba
000003a0: 7b12 3dbb 854b 453a 9cdf 2bb9 433a ecba
000003b0: d5b1 29bb 1dc4 933a d6f9 fcba ca47 dfba
000003c0: 613c ba38 bc34 e03a f60f c5ba 9ed7 33bb
000003d0: 6667 c539 b198 77b9 f411 aeba 27e9 24ba
000003e0: 3a72 d2ba 74e8 a23a bb9f eb3a 3b8d 6b3a
000003f0: 238f 99ba 7c34 1aba 9baf 7ab8 453a ca39

bias f4 [64]
-0.0019231816 0.12045342 0.086613886 -0.0024806987 0.00026849355 0.0828249 0.00035085526 0.07094861
-0.0019056714 0.0009512713 -0.0024768468 -0.0017635382 -0.003174735 0.0002803547 -0.00068702875 0.04554246
-0.00064229395 0.0007848808 -0.0015700767 -0.0024839495 -0.00094659213 -0.001391547 -0.001250695 -0.0013456777
0.08448225 -0.0009333378 0.12095233 -0.0014780053 -0.0027547448 -0.0009223416 -0.037771665 -0.0010016132
-0.0019454816 0.00036670457 -0.0010912502 -0.0020199516 0.045976203 -0.0021976186 -0.00067073695 -0.00021254976
-0.0010658242 0.0037708422 -0.00086697936 0.12042389 0.0006758615 -0.0016006164 1.8338078e-05 0.12049192
0.0002643979 -0.00015069249 0.00044223963 0.0007816657 0.049087048 0.04846199 0.09325436 -0.0016961556
0.047083594 0.00067578326 -0.00044292706 0.12317051 -0.0031343705 -0.00068315 0.046964277 -0.0004843127
00000000: 4413 fcba 48b0 f63d 9f62 b13d 3893 22bb
00000010: 98c4 8c39 1aa0 a93d fff2 b739 814d 913d
00000020: b9c7 f9ba bc5e 793a 9852 22bb 8626 e7ba
00000030: 370f 50bb 92fc 9239 b819 34ba bb8a 3a3d
00000040: 9e5f 28ba 75c0 4d3a 08cb cdba c2c9 22bb
00000050: b924 78ba 9264 b6ba 5cee a3ba 7361 b0ba
00000060: 0805 ad3d 3dab 74ba dbb5 f73d a1b9 c1ba
00000070: f388 34bb 4cc9 71ba 76b6 1abd 9048 83ba
00000080: 88ff feba 4142 c039 4808 8fba 2a61 04bb
00000090: 8b51 3c3d ec05 10bb 65d4 2fba e4df 5eb9
000000a0: 20b3 8bba 3c20 773b 0046 63ba cda0 f63d
000000b0: 4c2c 313a c6cb d1ba b9d4 9937 78c4 f63d
000000c0: e39e 8a39 3503 1eb9 66dc e739 b2e8 4c3a
000000d0: 800f 493d 1480 463d 24fc be3d 8a51 deba
000000e0: bada 403d 0c27 313a aa38 e8b9 d240 fc3d
000000f0: 036a 4dbb 6c15 33ba 9d5d 403d 5aeb fdb9

weight f4 [64, 64]
0.0019000152 -8.615402e-05 -0.0023478963 -0.0010605459 0.00022555447 -0.00070219743 -0.0006014279 -0.0010322524
0.0017671655 -4.3055872e-05 -0.00013506843 0.0006277877 0.0007615268 -3.7775026e-05 -0.00022543434 -0.0038932774
-2.3862589e-05 0.0011385068 -0.0011194487 0.0014778603 0.000603159 0.00081668823 0.001513621 -0.00028306036
-0.001028662 0.0003480882 -0.0020350234 0.002059504 0.0005398629 0.0010101073 -0.0007327269 0.0018457486
0.00050378626 -0.00058202277 -0.0019206323 -0.0013414837 0.0009862856 0.00048204605 0.00089996395 0.00084101496
0.0022962126 -0.0015137421 0.0005938787 -0.00058283407 0.0002539086 -0.0007888687 0.001257108 -0.0010182577
-0.0010531177 0.0017015701 0.0006448138 -0.0006864413 -0.0027769834 -0.002094177 0.0005563619 -0.0002925271
0.00050618406 -0.00015328557 0.00091233366 6.3678584e-05 0.0018000453 0.0008273929 -0.00027751375 -0.00043445715
-0.00060989195 0.001093468 -0.00018984884 0.0005173111 -0.0009456738 -0.0012978766 0.0014633617 -0.00057585275
-0.00024706754 0.00071222737 -0.0015899125 -0.0017538257 -0.0020832391 -0.0016235692 0.00035371352 -0.0031355678
-0.0018479658 -0.0011935725 -0.0018103985 -0.0019259385 0.0010375684 0.00076059013 -0.0026054762 -0.00085443584
-0.0019164189 -0.001366884 -0.0010394647 0.00065249414 0.0010301 0.0009796303 0.0025271608 -0.0012395794
0.001161753 -0.0014189123 -0.0013063076 -0.0012114884 -0.0013868966 0.0013539946 2.8355444e-05 -8.607313e-05
-0.0006477142 -0.00037141817 0.0003322936 0.0007418352 0.00031567222 -0.0027736225 0.00034433862 0.00063759787
-0.000216983 -0.0016414067 0.0013984134 -0.0014090083 -0.0034050895 -0.0030237588 0.0008492435 0.00024032139
-0.0032716645 0.0012896124 -0.0019145113 0.0010946727 -0.0017164447 4.9998147e-05 -0.003691396 -0.0007524808
-0.0012000012 0.0010073615 -9.211142e-05 0.0012965209 0.00010821711 -0.00034069852 -0.00077315216 -0.000618365
-0.0015999053 -0.0009677154 0.00035418643 0.0011775962 -0.000887355 -0.0012935437 -0.0007651291 0.00036464244
0.0009868596 -0.0015564852 -0.0019646261 0.0016010148 -0.0017309592 0.0012521604 -0.0003213543 0.0016350287
-0.0019192016 0.0015953605 -0.0017468289 -0.0016258217 -0.00095812033 0.0020156614 -0.0005671433 -0.0017862078
0.0017380961 -0.0018014116 -0.0008251359 -0.0015848288 -0.00031069168 0.001573786 0.0013459479 -0.0010201094
-0.0021676444 0.0013981897 -0.0004977595 -0.0016218226 -0.0016267567 5.7995796e-05 0.00027668788 -0.0021134582
4.4652043e-05 -0.00070984877 0.0012310713 -0.0015817174 0.00087485625 -0.00014707023 -0.0018866761 -0.00048673362
-0.00032485492 0.0019317667 0.0014338215 -0.001778405 0.0012929563 0.0008952333 0.0005072879 -0.00093845493
-8.345021e-05 -0.20593293 0.051465925 -0.0011507315 -0.000669455 -0.0037966839 0.00083113916 0.049616627
0.0001117143 -0.0018823817 0.001711467 0.0006814528 -0.002556203 -0.00034960592 0.00081226317 -0.0019140056
-0.00046546108 0.00066955626 0.0016069681 -0.0007253222 0.00018888443 -0.0013933192 -0.0016079464 -7.8135134e-05
0.052051883 -0.0006931986 -0.15834057 0.0011755017 -0.0021583026 0.0010495017 0.3296258 -0.00071488513
0.001858782 0.0016289044 -0.0012032357 0.0019077132 -0.0010398257 0.0021276635 0.001304282 0.0012407119
0.00065433007 -0.001726547 -0.00027412057 -0.2205562 0.0013968213 0.001371958 -0.0007293033 -0.1611331
0.00024421583 0.001677378 -0.0012292992 -0.0013873527 0.00014703623 -0.0015508222 -0.20682488 0.0006259966
-0.0018668469 -0.0017263922 -0.0011022849 -0.2310828 0.0051936912 0.0006424952 -0.0008252438 0.00011075927
00000000: ee09 f93a 96ad b4b8 2adf 19bb 0402 8bba
00000010: d182 6c39 ac13 38ba 25a9 1dba a54c 87ba
00000020: 3ca0 e73a e496 34b8 28a1 0db9 1f92 243a
00000030: 33a1 473a a070 1eb8 9262 6cb9 5b26 7fbb
00000040: 852c c8b7 f339 953a 77ba 92ba c3b4 c13a
00000050: 511d 1e3a 0517 563a b164 c63a b867 94b9
00000060: 2bd4 86ba 9b7f b639 075e 05bb bef8 063b
00000070: 9685 0d3a 9465 843a 7814 40ba 0ced f13a
00000080: 8610 043a e392 18ba babd fbba b9d4 afba
00000090: 4146 813a 20bb fc39 8feb 6b3a 8f77 5c3a
000000a0: 0e7c 163b c268 c6ba 86ae 1b3a 55c9 18ba
000000b0: 091f 8539 15cc 4eba 8bc5 a43a 0f77 85ba
000000c0: c408 8aba 3807 df3a b908 293a 4cf2 33ba
000000d0: 0dfe 35bb 763e 09bb d1d8 113a 535e 99b9
000000e0: 70b1 043a 48bb 20b9 ad29 6f3a 2e8b 8538
000000f0: 7fef eb3a 66e5 583a 447f 91b9 dac7 e3b9
00000100: 28e1 1fba b352 8f3a 2912 47b9 299c 073a
00000110: 18e7 77ba 831d aaba 45ce bf3a d3f4 16ba
00000120: d888 81b9 c5b4 3a3a 9c64 d0ba a0e0 e5ba
00000130: f486 08bb f1cd d4ba a072 b939 197e 4dbb
00000140: 7137 f2ba a671 9cba e54a edba c66f fcba
00000150: 05ff 873a 5762 473a a3c0 2abb 38fc 5fba
00000160: 5930 fbba 0429 b3ba a63e 88ba 240c 2b3a
00000170: 6c04 873a f066 803a b99e 253b 6279 a2ba
00000180: f645 983a ccfa b9ba 6938 abba ceca 9eba
00000190: 87c8 b5ba 8578 b13a dadc ed37 2982 b4b8
000001a0: 5dcb 29ba e7ba c2b9 b137 ae39 b877 423a
000001b0: cf80 a539 aac5 35bb 5988 b439 7824 273a
000001c0: ee85 63b9 7824 d7ba f84a b73a 79ae b8ba
000001d0: ec27 5fbb 412a 46bb c49f 5e3a c8fe 7b39
000001e0: 6c69 56bb 3608 a93a 57f0 faba 1f7b 8f3a
000001f0: 54fa e0ba 1ab5 5138 59eb 71bb 2242 45ba
00000200: 5c49 9dba 7109 843a f12b c1b8 06f0 a93a
00000210: 9ef2 e238 c89f b2b9 5dad 4aba c619 22ba
00000220: eab3 d1ba 48ae 7dba 19b2 b939 9259 9a3a
00000230: 639d 68ba 208c a9ba f292 48ba 7b2d bf39
00000240: 8359 813a fa02 ccba f5c0 00bb 24d9 d13a
00000250: 5ae1 e2ba 881f a43a 727b a8b9 764e d63a
00000260: b88d fbba 6a1b d13a daf5 e4ba 8619 d5ba
00000270: 5e2a 7bba 3019 043b 58ac 14ba 301f eaba
00000280: d4d0 e33a 581d ecba ef4d 58ba 08ba cfba
00000290: 55e4 a2b9 7f47 ce3a 846a b03a 31b5 85ba
000002a0: 0a0f 0ebb 7643 b73a 137c 02ba 5693 d4ba
000002b0: e638 d5ba 8340 7338 6b10 9139 f281 0abb
000002c0: c448 3b38 2515 3aba e65b a13a a151 cfba
000002d0: 9c56 653a dd36 1ab9 584a f7ba 4830 ffb9
000002e0: 4a51 aab9 5633 fd3a 11ef bb3a 5f19 e9ba
000002f0: 6a78 a93a 17ae 6a3a 84fb 043a a502 76ba
00000300: fe01 afb8 15e0 52be efcd 523d 24d4 96ba
00000310: 5d7e 2fba c9d1 78bb cee0 593a ce3a 4b3d
00000320: 2848 ea38 40ba f6ba 4e53 e03a 86a3 323a
00000330: f885 27bb 504b b7b9 0fee 543a 5fdf faba
00000340: 2109 f4b9 2985 2f3a e7a0 d23a 8d23 3eba
00000350: 470f 4639 09a0 b6ba bac1 d2ba 7bdc a3b8
00000360: 5b34 553d c5b7 35ba 0824 22be 4b13 9a3a
00000370: 4f72 0dbb 6f8f 893a b6c4 a83e 2167 3bba
00000380: 60a2 f33a f680 d53a e4b5 9dba 3c0c fa3a
00000390: c34a 88ba 4570 0b3b 71f4 aa3a 629f a23a
000003a0: 5987 2b3a 4e4d e2ba d7b7 8fb9 7cd9 61be
000003b0: 8c15 b73a 45d3 b33a b72e 3fba 1300 25be
000003c0: 180a 8039 77db db3a 7020 a1ba d5d7 b5ba
000003d0: bd2d 1a39 f544 cbba e7c9 53be ec19 243a
000003e0: fdb0 f4ba 1c48 e2ba 8b7a 90ba f8a0 6cbe
000003f0: d72f aa3b 1f6d 283a 2d55 58ba 6e47 e838

bias f4 [64]
0.0016486726 -4.741266e-05 0.0010062705 -0.026035964 -0.0017461174 -0.00057408685 -0.0002237316 9.811597e-06
-0.0019534235 0.0007718639 0.0009216444 -0.0011595729 -0.00016762734 0.03955498 -0.0020133893 -0.0011222108
0.087073125 -7.044392e-05 0.031681083 0.035730507 0.031122891 -0.0015743849 0.041703913 -7.2514085e-05
0.08636211 -0.0012572494 -0.0016745271 0.00029427948 -0.0017967172 0.053069763 -0.00058275467 0.046386387
0.085241504 0.08425284 -0.0016227493 0.08534702 0.038834684 -0.0011846909 0.037816744 -0.0001606687
-0.0008159672 -0.0019656788 -0.0019791482 -0.0005171011 0.08621385 -0.0007512414 0.0040689395 -0.00089397555
0.03525358 -0.00011421937 0.04116189 0.08548698 -0.0008636613 -0.0012002063 -0.0013919018 -0.0012488937
-0.0011765786 0.083153166 0.0010814331 -0.00019657164 -0.0005378537 -0.0009447584 0.037910078 0.00032590932
00000000: 4618 d83a f5dc 46b8 d6e4 833a 6049 d5bc
00000010: fadd e4ba 517e 16ba 7e99 6ab9 7d9c 2437
00000020: 0205 00bb e956 4a3a 829a 713a cffc 97ba
00000030: 1fc5 2fb9 6704 223d 11f3 03bb 2517 93ba
00000040: 6553 b23d 4bbb 93b8 06c4 013d 275a 123d
00000050: 6ff5 fe3c 975b ceba b9d1 2a3d b412 98b8
00000060: 9ede b03d 4aca a4ba ce7b dbba 8649 9a39
00000070: d37f ebba ae5f 593d 01c4 18ba a7ff 3d3d
00000080: 1993 ae3d c18c ac3d 6eb2 d4ba 6bca ae3d
00000090: 1e11 1f3d a147 9bba bbe5 1a3d 2d79 28b9
000000a0: a2e6 55ba 9ed2 00bb 99b4 01bb 118e 07ba
000000b0: e390 b03d f5ee 44ba bd54 853b af59 6aba
000000c0: 0f66 103d 0f89 efb8 5f99 283d cc13 af3d
000000d0: 5467 62ba 3e50 9dba 7970 b6ba ebb1 a3ba
000000e0: 6d37 9aba 354c aa3d e0be 8d3a cc1e 4eb9
000000f0: c0fe 0cba aaa9 77ba 9947 1b3d cfde aa39

weight f4 [1, 64]
-3.381886e-06 0.00031919245 0.0021331848 0.20133819 -0.0008863479 -0.0006252244 8.5748434e-05 -0.00033139263
-0.00043203257 -0.0015165859 0.00048525856 -0.0020107976 6.796162e-05 0.15060514 -0.0015097731 -0.0018282055
-0.1981459 0.0005542882 0.26494506 0.1470628 0.15317428 0.0010553834 0.1497663 -0.0004936732
-0.19330765 -0.0009756305 2.7268226e-05 0.0012549695 -0.0018269607 -0.16423243 9.378914e-05 0.30996954
-0.18315655 -0.18415143 -2.3402508e-05 -0.18123499 0.14341338 -0.00069978146 0.14766581 0.0002474166
-0.00078830676 -0.00040573298 -0.0013228643 0.0007708614 -0.17870006 0.0006049122 -0.00095263997 -0.0018307841
0.15159382 -0.00030258647 0.14835693 -0.17820568 0.0009719157 0.0008798266 -0.00029718707 0.00016225355
0.00012000411 -0.18681008 1.1475623e-05 0.0008730078 -0.00013591455 0.0013320645 0.1455457 0.00090451393
00000000: 5cf4 62b6 4959 a739 e7cc 0b3b 992b 4e3e
00000010: cd59 68ba 19e6 23ba d7d3 b338 c4be adb9
00000020: 6e82 e2b9 2ec8 c6ba 4d6a fe39 96c7 03bb
00000030: 9e86 8e38 3c38 1a3e 94e3 c5ba 66a0 efba
00000040: c2e6 4abe a74d 113a e1a6 873e a197 163e
00000050: b8d9 1c3e ca54 8a3a 565c 193e d969 01ba
00000060: 71f2 45be 74c1 7fba 12be e437 ca7d a43a
00000070: a176 efba 8c2c 28be a9b0 c438 54b4 9e3e
00000080: 648d 3bbe 3192 3cbe 8150 c4b7 aa95 39be
00000090: f5da 123e 8a71 37ba b535 173e b2b7 8139
000000a0: 5fa6 4eba 8fb8 d4b9 f663 adba a213 4a3a
000000b0: 26fd 36be f892 1e3a 96ba 79ba ecf6 efba
000000c0: 693b 1b3e 78a4 9eb9 e1ea 173e 8d7b 36be
000000d0: 29c8 7e3a 2aa4 663a c6cf 9bb9 9b22 2a39
000000e0: b7aa fb38 244b 3fbe 6d87 4037 90da 643a
000000f0: 4984 0eb9 ab98 ae3a ef09 153e e71c 6d3a
