pre_trained_models/1u2d/diode_pair_1u2d_1N4148_l_1.70k_2.50k_4x16_5.77e-06.pth (torch, 9035 bytes, 9 tensors)

weight f4 [16, 2]
0	0x39cae049	0.00038695548
1	0xbb5b0c62	-0.0033424129
2	0xbe85b629	-0.2611554
3	0x3d680795	0.056647856
4	0x39afb2dc	0.00033511862
5	0x3b61c11a	0.0034447373
6	0x3e411d7f	0.18858908
7	0x3b9edd2c	0.004848143
8	0xba91a300	-0.00111112
9	0xbb669efd	-0.003518998
10	0xbadb5d10	-0.0016736109
11	0xbaf83aff	-0.0018938481
12	0x3e85e2fc	0.26149738
13	0x3d29981b	0.041404825
14	0xbb8576b1	-0.004072987
15	0xbb139922	-0.0022521694
16	0x39a308c5	0.00031096317
17	0x3b412f1f	0.002947755
18	0xbe98566a	-0.2975343
19	0x3d6826c0	0.05667758
20	0x3d1d704c	0.038437173
21	0xbd725790	-0.059165537
22	0x3a1284ec	0.0005589265
23	0xbb3d6f21	-0.002890535
24	0xbe9c3cf0	-0.30515242
25	0x3d14c02b	0.03631608
26	0xbe6de4be	-0.2323179
27	0x3d1187a6	0.035529755
28	0x3f14d8fb	0.58143586
29	0x3d9bbf06	0.07604794
30	0x3eb49605	0.35270706
31	0x3da8a382	0.08234312

bias f4 [16]
0	0x3c26d1af	0.010181828
1	0x3d690408	0.05688861
2	0xbc4dc1b1	-0.012558387
3	0x3e30ceb1	0.17266347
4	0x3b458172	0.003013697
5	0x3b7892c8	0.0037929285
6	0x3e01d5f6	0.12679276
7	0x3b223ada	0.0024754317
8	0xbc2ef26b	-0.010677914
9	0x3d9fa138	0.07794422
10	0x3e74e6e5	0.23916204
11	0xbb1cf263	-0.0023948185
12	0x3dc3701a	0.09542866
13	0xbe2cb2d0	-0.16865087
14	0x3cdbbdb4	0.026823856
15	0x3dab55bb	0.08365961

weight f4 [16, 16]
0	0xbae691e4	-0.0017591086
1	0xbae93ef5	-0.0017795252
2	0xba7fadec	-0.00097533944
3	0x3a89fbc7	0.0010527306
4	0x38ee755a	0.00011370583
5	0xbac3cc3e	-0.0014938188
6	0xba9220b4	-0.0011148662
7	0xba1a45d7	-0.0005885041
8	0x39f97594	0.00047580583
9	0xb9cbb299	-0.00038852243
10	0xba841cea	-0.0010079418
11	0xba4ec3cc	-0.00078874524
12	0xba956342	-0.0011397379
13	0xb958596c	-0.00020632677
14	0xba88750c	-0.0010410859
15	0xba6c7246	-0.00090197136
16	0x3b8174a0	0.0039506704
17	0x3e274aeb	0.16337173
18	0xbc07bf5c	-0.00828537
19	0x3c6c60dc	0.01442739
20	0x3acd1293	0.0015645794
21	0xb9ecc314	-0.00045158772
22	0xbbdfaa5e	-0.0068257293
23	0xba7f741e	-0.0009744781
24	0xbb8b14a5	-0.0042444044
25	0x3e402185	0.18762787
26	0x3e3bb55e	0.18330905
27	0xba8c7b5c	-0.0010717916
28	0x3e32b7d2	0.17452934
29	0xbe30c84d	-0.17263909
30	0xbe077ccb	-0.13231198
31	0xbcc2bf6c	-0.023772918
32	0x3cac5fd7	0.021041794
33	0xbe083a7a	-0.13303557
34	0xbd941cc7	-0.07232051
35	0x3ebb3de0	0.36570644
36	0x3aaa2494	0.0012980872
37	0xbabc6e29	-0.0014376092
38	0x3e5e19bd	0.21689506
39	0xba4fd5dd	-0.00079282915
40	0xbd4ee83d	-0.05051445
41	0xbe05a2c1	-0.13050367
42	0x3fcd2c59	1.6029159
43	0xb7aa41f7	-2.0296296e-05
44	0xbdadb8c7	-0.08482509
45	0xbe3ff467	-0.18745576
46	0x3cf8f26c	0.030389033
47	0x3e00ae8d	0.12566586
48	0x3b9718fb	0.004611132
49	0xbdcbcb99	-0.099509425
50	0xbb93455c	-0.0044943523
51	0x3e05d88c	0.13070887
52	0x3a37c1da	0.0007009782
53	0xba5088dd	-0.00079549645
54	0x3e07173c	0.13192457
55	0xbaa5c29c	-0.0012646499
56	0xb9cb3633	-0.0003875956
57	0xbdf4124d	-0.11917553
58	0x3e03db9b	0.12876742
59	0x399cb77f	0.00029891354
60	0xbdbb076d	-0.09132276
61	0x3e3e16c3	0.1856337
62	0x3e6ab81a	0.22921792
63	0x3e0b832f	0.13624261
64	0xbaf89152	-0.0018964207
65	0xba2ec0ab	-0.0006666283
66	0x3a439d5e	0.0007462109
67	0xbac0c540	-0.0014707223
68	0x399f50cf	0.0003038705
69	0x3a7a5352	0.0009549159
70	0xbaccc46b	-0.0015622502
71	0xba669ee8	-0.00087974826
72	0x3a5fff6c	0.0008544836
73	0xba340e71	-0.0006868607
74	0xba3d8852	-0.0007230091
75	0xba388ee2	-0.0007040334
76	0x3a511d6b	0.0007977101
77	0xbae9075f	-0.0017778686
78	0xbab2239d	-0.0013590936
79	0xbad06fc2	-0.0015902447
80	0x3bcf5561	0.0063273166
81	0xbd7ffd5f	-0.062497493
82	0xbb37613c	-0.002798154
83	0x3e1b5ab6	0.15171322
84	0x39feb399	0.00048580466
85	0xb9915de6	-0.00027726515
86	0x3e1a5392	0.15070942
87	0x3aac5967	0.0013149203
88	0xbb258a41	-0.0025259408
89	0xbdaa9206	-0.08328633
90	0x3e20e0ce	0.15710756
91	0x3aa3eaa5	0.0012505843
92	0xbd4dfee3	-0.050291907
93	0x3dc5e589	0.09662921
94	0x3e563f5c	0.20922607
95	0x3e1e9d1d	0.15489621
96	0x3a1774a3	0.0005777573
97	0xb9e4cca3	-0.00043640015
98	0xb8abcad2	-8.1916936e-05
99	0x3ab14a59	0.0013526186
100	0xbabeea20	-0.0014565624
101	0x3aac4424	0.0013142866
102	0x39fbb338	0.0004800798
103	0x3a7ed01e	0.0009720343
104	0xba1ff676	-0.0006102094
105	0xbaa65054	-0.0012688735
106	0xbacd1229	-0.0015645671
107	0xba9c7a43	-0.0011938292
108	0x399a6179	0.00029445792
109	0xbad04ec9	-0.001589262
110	0xba96b813	-0.001149895
111	0x39c33588	0.00037233182
112	0x3a98686b	0.0011627799
113	0x3abe2e15	0.0014509583
114	0xbab71a69	-0.0013969663
115	0x3abec629	0.0014554906
116	0x396c9956	0.00022563836
117	0xbaa35051	-0.0012459849
118	0xb9aa6203	-0.0003249795
119	0x3a6e91fd	0.00091007334
120	0x3a80e8cd	0.0009835005
121	0xbac121be	-0.0014734787
122	0xb8ea4708	-0.0001117122
123	0x3aaa5e69	0.0012998107
124	0x3a24a51a	0.00062807056
125	0xb8e7974e	-0.00011043121
126	0xba8a16b4	-0.001053533
127	0xbad62850	-0.0016338918
128	0x3b4db0fd	0.003138601
129	0xbde62f4e	-0.112394914
130	0xbc00d5bb	-0.007863457
131	0x3e074e43	0.13213448
132	0x3905bd67	0.00012754426
133	0xbac48d58	-0.0014995737
134	0x3e05102f	0.12994455
135	0xbac1ff58	-0.001480083
136	0xbb4cce02	-0.003125072
137	0xbe07671d	-0.13222928
138	0x3e26861f	0.162621
139	0x38bb6929	8.9364425e-05
140	0xbdd3f445	-0.10349325
141	0x3e2cf7ce	0.16891405
142	0x3e6c96b4	0.23104364
143	0x3e0601c5	0.13086613
144	0x3bec71a1	0.007215694
145	0x3e47d082	0.19513133
146	0xbc3fac9a	-0.011698866
147	0x3bc63371	0.0060486128
148	0xb9b5ca71	-0.0003467384
149	0x388e2726	6.7783796e-05
150	0xbc5a0990	-0.013307944
151	0xbad03f51	-0.001588801
152	0xbbc53103	-0.0060178055
153	0x3e60feb3	0.2197216
154	0x3e19c6c2	0.15017226
155	0xba73c46b	-0.0009298983
156	0x3e4db07c	0.20086855
157	0x3d151ae1	0.036402587
158	0xbe000033	-0.12500076
159	0xbcda8c54	-0.026678242
160	0x3c634a64	0.013872717
161	0xbda2d0b1	-0.07949961
162	0xba36d1ef	-0.00069740316
163	0x3e7c0fdb	0.24615423
164	0x3a02894e	0.00049795664
165	0x3a2da639	0.00066241954
166	0x3e5945d7	0.21218048
167	0xba8f4045	-0.0010929188
168	0xbb97e1c3	-0.004635067
169	0xbdb61006	-0.08889775
170	0x3efffc64	0.49997246
171	0x3abaccb0	0.0014251675
172	0xbd74909b	-0.05970822
173	0xbd5e9cc2	-0.054348715
174	0x3e0f16a9	0.13973488
175	0x3e45182e	0.19247505
176	0x3c23005b	0.009948815
177	0x3e3ee204	0.18640906
178	0xbc34a939	-0.011026674
179	0x3c03a60e	0.008035196
180	0xb9a6b5e2	-0.000317975
181	0xbaa2c970	-0.0012419652
182	0xbc325492	-0.010884421
183	0x3a4a2937	0.000771183
184	0xbb4df339	-0.003142549
185	0x3e587245	0.2113734
186	0x3e14289d	0.14468618
187	0x3a00f957	0.0004919967
188	0x3e42e8ee	0.19034168
189	0xbdc96b3c	-0.098349065
190	0xbe054bc1	-0.13017179
191	0xbcd2936f	-0.025705067
192	0xbc1faeac	-0.009746235
193	0x3d7c23cf	0.061557587
194	0x3cd0e24e	0.025498535
195	0xbd2af446	-0.041736864
196	0x3a1eda5d	0.00060597603
197	0xbabe2705	-0.0014507478
198	0x3cd26972	0.025685046
199	0x3a296283	0.0006461518
200	0x3c7f8a59	0.0155969495
201	0x3d809a90	0.062794805
202	0xbf245340	-0.6418953
203	0x3aab93e4	0.001309034
204	0x3de8ce0f	0.113674276
205	0x3edefa23	0.43550214
206	0x3e13272f	0.14370416
207	0x3d957cd7	0.07299202
208	0x3c5b5cda	0.013388837
209	0xbda3a40c	-0.07990274
210	0xbbe48426	-0.006973761
211	0x3e5b4c8a	0.21415916
212	0xbac9e3ed	-0.001540301
213	0x3a24f631	0.0006292789
214	0x3e3f3332	0.18671873
215	0x3a98f83d	0.001167066
216	0xbbcb5df7	-0.00620627
217	0xbdbd0952	-0.09230293
218	0x3ee03872	0.43793064
219	0xbaccdf55	-0.0015630523
220	0xbd73dc42	-0.059536226
221	0xbcad9c35	-0.02119265
222	0x3e263402	0.16230777
223	0x3e2d8ff6	0.16949448
224	0xbad86a52	-0.0016511178
225	0xba2342fd	-0.00062279386
226	0xba2e1c86	-0.00066418236
227	0xba2d033b	-0.00065999076
228	0xb948f586	-0.00019164951
229	0xb8bf916c	-9.134677e-05
230	0xb93040fa	-0.00016808874
231	0xb9d38664	-0.00040345185
232	0xbae2b414	-0.0017296099
233	0xb96a3c7c	-0.00022338511
234	0x3ab4f937	0.0013807182
235	0xbaa35566	-0.0012461364
236	0xbadcf056	-0.0016856294
237	0xba810430	-0.0009843167
238	0xba9f9d3a	-0.0012177594
239	0xb98bd7fa	-0.0002667306
240	0xbacfb747	-0.0015847468
241	0x39927d76	0.00027940766
242	0xbb00653c	-0.001959159
243	0x37aca9c8	2.0583058e-05
244	0xbab04534	-0.0013448359
245	0x3a76c988	0.0009414186
246	0xba7644b6	-0.0009394394
247	0xbaa27fa8	-0.0012397664
248	0xbac71227	-0.0015187905
249	0xba6ba50a	-0.00089891313
250	0xbad86ad6	-0.0016511332
251	0x3a29d76e	0.000647894
252	0x381f1eae	3.7937127e-05
253	0xb9de7144	-0.0004242753
254	0xba6b4485	-0.0008974749
255	0xb8d10b53	-9.968006e-05

bias f4 [16]
0	0x3a2ad1de	0.0006516258
1	0x3dc672b8	0.096898496
2	0x3e60d12a	0.2195479
3	0x3d53cf5c	0.051711425
4	0xba6e5f3e	-0.00090931717
5	0x3daeaeaf	0.08529412
6	0xbac7115a	-0.0015187666
7	0xbaaf586f	-0.0013377796
8	0x3d56a7fb	0.052406292
9	0x3dc0d88e	0.094163045
10	0x3e034fe2	0.12823442
11	0x3dbbdd0e	0.09173022
12	0xbdd8c85a	-0.10585089
13	0x3dff6faf	0.12472474
14	0x3a70dc80	0.00091881305
15	0xb88389d2	-6.272238e-05

weight f4 [16, 16]
0	0x3a73ddb2	0.00093027495
1	0xba7101c7	-0.0009193685
2	0xba75b0bf	-0.00093723455
3	0x39514695	0.00019958087
4	0xbab30be3	-0.0013660159
5	0xba3904f3	-0.00070579274
6	0xba174731	-0.0005770801
7	0x3a6d6bb8	0.0009056884
8	0xb9fa559b	-0.00047747497
9	0xb8896290	-6.551028e-05
10	0xba99a88a	-0.0011723202
11	0x3aa45fe3	0.0012540784
12	0xb996bb36	-0.00028749713
13	0x3a2d1e71	0.00066039624
14	0x39a149e5	0.0003076337
15	0x3a362a60	0.00069490634
16	0xbabf83c1	-0.0014611409
17	0x3a50790a	0.00079526065
18	0xb9973125	-0.0002883758
19	0xba954082	-0.0011387023
20	0x3ab5eaed	0.0013879217
21	0xb8a5080d	-7.869313e-05
22	0x3a234109	0.00062276475
23	0x3ace6c17	0.0015748766
24	0xbac18271	-0.0014763606
25	0x3a057a33	0.00050917565
26	0x396d37e5	0.00022622904
27	0xbaadca64	-0.001325917
28	0xbadde750	-0.0016929898
29	0xba2d5e43	-0.00066134724
30	0x3a084980	0.00051989406
31	0x3aa935d4	0.0012909719
32	0x3523d09a	6.1025787e-07
33	0x391914cb	0.00014598963
34	0x39e9d007	0.00044596216
35	0x3826333e	3.9625207e-05
36	0x3a3bb77e	0.00071608264
37	0x3a5e414a	0.0008478357
38	0xba15ba71	-0.0005711681
39	0xbaac0c74	-0.001312627
40	0xbacf5283	-0.0015817437
41	0xb93f171a	-0.00018223785
42	0xba777fef	-0.0009441366
43	0xb9b98a15	-0.0003538883
44	0xba272c0a	-0.0006377107
45	0x395baf7e	0.00020950843
46	0x3aca54b1	0.0015436617
47	0x3a87b6a7	0.0010354117
48	0xbab69b95	-0.0013931865
49	0xbe1b88bc	-0.15188879
50	0x3e391d35	0.18077548
51	0x3e716ec1	0.23577406
52	0x3ac2b54e	0.0014855058
53	0x3e477e7b	0.19481842
54	0x3aa695af	0.0012709404
55	0x39ff4bc5	0.00048693843
56	0x3e7f95c4	0.24959475
57	0xbe25aecc	-0.16179961
58	0x3e338a96	0.17533335
59	0xbe20acba	-0.1569089
60	0xc0110360	-2.265831
61	0x3e363283	0.17792706
62	0x3ab762d4	0.0013991245
63	0x3ac2bc17	0.001485708
64	0x3a811d06	0.0009850569
65	0xbe704ef3	-0.23467617
66	0x3e55a34d	0.20863076
67	0x3e3a4c16	0.18193087
68	0xba58abc6	-0.00082653423
69	0x3e126451	0.1429608
70	0xbaaff4d7	-0.0013424408
71	0xbad3c140	-0.0016155615
72	0x3e4dfbaf	0.20115541
73	0xbe77a574	-0.24184209
74	0x3e0d0dd9	0.13774814
75	0xbe77e4d4	-0.24208385
76	0xc055a5c4	-3.3382425
77	0x3e13e950	0.1444447
78	0xba9cb1a3	-0.0011954795
79	0x3a8b9bce	0.0010651292
80	0xba8b23f9	-0.0010615579
81	0x3e14ebaa	0.14543024
82	0x3e04dad9	0.12974109
83	0xbe25d4ee	-0.16194507
84	0x3a111d47	0.00055356737
85	0xbd6cf8a3	-0.057854306
86	0xb9a5cefc	-0.00031625468
87	0x3aa4f4fb	0.0012585217
88	0xbe308b57	-0.17240654
89	0x3de7e514	0.1132299
90	0x3c86a2a3	0.016434973
91	0x3e00a401	0.12562563
92	0xbf926de1	-1.1439782
93	0x3bab5bcd	0.0052294494
94	0xbaa6d2fa	-0.0012727671
95	0xbab75fb9	-0.001399032
96	0xba7336df	-0.0009277891
97	0xbe4e1da3	-0.20128493
98	0x3e33a989	0.17545141
99	0x3e4c7d07	0.19969569
100	0xb9946992	-0.00028307416
101	0x3e2199d6	0.1578134
102	0xb74b9b1b	-1.2135856e-05
103	0xba9c51cb	-0.0011926232
104	0x3e5beb75	0.21476538
105	0xbe55c3ac	-0.20875424
106	0x3e1225dc	0.14272255
107	0xbe54ff54	-0.20800525
108	0xc03402cc	-2.8126707
109	0x3e14b8ca	0.14523616
110	0x38c27784	9.2729024e-05
111	0xb9feaa90	-0.00048573734
112	0x3aa4fea3	0.0012588095
113	0x3e39f1c2	0.1815863
114	0x3dccc7bb	0.09999033
115	0xbe1c5c79	-0.1526965
116	0xbaceb149	-0.0015769388
117	0xbd5ad1a4	-0.053422585
118	0xbad61be0	-0.0016335212
119	0x3a232d85	0.00062247395
120	0xbe2598e1	-0.161716
121	0x3e1868ef	0.14883779
122	0x3c620494	0.013795037
123	0x3e2b1860	0.16708517
124	0xbf80c619	-1.0060455
125	0x3b324f0e	0.0027207765
126	0xba0ac6dc	-0.00052939146
127	0x3a6d98c5	0.0009063597
128	0x3a2a56c6	0.00064979156
129	0xba65cc28	-0.00087660784
130	0xb89b53a1	-7.406553e-05
131	0xbaa1ab36	-0.001233435
132	0x3a7c25e0	0.0009618681
133	0xb9cbe943	-0.0003889297
134	0x3abc99bc	0.0014389078
135	0xba546aa7	-0.00081030506
136	0xb9bf1c0c	-0.00036451255
137	0xba79390f	-0.00095070986
138	0xba9566a7	-0.0011398391
139	0xbb1888b6	-0.0023274845
140	0xba523d2a	-0.00080199784
141	0xbac831d5	-0.001527364
142	0x39ff4e7a	0.0004869586
143	0xbac60adc	-0.0015109438
144	0x3a3e0521	0.0007248689
145	0xba6d30f6	-0.0009048128
146	0xba69823a	-0.000890765
147	0x39e71c63	0.00044080903
148	0x3a08dac4	0.0005220587
149	0xbac9d68d	-0.0015399024
150	0xba934dc3	-0.0011238385
151	0x3a439b09	0.00074617617
152	0xba59fc6c	-0.0008315507
153	0xba2eac74	-0.0006663271
154	0xb952138a	-0.0002003444
155	0xb8da0126	-0.00010395264
156	0xb9ead4b3	-0.0004479043
157	0xbaba44ae	-0.0014211142
158	0x3ac2d550	0.0014864597
159	0x39b705f7	0.00034908924
160	0x3a8963bc	0.0010481994
161	0xba6b378d	-0.0008972816
162	0xb8cc9a8d	-9.756265e-05
163	0xba397da9	-0.0007075915
164	0xbad01d49	-0.0015877868
165	0x3a097c26	0.0005244635
166	0x3a84aa21	0.0010121503
167	0xb9d6fb3b	-0.00041004442
168	0xba857caf	-0.0010184253
169	0x3acbcb27	0.0015548215
170	0x3acbd6c7	0.001555168
171	0xb9a9aaff	-0.00032361594
172	0xbab3fb89	-0.001373158
173	0xba7a8105	-0.00095559686
174	0xbab8f64b	-0.0014111487
175	0xbaa20089	-0.0012359779
176	0xba853e3a	-0.001016564
177	0x3d08c690	0.03339249
178	0x3f010e33	0.5041229
179	0xbcc3d8db	-0.023907116
180	0xb9c33d55	-0.00037238994
181	0x3daaff44	0.08349469
182	0x39736cca	0.00023214813
183	0x3a0d8c9d	0.0005399676
184	0xbd144371	-0.03619713
185	0xbc35c3f7	-0.011094085
186	0x3e5dcbc3	0.2165976
187	0x3bd3b238	0.0064604543
188	0xbfdb8135	-1.7148806
189	0x3e534b52	0.20634201
190	0x3a3f7b55	0.00073044497
191	0x3a318047	0.0006771129
192	0xba284f6a	-0.0006420525
193	0xbe5025d2	-0.20326927
194	0x3e374c1f	0.17900132
195	0x3e5ab876	0.21359429
196	0x38da2acc	0.000104030216
197	0x3e3289d7	0.17435394
198	0xb9e133c8	-0.00042953924
199	0x3a6cbf95	0.00090312335
200	0x3e6dabef	0.23210119
201	0xbe55b446	-0.2086955
202	0x3e1d519e	0.15363166
203	0xbe526847	-0.20547591
204	0xc00b6f7e	-2.17868
205	0x3e24c819	0.16091956
206	0x3a06cac4	0.0005141909
207	0x381f2063	3.7938717e-05
208	0xba8813aa	-0.0010381837
209	0x3e000a09	0.12503828
210	0xbe7e06ba	-0.24807253
211	0x3a23fdd8	0.0006255782
212	0xba9d2d3f	-0.0011991634
213	0xbf1161b8	-0.5678973
214	0xb80543b5	-3.1772728e-05
215	0x39f0e068	0.00045943563
216	0x3a50caa1	0.00079647644
217	0x3e16c192	0.14722279
218	0xbefc41e3	-0.49269018
219	0x3e0aea0b	0.13565843
220	0x3e393248	0.18085587
221	0xbef3f6cf	-0.47649238
222	0x39321e78	0.00016986753
223	0x3a5fccfe	0.0008537321
224	0xba243743	-0.0006264338
225	0xbaceb8f1	-0.001577167
226	0xb8d6e543	-0.000102470185
227	0xb9d4317c	-0.0004047266
228	0xba6ce7ba	-0.00090372155
229	0x38c36015	9.316221e-05
230	0xba569776	-0.00081860216
231	0xba66c82b	-0.0008803631
232	0xb9a9d44e	-0.0003239237
233	0x3a3e909a	0.0007269472
234	0xbac4e702	-0.0015022459
235	0xbaf0d6de	-0.0018374582
236	0xbadb9060	-0.0016751401
237	0xb9369260	-0.00017411401
238	0xbab20219	-0.0013580947
239	0xba8e1f6d	-0.0010843106
240	0xba8c6c32	-0.0010713397
241	0xba530673	-0.0008049972
242	0x3a9dd0f9	0.0012040428
243	0xb9cdd14d	-0.00039256588
244	0x3a87f6f4	0.001037328
245	0x38c7809c	9.513015e-05
246	0x3a2b521f	0.00065353693
247	0xb9730b7c	-0.00023178564
248	0xbaa40a8b	-0.0012515349
249	0x386222ba	5.391494e-05
250	0x3a756f4c	0.0009362593
251	0x3a379d1f	0.0007004309
252	0xbacfb34b	-0.001584628
253	0x39336750	0.00017109257
254	0x39a09421	0.00030627943
255	0xbabc57c3	-0.0014369417

bias f4 [16]
0	0xba9d5680	-0.0012003928
1	0xb9c45057	-0.0003744389
2	0xba249022	-0.0006277581
3	0x3d9006db	0.070325576
4	0x3d375dd1	0.044767205
5	0x3daaf028	0.083465874
6	0x3d370fee	0.044692926
7	0x3dc584b0	0.09644449
8	0xb6902fa5	-4.297081e-06
9	0x3a29ef3a	0.0006482486
10	0xba6d30a3	-0.000904808
11	0x3e2854a3	0.16438536
12	0x3d5fbb1a	0.054621793
13	0x3d664f38	0.056227893
14	0x391908be	0.00014594474
15	0xbacc282f	-0.001557594

weight f4 [16, 16]
0	0xba283407	-0.0006416444
1	0xba7dde8d	-0.0009684347
2	0x3a1960c7	0.0005850908
3	0xbda4fed8	-0.0805642
4	0xbd5b03bf	-0.05347037
5	0x3ed6b73d	0.41936675
6	0xbd9caec3	-0.07650521
7	0x3eaef6d8	0.34172702
8	0xba940a64	-0.00112946
9	0x38aa23f6	8.11293e-05
10	0x3a4f65dc	0.00079116016
11	0x3e021f58	0.12707269
12	0xbd9b603c	-0.075867146
13	0xbe91353d	-0.2836093
14	0xba84d858	-0.0010135276
15	0xba844bdd	-0.001009341
16	0xbac9ff4d	-0.0015411169
17	0x38981569	7.251913e-05
18	0xba2f7686	-0.00066933816
19	0xbd988aa6	-0.0744832
20	0xbd75b52a	-0.059987225
21	0x3ee19d63	0.4406539
22	0xbd9bd4a9	-0.07608921
23	0x3eb5bbe1	0.35494903
24	0xba1d4e9c	-0.00060007884
25	0x3aa948eb	0.0012915408
26	0xba48eabe	-0.0007664374
27	0x3dff2794	0.12458721
28	0xbd89f356	-0.06735866
29	0xbe91837a	-0.2842062
30	0x391f4d84	0.00015192298
31	0xba4dc38a	-0.0007849267
32	0xba44deaf	-0.0007509989
33	0xba48c7d6	-0.00076591724
34	0xba6cb1c8	-0.0009029177
35	0x3971622a	0.0002302012
36	0x3a0012c6	0.000488561
37	0x3a8fa583	0.001095936
38	0xba30a1a6	-0.00067379547
39	0xb9972ae5	-0.00028832923
40	0x3a880322	0.001037691
41	0x3a7fbc7f	0.0009755566
42	0xba7e2b91	-0.0009695823
43	0xb9f558c6	-0.00046796183
44	0xba99926c	-0.0011716611
45	0xba50cf7d	-0.00079654885
46	0xba734a0b	-0.00092807476
47	0x3aabf8b9	0.001312039
48	0x3a22d0f0	0.00062109437
49	0xbaa285d3	-0.0012399502
50	0x38e3243a	0.00010830951
51	0xbac0abd7	-0.001469965
52	0xb9d387f2	-0.00040346343
53	0x3aa31b01	0.0012443961
54	0xba909e8a	-0.0011033576
55	0xb9b434d8	-0.00034371647
56	0x39e3a644	0.00043420692
57	0x3a27c0c4	0.0006399269
58	0x397c7cdf	0.00024079111
59	0x38db1800	0.00010447204
60	0xb9cab19e	-0.00038660777
61	0xb9cb8e52	-0.00038825214
62	0x394c2b84	0.00019471167
63	0x3abbe602	0.0014335515
64	0x3a8ddc87	0.0010823169
65	0x3a99e158	0.0011740131
66	0x3acc34c0	0.0015579686
67	0xba737930	-0.00092877727
68	0x39d2ef6d	0.00040232707
69	0x3a2070a5	0.0006120301
70	0xb9fb9061	-0.0004798202
71	0x3948510a	0.00019103676
72	0x3ab3c85f	0.0013716331
73	0x39bf66f9	0.0003650708
74	0x36c4c236	5.8638643e-06
75	0xba56dec4	-0.0008196647
76	0xb9f85102	-0.00047362602
77	0xba5599d0	-0.0008148225
78	0xbac40f6b	-0.0014958208
79	0x3a97c5fa	0.0011579387
80	0x3a1ddf00	0.00060223043
81	0x382a2759	4.0567804e-05
82	0xbac9233d	-0.0015345585
83	0xba2fd4f2	-0.00067074515
84	0x3a8c159f	0.0010687596
85	0xb9f776d1	-0.00047200036
86	0xba57fd4c	-0.00082393433
87	0x3a175b35	0.0005773784
88	0xbad0047e	-0.0015870479
89	0x398a1de7	0.0002634369
90	0xba22e18c	-0.00062134187
91	0xbabec5f5	-0.0014554845
92	0xbaa89ed0	-0.0012864713
93	0x3900dd12	0.00012289386
94	0x3a2230ff	0.00061871106
95	0x3a1b57ad	0.00059258455
96	0xba7978c1	-0.000951659
97	0x3a807044	0.0009799083
98	0xbab947fa	-0.001413583
99	0x3a915e33	0.0011090696
100	0x39d2fb56	0.0004024158
101	0x3da5b9a9	0.080920525
102	0xba010137	-0.00049211405
103	0x3d77b655	0.06047662
104	0x3ab3c834	0.0013716281
105	0x3a965845	0.0011470398
106	0xb9bb7a5a	-0.00035758578
107	0xbe00cfaf	-0.12579225
108	0xba545ef4	-0.00081013073
109	0x3ea4c013	0.3217779
110	0xb99d128b	-0.0002995919
111	0x3ace4aa7	0.0015738801
112	0x39ea8e4a	0.00044737972
113	0x3accde9d	0.0015630309
114	0x3a95a169	0.0011415902
115	0x3e9f72dc	0.31142318
116	0x3ec17177	0.3778188
117	0xbe64bbe6	-0.22337303
118	0x3eaf1d80	0.34202194
119	0xbea7a504	-0.32743084
120	0xb9d09883	-0.00039786482
121	0x3a491133	0.00076701044
122	0xba697e6a	-0.0008907082
123	0x3e4c54e9	0.19954266
124	0x3ea636c3	0.32463655
125	0x3efd1328	0.49428678
126	0xb9aacd3c	-0.00032577838
127	0x3aaffec5	0.0013427368
128	0x3a6ff485	0.0009153563
129	0xba6a0e25	-0.00089284993
130	0x3a7ecbd5	0.00097197044
131	0xba9bfeb8	-0.0011901474
132	0x3a9bba59	0.0011881097
133	0xbae5daef	-0.0017536561
134	0xba16cc79	-0.00057525147
135	0xbac87fcb	-0.0015296874
136	0xb7c19135	-2.307501e-05
137	0xb9351a72	-0.00017271357
138	0x3a9c62d4	0.0011931309
139	0x397201cc	0.00023079588
140	0x3a2215d6	0.00061830634
141	0xbac25318	-0.0014825789
142	0xba4c2bf1	-0.000778853
143	0xb9727117	-0.00023121048
144	0x3aab69a7	0.0013077752
145	0x39e7f75f	0.0004424406
146	0xbac62165	-0.0015116154
147	0x36fc34f4	7.51635e-06
148	0xba5366de	-0.00080643396
149	0xba1a6ad3	-0.0005890552
150	0xba0a9880	-0.00052870065
151	0xb9ff8da4	-0.0004874292
152	0x3aaceb54	0.0013192692
153	0x39556e8a	0.00020354442
154	0xb696fdee	-4.4999097e-06
155	0xba26d33e	-0.0006363875
156	0x3a74c315	0.0009336931
157	0xb916b1b2	-0.00014371311
158	0x3a716ab2	0.0009209319
159	0x3aaf213c	0.0013361345
160	0x3a4a5ee3	0.00077198277
161	0xba745f8e	-0.00093221
162	0x3ab3549d	0.0013681833
163	0x3e9d32bc	0.3070277
164	0x3ec15827	0.37762567
165	0xbe63cfc3	-0.22247224
166	0x3ead624d	0.3386406
167	0xbe9f61db	-0.31129345
168	0xb9c3c599	-0.0003734052
169	0xba9dcde5	-0.0012039511
170	0x3a85587c	0.0010173465
171	0x3e41ed45	0.18938167
172	0x3ea636aa	0.3246358
173	0x3f0d27dd	0.5513895
174	0xba4c1666	-0.000778532
175	0xb9d9c528	-0.00041536358
176	0xba500b7d	-0.0007936282
177	0x3a892a62	0.0010464902
178	0x397cd6a0	0.00024112547
179	0xba62ec0c	-0.00086563895
180	0xb770a39f	-1.4343211e-05
181	0xb9c0e77e	-0.0003679357
182	0xba96ebdd	-0.0011514385
183	0xbad0516b	-0.0015893405
184	0xba93bb26	-0.0011270985
185	0xba9071c8	-0.0011020238
186	0x39b1717c	0.00033844623
187	0x3ab04bef	0.0013450364
188	0xb954f80a	-0.00020310297
189	0x3971339e	0.0002300278
190	0x3a6cc403	0.00090318936
191	0xb934cb8f	-0.00017241969
192	0xb9b30a31	-0.00034149134
193	0xb850c7db	-4.9777194e-05
194	0xb79c9066	-1.866389e-05
195	0xba91e199	-0.0011129855
196	0x3aaaffdd	0.0013046224
197	0xb998645a	-0.00029066467
198	0xba5033f9	-0.0007942315
199	0x3a1e143a	0.00060302357
200	0xb9c3837e	-0.00037291268
201	0xbacfeaec	-0.0015862859
202	0x39108bbf	0.0001378497
203	0xba515351	-0.00079851324
204	0xb9d4a63d	-0.00040559648
205	0xba9618a2	-0.0011451433
206	0x3a1958f7	0.00058497436
207	0x3a7eb489	0.0009716233
208	0xb9a3b566	-0.00031224935
209	0xb9ecd748	-0.00045173825
210	0xba4e456b	-0.00078686205
211	0xbdb6a640	-0.089184284
212	0xbdab0bd6	-0.08351867
213	0x3ec29b90	0.3800931
214	0xbdc362dc	-0.0954034
215	0x3ea26893	0.3172041
216	0xb9b0d063	-0.00033724596
217	0xb98c2412	-0.00026729755
218	0x395d2626	0.00021090414
219	0x3e08f6da	0.13375416
220	0xbdadb6a3	-0.08482101
221	0xbe907f32	-0.28222042
222	0xbaae808f	-0.001331346
223	0x3a6a8e86	0.0008947629
224	0x39a4e2ec	0.00031449588
225	0x3abe270c	0.0014507486
226	0x3a752644	0.00093517103
227	0xbdd9008e	-0.10595809
228	0xbdc8ba6e	-0.09801184
229	0x3ec037c7	0.37542555
230	0xbde79397	-0.113074474
231	0x3e9511be	0.291151
232	0xbb163e6b	-0.0022925388
233	0xb9a1e536	-0.00030879088
234	0x39f56e24	0.00046812103
235	0x3e22d511	0.15901591
236	0xbdcaa57b	-0.09894844
237	0xbe914176	-0.28370255
238	0xbaa815c3	-0.0012823868
239	0x3a8c38aa	0.001069804
240	0xba2af496	-0.00065214315
241	0xba404ce1	-0.00073356746
242	0x39cf31a8	0.00039519113
243	0xbdd71c87	-0.10503488
244	0xbd438053	-0.0477298
245	0x3e87a688	0.2649424
246	0xbdb339e5	-0.08751277
247	0x3e3e188d	0.18564053
248	0xbae94560	-0.0017797165
249	0x3af0ed75	0.0018381315
250	0xbab8e7dd	-0.0014107187
251	0x3e1b58f0	0.15170646
252	0xbd945e76	-0.072445795
253	0xbe916734	-0.2839905
254	0x3a48a5d3	0.0007654104
255	0x3acce2de	0.0015631577

bias f4 [16]
0	0x3da35553	0.07975259
1	0x3da62d11	0.081140645
2	0xbab56d69	-0.0013841811
3	0xbaa09070	-0.0012250077
4	0xb9498d56	-0.00019221505
5	0xb9a86de5	-0.00032125335
6	0xbd4deeea	-0.050276674
7	0x3d30c5cd	0.043157388
8	0xba4b8bd5	-0.0007764672
9	0xb8ca1d9d	-9.6376265e-05
10	0x3d50c98e	0.050973468
11	0xbab20420	-0.0013581552
12	0xba1c4a0b	-0.0005961961
13	0x3dc0cc06	0.094139144
14	0x3d9a93f6	0.075477526
15	0x3c37f0f5	0.011226882

weight f4 [1, 16]
0	0xbe9dd0ce	-0.30823368
1	0xbea3157a	-0.31852323
2	0xb9bc4eca	-0.00035916857
3	0x3901c765	0.00012376679
4	0xba88cdf2	-0.0010437353
5	0xb9d74a31	-0.00041063273
6	0x3ef05e00	0.46946716
7	0x3eb4ef7a	0.35338956
8	0xba4d0ca7	-0.0007822015
9	0xbac03917	-0.0014665452
10	0x3eb4d868	0.35321355
11	0x39a14671	0.00030760796
12	0xba7f9bfd	-0.0009750722
13	0xbe9e2c3f	-0.30893132
14	0xbea88baa	-0.32919055
15	0xbe801a03	-0.25019845
