pre_trained_models/1u2d/diode_pair_1u2d_1N4148_l_0.90k_1.30k_2x32_2.51e-6.pth (torch, 8679 bytes, 5 tensors)

weight f4 [32, 2]
-0.18351345 0.0168267 -0.2809781 0.024760911 0.16203889 -0.008632073 0.0010264498 -0.00022638845
-0.00047917324 -0.0021944398 0.13278382 -0.029224677 0.15940954 -0.03374532 -0.003756864 -0.0012556732
0.1544838 -0.014759018 -0.3006272 0.037410237 -0.00121291 -0.0010006484 -0.28368962 0.027316853
-0.0038856317 -0.0025739567 0.013895989 -0.10166085 -0.00072800304 -0.0034169755 0.16645862 -0.0055912756
0.44632897 0.059471145 0.49995413 0.062527925 -0.24003714 0.021269418 -0.0003918921 -0.00043792318
-0.0025452306 -0.003939354 0.00082613894 0.0025489298 -0.001219373 -0.0033447067 0.16813827 -0.004594452
0.0019416386 -0.003187565 0.0012402603 -0.0032796764 -0.2789996 0.035740614 -0.00077560253 0.000209471
0.042711895 -0.09202804 -0.30609965 0.017604785 0.00014077606 0.0029372715 0.22014464 0.035614207
00000000: f3ea 3bbe 26d8 893c 5ddc 8fbe 65d7 ca3c
00000010: 86ed 253e 8a6d 0dbc f189 863a b062 6db9
00000020: 8b39 fbb9 97d0 0fbb 7bf8 073e 9768 efbc
00000030: 413c 233e 8838 0abd b835 76bb 6795 a4ba
00000040: 0031 1e3e cfcf 71bc cfeb 99be 7a3b 193d
00000050: 82fa 9eba 3028 83ba c43f 91be 98c7 df3c
00000060: 15a6 7ebb d4af 28bb 01ac 633c 9033 d0bd
00000070: 75d7 3eba 56ef 5fbb 2174 2a3e 0537 b7bb
00000080: 3b85 e43e 0498 733d fdf9 ff3e a40e 803d
00000090: 4ccc 75be 343d ae3c de76 cdb9 0e99 e5b9
000000a0: e2cd 26bb b215 81bb 3f91 583a f20b 273b
000000b0: 5ed3 9fba de32 5bbb 702c 2c3e 0f8d 96bb
000000c0: 957e fe3a 77e6 50bb 3b90 a23a d7ef 56bb
000000d0: 09d9 8ebe c064 123d ce51 4bba 72a5 5b39
000000e0: abf2 2e3d 3279 bcbd 18b9 9cbe e937 903c
000000f0: 499d 1339 3d7f 403b 996d 613e 34e0 113d

bias f4 [32]
-0.098803535 0.17033024 0.18877193 -0.002029565 -0.0015752679 0.22410646 0.21890202 -0.002458964
0.20024502 0.16114165 -0.002129599 0.17249142 -0.0011501992 0.431831 -0.003150544 0.18373263
0.028433973 0.012181042 0.13398243 0.00082298624 -0.00050190167 -0.009070838 0.004076601 0.18233275
0.00075925054 0.0043959892 0.14674756 -0.0014373249 0.37358236 0.1820283 -0.009403518 0.07821788
00000000: 8259 cabd 0d6b 2e3e 6e4d 413e 7302 05bb
00000010: 3879 ceba 2a7c 653e da27 603e 9226 21bb
00000020: 080d 4d3e 5102 253e be90 0bbb 97a1 303e
00000030: 48c2 96ba f418 dd3e 5b79 4ebb 6824 3c3e
00000040: 5dee e83c fe92 473c b132 093e acbd 573a
00000050: 0d92 03ba da9d 14bc 0295 853b 70b5 3a3e
00000060: 7108 473a 3b0c 903b fe44 163e 9f64 bcba
00000070: 3046 bf3e a065 3a3e 3711 1abc b230 a03d

weight f4 [32, 32]
0.00091968983 0.00051791844 -0.0011304709 -0.00037954535 -7.804722e-05 -0.0009368976 0.00076545886 0.00032945676
-0.00015215077 -0.00097364094 0.00031276906 -0.00014580824 0.00040428498 0.0008328522 -0.00022250363 -0.0008863949
0.0010814741 -0.001067563 -0.0007246119 -0.00063232495 -0.00016601497 0.0004878492 0.0007888091 -0.0010677387
-0.00077687314 0.0002710293 -0.00096955197 0.0009431196 -4.607643e-05 0.0003165284 0.00022745394 6.0267088e-05
-0.0007389547 -0.0011658395 -0.00038174225 -0.0004033249 -0.00020304727 -0.0009353013 0.00091242883 -0.0009637978
0.0004678451 -0.0001187631 9.970345e-05 -0.0009717342 0.00096600584 -0.00031096095 0.00026287016 -0.000866449
-0.0010530443 -0.0010185457 -0.00025691194 0.00018983986 -0.0009551199 0.00037804895 0.00033363822 0.00041074486
0.0010291096 0.0010907775 -0.0004415277 -0.00095064496 -0.0012830555 -0.00031703548 -9.365554e-05 0.0006757725
9.926803e-05 0.0007618785 -0.00044344686 0.0009388448 -0.0002587976 0.00025284354 -0.001133015 0.0010734638
0.00081194023 -0.00034871808 -0.00015976738 -0.0010429104 0.00012822259 -3.8570794e-05 -0.0005148186 -0.0011441903
0.0005469205 -0.0006623797 -0.0006790561 0.00016675392 0.00041391683 -9.1647096e-05 -0.0010084119 0.00023031243
0.00023265148 0.00028059687 -8.442904e-05 -7.964842e-05 -8.9031426e-05 -0.0008885727 -0.00039265738 -0.0009325327
-0.24909943 0.10484998 0.054193307 0.0008899787 0.0006836992 0.13024275 0.017983926 -0.00088477536
0.0709129 0.09449102 -0.00044464637 0.10725136 -5.8098685e-05 0.48056215 -0.00064239814 0.040899094
-0.25001103 -0.2836184 0.07875997 -0.0005288271 -0.0007733665 -0.027708137 0.0002919206 0.037327364
-0.0009106516 -0.0010328661 0.08708787 0.00011564855 0.4060156 0.11188497 -0.015049123 -0.12501968
-0.000891593 0.00043406605 0.00050580804 0.0005065117 -0.00087032403 -0.0003875228 0.00021692396 0.0004958846
-0.0005821512 -0.0007975771 0.0009144476 0.0007688908 0.00047781056 0.0010338468 -0.0005282262 0.0003684343
-0.00023144044 -0.0009502863 -0.00089252956 -0.0003897267 -0.0006098262 -0.00085856253 0.0008379846 -0.0006491683
0.0008315608 0.000833162 0.0007665349 0.000817455 0.00048499263 -0.0005649656 -0.00017437208 -0.00069128233
0.004675382 -0.012113647 -0.00048287315 -0.0010708487 -0.00035676302 -4.1638108e-05 0.0012243822 -0.00010428997
-0.0020032036 -0.0007592964 -0.001117767 -0.02595211 -0.00066695677 0.000516627 0.0009664194 0.00017562837
0.0020394255 0.0027142535 0.009265504 -0.002326793 -0.0009484979 0.07665434 -0.00061471463 0.00044439535
0.00025548332 -0.00017100676 0.010857491 2.6739312e-05 -0.016558792 -0.015106045 0.0414226 0.0025420403
-0.0015737229 -0.0012250362 -6.37341e-05 -0.0004820251 0.000531454 0.00048466783 -0.0009683633 -0.00065728347
-0.00087280327 -0.00070223096 0.00047138732 0.00019546473 0.00029150856 -0.0005057758 -0.00079988694 0.00067731715
-0.001052229 0.00018942587 -0.000297171 0.00072293595 0.00095851603 -0.0026384296 -4.400462e-05 -0.00059110404
0.0009059688 -0.00047817337 0.0004222241 -0.00036915342 -0.0017885972 -0.0011084045 0.00062298885 -0.0010438978
-0.0009237262 -0.0002498428 0.00031831957 -0.00030710493 0.0006526025 -0.00045717868 -0.0005552023 -0.00013908451
2.9182575e-05 0.00084433786 -0.0009729293 -0.001083038 -0.0006152606 -0.00093757437 0.00022773223 -0.00083639193
9.0320944e-05 -0.0008595061 0.00048480183 0.0004821203 0.0010698324 0.0002319899 0.000781567 0.0006474959
0.00072765525 9.041662e-05 -0.0006975661 -1.8001587e-05 0.0006014859 -0.0009182093 -0.0005538699 -0.0008933561
00000000: 5717 713a ebc4 073a 4f2c 94ba b7fd c6b9
00000010: 48ad a3b8 229a 75ba 13a9 483a f0ba ac39
00000020: a98a 1fb9 f03b 7fba 27fb a339 1ae4 18b9
00000030: 36f6 d339 c453 5a3a dd4f 69b9 f45c 68ba
00000040: 40c0 8d3a 78ed 8bba e2f3 3dba 9cc2 25ba
00000050: 4e14 2eb9 03c6 ff39 15c8 4e3a 5ef3 8bba
00000060: 13a7 4bba f018 8e39 8829 7eba af3b 773a
00000070: 3142 41b8 b9f3 a539 b480 6e39 4bc7 7c38
00000080: 69b6 41ba 15cf 98ba 9424 c8b9 5a75 d3b9
00000090: 16e9 54b9 022f 75ba 1030 6f3a 60a7 7cba
000000a0: 1b49 f539 7410 f9b8 e217 d138 fabb 7eba
000000b0: 8e3b 7d3a 7908 a3b9 d6d1 8939 6822 63ba
000000c0: 4e06 8aba b980 85ba 23b2 86b9 c00f 4739
000000d0: 0361 7aba df34 c639 2aec ae39 3e59 d739
000000e0: 30e3 863a 6bf8 8e3a d87c e7b9 b434 79ba
000000f0: 332c a8ba c837 a6b9 ef68 c4b8 5326 313a
00000100: 1e2e d038 cdb8 473a 6e7e e8b9 cf1c 763a
00000110: 3aaf 87b9 1690 8439 ad81 94ba 78b3 8c3a
00000120: 63d8 543a 26d4 b6b9 3b87 27b9 44b2 88ba
00000130: 7d73 0639 13c7 21b8 e4f4 06ba a8f8 95ba
00000140: 375f 0f3a 8da3 2dba af02 32ba aada 2e39
00000150: fa02 d939 a932 c0b8 b02c 84ba 0680 7139
00000160: e8f3 7339 131d 9339 7f0f b1b8 eb08 a7b8
00000170: 62b6 bab8 1bef 68ba 95dd cdb9 3675 74ba
00000180: ec13 7fbe 96bb d63d cdf9 5d3d 764d 693a
00000190: 473a 333a 5b5e 053e 0753 933c 45f0 67ba
000001a0: c83a 913d 8284 c13d 6d1f e9b9 9aa6 db3d
000001b0: fdae 73b8 3e0c f63e 9c66 28ba cf85 273d
000001c0: 7201 80be 6e36 91be e84c a13d fca0 0aba
000001d0: bfbb 4aba 2dfc e2bc eb0c 9939 94e4 183d
000001e0: cbb8 6eba 3c61 87ba 205b b23d 5888 f238
000001f0: 47e1 cf3e f223 e53d 9990 76bc 2905 00be
00000200: cbb9 69ba 5c93 e339 3498 043a 6dc7 043a
00000210: 7526 64ba 6e2c cbb9 1576 6339 41fe 013a
00000220: 819b 18ba 7e14 51ba 8ab7 6f3a 638f 493a
00000230: a682 fa39 2482 873a a978 0aba 6a2a c139
00000240: d2ae 72b9 a21c 79ba a5f8 69ba 3b54 ccb9
00000250: bedc 1fba 2811 61ba 32ac 5b3a f22c 2aba
00000260: 1afd 593a 8e68 5a3a 49f1 483a 7a4a 563a
00000270: 9c46 fe39 331a 14ba a6d7 36b9 2c37 35ba
00000280: f233 993b 5178 46bc 232a fdb9 b85b 8cba
00000290: ec0b bbb9 94a4 2eb8 737b a03a 40b6 dab8
000002a0: 2e48 03bb 850b 47ba 0982 92ba 8599 d4bc
000002b0: b6d6 2eba 406e 073a 4f57 7d3a e228 3839
000002c0: e2a7 053b 9ee1 313b 57ce 173c 1c7d 18bb
000002d0: 9ea4 78ba f3fc 9c3d cd24 21ba bcfd e839
000002e0: 64f2 8539 4750 33b9 9ee3 313c 3c4e e037
000002f0: 4ea6 87bc 587f 77bc bfaa 293d 5c98 263b
00000300: 6145 ceba 6591 a0ba fca8 85b8 50b8 fcb9
00000310: 4651 0b3a 041b fe39 c3d9 7dba 8c4d 2cba
00000320: d6cc 64ba ec15 38ba 8924 f739 aaf5 4c39
00000330: 9ed5 9839 0a96 04ba 81af 51ba fc8d 313a
00000340: f2ea 89ba 9fa0 4639 9ecd 9bb9 6983 3d3a
00000350: ec44 7b3a 81e9 2cbb 9a91 38b8 52f4 1aba
00000360: 897e 6d3a 58b3 fab9 f65d dd39 ef8a c1b9
00000370: 5d6f eaba e247 91ba 1350 233a 66d3 88ba
00000380: 3726 72ba 55fd 82b9 21e4 a639 ed02 a1b9
00000390: 6a13 2b3a 7cb1 efb9 ff8a 11ba 37d7 11b9
000003a0: 1acd f437 8e56 5d3a 2e0c 7fba baf4 8dba
000003b0: 7149 21ba 8dc7 75ba 68cb 6e39 5041 5bba
000003c0: b06a bd38 7a50 61ba 002d fe39 17c5 fc39
000003d0: 9e39 8c3a 5142 7339 13e2 4c3a b7bc 293a
000003e0: 1ec0 3e3a 0e9e bd38 dedc 36ba 1d02 97b7
000003f0: 09ad 1d3a fcb3 70ba 9431 11ba 1d30 6aba

bias f4 [32]
0.0006678666 0.00015268823 0.00037839936 0.13906145 -0.0006527846 -0.0067981174 0.00024245487 -0.00013684816
-0.0007410963 0.19250321 -0.00061025243 -0.0008450771 -0.00076631276 -0.0010147684 0.1446283 -0.00010963337
-0.05186057 -0.0007832106 -0.00010386576 -0.02478448 0.13642175 0.20149367 -0.00046467263 2.5467683e-05
0.1028575 -0.0018898469 -0.0008824286 0.00087261613 -0.00081510766 -0.036907546 -0.00068205956 -0.0033323513
00000000: c513 2f3a ef1a 2039 e763 c639 2066 0e3e
00000010: a21f 2bba bec2 debb 7c3b 7e39 e67e 0fb9
00000020: 2146 42ba 901f 453e 59f9 1fba 2a88 5dba
00000030: 61e2 48ba fa01 85ba 7119 143e f8ea e5b8
00000040: c06b 54bd 6050 4dba 81d2 d9b8 d208 cbbc
00000050: 25b2 0b3e 5b54 4e3e 4e9f f3b9 6fa3 d537
00000060: f4a6 d23d bdb4 f7ba c852 67ba 47c0 643a
00000070: f3ac 55ba 5e2c 17bd 3ecc 32ba 9463 5abb

weight f4 [1, 32]
-0.0008286043 0.0002161335 0.00065216946 -0.34375498 0.0008781525 -0.008933277 0.00048628112 -0.0009866883
1.6431291e-05 0.38305703 0.0003380256 -0.00034589923 -0.00012974394 2.9236e-06 -0.32356575 0.00030587887
0.68674994 0.00068413455 0.00023483379 0.33034793 -0.3232784 0.40532923 0.00069181627 -0.00071920326
-0.252086 0.0003206103 -0.0001267322 -0.0005771477 -0.00010746771 0.42398474 2.5218495e-05 5.959651e-05
00000000: b136 59ba e5a1 6239 5af6 2a3a a700 b0be
00000010: d133 663a e15c 12bc 8cf3 fe39 c453 81ba
00000020: eed5 8937 0d20 c43e 0739 b139 cf59 b5b9
00000030: e00b 08b9 1133 4436 69aa a5be 5e5e a039
00000040: d8ce 2f3f 7e57 333a b73d 7639 5d23 a93e
00000050: bf84 a5be 5087 cf3e 015b 353a ea88 3cba
00000060: 6b11 81be 9617 a839 6ae3 04b9 ba4b 17ba
00000070: 4a60 e1b8 8714 d93e 4e8c d337 44f7 7938
