pre_trained_models/1u2d/diode_pair_1u2d_1N4148_l_1.70k_2.50k_3x128_5.27e-06.pth (torch, 138887 bytes, 7 tensors)

weight f4 [128, 2]
00000000: ecfa c83c 718c b7ba 9129 2b3b 9b36 1fbc
00000010: ea41 803a b29b 90ba 0162 7fbb ffa4 68ba
00000020: 985e 70bb d31d 9439 8c0c 043e 1798 20bc
00000030: febf 98bb 34ee 42bc 435c 50bc 1cd1 c1bb
00000040: 66f0 763b 12e1 93bb 053d c336 f69a ecbb
00000050: cfe8 4f3c e997 4dbc 23dc 003c 0aa3 d5bb
00000060: 6a5e 063c 53e7 b23a 0e5d 43b7 fe6c c33b
00000070: 2674 633a e198 3fbc 9c46 7c3e 445a 903b
00000080: 8625 9abe 94ef 113d a80a f63a 16dc ba3b
00000090: 2af4 753d 66a1 f6bc 1494 64ba cbd0 f73a
000000a0: e398 29bc 48ba dfbb 9ca3 e33d fcc4 36bc
000000b0: 3d2d 233c b0b7 fabb 1fee ea3b 23cd e6ba
000000c0: c449 943b 1024 78bb 8c1d 8d3c 6f92 e9ba
000000d0: 1fc5 af3e 3434 173d d64c acb9 9389 acba
000000e0: ce34 55bc 8b11 abbb 5c8e 493c 088c f8ba
000000f0: b002 7fbe 5154 203d 9cb1 723b 89bc 32bc
00000100: e80e 50bc 4504 43bc c8e9 863b 8292 2ebc
00000110: e614 043a 6519 77bb 150a 35bb 1fbc e7bb
00000120: b644 6ebc 1396 74bb 0c5b cf3b abc8 46bb
00000130: 011b 39bc 818e 4bbc a16f dbbb e0e4 7cbb
00000140: 5210 c53c 359a 873b b6d4 a53a d525 82bb
00000150: f5bf 6cbe 3d8a 3f3d b7f8 7fbe a291 0d3d
00000160: 281e 9d37 4b8f 0dbc 2b4e b53b 8946 d1ba
00000170: eee1 513b 8793 e7ba 5be6 4ebb 56cd b3bb
00000180: 6c17 893b 1eeb 0dba 2621 f83b 1afe 2ebb
00000190: 3237 d5bb 0d74 4dbc 86af ac39 7374 b83b
000001a0: d46a a83e e41b 393d 6e21 1a3c ae99 52bc
000001b0: 049a cc3b 4d51 d5bb 9616 61bb a3e2 4dbb
000001c0: 24a0 89b8 7e0c 7cbb d353 8fbb c052 a5bb
000001d0: 029e 77be 7a37 503d 5423 8c3b 2330 72bb
000001e0: 198c 153b 722a 16bc b960 9b3d 18eb 15bd
000001f0: f4e7 abbb 9f0f b73a 41eb 013c 611a eb39
00000200: ab8a 1cba 4f9c 29ba 024e feba 853c 91bb
00000210: 95b8 c3bb b637 4cbc 646e 8a3b 779f 9ebb
00000220: f2eb 043c c00f a1bb 1819 6fbb c3f5 3ebb
00000230: 2cd5 fc3b 6724 41bb 9c94 38bb f942 20bc
00000240: de4f 2cbb 2f48 10b8 cce3 56bb d76b 87ba
00000250: e3b3 2b3c 35c0 67bb e937 a4b8 e995 4fbb
00000260: 59da af3e e1b1 2c3d 2253 023c b006 2dbc
00000270: 65a1 af3e 7091 4f3d 6be8 50bc 75e3 bbbb
00000280: 10db a8bb f26c 87bb c7a0 2a3a cf3b 6b3b
00000290: 4db1 cd3a f0ac a4ba 5e80 e1bb 2660 54bc
000002a0: 19ab 5c3c 9340 05bc 3229 663b e84e bdba
000002b0: 4e2c cf3a 4fb2 4cbb 8d62 b0bc 7f32 b539
000002c0: c844 583b 61ad 34bc ae6a c5ba 7db1 1fbc
000002d0: 2411 78bb 9897 4abc 5103 28be 403b b13b
000002e0: d949 3cbc 7c6b 2dbc d6c8 19bc dcb7 42bc
000002f0: 0657 16bc 197d 3bbc 35f0 2fbc 1b9a 50bc
00000300: f3c9 c738 4e43 3c3b 5b09 40bb 9ba2 ceba
00000310: 7604 9e3b c0c9 733b 8249 e43b 71e6 43bc
00000320: 29ff e6b8 22a7 e13b 07c4 113e 282f 853d
00000330: 932f c3bb b2ac 323b 24a8 db3b e234 e439
00000340: 32d8 0b3b fb67 26bc 428a d9bc d749 c8bb
00000350: 6f37 efbb e21d ddbb b174 f5bb b02f 19bc
00000360: 98a4 993b 9dd8 bcba 08dd b93b f3dd 3bbc
00000370: 3e91 b4bb 6caf a3bb 1a85 193a 689e 043c
00000380: e819 b43b d60c 153b 0370 ff3b 7aaa 0dbb
00000390: 6ccb 6fbb 5935 51bc 6c9d 33bc 512b 5bbb
000003a0: dfdd 023b 9b91 91bb 2a06 8dbb 8da8 2cbb
000003b0: ba35 2ebe 8a42 8c3b a23b 1f3d a75e 3cbd
000003c0: 1c1c 31bc 5967 0b39 8d69 253b a003 8c3a
000003d0: 36a2 82bc ddb4 353c 9314 8dbb 752e 7bbb
000003e0: a382 9a3e 0cc4 d53c f3fd 463d 19d0 3dbd
000003f0: be9d f13a c7c7 bbba 531b 24be c108 63ba
0.024533711 -0.0014003647 0.0026117305 -0.009717609 0.0009785269 -0.0011032729 -0.0038968327 -0.0008874684
-0.0036677476 0.0002825098 0.12895411 -0.009801886 -0.004661559 -0.011897612 -0.012717309 -0.0059148204
0.003767991 -0.0045129145 5.8185565e-06 -0.007220621 0.012689783 -0.012548425 0.007864985 -0.00651968
0.008201221 0.0013649262 -1.1644572e-05 0.0059639206 0.000867667 -0.011694164 0.2463631 0.0044052918
-0.30106753 0.03562887 0.0018771486 0.005702506 0.060047306 -0.030106258 -0.0008719575 0.001890683
-0.010351392 -0.0068276264 0.111151904 -0.011155363 0.009959516 -0.007651292 0.0071694995 -0.0017608743
0.004525395 -0.0037863292 0.017226003 -0.001782013 0.3433008 0.03691502 -0.00032863644 -0.0013163559
-0.013013078 -0.005220597 0.0123020075 -0.0018962631 -0.24903369 0.03914291 0.0037032133 -0.010909208
-0.012698866 -0.011902873 0.0041172244 -0.010655047 0.00050385145 -0.0037704345 -0.0027624418 -0.0070719863
-0.014542749 -0.0037320897 0.0063279923 -0.003033201 -0.011297942 -0.012424112 -0.006696657 -0.0038588569
0.024055634 0.004138256 0.0012651894 -0.003971795 -0.23120101 0.046762694 -0.24997221 0.034562714
1.8729901e-05 -0.008640121 0.005533 -0.0015966456 0.0032025534 -0.0017667868 -0.0031570408 -0.0054871244
0.0041837003 -0.00054137583 0.007572311 -0.002670175 -0.006506824 -0.012539876 0.00032937172 0.005629116
0.32894003 0.045192614 0.009407384 -0.012854023 0.006243946 -0.006509936 -0.0034345738 -0.0031415604
-6.5624976e-05 -0.0038459594 -0.0043740063 -0.005045265 -0.24181369 0.050834157 0.0042766724 -0.0036954961
0.00228191 -0.009165393 0.07586808 -0.036601156 -0.005246157 0.0013966447 0.007929624 0.00044842347
-0.0005971591 -0.000647013 -0.001940191 -0.0044322633 -0.0059729316 -0.012464454 0.0042245854 -0.004840787
0.008112894 -0.0049152076 -0.0036483463 -0.0029138185 0.0077158418 -0.002947116 -0.002816475 -0.0097815925
-0.0026292722 -3.43995e-05 -0.0032789586 -0.0010331821 0.0104799 -0.0035362367 -7.8305435e-05 -0.0031675047
0.34346274 0.042161826 0.007954391 -0.010560676 0.34302822 0.05067581 -0.012750725 -0.005733902
-0.0051530674 -0.0041328603 0.0006508943 0.0035893803 0.0015693099 -0.0012563746 -0.0068817576 -0.012962377
0.013468527 -0.0081330715 0.003511977 -0.0014443072 0.001580605 -0.003123421 -0.021531368 0.00034560633
0.0032999981 -0.011027665 -0.00150617 -0.009746906 -0.0037852013 -0.012365244 -0.16407515 0.0054086745
-0.011492216 -0.010584708 -0.009386262 -0.011884656 -0.009176021 -0.0114434 -0.010738422 -0.012732054
9.5266754e-05 0.002872664 -0.0029302451 -0.0015765013 0.004822309 0.003719911 0.0069667706 -0.011956797
-0.00011014782 0.006886379 0.14234935 0.06503135 -0.005956599 0.002726358 0.0067033935 0.0004352695
0.002133858 -0.010156627 -0.026555184 -0.006112318 -0.0073003094 -0.006747947 -0.0074907173 -0.0093497485
0.0046888106 -0.0014407818 0.005672101 -0.011466491 -0.0055104783 -0.004995277 0.00058563205 0.008094408
0.0054962523 0.0022743247 0.0077953353 -0.0021616505 -0.0036589755 -0.012769067 -0.010962825 -0.0033442567
0.0019968671 -0.0044424064 -0.0043037133 -0.0026345581 -0.17012683 0.004280393 0.03887523 -0.045988705
-0.010809924 0.00013294573 0.0025239915 0.0010682233 -0.015946489 0.011090484 -0.004305431 -0.003832725
0.30177793 0.026094459 0.04858203 -0.046341036 0.0018433852 -0.0014326506 -0.16026048 -0.0008660667

bias f4 [128]
00000000: 84b7 a6bc 7e6e 1a3c 5a82 91bb e343 96bb
00000010: 3844 9fbb d408 273e 72b7 02bc 3082 b7bb
00000020: 4ace 2b3c d468 233b 0ab9 663b df63 a63b
00000030: 7e8e 55bc 7e28 b6bc 751d 25bc 1f46 863d
00000040: 8d97 ac3d 3be1 b6bc 8538 263e 6dc6 1dbc
00000050: 383e 0f3c 9264 193e f1db 443c c5fa e9ba
00000060: 0973 f23b 96d5 48bc 6731 443c d65e 7d3b
00000070: 6c00 7fbb 1b31 fbbb 0f31 a43d 03de fcba
00000080: 31f0 593b 536f 893b a7c2 3abc eca0 39bb
00000090: 9ee0 28bb a044 f5b9 b03e e53c c905 ed39
000000a0: f395 12bd 3761 343c 227b 703d 80f8 ad3d
000000b0: 46b3 f7bb e54a e8b9 c3dd 103b e091 e3bb
000000c0: 5ddd 22bb 1a2f 7e3a ecdc 133c c798 a7bc
000000d0: 34f7 19bc bc32 81bb 1bcc 4b3c eba6 99bb
000000e0: 90c5 ef3b 25d4 4d3b 3157 3b3d 0b00 eb3b
000000f0: b2d5 313b e93c 4f3e 5729 27bc 791a 3cbc
00000100: dc49 ab3a c031 453c e41b a63b 7a6f 1d3c
00000110: 127f d3bb 9c08 8c3b 56b5 17bc 006d fe3a
00000120: c645 89bb 894c d6bb c283 7dbb 9060 243c
00000130: b82c 5d3c ded6 413c fad1 d2bb 0d72 af3b
00000140: b1a7 3f3a 7633 55bc 1290 213b e4d1 ef3b
00000150: 50b6 493c e367 24bc df5f 133c 0be1 bebc
00000160: 4ede 003d 54c4 b4ba 0f6a f4bb f086 c9bd
00000170: ee86 77ba 34c0 003c ee31 0c3b 8d6a 15bc
00000180: 1168 2dbc c8de 0ebc 406b 8fbc 70ca 40bc
00000190: 7e1b c8bc 5792 07be c49c 81bc cca3 27bc
000001a0: f776 f13b dfb7 15bc 4073 28bc 36e0 fcbb
000001b0: 99dd 29ba bbd5 4ebc 3917 48bc 87f5 f0bc
000001c0: fe7e 5ebc 7ffb 77ba ce9e 3ebc 5cfe 13bc
000001d0: f78b 233c 81ee 4ebc 5416 cfbd 83c3 4c3e
000001e0: f9f5 4abc 05f9 cdbb eab6 61bd a2cb f33b
000001f0: e1f5 913c 18f6 543e 542d a8bb 59fa d5bd
-0.020351179 0.009425757 -0.004440588 -0.0045857294 -0.004860427 0.16311961 -0.007978307 -0.0056002364
0.010486195 0.0024934309 0.0035205507 0.0050778235 -0.013034461 -0.022236105 -0.010077824 0.06556343
0.084273435 -0.022324195 0.16232498 -0.009629828 0.008742861 0.14979771 0.012015329 -0.0017851224
0.007398967 -0.012257954 0.011974669 0.0038661263 -0.0038910164 -0.007665766 0.0801717 -0.0019292239
0.0033254738 0.004194179 -0.011398948 -0.0028324677 -0.0025768648 -0.0004678117 0.027983993 0.00045208473
-0.035787534 0.011009506 0.05871118 0.08494663 -0.007559213 -0.0004430629 0.0022104837 -0.00694488
-0.002485118 0.000969635 0.00902484 -0.020458592 -0.009397317 -0.0039428156 0.012438799 -0.0046890876
0.0073172525 0.0031406966 0.04573745 0.007171636 0.002713543 0.20238079 -0.010202727 -0.011480921
0.0013068276 0.012035787 0.005069243 0.009609098 -0.006454357 0.0042734873 -0.009259542 0.0019411147
-0.004189226 -0.0065398854 -0.003868327 0.010032788 0.013499431 0.0118310135 -0.0064337226 0.005354172
0.000731106 -0.0130127575 0.0024652523 0.007318722 0.012311533 -0.010034534 0.008995025 -0.023300668
0.031462006 -0.001379142 -0.007458932 -0.098401904 -0.00094424083 0.007858325 0.0021392065 -0.009119642
-0.010583893 -0.008720107 -0.017507195 -0.011767015 -0.024427172 -0.13239418 -0.015821822 -0.010231923
0.007368918 -0.009138077 -0.010281384 -0.0077171577 -0.0006479859 -0.0126241995 -0.012212568 -0.029413952
-0.013580082 -0.0009459778 -0.011634542 -0.009032812 0.009982101 -0.012630106 -0.101116806 0.19996457
-0.012387746 -0.006285789 -0.05510608 0.0074400464 0.01781744 0.20797002 -0.0051323567 -0.10448141

weight f4 [128, 128]
00000000: e4b0 dc38 9398 d2ba 69d9 b03a b3e1 d33a
00000010: c5c9 b1b9 ce70 d538 95a6 c638 f5fe bd3a
00000020: 6896 98ba b16b edb9 8e0f 4a3a 131a 50ba
00000030: 22e3 77ba 020e adba 766b 763a 1821 c339
00000040: d8b9 d738 15f6 52ba 00e1 e7b8 3ff1 243a
00000050: fc16 313a 036c a2ba ff01 a13a 6c3f df39
00000060: a3e7 713a 17db ecba af2f d4ba 5de3 cab9
00000070: 39b9 b13a 5447 b8b9 2681 69ba 2bd6 fc38
00000080: 6c0b c4ba fcc7 8b3a b51a 993a 460d ae3a
00000090: 0c6b c33a 3579 8a3a 720c 33ba f28d 80ba
000000a0: e42f 83ba 3eed 3e3a b863 99b9 9503 f7b8
000000b0: f01c c73a c1e6 693a 6bab d1ba 449c 97ba
000000c0: 2a16 13ba 7d81 71b9 2829 5139 73de 87b9
000000d0: 5c0b 38ba 218c 8e3a 40cc 81ba ca2d 95b9
000000e0: a847 2ab9 9009 df39 1a3c e6ba 69dc 933a
000000f0: 0e0f 5fb9 b83f b1b9 983a f7ba ef68 79b7
00000100: e367 9dba e112 f639 8eeb d4ba 8d56 713a
00000110: f0e5 bf3a dfa3 6aba 3849 34ba d402 1dba
00000120: e042 71ba e1b5 af39 900b a53a 7148 893a
00000130: ca60 dab9 aa84 e5b9 ad74 c3ba c9ea 83ba
00000140: d85c 963a 66e8 efba 70f8 a7ba 1c27 a83a
00000150: 9614 1aba ade3 a8ba 4ac6 4b3a 4001 39ba
00000160: 4128 8639 22fb 9838 7695 e0b9 fae3 1dba
00000170: 8c15 a23a 1643 a5b8 60c7 223a 62e1 913a
00000180: a760 d2ba c445 c33a d73f b6ba c504 9a3a
00000190: 2ac4 fbba e70c 8e39 0577 08ba f203 d3ba
000001a0: 1a8f 51ba 56eb 943a 2a33 a4ba cf0a 153a
000001b0: 4579 adba 19be b937 b5a4 9cba 7e58 96b9
000001c0: 6d8b d039 7c05 713a 035a 4eba 8005 df39
000001d0: 86c6 83ba deb0 c23a 917a 293a 70cc ddba
000001e0: 61b5 9d39 f2ef c8ba be5f bfb9 8646 d23a
000001f0: 3002 9aba c234 273a 9dde 06ba aaa2 aaba
00000200: 9991 57ba 41a1 963a 1be4 cf3a 23e6 313a
00000210: 93ca cfb9 6374 c739 42c8 b93a 7b3c ad3a
00000220: 59f3 a7b9 0f64 c5ba c9b7 2a3a c207 5aba
00000230: 8892 583a 47f0 1039 a6d7 c93a 84bc abba
00000240: 3342 e739 f61e 523a f7b0 32ba 62a5 57b9
00000250: ab46 00ba 969d 823a 62d4 073a 0878 9f3a
00000260: 5388 7cba 1123 8eba 08aa 44b9 6a23 baba
00000270: a979 37ba 37a6 783a 2db0 cdba 9c30 1fba
00000280: 3d10 be36 3cc0 4938 8eb0 bc3a 809e 1ab9
00000290: e3d6 293a 7ff8 aa3a db79 233a 12fa 62b9
000002a0: 7eec beb9 5ad8 eaba cd44 2fbb 4a34 0bbb
000002b0: 8c5b d13a ff5f 78ba 6d19 e7b8 6284 c3ba
000002c0: 6590 d7b9 1fb1 053a 83e5 003a bd8c 0939
000002d0: 715b 223a 4dd5 cfb9 dcf2 a7b9 4e98 5d3a
000002e0: 6c8e 9ab9 b8ab f937 e9bd 9db9 38e0 de39
000002f0: 8c37 16ba 0461 11b9 f8e1 a4ba 0eba 7cba
00000300: eeeb 94b9 e7b1 a6ba 3e34 1cba 9367 40ba
00000310: aa0e 71ba 060e d2ba a09c 383a a6c8 a8ba
00000320: 3df2 2a38 b550 cb3a 8ba2 89ba f588 39ba
00000330: f369 6eba 544f 6139 4086 02ba 4219 83ba
00000340: 155d 7c3a ba6e 6fba dc1d fdb9 9de2 78ba
00000350: 7f51 2c3a 02b2 ffb9 ec8b 04b8 2894 fbba
00000360: 3879 27ba 3d3f c73a d426 9b3a 94be a0ba
00000370: cd3e cfba 4cd2 56ba 9dff aa39 f5d6 c5ba
00000380: 258e cdba da92 293a 974d 56ba 88ed 503a
00000390: 1758 acba 09f9 70ba 5683 a8ba 2156 7439
000003a0: d07f 7eba 58c5 ddb8 bbc0 af3a f551 f2b9
000003b0: 211a 22ba d2a9 fcb9 b021 0939 8427 05bb
000003c0: f9d8 3439 911f b539 1c7c 963a 6531 8aba
000003d0: 3a9b c9ba f59b c4ba 19f3 5339 56cc dcba
000003e0: 602d 09bb bda1 56ba 5c0f ddb9 4e63 c13a
000003f0: ba07 1e3a b665 fcba bc8d 24b9 6da9 bd3a
0.00010523366 -0.0016067199 0.0013492528 0.0016165286 -0.000339104 0.00010177643 9.472404e-05 0.0014495539
-0.0011641504 -0.000452844 0.00077080063 -0.00079384557 -0.00094561477 -0.0013203027 0.0009400168 0.00037217955
0.00010286615 -0.00080475333 -0.00011056848 0.0006292052 0.0006755439 -0.0012391809 0.001228392 0.00042581127
0.0009227937 -0.0018070665 -0.0016188527 -0.0003869784 0.0013559229 -0.00035148358 -0.0008907489 0.00012056188
-0.0014957017 0.0010664458 0.0011680933 0.0013279102 0.0014909222 0.0010564687 -0.00068301626 -0.0009807928
-0.0010008779 0.00072832766 -0.0002925673 -0.00011778545 0.0015191119 0.00089226296 -0.0015996521 -0.0011566957
-0.00056109077 -0.00023031789 0.00019947125 -0.00025914944 -0.00070207356 0.0010875502 -0.000990279 -0.0002845361
-0.00016239157 0.00042541 -0.0017565519 0.0011280897 -0.00021272546 -0.00033807545 -0.0018862067 -1.4865988e-05
-0.001200911 0.00046934842 -0.0016244517 0.00092063175 0.001464067 -0.00089508103 -0.00068773655 -0.0005989496
-0.00092033856 0.0003351411 0.0012591947 0.001047386 -0.00041652314 -0.00043777126 -0.0014912091 -0.0010064478
0.0011471761 -0.0018303513 -0.0012815129 0.0012829038 -0.00058777013 -0.0012885235 0.0007773383 -0.0007057376
0.00025588463 7.294702e-05 -0.00042835966 -0.0006023046 0.0012366041 -7.880309e-05 0.0006209519 0.0011129791
-0.0016050533 0.0014898111 -0.0013904524 0.0011750689 -0.0019208242 0.00027093964 -0.00052057236 -0.0016099198
-0.0007994041 0.001136164 -0.0012527455 0.00056855095 -0.0013234994 2.214224e-05 -0.0011950942 -0.0002867616
0.00039776732 0.00091942376 -0.0007871689 0.00042537972 -0.0010053671 0.0014853736 0.0006465102 -0.0016921889
0.0003008051 -0.0015330298 -0.00036501692 0.0016042746 -0.001174992 0.0006378406 -0.00051448663 -0.0013018448
-0.0008223295 0.0011492149 0.0015860827 0.0006786307 -0.00039633046 0.00038042953 0.0014174061 0.0013216877
-0.0003203403 -0.0015059727 0.00065123715 -0.0008317196 0.0008261581 0.0001382242 0.0015399351 -0.0013102447
0.00044109076 0.0008015478 -0.0006816531 -0.00020565608 -0.0004893343 0.0009965177 0.0005181489 0.0012166509
-0.0009633351 -0.0010844191 -0.00018755358 -0.0014201228 -0.0006999025 0.0009485217 -0.0015692763 -0.0006072612
5.6643316e-06 4.8101167e-05 0.0014395879 -0.0001474563 0.0006478859 0.0013044028 0.00062361144 -0.00021646198
-0.00036415824 -0.0017917261 -0.002674389 -0.0021240884 0.0015972718 -0.0009474754 -0.00011019674 -0.0014916772
-0.00041115578 0.00050999405 0.00049170124 0.00013117767 0.00061934354 -0.00039641038 -0.00032033667 0.0008453176
-0.00029479282 2.9763076e-05 -0.00030086868 0.00042510196 -0.0005730323 -0.00013864419 -0.0012579551 -0.00096407614
-0.0002840454 -0.0012717814 -0.00059587124 -0.00073396525 -0.00091956055 -0.0016025908 0.0007042382 -0.0012877181
4.075676e-05 0.0015511723 -0.0010500712 -0.0007077598 -0.0009094767 0.00021487224 -0.0004979111 -0.0010002034
0.00096269074 -0.0009133626 -0.00048278167 -0.0009494217 0.0006573423 -0.00048770016 -3.1601565e-05 -0.0019193934
-0.00063886074 0.0015201342 0.0011837133 -0.0012263828 -0.0015811563 -0.0008194789 0.00032615373 -0.0015093969
-0.0015682621 0.0006468721 -0.0008175014 0.0007969965 -0.0013148811 -0.00091923826 -0.0012856524 0.00023301739
-0.00097083766 -0.00010574859 0.0013408879 -0.000462189 -0.0006183703 -0.00048191712 0.00013077888 -0.0020317743
0.00017246966 0.0003454653 0.0011481079 -0.0010543285 -0.0015381344 -0.0015000092 0.00020213089 -0.0016845565
-0.0020931587 -0.0008187553 -0.00042163848 0.0014754327 0.0006028373 -0.0019256386 -0.00015693059 0.0014470048

bias f4 [128]
00000000: 6c1e 063a 0958 3d39 c4e2 56ba 1ec5 7fba
00000010: 30c2 5dbd e1f6 883d 04b7 c5ba 472d e8ba
00000020: 6ebe adba f07f 10ba 1031 aeb9 f506 293e
00000030: 1aa2 16ba dc77 273b fe69 7bb9 a570 03bb
00000040: a6f5 e0ba 038c beba eb36 973d 3c16 d9b8
00000050: 2d7a 863d 8267 5339 6904 23b9 234e d5ba
00000060: 79ca ffba b1e3 f4ba d5f9 4139 72b9 9b3d
00000070: 37c3 66ba 8f58 303a e196 c13d dcca c839
00000080: 41de a4ba f67c 5dbb 6f56 82ba 8bf6 eeba
00000090: aaaf b5b8 b883 9eba 120a cbba fc6e 03b9
000000a0: 26ad a239 543f 163a 31b1 cdba 97dd fcba
000000b0: 9ef3 17bb b985 c4ba ef2e ecb9 b0a9 f3b9
000000c0: 415b c23b c0f6 e5ba f498 9fba 5443 13bb
000000d0: 560c d239 a033 23ba f928 5aba 4d6e cdba
000000e0: 9348 0cba df30 29bb 7eb7 40bb befd 633a
000000f0: 646e 8339 b902 9cba 4d93 f738 5c06 b6ba
00000100: 72c2 5fba fc89 303e 543d f6b9 f7a2 4fbb
00000110: 58e9 2d3e e694 fab9 4846 41ba 0786 faba
00000120: b4a2 8bba dda8 71ba 6a6d 3b39 7e87 293e
00000130: 68c8 7b3a 203c b5ba fb14 abb9 4e6d a6bb
00000140: 9844 62bb a178 8f3d 6c5b 8fbb 56a1 60b8
00000150: 8cc6 0bba 9dc2 f2b9 40ad fcb9 b4ca 80b8
00000160: be2b d5ba 3870 d9b9 e95a 413a 84f3 0d39
00000170: 6eea a2ba 6ce1 fe38 e444 78ba df5a 8fbd
00000180: 340a 49bb ff75 27bb c93e 04bb edff 1cba
00000190: 08b4 fd39 ff62 2ebb b33f eeba 268c a43a
000001a0: a37a d13d b998 a6bb 4554 3bbb 0a8a 15bb
000001b0: ba88 6fba bc3c 2539 8679 4db8 ba9f 9aba
000001c0: 9e23 293e 7a3b 6fba a548 c7ba d012 5fba
000001d0: 6fcc 71ba 0a31 bcb8 4f37 2d3a 55da 2a3e
000001e0: 0367 a6ba 2b58 9cba 9e3f 61bb c0fc 7aba
000001f0: f7a8 9cba 1b8a 2fbb bf3b 44bb 5a38 c739
0.00051162275 0.0001805724 -0.0008197243 -0.0009756851 -0.05414027 0.066877134 -0.001508445 -0.0017713689
-0.0013255605 -0.0005512228 -0.0003322442 0.1650656 -0.0005746201 0.002555362 -0.0002397671 -0.0020056155
-0.0017163053 -0.0014537576 0.07383522 -0.00010351508 0.06566272 0.00020161088 -0.00015546534 -0.0016273897
-0.0019515298 -0.001868358 0.00018498984 0.0760373 -0.0008802893 0.00067270634 0.09452606 0.00038298115
-0.0012578444 -0.0033796406 -0.0009943972 -0.0018231435 -8.6634725e-05 -0.0012093699 -0.0015490672 -0.00012534478
0.00031028053 0.00057314825 -0.0015693066 -0.0019292113 -0.0023185979 -0.0014993466 -0.00045048396 -0.00046475
0.0059312885 -0.0017544851 -0.0012176321 -0.002247055 0.00040063512 -0.0006225649 -0.00083221454 -0.0015673131
-0.00053513906 -0.0025816483 -0.0029406245 0.00086971733 0.00025068515 -0.0011902667 0.00011805315 -0.0013887393
-0.00085357495 0.17240137 -0.0004696647 -0.0031682828 0.16983545 -0.00047794654 -0.00073728384 -0.001911343
-0.0010653348 -0.0009218583 0.0001787447 0.16555592 0.0009604753 -0.0013827123 -0.00032631293 -0.005078948
-0.0034525748 0.0700543 -0.004374912 -5.3556018e-05 -0.0005332015 -0.00046302835 -0.00048194267 -6.141272e-05
-0.0016263647 -0.00041473075 0.00073759124 0.00013537525 -0.0012429485 0.00012153652 -0.0009470715 -0.06999754
-0.0030676248 -0.002555251 -0.0020179024 -0.00059890636 0.00048390054 -0.00266093 -0.0018176943 0.0012553975
0.10228469 -0.005084124 -0.0028584164 -0.0022817873 -0.00091375003 0.00015758252 -4.8988986e-05 -0.001179687
0.16517493 -0.0009125989 -0.0015204145 -0.0008509578 -0.00092238834 -8.973673e-05 0.0006607668 0.1668485
-0.0012695495 -0.0011928132 -0.0034370194 -0.0009574406 -0.0011952211 -0.0026785198 -0.0029942838 0.00037998223

weight f4 [128, 128]
00000000: d9fe 8eb9 777f b53a 4c7e ecb9 546c c1b9
00000010: f012 82bb d50e a738 8f80 5aba 5f5d 893a
00000020: 30f5 65b8 b867 893a 4b4c a43a 4d12 20bb
00000030: f019 81ba 7528 30ba 827a a0ba 7da3 243a
00000040: 8ce7 b1ba 26f3 5d3a 1ac0 a3ba 888d cfba
00000050: a59b feba f542 7aba 6138 bdb9 fce3 83ba
00000060: 4298 c7b9 4d4d 48b9 4927 a3ba 7d1e 23bb
00000070: bc92 c6b9 de2f 98ba 393d 36bb db75 46ba
00000080: 192e b839 929a 2d3a b2f1 43ba 82f3 f2b9
00000090: a68f a8b9 27da e9b8 4aac 6839 6bbc 11ba
000000a0: 9556 263a d980 a1b9 36fb b0ba 5a62 de3a
000000b0: 6482 ac3a d101 c23a f1d2 313a d1df b53a
000000c0: 8b2b f7ba 46c4 70ba efaa 7f37 f065 b93a
000000d0: c6c3 60ba 0ff0 7a3a f8af 153a 77f8 4e3a
000000e0: e6f8 a33a 5512 a938 9baa 9bb9 462a e0ba
000000f0: 80bc b4ba 401d 69ba 33db a939 c46a d4ba
00000100: c94e 3039 ae6d 72ba ff2f a2b9 0a17 e4ba
00000110: 8573 e9b9 8106 a53a 8ce9 8f3a 4767 d2ba
00000120: d03c 5e39 0315 4bba 04ca daba 2376 4db9
00000130: d619 5938 0676 d93a 791a ccba cc90 d2ba
00000140: 1e72 ae39 e0fe 28bb 2735 82b9 f547 c03a
00000150: 86bc 6fb7 c2fb 19ba 3321 4f3a a875 bf3a
00000160: 742e 61b9 7dbf bcba c0bf c93a bddf 48ba
00000170: 58a3 593a e168 3db9 48a3 70ba e1b2 32b9
00000180: 9543 d2ba fa0b 943a 9764 b839 462b 7aba
00000190: 7759 b5ba 3315 593a 70b2 49ba f4a5 2ab8
000001a0: cfc3 ceba 7ae7 fc3a 2b41 d137 6007 2838
000001b0: 27fb b63a 6c4b ffb9 93f6 443a e669 29bb
000001c0: 7918 daba 6edc b93a d0c9 873a bf4b 4eba
000001d0: 3ad8 b3b9 f676 cb3a 0145 b438 42b0 9bba
000001e0: 6e7c 54b9 faf1 2fba 533b 743a 8a04 b93a
000001f0: e118 77b9 369d ffb9 6689 7f39 6dbe 7439
00000200: 8a69 623a 6daf 2a39 3468 c4b8 6994 283a
00000210: d900 32bb 1d2b a0ba 84b2 a3ba 72f5 52ba
00000220: ecbd a1ba 12bd 063a 4ed5 57ba 4ac2 29ba
00000230: b24d feb9 f885 deba 132c cdb9 8228 66b8
00000240: 58a2 043a f295 8cba 1297 8dba 44a0 d1ba
00000250: 052d 0e3a c383 19ba 3eda c33a 9688 aa39
00000260: 6835 76ba fa08 2739 d084 40b9 b5c9 27bb
00000270: 5f9f 113a 41aa 943a ccf3 89ba d7df 873a
00000280: 8812 ad3a 6d2a 223a 910d c23a fbd4 18ba
00000290: 630d 2f39 9b8e c6ba 5295 94ba 94ad 88ba
000002a0: a87e ed39 18a1 89ba 2926 4db8 46f8 2eb7
000002b0: cece 743a 9511 16ba e5b2 c1ba bef3 3fba
000002c0: 065c 94b9 18eb ecb8 eaa7 9239 40ee 653a
000002d0: fe84 d5b7 c913 42ba 50da 7eba 66d2 0b3a
000002e0: fbec e7b8 3f0c 763a 6a6c ab3a ce6b 0b39
000002f0: 4fc4 ceba 1e60 4839 a104 96b9 7c8c a0ba
00000300: ba35 cbba e467 9539 c7aa d93a 6834 1739
00000310: fbb5 bfb9 a834 223a b84d 7fba 0c20 5b3a
00000320: 0601 7fba 5a1e 79ba 9302 8dba 1b67 4b3a
00000330: aee6 b2ba d780 fc3a 1629 d3b7 4292 923a
00000340: 52b9 61ba e8f4 fdba c5ed a53a b1d9 753a
00000350: 647a a43a 937e d43a bc82 46ba 3ddb beb7
00000360: 6119 7bba 50ba de39 5054 e339 28ec c83a
00000370: e91f 0aba 799c 82b9 71e5 74b9 4958 ce3a
00000380: 987b b439 7ddb 893a a7f8 bf38 a96f 9c3a
00000390: 8896 bdb6 7fe6 efb9 bb4a 7239 d11b 3fb9
000003a0: 7a2a 06bb 0c9c f53a 962f a43a b699 b1b9
000003b0: 3f55 edb9 60eb 523a 1cf2 ff36 2b33 02bb
000003c0: 2aca 62ba ecc3 25ba 338b 883a 2258 38ba
000003d0: 4de4 cfb9 7e37 9ab9 6f89 3bba f0d1 a0b8
000003e0: 2bab 723a 469e 8a3a ec42 863a b801 263a
000003f0: bd3c ecb9 6b1b 3e36 9112 94ba 85e4 4eba
-0.00027274227 0.0013847192 -0.00045107526 -0.0003689254 -0.0039695427 7.965943e-05 -0.0008335197 0.0010480097
-5.4826203e-05 0.0010483181 0.0012534944 -0.002442497 -0.0009849649 -0.0006719896 -0.0012243541 0.0006280465
-0.0013573035 0.0008466713 -0.0012493164 -0.0015835026 -0.0019425048 -0.00095467205 -0.00036090895 -0.0010062451
-0.0003806968 -0.00019102283 -0.0012447621 -0.0024889999 -0.0003787483 -0.0011610945 -0.0027807488 -0.00075706624
0.0003512956 0.0006622459 -0.0007474675 -0.00046339264 -0.00032150483 -0.0001115094 0.00022189427 -0.00055593875
0.0006345299 -0.00030804312 -0.0013502601 0.0016966567 0.0013161418 0.0014801567 0.0006783447 0.0013875907
-0.0018857581 -0.00091845205 1.5238983e-05 0.001414476 -0.00085740944 0.00095725147 0.00057101203 0.00078953005
0.0012510091 8.0619626e-05 -0.00029691015 -0.0017102442 -0.0013789088 -0.0008892603 0.00032397508 -0.0016206135
0.00016814018 -0.0009247911 -0.00030934808 -0.0017401886 -0.00044527292 0.0012590439 0.0010979637 -0.0016052508
0.00021194224 -0.00077469664 -0.0016692285 -0.00019594333 5.1760893e-05 0.001659096 -0.0015571854 -0.0016064881
0.0003327289 -0.0025786683 -0.00024835134 0.0014669882 -1.4289404e-05 -0.00058740017 0.00079013704 0.0014607208
-0.00021474977 -0.001440033 0.0015392229 -0.0007662734 0.0008302233 -0.00018063515 -0.0009179604 -0.0001704204
-0.001604187 0.0011295073 0.0003517016 -0.00095431914 -0.0013835867 0.0008281052 -0.0007694131 -4.0685714e-05
-0.0015774908 0.001929506 2.4945088e-05 4.006119e-05 0.0013960347 -0.00048693584 0.0007513549 -0.0025850474
-0.0016639373 0.0014180073 0.0010359827 -0.00078695634 -0.00034302642 0.0015523124 8.595922e-05 -0.001187809
-0.00020264249 -0.00067117775 0.00093167013 0.0014115733 -0.00023565024 -0.0004875452 0.0002436988 0.00023340592
0.00086369424 0.00016277815 -9.365418e-05 0.0006430806 -0.002716115 -0.001221988 -0.0012489115 -0.00080474385
-0.0012339926 0.0005139868 -0.0008233384 -0.00064757897 -0.00048504543 -0.0016977182 -0.00039133485 -5.4874e-05
0.00050595915 -0.001072584 -0.0010802469 -0.0015993197 0.00054235786 -0.0005856121 0.001494236 0.0003252669
-0.00093921134 0.00015929705 -0.00018360023 -0.0025602404 0.0005555059 0.0011342244 -0.0010524928 0.0010366392
0.0013204375 0.00061861315 0.0014805068 -0.00058300764 0.00016694287 -0.0015148701 -0.0011336005 -0.0010427707
0.0004529853 -0.001050028 -4.8911348e-05 -1.0429014e-05 0.00093386776 -0.0005724666 -0.0014778046 -0.0007322392
-0.00028297323 -0.000112971466 0.00027972396 0.0008771159 -2.5453508e-05 -0.0007403461 -0.0009721862 0.0005333781
-0.000110590794 0.000938598 0.0013078575 0.00013296233 -0.0015775057 0.00019109293 -0.00028613678 -0.0012248899
-0.0015503683 0.000284969 0.0016606682 0.00014420005 -0.00036565945 0.0006187656 -0.0009739059 0.00083589624
-0.00097276305 -0.0009503119 -0.0010758213 0.00077591994 -0.001364907 0.0019264471 -2.5172292e-05 0.0011182504
-0.0008610684 -0.0019375356 0.0012659362 0.0009378447 0.0012548682 0.0016212038 -0.00075725815 -2.2751856e-05
-0.0009578672 0.00042481953 0.00043359632 0.0015329169 -0.0005269037 -0.00024912113 -0.00023355127 0.0015742864
0.0003442436 0.0010517683 9.153905e-05 0.0011935133 -5.650163e-06 -0.00045757365 0.00023106758 -0.00018225542
-0.0020472095 0.0018738522 0.0012526389 -0.00033874594 -0.00045267676 0.0008045938 7.6277774e-06 -0.0019866924
-0.00086513406 -0.0006323445 0.0010417461 -0.0007032176 -0.00039652214 -0.00029414514 -0.0007153963 -7.6684984e-05
0.00092570734 0.0010575734 0.0010243333 0.00063326536 -0.0004505868 2.8328166e-06 -0.0011297037 -0.00078923284

bias f4 [128]
00000000: 4d57 4fb8 4cd2 943a e46c 553d a0d3 bbb9
00000010: 4844 273d 737c 163a f59f 7b3a 27ff 123d
00000020: 59bb 8d3d 7ea3 353d c377 4aba 54c6 f639
00000030: f6c1 8ab9 2055 47ba 00b4 063b 7547 caba
00000040: 197c 9aba b322 a2ba b0f9 d8b9 4fc7 093a
00000050: ccad 4a3d d02a e2ba ef12 aab8 abab 463d
00000060: a4c8 bfb9 2ee5 12ba 1381 d1ba aede bfb9
00000070: 6d01 07bb 80cb 9db9 5c10 b0b9 a2b4 0c3a
00000080: 97a0 d1ba 3575 40ba 1d4e ceb9 2423 b3bc
00000090: e686 f438 a89b 993d cef0 baba 3a74 2cba
000000a0: f2ce 97ba 6ac1 833a b307 efb9 80bf a9ba
000000b0: de0a 64ba dfd9 78ba 24cc 993d 8bc9 69ba
000000c0: 2dea e738 d5eb 1fba f4c3 3939 10bb e4ba
000000d0: b05f bcba 98a4 4bba 5586 2e39 046d deb9
000000e0: 123a e439 68f7 213a 3377 3db9 6c5f 86b9
000000f0: 3bae 03bb 492d d3ba 7e24 d8ba 649b 2cba
00000100: 7f21 4a3d 867c d8b9 a99b 583a e69a 63ba
00000110: d521 f737 393d 9eba 56b0 f43a 0817 fdb9
00000120: a8ff 28ba 5443 09ba 0b09 57ba f4ca 3e3a
00000130: a1c3 2aba 1edf e5b9 5a87 12b9 bc2d 9c37
00000140: fada 8cb9 9600 2fba 78e0 3fb9 de87 94ba
00000150: 5f99 813d 1cc9 19bb a3da f7b9 52fa ffb9
00000160: 93fe b7ba 95f2 1638 c73d bdba 2605 953d
00000170: c611 00bb 5c59 173d 9d17 4bb9 0509 c5ba
00000180: d9dd 9eba 24ef 6c3a 6d05 d339 d47a 1fb8
00000190: 5a80 8cba 8532 433d 82fb e4ba bdd7 493d
000001a0: fc64 3a3a 0dd3 7aba 96d6 04bb 2b41 aaba
000001b0: 9eac 443d aee8 23ba da8e 1fbb 965a ddba
000001c0: 145a 5dba 7637 8dba fe65 48ba d89a e0ba
000001d0: 84a9 05ba 160e 77ba 5da2 7939 5ba0 2a3a
000001e0: fc9e 39ba 4e41 55bb 6dad 463d 795b 81b9
000001f0: 4a31 f6ba cda4 82b9 4b5e a5ba 6a13 13ba
-4.943395e-05 0.0011354177 0.0521058 -0.00035825092 0.040836602 0.000574059 0.00095987256 0.035887863
0.06920499 0.04434537 -0.00077235344 0.00047068542 -0.00026465923 -0.0007603932 0.0020554066 -0.0015432673
-0.0011786252 -0.001236996 -0.00041384762 0.00052558345 0.049482152 -0.0017255191 -8.109758e-05 0.04850356
-0.00036579848 -0.00056036084 -0.0015983902 -0.00036596268 -0.0020600215 -0.00030096993 -0.00033581525 0.00053674926
-0.0015993294 -0.0007341684 -0.0003934958 -0.021867342 0.000116599535 0.07500392 -0.0014262439 -0.00065785984
-0.001158206 0.0010052149 -0.0004559137 -0.0012950748 -0.0008699129 -0.00094929145 0.0750964 -0.0008918277
0.00011058557 -0.00061005104 0.00017715973 -0.0017450769 -0.0014371779 -0.0007768362 0.00016643976 -0.00042424363
0.00043530815 0.0006178529 -0.0001806885 -0.00025629567 -0.0020092863 -0.0016111518 -0.0016490368 -0.00065844343
0.04934835 -0.00041291508 0.0008262941 -0.00086824445 2.9460449e-05 -0.0012072689 0.0018668275 -0.0004827308
-0.0006446787 -0.0005236168 -0.00082029466 0.0007278167 -0.00065141363 -0.0004384452 -0.00013974067 1.8617946e-05
-0.0002686603 -0.00066758075 -0.000182988 -0.0011331995 0.06328081 -0.0023465818 -0.00047274408 -0.00048823893
-0.0014037661 3.598871e-05 -0.0014437967 0.072763726 -0.0019541844 0.036950454 -0.00019368385 -0.0015032595
-0.0012120559 0.000903832 0.000402491 -3.8022947e-05 -0.0010719404 0.0476556 -0.0017469975 0.04927801
0.0007110385 -0.0009568192 -0.0020269505 -0.0012989392 0.048016183 -0.00062526285 -0.002434662 -0.0016887959
-0.00084439036 -0.0010773975 -0.00076445926 -0.0017135991 -0.0005098807 -0.0009424401 0.00023806976 0.000650888
-0.00070808805 -0.0032540145 0.048505235 -0.0002467295 -0.0018783 -0.00024918318 -0.0012616602 -0.0005610498

weight f4 [1, 128]
00000000: 5d37 ad3a 80f2 0d3a 8d64 203e c9a5 a1b8
00000010: aee2 333e 0b68 70ba 5e3b 68b8 44bb 3a3e
00000020: d062 78be 164e 353e 215a 3eba ee6f 7b3a
00000030: 7aca 923a cbbd 04ba 24d5 3e3b 0b3e b3b9
00000040: 499f 9eb9 860d 5939 8634 583a 5b56 71ba
00000050: dd40 363e 0787 adba 50cc 063a d4b3 313e
00000060: 5768 15b8 ffa5 ac38 f00f 95ba 1c8d 883a
00000070: b435 753a c214 2937 9ec2 f8b7 5495 ba38
00000080: 2801 c039 0fbb 323a e5b4 b9b9 2055 1c3e
00000090: 5429 21b9 ee86 72be c3b5 d03a a60b 5d3a
000000a0: d837 7e37 ae55 dc39 b877 56b8 c993 a238
000000b0: 6b05 ea38 029c 8e3a a304 79be 4830 b8b9
000000c0: 1630 10b8 a47b 4c3a a601 473a 132e 273a
000000d0: 1a76 6aba 55fa 18ba 8034 8dba c8a4 6139
000000e0: 1b92 94ba c5ab 1bba 1cc7 093a ce17 60ba
000000f0: c661 9c39 cce0 6eb9 0e79 61b9 99a4 4439
00000100: f7c4 1ebe f8fe f539 066e 5bb9 c6f0 e439
00000110: 297d 1337 0d0b b1b7 7505 3b39 5670 5038
00000120: c7dc cd39 5849 49ba 6324 ebb9 44f8 9938
00000130: 31f3 233a 190a 3bba 1474 bd3a 0252 d5b7
00000140: 5f33 9b3a 7051 22ba 026b a539 be6b ee36
00000150: 90cf 79be 1d5c 8539 98b4 af38 15cc 083a
00000160: c33b d1ba 0414 f1b9 f6b9 abba c8a5 7dbe
00000170: 1b5d d3b9 d820 373e ca5c 57b9 3e28 973a
00000180: e3e6 ee39 3758 f739 c371 a5ba d35a 7dba
00000190: 8a15 a839 179e 353e a9c1 233a d51f 353e
000001a0: 3847 26ba 45cd 1f37 5519 c239 051a c5b8
000001b0: 5094 333e a477 d138 ce12 413b fe79 c039
000001c0: 7b5c 54ba b923 47ba d1dd 2eb9 c804 a439
000001d0: e8e1 10b9 510e c13a 9d08 10ba 2f4b d6b9
000001e0: 1c52 a3ba 7910 003a 9245 323e 4d65 28b8
000001f0: f4e0 053a ced4 5e39 eb53 6e3a b299 7d3a
0.0013215352 0.00054148585 0.15663357 -7.707958e-05 0.1756694 -0.0009170777 -5.53684e-05 0.18235499
-0.24256444 0.17705569 -0.0007261355 0.0009591569 0.0011199259 -0.0005063682 0.002911874 -0.00034187766
-0.00030254785 0.0002069977 0.00082475727 -0.00092062884 0.17798181 -0.0013239094 0.0005142139 0.17353755
-3.5621542e-05 8.232518e-05 -0.0011372548 0.001041803 0.00093540107 1.0078018e-05 -2.965453e-05 8.896986e-05
0.00036621955 0.0006818035 -0.00035420727 0.15266848 -0.00015369552 -0.23684284 0.001592331 0.0008432217
1.5152582e-05 0.00042025506 -5.1133073e-05 7.752289e-05 0.00011158999 0.0010880234 -0.24318175 -0.00035131187
-3.437706e-05 0.00078004063 0.0007591493 0.000637741 -0.000894399 -0.0005835642 -0.0010773093 0.00021519058
-0.0011335047 -0.00059383764 0.0005255805 -0.0008548469 0.00029827486 -0.00022781192 -0.00021502769 0.00018753334
-0.15504824 0.00046920008 -0.00020926454 0.0004366694 8.791024e-06 -2.110519e-05 0.00017835743 4.9695685e-05
0.0003926514 -0.00076784706 -0.00044849803 7.3418516e-05 0.0006254195 -0.00071349886 0.001445415 -2.5429767e-05
0.0011840871 -0.00061919447 0.0003155098 7.1054956e-06 -0.24395585 0.00025436367 8.3782885e-05 0.0005218399
-0.0015963245 -0.00045982015 -0.0013101685 -0.24770272 -0.00040314425 0.17883623 -0.00020538564 0.0011532379
0.00045566921 0.00047177236 -0.0012622405 -0.0009664718 0.00032059505 0.17736088 0.0006246814 0.17687924
-0.000634301 9.524932e-06 0.00037021437 -9.3985385e-05 0.17537045 9.9881814e-05 0.0029460671 0.00036711985
-0.0008100939 -0.00075965706 -0.00016676566 0.0003128408 -0.00013817067 0.0014728998 -0.00054944475 -0.00040873277
-0.0012460384 0.0004885267 0.17409351 -4.0148665e-05 0.0005107068 0.00021250846 0.0009091484 0.00096740865
