pre_trained_models/1u2d/diode_pair_1u2d_1N4148_l_0.90k_1.30k_2x16_2.55e-06.pth (torch, 5295 bytes, 5 tensors)

weight f4 [16, 2]
00000000: 75bf 613e b246 353b f38e ad3d 1196 4f3d
00000010: 7fc4 9b3e 345c 113d faf7 79be f8c7 fd3c
00000020: bd1a 85be a72d 95bb 020c 93be db72 4d3d
00000030: cf12 80be ac88 753d fa83 d33e 868a 533c
00000040: a41f 663e 42b0 2eba ba7e 79be 751b 083d
00000050: 028f 5f3e f793 adbb 156c a63e 23f9 f73c
00000060: 2368 b2be cea8 293d 2147 d539 ce08 81bb
00000070: 86d5 9fb6 fb23 bbba b45d 3e3e 5928 33bc
0.22045691 0.0027660546 0.08474531 0.050680224 0.30423352 0.035488322 -0.24411002 0.030979142
-0.25996962 -0.0045525613 -0.287201 0.050158363 -0.2501435 0.059944794 0.41311628 0.0129114445
0.22473007 -0.00066638377 -0.24364749 0.03322931 0.21831897 -0.00529718 0.32504335 0.030270165
-0.34845075 0.04142075 0.0004067952 -0.003937817 -4.7634267e-06 -0.0014277691 0.18590432 -0.010934913

bias f4 [16]
00000000: 32d6 5b3e 9a53 5cbe 243c 153e 1d18 093e
00000010: efea 243e 2da3 95be 0f7b 7fbe 31b9 033e
00000020: be30 6f3e d359 013e 420c 803e 64c5 173e
00000030: b97a 173e 370c 183a bc21 8f39 c0e0 933e
0.21468428 -0.21516266 0.14573723 0.13388105 0.16105245 -0.29226056 -0.24949287 0.12863614
0.23358437 0.12631921 0.25009352 0.14821392 0.14792909 0.000580016 0.0002730022 0.28882408

weight f4 [16, 16]
00000000: dfe3 113e 0f7c d8bf 153f 003e 6b0f acbd
00000010: f401 84bc ed04 bcbf 3822 34be ceca 663e
00000020: 48c3 1b3e 2a66 a1bd 5380 243e 98d4 023e
00000030: 8889 e7bd ff93 2aba c828 8dba fae5 223e
00000040: e721 6fba 1791 d739 90fb 8639 377d dfb9
00000050: deed 6039 8961 8a3a 6cca 38ba c515 beb9
00000060: d1fb beba a1cd da39 74dc b9ba 33fb 26ba
00000070: 8225 623a 6c85 313a da3e df39 08bb aa3a
00000080: 346d 273e 1fb5 d8bf dbb6 223e 7e41 48be
00000090: 81b4 37be 0bbc a4bb 4cc4 c0bf 660b 623e
000000a0: d6c2 323e 82a7 43be e58e 333e cfc2 263e
000000b0: 56b1 81be 6922 9d3a ce5d f1b9 f713 303e
000000c0: d9a4 b339 29d4 d1ba e9fa 36ba 1a4c 543a
000000d0: 3bb7 20ba 3044 83ba 84c6 73ba 1129 18b6
000000e0: 4434 c8b9 95d5 25b9 340e fe38 ff25 2c3a
000000f0: 2f9f 70ba d537 70ba 0de3 a339 1413 e8b9
00000100: c0d3 00ba 0822 9e3a bf4d 323a 1feb 5ab9
00000110: 3eb2 12ba 93f1 c4b9 61a5 a03a e78b 29ba
00000120: 0ea6 45b9 b3b3 e639 59dc 5339 4374 69ba
00000130: 800f dd39 f727 65ba f8d3 883a dadd 3aba
00000140: f6b2 b5b9 6b5f 8b3a 66bf b0ba de43 4b3a
00000150: 42bc d4ba aeae e1ba 091e 65ba 9ccc 8f39
00000160: 4f83 ee39 b716 6c3a b577 d1ba 8868 50b9
00000170: 9810 4cba e64f 72b9 1a25 5bb9 ea27 52b9
00000180: 3d42 4cba 7693 5bb9 4653 6d39 1f43 2b39
00000190: 99c5 dcb9 693c a7ba dc97 baba f847 e3b9
000001a0: 7499 b8ba b14e fc39 0656 1b3a c222 523a
000001b0: 10b8 1339 9548 863a dfe2 273a e9bd bdb9
000001c0: a361 e139 563c b7ba db58 b6ba fabd a8ba
000001d0: 745b f7ba 83d6 2aba e75f 9eb8 7e8c 033a
000001e0: 86a9 083a c80a 3fba efcd 8cba 4ed1 a539
000001f0: ab75 683a 5963 a8b8 b399 9c3a 243e 91ba
00000200: cabb 9eb8 6690 cd39 80a5 a536 f9fe ccba
00000210: f0a4 8b39 1ab5 69b9 cc1a 7bb9 9ce8 8dba
00000220: a739 cfba b403 0ebb 2879 09bb 6013 0e3a
00000230: 08c5 38b9 9477 5c39 77b6 0aba 89ae 04bb
00000240: f682 1c3e cec4 d8bf db90 1b3e 7a36 efbd
00000250: fba6 aebd f863 1ec0 679e c03d 9d91 683e
00000260: 63d9 223e 6852 e5bd 762e 283e 71df 1d3e
00000270: ce42 1dbe 179d 923a a7a1 5aba 7163 213e
00000280: 2d1a 173a 459e c0ba 9782 d6ba 31d7 dcba
00000290: f5f0 9dba e7d4 963a 04f4 73b7 2690 cbba
000002a0: 368b 873a f749 d839 aafa 8fb9 10ef dcb9
000002b0: c472 d4ba 8477 ba39 66fa acba 8443 6aba
000002c0: dd04 b9ba 9110 44ba 8800 8439 047d b1b9
000002d0: 5a18 ffb8 3124 b53a 74f1 d4b9 46c1 1cb9
000002e0: 307f 0aba d43e a9ba 1f27 43ba e715 6eba
000002f0: fd0e 8b39 5603 29ba 136c a6ba e85a 4f3a
00000300: afef 953d 98c2 06c0 932f 14be 4f97 4a3e
00000310: 5493 543e 2506 bbbf 7c58 3fbf 8291 90be
00000320: e40e a93d aac2 3f3e d90d c03d d04d 33be
00000330: 0324 6e3e 5226 4cb9 8af9 80b9 b6e0 e93d
00000340: 1b29 353e f8cd d8bf b15f 333e 0b31 2cbe
00000350: 414e 19be abd0 22bc 0a60 97bf 1427 693e
00000360: 70ee 3f3e 6a35 28be 4dba 403e 478d 343e
00000370: f0c9 67be 52b2 453a 186a 9fb9 a9f6 3d3e
00000380: 75c2 883c a998 d8bf 9463 2f3e acfc 7fbd
00000390: 9167 e3bc ebfa b73f 621e 5b3f 99a7 6e3e
000003a0: 12d9 693c ebc3 4fbd 595b 343c 96e6 383e
000003b0: dfee 7fbd abbc 203a 5d32 9bba dda8 703b
000003c0: f079 0cba 2a7c d937 82a4 a03a 8a1f 563a
000003d0: 74f6 fe38 cd7e 2438 efe7 73ba c3a9 8dba
000003e0: 8d15 e2b9 5aea 3eba d2f4 1d3a d1b5 6c39
000003f0: 3945 efb9 2699 273a 57ac a9b9 08c1 2cba
0.14247082 -1.691286 0.12524064 -0.08401378 -0.016114213 -1.4689003 -0.17591178 0.22538301
0.15211213 -0.078808144 0.16064577 0.1277641 -0.11305529 -0.00065070385 -0.00107696 0.15908042
-0.00091221783 0.00041116096 0.000257459 -0.00042627167 0.00021450917 0.0010557632 -0.0007049206 -0.00036255844
-0.0014570897 0.00041733406 -0.001418008 -0.0006369829 0.0008626805 0.00067718956 0.00042580703 0.001302571
0.16350251 -1.6930274 0.15890066 -0.19556233 -0.1793995 -0.0050272993 -1.5059905 0.2207466
0.17457137 -0.19106868 0.17534979 0.16285251 -0.2533061 0.0011988404 -0.00046036992 0.17195116
0.00034264362 -0.0016008663 -0.00069801376 0.0008098498 -0.0006130819 -0.0010014828 -0.00092992955 -2.2673669e-06
-0.00038185914 -0.00015815192 0.00012114309 0.0006566941 -0.00091789936 -0.0009163593 0.0003125895 -0.00044264703
-0.00049143657 0.0012064585 0.0006801746 -0.0002087769 -0.0005596018 -0.0003756402 0.0012256318 -0.00064676855
-0.00018849244 0.00044002905 0.00020204614 -0.0008905569 0.00042163953 -0.0008741612 0.0010439148 -0.00071283954
-0.00034656347 0.0010633295 -0.0013484776 0.00077539484 -0.0016230422 -0.0017218196 -0.00087401323 0.0002742753
0.0004549273 0.00090060703 -0.001598111 -0.00019875367 -0.0007784455 -0.00023108683 -0.00020899289 -0.0002004203
-0.00077918527 -0.00020940401 0.00022633103 0.00016332835 -0.00042108892 -0.0012759092 -0.0014235931 -0.00043350435
-0.0014083819 0.00048123815 0.0005925599 0.00080160436 0.00014087581 0.001024502 0.0006404351 -0.00036190383
0.0004298809 -0.0013979774 -0.0013911979 -0.0012874 -0.001887186 -0.000651695 -7.55189e-05 0.00050181884
0.0005213249 -0.00072876783 -0.0010742525 0.00031627197 0.00088676315 -8.029369e-05 0.0011947661 -0.0011081141
-7.5690055e-05 0.00039208232 4.93665e-06 -0.0015639953 0.00026635034 -0.00022288077 -0.00023947208 -0.0010826769
-0.0015810028 -0.0021669688 -0.0020976756 0.0005419757 -0.00017621007 0.00021025381 -0.00052914716 -0.0020245633
0.15284333 -1.693506 0.15191977 -0.116803125 -0.08527943 -2.4748516 0.09405213 0.22711797
0.15903239 -0.11197358 0.16423973 0.15417267 -0.15357515 0.0011185732 -0.0008340128 0.1576059
0.00057640934 -0.0014695605 -0.0016365823 -0.00168488 -0.001204996 0.0011507542 -1.4540743e-05 -0.001553063
0.0010341171 0.0004125384 -0.00027461845 -0.00042139785 -0.0016208519 0.0003556573 -0.0013197183 -0.0008936452
-0.0014115829 -0.0007479275 0.00025177398 -0.00033853215 -0.000121638834 0.001381999 -0.00040615688 -0.0001494932
-0.00052832346 -0.0012912401 -0.0007444489 -0.0009082243 0.00026523313 -0.00064473355 -0.0012697004 0.00079099694
0.07321107 -2.105627 -0.14471273 0.19784282 0.20759326 -1.461125 -0.7474439 -0.28236014
0.08254793 0.18726602 0.09377641 -0.17510152 0.23255925 -0.00019469231 -0.00024599984 0.11419813
0.17691462 -1.6937857 0.17516972 -0.16815583 -0.14971258 -0.009937446 -1.1826184 0.22768813
0.187433 -0.16426626 0.18821068 0.17632018 -0.22635627 0.00075415254 -0.0003040589 0.18551125
0.016694287 -1.6921588 0.1712783 -0.062496826 -0.027759345 1.4373449 0.85593235 0.23306121
0.014272945 -0.05072395 0.011008107 0.18056712 -0.062483665 0.00061316293 -0.0011840571 0.0036721744
-0.0005358746 2.5926234e-05 0.0012256058 0.0008168152 0.00012157569 3.921874e-05 -0.0009304275 -0.0010808039
-0.00043122136 -0.0007282846 0.0006025556 0.00022574446 -0.00045637207 0.00063933653 -0.00032362595 -0.0006590043

bias f4 [16]
00000000: 998d 0b3e e8a5 5fba 63b1 0f3e 2196 63ba
00000010: 30b1 a1ba af5a 9839 249c d1b9 0971 9c38
00000020: 8e10 a839 6c09 043e 5704 9b39 dd79 62ba
00000030: 8a0a 3d3e 3b36 1a3e 2ac3 72bb f51f 6bba
0.13628234 -0.0008531497 0.14032511 -0.0008681734 -0.0012336131 0.00029059264 -0.0003997992 7.459714e-05
0.0003205579 0.12894219 0.00029567137 -0.0008639375 0.18461052 0.1505975 -0.0037042596 -0.00089693005

weight f4 [1, 16]
00000000: 0afb 683e 1216 b239 13d0 8c3e 5fcd ebb9
00000010: dc42 08ba 0098 e4b9 43b6 323a bf84 7a38
00000020: 657b e5b9 e47f 7b3e cc7b 3dba e778 973a
00000030: e57c 34bf 7a71 8d3e e025 513f f04e c2b9
0.22752014 0.0003396725 0.27502498 -0.00044975706 -0.0005197951 -0.00043600798 0.000681732 5.9728274e-05
-0.0004377022 0.24560505 -0.0007228225 0.0011556417 -0.70503074 0.27625638 0.8169842 -0.00037061376
