pre_trained_models/2u2d/diode_pair_2u2d_1N4148_l_1.70k_2.50k_4x32_3.59e-06.pth (torch, 18699 bytes, 9 tensors)

weight f4 [32, 2]
000000 83 67 72 be 94 b5 55 3d 76 43 99 b6 b1 7a 8e 3d
       -0.23672299 0.05217512 -4.567609e-06 0.06956995
000010 73 f4 7e bc 55 d9 f8 bb 08 5b 8c 3c 83 ac 7d b9
       -0.015561211 -0.0075942674 0.01713325 -0.00024192226
000020 cd 1e 59 bc 81 39 45 bc 0a 88 b3 ba 81 19 c1 bb
       -0.013251972 -0.012037636 -0.0013697159 -0.005892933
000030 f4 c3 61 bc 94 47 5d bc ce ec 1d bb 4f b9 92 bc
       -0.013779629 -0.013505835 -0.0024097445 -0.017910628
000040 8f 42 3c bc be 8f 8b bc c6 c9 82 be 0d 97 21 3d
       -0.011490478 -0.017036315 -0.25544566 0.039450694
000050 14 1d 2d ba 75 51 8e 3c 34 74 6d 3e 4a 8d cd 3c
       -0.0006603759 0.017372826 0.23188859 0.025091786
000060 3f 15 80 be e5 e6 76 3d be 2f 94 bc b0 f9 45 bc
       -0.2501621 0.060278792 -0.018089171 -0.012083456
000070 53 e0 7c 3e dc 1f 38 3d 27 a6 ec 3b 4c 2e 85 bb
       0.24694948 0.04495226 0.0072219553 -0.004064357
000080 03 f7 5c bc 23 30 00 3b da 78 67 3e 6f 05 0b 3d
       -0.013486627 0.0019559942 0.22604695 0.03394073
000090 66 d8 73 3e e3 86 50 3d 6e ce 8b b6 9d 66 72 3d
       0.23813018 0.050909888 -4.1665544e-06 0.05917989
0000a0 b9 85 33 be 74 6e 9e ba 8f 24 30 3c db 47 4c bc
       -0.1753148 -0.0012087361 0.010750904 -0.012468304
0000b0 a0 f0 0f 3e 80 36 86 3c b1 e2 01 bc ce 36 32 3b
       0.14056635 0.01638341 -0.007927583 0.002719331
0000c0 63 20 b7 bd 6f 29 48 3c 7d 12 64 be c8 1b 5c bc
       -0.08941724 0.01221691 -0.22272678 -0.013434358
0000d0 02 a7 95 3c 08 4f 9b bb 50 27 39 be 0a 9f 63 3d
       0.018268112 -0.004739646 -0.18081403 0.055571593
0000e0 55 6a 77 3e 79 96 8d bb d3 c6 a3 3c 48 c7 90 bc
       0.24161656 -0.0043209163 0.019992268 -0.01767315
0000f0 6f 1d 77 3e 5b a6 65 3d 24 6a 66 bc fe c3 24 3b
       0.24132322 0.056066852 -0.014063392 0.0025141235

bias f4 [32]
000000 b1 5b 02 3d bd 1d 66 be d1 92 76 bb 1b b4 90 bc
       0.031825725 -0.22472282 -0.003762413 -0.017664006
000010 e1 ac 7b 3c 35 ce 01 bb 9e 40 74 3b 10 b2 5f ba
       0.015361042 -0.0019806747 0.003726996 -0.0008533308
000020 7a 43 53 3c 83 85 94 3d f1 50 7a bd 87 a9 b2 3d
       0.012894506 0.07252028 -0.061112348 0.08723741
000030 16 74 f7 3c 6c 50 28 3c ed 4e 85 3d 90 bd a5 3a
       0.030206721 0.01027308 0.065091945 0.0012644995
000040 93 c9 af bc 91 16 8e 3d b1 57 53 3d d5 be 43 be
       -0.021458423 0.06937898 0.0515973 -0.19115765
000050 11 b5 ba 3d 79 50 49 3c fd 96 dc 3d 3a 54 8e bc
       0.09116567 0.012287253 0.10770986 -0.017374147
000060 cc 50 6e 3e 62 70 03 3e 5e a4 91 bc 1a 4a ac bc
       0.23273009 0.1283584 -0.017778572 -0.021031428
000070 89 00 9f bd 95 96 21 bb ee 67 06 3d d9 12 ba bc
       -0.07763774 -0.0024656404 0.03281396 -0.022714065

weight f4 [32, 32]
000000 59 34 33 bd 03 19 24 be e5 2d 2b bb 0a e8 7e 3b
       -0.043751094 -0.16025166 -0.0026119885 0.003889563
000010 c6 15 d6 ba b2 2a 73 ba b4 f3 4a ba be bd 71 bb
       -0.0016333393 -0.00092760765 -0.0007742003 -0.0036886777
000020 fa 84 d5 3a f5 66 55 bd ee 0f 88 bc 53 5f 00 3e
       0.001629024 -0.05210014 -0.016609158 0.12536363
000030 a1 bb 4a bd 6f 1c 21 bb be 4e f4 3d 8f a8 91 bb
       -0.049495343 -0.0024583598 0.119290814 -0.0044451426
000040 be 44 e9 3b bf 05 f4 3d 11 30 f3 3d 40 bf 4e bd
       0.0071187904 0.119151585 0.11874402 -0.05047536
000050 8b 6d 23 3c 08 8e 09 bb 62 20 a9 3d ac 66 bc bb
       0.009974848 -0.0020989198 0.0825813 -0.005749544
000060 21 40 c8 3c e5 5d 54 bb 81 0d 45 b9 1b 2d 01 bd
       0.024444642 -0.0032404598 -0.00018792415 -0.031537157
000070 fb f0 e6 3d e5 e0 ed 3a e4 7c eb 3d c8 b8 02 3c
       0.11276432 0.0018148689 0.1149843 0.007978626
000080 3f 59 35 bb 82 70 b5 bf 75 ed 9f 3b 0f 08 3a 39
       -0.0027671603 -1.417496 0.004880602 0.00017741344
000090 f5 0b 1c 3b 09 7d 48 b9 96 2f 16 bb 1c 53 0e bb
       0.0023810838 -0.00019120066 -0.0022916547 -0.0021717018
0000a0 55 ce 24 3b dc a5 f9 3c 9c a6 63 be 54 6f 2a bd
       0.0025147398 0.030474596 -0.22231525 -0.041610077
0000b0 09 d7 8c bb 23 e2 54 3b e5 ed c8 bd d7 08 20 bb
       -0.004298095 0.003248342 -0.09811 -0.0024419331
0000c0 44 91 73 bc 59 c9 97 bd c3 a3 e8 bd cb 75 19 bf
       -0.014866177 -0.07411451 -0.1135936 -0.5994536
0000d0 68 fc 1c 3d ea 89 7e 3a ea 84 85 3d 21 17 45 bd
       0.03832665 0.0009709882 0.06519492 -0.04811776
0000e0 6d ea 31 3e f3 81 fe 3d 39 cd 16 ba c7 b1 c0 bc
       0.17374583 0.124271296 -0.00057526265 -0.02352227
0000f0 aa bc 78 be bf 2b 09 bb 76 eb 03 be ae 85 67 bc
       -0.2429072 -0.0020930616 -0.1288279 -0.014130993
000100 da 65 5c bb ac 4e fc 3a 87 73 3c bb 48 e7 a2 bb
       -0.0033630044 0.001924952 -0.0028755383 -0.0049714185
000110 23 42 37 3b db 44 85 3b 76 5c 7d 3b 1c 64 0a bb
       0.0027963005 0.004067046 0.0038659847 -0.0021116799
000120 de c1 70 3a c4 b0 56 3b 55 66 ca ba 0f 52 36 ba
       0.0009184162 0.003275917 -0.0015441874 -0.00069549767
000130 28 b1 9b 39 82 26 57 bb 74 e6 aa bb 0f 42 88 bb
       0.00029695896 -0.003282935 -0.0052154604 -0.0041582654
000140 bb 86 7a 3b 03 db 3a 3b f1 84 a5 3a 22 e5 fc ba
       0.0038227278 0.0028511889 0.0012628121 -0.0019294361
000150 7c 27 d8 ba 74 2a f4 39 14 cc 03 bb 58 c6 51 3b
       -0.001649126 0.00046570937 -0.0020110654 0.0032009091
000160 ff 69 3c bb d0 39 07 bb a8 23 99 bb b3 c9 56 3a
       -0.0028749702 -0.0020633824 -0.00467344 0.00081935077
000170 9f 3a 96 b9 09 57 82 39 1c f1 8c 3a 0c 3a 73 bb
       -0.00028653906 0.00024860378 0.0010753009 -0.0037113456
000180 ff af 00 bb 8a d2 9e 3b 89 42 b6 ba 83 91 1b bb
       -0.0019636152 0.0048468756 -0.0013905327 -0.0023737855
000190 7c 0d 86 bb 1e f7 9e ba ca 44 74 3b 82 7e 78 3b
       -0.004090963 -0.001212809 0.0037272447 0.0037917201
0001a0 39 27 3f 3a bf f2 0b 3b 64 97 93 39 4a 93 54 bb
       0.00072919164 0.0021354405 0.0002815082 -0.0032436424
0001b0 2b 7e 8f b7 a3 f2 7a bb ff 04 59 3b 70 75 43 3a
       -1.710568e-05 -0.0038291595 0.003311455 0.0007456159
0001c0 18 43 84 3b 4c 18 6c bb 85 cb fa ba 5e a3 fd 3a
       0.0040363185 -0.0036025224 -0.001913414 0.0019351055
0001d0 d2 82 1b bb a8 1f 12 bb 75 a4 96 bb a1 be 6b bb
       -0.0023729098 -0.00222967 -0.0045972415 -0.0035971778
0001e0 ee c0 6e 3b 1d 38 6b bb a7 25 09 bb 46 81 d5 ba
       0.0036430913 -0.00358916 -0.0020926984 -0.0016289137
0001f0 38 e0 72 bb 5b fe 8e ba eb 2e 47 bb 5b 98 1a ba
       -0.0037059914 -0.0010909544 -0.0030392956 -0.00058973365
000200 d7 0f 0e bd 8d e4 15 be 40 d8 57 b8 8c 68 86 3b
       -0.034683075 -0.14637966 -5.1461393e-05 0.0041018184
000210 36 cd 24 3b fe 35 6a bb c9 7b 50 3a b4 29 8c 3b
       0.002514673 -0.0035737748 0.0007953016 0.0042774323
000220 a6 26 fe ba 27 30 61 bd b5 36 9e bb a8 e6 03 3e
       -0.001939018 -0.054977562 -0.004828299 0.12880957
000230 e5 d0 52 bd f0 f6 e0 3a 02 43 01 3e b6 2f 82 3a
       -0.05146875 0.0017163437 0.12623218 0.0009932432
000240 6f fa 29 3c 29 7c f5 3d 04 dc fa 3d 0c 52 4c bd
       0.010374649 0.11986572 0.12248996 -0.049882933
000250 7d 6e 02 3c 22 1c 83 3b dc 00 b4 3d c6 be 29 3d
       0.007960913 0.0040011564 0.087892264 0.0414417
000260 d9 fe e5 3c 35 c2 6d bc 9a da 9d 3b 5f 37 f3 bc
       0.028075622 -0.014511635 0.004817319 -0.029689489
000270 5d 3b fe 3d cf c8 8a bb 23 6e fd 3d 18 1e fc 3b
       0.124136664 -0.004235364 0.123745225 0.007694017
000280 99 b6 fa 3d ce 58 6b be cc dd 8a ba 8c c1 b5 3a
       0.12241859 -0.22983095 -0.0010594665 0.0013866886
000290 d3 56 b0 ba aa be 1e b9 a2 cd 7f b9 6c b4 61 3b
       -0.001345361 -0.00015139082 -0.00024395299 0.0034439815
0002a0 87 e7 32 bb 5c d1 1a 3e ac 87 35 bd e0 fa 3c bd
       -0.0027298646 0.15118927 -0.04431884 -0.04613769
0002b0 5c 0e 01 3e 3c 1c 96 3b c2 f8 67 bd 8d 8b fc ba
       0.12603134 0.0045810025 -0.05663372 -0.0019267664
0002c0 de 8a 67 3c a6 eb 3b bd 2c f4 5e bd f2 6f bb bd
       0.01413223 -0.04587903 -0.05443208 -0.09152211
0002d0 6b 8a f9 3d 13 7c 02 bb 59 cc ce 3c be 8a 1f bd
       0.12184604 -0.001991038 0.025243925 -0.038950674
0002e0 e3 67 e1 3d bd 9f 55 3e 56 25 f0 ba 10 ef c3 3d
       0.11006143 0.20861717 -0.0018321674 0.09567082
0002f0 a0 c8 f0 3c 93 20 7c 3a f8 1b 86 bd 55 03 47 3c
       0.02939254 0.0009617891 -0.06548303 0.0121467905
000300 77 1c ec b9 eb d3 10 bb 20 e1 77 bb 04 af 9f bb
       -0.00045034636 -0.002209897 -0.0037823394 -0.0048731584
000310 c0 8a 52 ba ae b7 11 39 ba 0a e6 3a 26 21 17 b9
       -0.00080315396 0.00013896704 0.0017550804 -0.00014412831
000320 f2 cf 36 3a 1b 20 05 35 cd d4 15 bb 8e 57 9d 3a
       0.0006973735 4.959308e-07 -0.0022862435 0.0012004243
000330 92 0f 41 ba f1 2e 4e 3b 58 03 57 3a b5 1d 4f bb
       -0.0007364686 0.0031461085 0.00082020974 -0.00316034
000340 58 31 81 bb 26 8c 65 39 69 a4 3e b9 69 95 85 ba
       -0.00394265 0.00021891351 -0.0001818106 -0.0010191622
000350 31 63 c0 bb 7f d5 a7 b9 6e 8d 28 bb 3d d0 fa ba
       -0.0058711995 -0.0003201179 -0.0025719064 -0.0019135546
000360 1a 45 b3 bb f7 f3 f2 ba 7d 0d 77 bb 96 ab 09 3b
       -0.005470884 -0.0018535842 -0.0037697249 0.0021006814
000370 99 2e c5 bb 1d 10 7a 3b 03 74 5c bb 40 d6 97 b6
       -0.0060175178 0.0038156577 -0.0033638484 -4.5250927e-06
000380 41 01 c5 3a d7 09 cc bb fa be 6e 3b 25 a3 a9 ba
       0.0015030281 -0.006226759 0.003642975 -0.0012942298
000390 e1 96 30 bb 23 34 39 3b a1 a9 76 3a b5 69 3c ba
       -0.00269454 0.0028259836 0.0009409432 -0.00071873824
0003a0 7a 8c 92 3b db 8a b7 bb 5b 4a d1 bb 2c ae 62 3a
       0.0044723125 -0.0056012697 -0.0063870377 0.00086471695
0003b0 f4 09 8a bb b1 2b 0b 39 73 85 30 3b 38 c2 0d b8
       -0.0042126123 0.0001327235 0.002693501 -3.37979e-05
0003c0 eb bd bf b9 fd 8e c5 bb 73 95 18 3a c2 06 6a bb
       -0.0003657186 -0.0060290084 0.00058206095 -0.0035709594
0003d0 48 6d ce bb 49 01 6c b9 26 88 1d 3a 1d 7b 56 3b
       -0.0062996484 -0.00022507193 0.00060093624 0.003272719
0003e0 72 53 e4 bb 11 96 8c 3b c8 b6 72 bb 03 08 d8 bb
       -0.0069679553 0.0042903502 -0.0037035216 -0.006592752
0003f0 df 16 cb bb 96 a9 60 3b f2 d0 15 3b df 5d 70 bb
       -0.006197795 0.0034280769 0.0022860137 -0.0036677045

bias f4 [32]
000000 00 c7 7f 3d d9 57 5c 3e d2 56 cb 38 a8 2d 93 bb
       0.06244564 0.21517886 9.695966e-05 -0.0044915266
000010 90 f6 7f 3d 98 7b a7 3d c4 0d 5d 3a ef cb 98 ba
       0.062491 0.081778705 0.0008432532 -0.0011657457
000020 bd 80 81 bb cb c3 8f 3e a3 93 23 ba b3 e8 92 bb
       -0.0039521144 0.28079066 -0.0006239956 -0.0044833063
000030 6b 6f 37 3b c1 b0 f1 ba 99 cd 72 3d c6 17 83 3d
       0.0027989994 -0.0018439518 0.059278104 0.06401019
000040 6d 21 4d ba 69 97 be 3a bd 5a 67 3d 4c f2 44 3e
       -0.000782511 0.0014540973 0.05648302 0.19233054
000050 0c 26 38 3a f1 51 45 bb 97 eb 04 3b b0 b3 58 3d
       0.00070247124 -0.0030108655 0.0020282024 0.05290574
000060 2e 14 f4 b9 a6 c0 37 bb 34 9b 9e bb 4f 9b ba ba
       -0.00046554342 -0.0028038411 -0.004840279 -0.0014236959
000070 52 49 c3 3d cf 16 0b bc 45 03 9b 3d 56 44 09 bb
       0.09535469 -0.008489325 0.07568983 -0.0020945272

weight f4 [32, 32]
000000 d9 31 0a be cc c1 94 3e c8 db 89 bb 86 32 2c 3a
       -0.13495578 0.29054105 -0.004207108 0.0006568808
000010 04 7f 19 be f9 9c e7 3d eb c5 56 bb 66 3c 05 3b
       -0.14989859 0.11309237 -0.0032771777 0.002033019
000020 c6 01 ef 3a d5 4c b9 3e 24 b1 84 bb 3e e7 2c bb
       0.0018234781 0.3619143 -0.004049437 -0.0026382948
000030 c1 f9 42 bb 01 f0 99 3b 79 97 02 be e0 1b 9d 3d
       -0.0029750916 0.0046978 -0.12753095 0.07671332
000040 c2 9f 9a bb b8 2e 9f bb b9 52 07 be 61 4e 5a 3e
       -0.0047187516 -0.004857864 -0.1321515 0.21318962
000050 1b d5 58 3b 14 e8 9c 3a 10 d9 78 bb 45 c9 0b be
       0.0033086005 0.001197102 -0.0037971176 -0.13650997
000060 a9 e4 4f bb 7a fa aa 3b e9 b3 54 bc 5a 62 17 3a
       -0.0031721985 0.0052178474 -0.012982347 0.00057748484
000070 1d 95 23 bd 48 35 20 3c f6 ac bf 3d 0f 4e 31 bc
       -0.039937127 0.009778328 0.093591616 -0.010821833
000080 cf f4 a8 3d 67 07 31 3e 30 2c ea 3a 1c 4c 61 39
       0.082498185 0.1728798 0.0017865952 0.00021486025
000090 76 f5 b2 3d 50 0c 07 be 21 b6 84 39 33 a8 18 3a
       0.08738224 -0.1318829 0.000253127 0.00058234035
0000a0 7a 45 05 bb 7c 29 9e 3e 9f 19 6c 3b 7e de 44 bb
       -0.00203356 0.30891025 0.0036026014 -0.0030039842
0000b0 33 13 3c ba 05 8e 99 3a 21 0e a9 3d 0e 86 22 be
       -0.0007174492 0.0011715299 0.08254648 -0.1587145
0000c0 da 3e 96 3a a8 69 68 bb 22 40 a1 3d 95 52 7f 3e
       0.0011462823 -0.0035463367 0.078735605 0.24933846
0000d0 a8 f4 8e bb c5 09 23 3b 5d f8 58 3b 5d bb 94 3d
       -0.0043626614 0.002487765 0.003310702 0.07262299
0000e0 2a 0e 21 3b 36 e9 4e bb e2 71 d3 ba 14 44 0a bb
       0.0024575093 -0.003157211 -0.0016131962 -0.0021097707
0000f0 9e 51 21 3e b8 e2 22 3c 5b 62 1f be 4d 98 c8 3b
       0.1575379 0.009941749 -0.15564863 0.0061216713
000100 fe 0d b3 3a 77 1b a6 bb 34 2e 8d ba 55 c4 c9 b9
       0.0013660786 -0.005069192 -0.0010771216 -0.00038483986
000110 48 5c 39 bb d3 8f d7 3a 27 1e 31 3b 3a 7c 53 ba
       -0.0028283764 0.0016446061 0.002702603 -0.00080675224
000120 8e 4e 46 bb f4 60 8d bb 72 1d 95 ba c9 36 22 38
       -0.0030259225 -0.004314536 -0.0011376573 3.8674832e-05
000130 ea 7b 14 3b 79 04 7f 3a d8 87 ff 39 a2 a0 a5 ba
       0.0022656866 0.00097281445 0.00048738602 -0.0012636373
000140 cf 82 99 39 08 70 94 3b ed 8a 3b 3b d8 b7 7c bb
       0.00029279894 0.0045299567 0.0028616742 -0.0038561728
000150 43 2a 13 bb 7e 14 35 ba ca db 78 3a f0 ba 77 bb
       -0.002245561 -0.00069076556 0.00094932003 -0.0037800632
000160 88 d5 90 bb ba 16 8d bb 9a e6 24 bb 69 c3 43 ba
       -0.004419986 -0.0043056877 -0.0025161863 -0.0007467778
000170 92 48 f8 3a 91 fa 91 bb ff b6 28 3b 61 06 36 bb
       0.0018942526 -0.0044549187 0.002574384 -0.0027774798
000180 99 55 d2 3d 46 ad 86 3b 64 7f 8a 3b 80 d4 66 3b
       0.10270233 0.0041100113 0.004226612 0.0035221875
000190 5c 68 ce 3d f6 fd dd bd db 71 a8 3b 51 8c 4d bb
       0.10078499 -0.10839455 0.0051405258 -0.0031364153
0001a0 bc 85 f3 ba 36 ab b6 3d c2 86 e9 ba 85 3e 4f bb
       -0.0018579285 0.08919375 -0.001781665 -0.0031622958
0001b0 a7 94 bd ba 3a c3 1d bb 01 12 c6 3d bc 75 d4 bd
       -0.0014463858 -0.0024072663 0.09671403 -0.103740185
0001c0 e4 ef 9e bb a6 be 6a ba 46 23 c8 3d bf 14 d6 3d
       -0.0048503745 -0.00089548004 0.09772353 0.10453176
0001d0 bd ea 6d 3b 45 6c 9a bb 1d 01 47 bb ec bf bb 3d
       0.0036303245 -0.0047126138 -0.0030365654 0.091674656
0001e0 d9 ca 8a 3b b4 ab a7 ba 94 29 f7 3b 3b 2d 05 3b
       0.004235607 -0.001279226 0.0075427983 0.002032115
0001f0 06 24 d0 3d fc 3d 2c 3b 09 00 d7 bd 00 b7 fe 3b
       0.10163121 0.0026282063 -0.104980536 0.00777328
000200 ef d2 ae bd 27 99 3f 3e 73 27 73 ba 93 11 aa bb
       -0.08536326 0.18710767 -0.0009275593 -0.0051900833
000210 e7 a6 b0 bd 19 48 1b 3e 01 1c 08 bb f0 8c 89 3a
       -0.08625584 0.15164222 -0.0020768645 0.0010494273
000220 63 0f 07 bb 99 a5 05 3e d4 97 df b9 00 ff 9c 3b
       -0.0020608536 0.13051452 -0.00042646995 0.0047911406
000230 05 35 ce 3b 09 4e 41 3b f6 4b 87 bd d8 f9 0d 3e
       0.0062929415 0.0029495975 -0.06606285 0.13864839
000240 0e 73 24 b9 c0 c7 26 3b 5c 86 9f bd 3d 31 82 3d
       -0.0001568312 0.002544865 -0.07789299 0.06357048
000250 fd d6 3f bb 18 ce 1f 3a ca cf 8e ba 5e 4a 9d bd
       -0.002927243 0.0006096079 -0.0010895666 -0.076802
000260 05 54 6d bb 47 d8 b3 3b d2 46 67 3b 6f d3 84 3b
       -0.003621341 0.0054884288 0.0035290015 0.004053525
000270 d6 a1 4d bd 74 e8 eb 3b 20 99 14 3e 90 77 bc bb
       -0.050203167 0.0071993414 0.14511538 -0.0057515576
000280 e4 f1 9e bb 3e e5 82 bb 53 fd 1f bb 6a 9d f5 3a
       -0.004850613 -0.003994613 -0.0024412468 0.001873893
000290 0b e0 41 3a 98 c8 9e bb 8e ba 0c 3b 42 64 38 bb
       0.0007395751 -0.00484569 0.00214735 -0.002813593
0002a0 c7 bf 79 bb 79 b4 0b ba 80 bb 5e 3b 51 10 46 3b
       -0.0038108693 -0.0005329322 0.003398627 0.0030222128
0002b0 5c 40 7d 3b 2d 52 6f bb d9 e2 6d bb 79 c4 94 3b
       0.0038643098 -0.0036517486 -0.0036298542 0.004540023
0002c0 34 82 a5 ba 56 f4 27 b9 3a 24 88 bb cf ea b6 3a
       -0.0012627305 -0.00016017383 -0.004154709 0.0013955476
0002d0 f6 8d 2c bb 1e e0 98 39 37 4f a9 3a 75 d9 71 bb
       -0.0026329733 0.0002915868 0.0012917285 -0.0036903296
0002e0 ab da ec 3a 96 66 10 bb c1 ae 6e bb ca ee e5 38
       0.0018070539 -0.0022033802 -0.003642008 0.00010964049
0002f0 2d 24 cd 39 e8 bd 52 bb 8d 05 3f 3a c7 f0 83 bb
       0.000391276 -0.003215665 0.0007286899 -0.0040265056
000300 fe fa ac bb 41 e6 01 ba 48 67 92 3a 31 18 13 bb
       -0.005278944 -0.000495527 0.0011169696 -0.002244484
000310 37 2f 33 bb 77 3f d1 bb 36 d5 e9 b9 c7 26 c2 b9
       -0.0027341375 -0.0063857394 -0.00044600078 -0.00037031455
000320 6d 3d 38 3b 6f fb 20 ba 17 c5 4c ba 86 47 ea b9
       0.0028112784 -0.0006140982 -0.0007811351 -0.00044685247
000330 3e 1d 9b bb 89 67 a2 3a 1d 48 a8 3a 19 72 20 bb
       -0.0047337105 0.0012390475 0.0012838874 -0.002448207
000340 7c 01 4b 3b 1e 21 1d bb 38 59 7b 3b ae 67 5f ba
       0.0030976227 -0.0023976038 0.003835274 -0.00085222244
000350 cc 2d 96 bb 10 4e 91 ba 52 37 a7 3a fe d3 49 3a
       -0.004583096 -0.0011085887 0.0012757576 0.0007699131
000360 05 4b 5b bb 69 37 70 3b 9b e0 26 3b a6 1d 6e 3b
       -0.0033461463 0.003665412 0.0025463465 0.003633359
000370 d7 72 5b 3b c4 61 69 3b f0 43 39 bb aa ab e1 ba
       0.0033485198 0.0035611251 -0.0028269254 -0.0017217298
000380 0f a6 fa 3c 55 2d 75 3f b3 c7 6e 3b cf 4d 15 ba
       0.030596761 0.95772296 0.0036434948 -0.00056954933
000390 d3 c7 ad 3c 51 de 84 be 55 f7 08 3b 8d e4 05 ba
       0.021213448 -0.25950864 0.0020899375 -0.0005107604
0003a0 ec d4 8a bb d8 d3 ae 3e d1 41 20 bb 4c d0 7b 3a
       -0.004236808 0.34146 -0.0024453292 0.0009605929
0003b0 88 1e 42 bc 8c b7 af 3b 68 ca 03 3d 8c 02 26 bf
       -0.0118480995 0.0053624567 0.03217545 -0.64847636
0003c0 21 fe 52 3a de 4e 8a 3b 6e 21 8d 3c 46 ab 60 3e
       0.00080487324 0.0042208275 0.017227855 0.21940336
0003d0 99 a7 18 3b 81 ea 98 3a 4f 99 ee 39 fa c4 99 3c
       0.0023293255 0.0011666567 0.0004550912 0.018770684
0003e0 c9 58 bc 3a 06 1b 5e ba 4d ff d9 bb ea ad aa 38
       0.0014369722 -0.0008472655 -0.0066527487 8.138626e-05
0003f0 d3 d3 05 3e 16 e2 1c 3b 40 01 3d bf 7f 9e 91 ba
       0.13069086 0.0023938469 -0.7383003 -0.0011109858

bias f4 [32]
000000 56 1a f6 3d ea 05 b7 3d 9d 58 7e bb ba c3 38 3d
       0.12016742 0.08936675 -0.0038810142 0.045108534
000010 4e ea 8b 3d 61 36 b3 ba 83 08 da ba 8d f4 06 3e
       0.068317994 -0.0013672822 -0.0016634617 0.13179226
000020 d4 74 7a 3e fb 88 47 bb 66 1f 89 3d bb d8 0e 3d
       0.24458629 -0.0030446637 0.06695442 0.03487466
000030 a6 9f 57 ba 80 e7 a0 bb b1 d7 94 bb 16 fa b1 bb
       -0.00082253886 -0.0049104095 -0.004542314 -0.005431424
000040 74 c0 a3 3d 43 af 8c 3d 36 29 51 3d 26 93 be 39
       0.07995692 0.06869366 0.051064692 0.00036349258
000050 54 a6 42 3d 55 ae 60 3d e3 41 16 b9 bb ee 2b bb
       0.047521904 0.054853756 -0.0001432966 -0.0026234824
000060 6c af 97 3d 55 03 a6 bb 8a e8 cb ba 80 4d 51 3d
       0.07406506 -0.005066315 -0.0015556973 0.0510993
000070 e8 4e 27 bb f0 ae ea 3a c1 c2 94 3d 17 bb 32 3d
       -0.002552921 0.0017904919 0.07263709 0.043635454

weight f4 [32, 32]
000000 47 4a 33 bb 39 c6 b9 bb 5e d9 8b bb 36 e8 e5 ba
       -0.0027357505 -0.005669382 -0.0042678555 -0.0017540518
000010 54 45 04 3b 3a b4 f3 3a d1 c4 4e bb ac 44 20 bb
       0.0020182924 0.001859314 -0.0031550417 -0.0024454994
000020 8e c1 96 bb 9d 0f c2 ba 3e d3 02 bc 7a d8 43 bb
       -0.0046007102 -0.0014805679 -0.007984934 -0.0029883669
000030 ed 84 0f bb 45 25 96 3b 7d 2f ee ba 43 f1 c8 ba
       -0.0021899298 0.0045820796 -0.0018172112 -0.0015330691
000040 42 af 9f bb 1e 58 90 bb 4f 3e 90 bb 84 0c 7f ba
       -0.0048731873 -0.0044050356 -0.004401959 -0.0009729343
000050 d3 ea 42 3a 9a ae 03 bc a6 cf fe ba 4e bc 15 bb
       0.0007435504 -0.008037234 -0.0019440546 -0.0022847834
000060 87 38 80 bb af d0 2a 3a 84 20 92 b9 17 c1 01 bc
       -0.0039129886 0.00065160816 -0.00027871516 -0.007919571
000070 88 aa 21 bb d9 4b 59 bb 7c 8d 6c bb db 6c 73 39
       -0.0024668295 -0.003315678 -0.0036095073 0.00023214838
000080 e1 0c ab bb 1b 45 7a bb 1f 9a 8f bb 4e 64 34 bb
       -0.005220041 -0.0038188163 -0.0043823863 -0.0027525607
000090 7c b9 32 bb b3 05 17 3a 92 95 96 3b 52 28 6a 3b
       -0.0027271202 0.0005761042 0.004595467 0.00357296
0000a0 4c 5c 91 3a 26 db 55 bb bc c5 b6 39 c9 8a 37 3a
       0.0011090129 -0.0032631843 0.0003486107 0.00070015766
0000b0 f5 52 58 3a 66 70 8d bb 1e d1 3c 3b 90 9d 3c bb
       0.00082521077 -0.0043163775 0.0028811167 -0.0028780438
0000c0 54 49 89 3b 72 8f 6a 3b 4d 15 77 ba bf 3f ac 3a
       0.0041896496 0.0035791066 -0.00094254763 0.0013141556
0000d0 b1 82 82 3b 02 9c d7 39 c6 5b 87 38 24 c6 7a 3a
       0.003982865 0.0004112423 6.454396e-05 0.00095662684
0000e0 2b 8a 49 3b b4 9b 7d 3b 18 73 68 3b da 87 03 bb
       0.003075252 0.0038697543 0.0035468992 -0.0020069988
0000f0 f9 16 90 b9 44 84 04 bb a9 a2 b2 ba 32 8c 10 3b
       -0.00027482936 -0.0020220438 -0.0013628799 0.002205622
000100 14 af 43 3d 73 17 32 3e 46 5e 01 3a 1a 8b 02 3e
       0.04777439 0.17391758 0.00049350073 0.12748376
000110 d0 bd f1 bd 44 0b 8d 3a b2 5b 23 b6 43 f7 55 3e
       -0.11803782 0.0010760804 -2.4342266e-06 0.20895104
000120 a2 a7 20 3e d6 d5 92 3b 81 12 1f 3e b8 d3 1a 3e
       0.15688947 0.0044810576 0.15534402 0.15119827
000130 53 40 9e 3a 7b 62 49 38 60 08 9c bb 04 99 b3 3a
       0.0012073613 4.801385e-05 -0.0047617406 0.0013702218
000140 98 49 60 39 fb a0 e2 bd 5a e0 27 3e 6e 4d 69 3b
       0.0002138972 -0.11065861 0.16394177 0.003559913
000150 8f a6 22 3e 67 a4 1e 3e a4 28 a8 3b 68 d4 15 bb
       0.1588385 0.15492402 0.005131798 -0.00228622
000160 06 b5 e7 bd c4 b2 4e bb 5c 8d 25 bb 0f e0 1d 3e
       -0.11313824 -0.0031539658 -0.0025261259 0.15417503
000170 07 d5 6c bb 0e 01 b7 3a e4 0c f2 bd 1a c4 26 3e
       -0.0036137716 0.0013962106 -0.11818865 0.16285744
000180 02 9b 2e 3d 37 ab 0d 3e 5d c2 87 3b ce 14 fe 3d
       0.042628296 0.13834845 0.004143043 0.12406312
000190 87 39 1f be 0a 85 69 3b 91 a4 4a 3b 09 55 3e 3e
       -0.15549289 0.0035632276 0.0030920843 0.18587126
0001a0 c7 16 05 3e 24 67 6f bb 22 1c 01 3e 12 65 01 3e
       0.1299697 -0.0036529982 0.12608388 0.12636212
0001b0 6e e4 46 bb 96 3d c1 ba f0 ac e7 39 e8 f6 2c 3b
       -0.0030348557 -0.0014743085 0.00044188602 0.0026392285
0001c0 31 9d 1e bc e8 fb 1a be 94 86 18 3e 7c 81 4c ba
       -0.009681032 -0.15135157 0.14895087 -0.0007801277
0001d0 9a 9e 00 3e 6e 5f 05 3e b1 19 82 3b fa 70 75 3b
       0.12560502 0.13024685 0.003970348 0.0037451372
0001e0 41 4e 1b be 33 7b 8e 3b ba 0e ea 3a 30 e6 01 3e
       -0.1516657 0.0043481826 0.0017857172 0.12685466
0001f0 a2 be e5 bb f7 70 d5 ba fe 88 24 be 13 fb 05 3e
       -0.0070112506 -0.0016284276 -0.16067883 0.13084058
000200 d3 83 2d 3e 3b 02 e4 3c 02 67 35 3b 9a e8 bc bd
       0.16944818 0.027833095 0.0027679806 -0.09224053
000210 f1 e5 12 3e 01 ff d0 3a 38 61 5a 3b 45 32 86 3d
       0.14345528 0.0015945138 0.0033322107 0.06552557
000220 b8 64 b1 3d bb 82 fd ba 5b cb 6c 3c de b3 df bd
       0.08661789 -0.0019341329 0.014452781 -0.10922979
000230 3b 24 98 ba ee a3 55 3b 13 db f3 3a 19 0f 8b bb
       -0.0011607477 0.003259893 0.0018604718 -0.004243743
000240 ed c0 0e 3e d8 24 10 3e c8 72 f1 bd 0f cd ec b8
       0.13940783 0.14076555 -0.11789471 -0.00011291552
000250 5d 03 dd bd 91 3c dc bd dd dc 41 ba bb 40 8c 3b
       -0.10791657 -0.107537396 -0.0007395277 0.0042801774
000260 1c fa 15 3e 51 4e 27 3b 52 ef 95 b9 95 eb ec bd
       0.1464619 0.0025528858 -0.00028597802 -0.11568371
000270 41 f6 a5 b9 d3 be 19 39 c7 f8 0d 3e b0 84 eb bd
       -0.00031654726 0.00014662305 0.13864432 -0.114999175
000280 4d 09 02 3b 9b 39 1d 3b da e6 b7 ba a6 b3 7a b9
       0.001984197 0.0023990634 -0.0014030591 -0.00023908782
000290 55 3e 27 bb dc 10 66 3b d8 df 63 bb 72 93 f9 bb
       -0.002551933 0.0035105264 -0.0034770872 -0.007616454
0002a0 8c 1f 73 bb 89 ce b8 b8 f2 38 b5 b8 64 90 1d bc
       -0.003709766 -8.812274e-05 -8.6413595e-05 -0.009616945
0002b0 b7 c1 ad 3a 66 3f dd ba 58 85 27 bb b9 83 2b bb
       0.0013256584 -0.0016879856 -0.0025561657 -0.0026171042
0002c0 72 a6 da bb 48 10 80 3a 29 7d a3 bb 92 f7 8f b9
       -0.006672674 0.0009770477 -0.0049892855 -0.0002745954
0002d0 3e 09 66 bb 84 37 31 bb 0e 7b 43 3b 03 8c 6d 3a
       -0.0035100724 -0.0027041147 0.0029827985 0.0009061696
0002e0 80 2a 69 b9 a4 03 7d 39 43 ed 7c bb b6 97 1c bc
       -0.00022236444 0.00024129316 -0.0038593567 -0.009557655
0002f0 9c 26 fa 3a 53 36 4d 3b 4a da 97 b9 56 a8 e5 bb
       0.0019084993 0.0031312897 -0.00028963602 -0.0070085926
000300 e4 4c a1 bb f8 04 9f ba 76 1f 1f b8 5c db 8a 3a
       -0.004922496 -0.0012132218 -3.7937854e-05 0.0010593939
000310 cc e7 80 ba 8d c5 95 ba 49 4d 28 bb fa e8 bd bb
       -0.0009834706 -0.0011426673 -0.0025680831 -0.0057955952
000320 df 50 7c bb f8 7d 99 bb 3b 0a 3b 3b ce bf f3 ba
       -0.0038500351 -0.004684206 0.0028540033 -0.0018596591
000330 3f 91 07 3b 5a 68 aa bb 5b 55 03 bb fc 66 9e bb
       0.0020685939 -0.005200428 -0.002003989 -0.004834054
000340 6f a6 3c bb 71 70 f0 3a 10 18 b8 ba 7c d0 7e bb
       -0.0028785726 0.0018344057 -0.0014045257 -0.003888159
000350 5d 5f 29 b9 42 91 22 3b 41 ee bb 3a 1a 18 ec ba
       -0.00016152622 0.0024805819 0.0014337973 -0.0018012554
000360 d9 bb 97 bb 4a aa 84 3b 83 d7 93 3b 73 f5 f1 ba
       -0.0046305475 0.0040486204 0.004511775 -0.001845999
000370 f2 89 32 bb 86 3f 1b 3b f7 59 6d bb 7a af 4c b8
       -0.0027242866 0.0023688986 -0.0036216953 -4.8800815e-05
000380 9a b3 11 ba 51 a6 b9 3a 95 70 97 3b 1a 48 58 3b
       -0.0005558074 0.0014163946 0.004621575 0.003300196
000390 c7 c7 4e b7 fe 47 e4 3a 5c 4c 83 bb b5 82 fc b8
       -1.2325071e-05 0.0017416475 -0.0040069055 -0.000120406425
0003a0 49 00 83 3a ed 5d d8 ba 27 52 ca 3a 47 f7 1c bb
       0.0009994592 -0.0016507484 0.001543586 -0.00239511
0003b0 b4 7c 9f bb 93 c4 3f 3a 41 45 83 ba 8e e6 ab ba
       -0.0048671607 0.00073153636 -0.0010015146 -0.0013114975
0003c0 b8 66 20 bb 6e 2e a7 3a e4 cf e6 3a 23 9a 92 bb
       -0.0024475288 0.0012754926 0.0017609564 -0.004473941
0003d0 7a 88 f2 3a ae f6 14 ba 2b 10 97 3b a2 e2 22 bb
       0.0018503808 -0.000568251 0.0046100817 -0.0024854322
0003e0 eb 97 8c 3b fd 52 3b ba 6b 84 ab ba 1b 7c 76 bb
       0.004290571 -0.000714585 -0.0013085728 -0.0037610594
0003f0 ab 60 99 bb 28 03 55 bb a9 da ac bb 0e 67 fd b9
       -0.004680713 -0.0032503102 -0.0052750898 -0.00048332702

bias f4 [32]
000000 4e 16 c1 ba 1c 24 20 bb 39 09 76 3d 28 72 6e 3d
       -0.0014731379 -0.0024435585 0.06006739 0.058214337
000010 8b 1a a3 3d 7a 2b 0f 3b f4 0d 7a ba e9 1e a7 bb
       0.07964047 0.0021845982 -0.00095388223 -0.0051001203
000020 18 a4 86 3d 55 b8 22 3b 38 d9 8c bb d9 2a 57 3d
       0.06574267 0.0024829109 -0.0042983554 0.052531097
000030 bd b5 16 bb 55 69 98 3d b2 44 bb 3d 8f 9d 9b 3d
       -0.0022996508 0.074419655 0.09143962 0.07598411
000040 44 cb 96 bb 60 b4 7f 3d b5 28 7e 3d a8 fb 6f bb
       -0.004601868 0.06242788 0.06205054 -0.0036618505
000050 59 0f 6c bb 15 a4 cf 39 c8 88 98 bb b1 01 49 3b
       -0.003601989 0.00039604367 -0.0046549775 0.0030671174
000060 a9 0a 8d bb e8 ef 84 3d d7 bb 96 3d a7 39 a4 3d
       -0.0043042493 0.06491071 0.07360046 0.08018809
000070 86 90 a0 3d 3f bd 71 bb 68 a4 1c 3a da d3 b0 3d
       0.07840066 -0.003688648 0.0005975426 0.086341575

weight f4 [1, 32]
000000 38 fd 3a bb 16 be 65 ba cd a4 29 3e b6 58 23 3e
       -0.0028532278 -0.0008763982 0.16566773 0.1595181
000010 5f 39 30 be a0 1c ae 39 3e 2e 42 bb 4b d3 08 b8
       -0.17209385 0.00033209193 -0.0029629613 -3.262171e-05
000020 b9 96 3d be bd 94 5d bb 80 44 66 3a fe 23 2f 3e
       -0.18514527 -0.0033810579 0.0008784011 0.17103574
000030 96 e3 4d ba 71 73 41 be 9a af 3a be 39 92 35 be
       -0.00078540423 -0.18891694 -0.18231049 -0.17731561
000040 2f 05 be b5 a8 a0 2e 3e 48 bc 2f 3e 96 9c fa 39
       -1.4157612e-06 0.17053473 0.17161667 0.0004780038
000050 06 7e 79 38 12 bd 9a ba ef a6 87 3b 33 72 97 3a
       5.9483595e-05 -0.0011805615 0.004139773 0.001155442
000060 5a 2d 32 39 23 ca 29 3e 28 e2 41 be 48 14 38 be
       0.00016992298 0.16581015 -0.18933928 -0.17976487
000070 22 f9 39 be 9a 27 34 bb 4e 10 fe b9 75 81 39 be
       -0.18161443 -0.0027489425 -0.00048458803 -0.1811579
