pre_trained_models/2u2d/diode_pair_2u2d_1N4148_l_1.70k_2.50k_4x32_3.6e-6.pth (torch, 18291 bytes, 9 tensors)

weight f4 [32, 2]
0	0x3e623914	0.22092086
1	0x3d2dc6d1	0.042425934
2	0x3e691f45	0.22765835
3	0x3d35c5aa	0.04437796
4	0x3e3bc840	0.18338108
5	0x3bddcb43	0.0067686155
6	0xbb4dd616	-0.0031408123
7	0xbb78e5a8	-0.0037978683
8	0xbc0d5ed6	-0.008628568
9	0xbba5806f	-0.005050711
10	0x3cab027e	0.020875212
11	0xbad1e045	-0.0016012272
12	0xbbae4dda	-0.005319339
13	0xbdb6eafa	-0.08931537
14	0x3b6baa83	0.0035959787
15	0xb9d5fdfe	-0.00040815765
16	0xbe84b535	-0.259195
17	0x3d331a82	0.04372645
18	0xb98b284e	-0.00026542175
19	0xbc27dea1	-0.01024595
20	0xb9229bab	-0.00015507515
21	0x3b49af5d	0.003077469
22	0xbb411345	-0.0029460948
23	0xbba9af8c	-0.0051783975
24	0x3a513fe2	0.00079822366
25	0xbb3fe3d4	-0.0029280083
26	0xbb2bc3eb	-0.0026209306
27	0xbb42c116	-0.002971714
28	0x3e666a17	0.22501408
29	0x3d2dc614	0.04242523
30	0x3e5253e0	0.20539808
31	0x3cf73359	0.030175852
32	0x3e56a806	0.20962533
33	0x3d15216f	0.036408838
34	0xbbbcb913	-0.0057593673
35	0xbabf382f	-0.0014588888
36	0x3e2fddac	0.17174405
37	0x3c19d9da	0.009390319
38	0xbe7fc3f3	-0.24977092
39	0x3d49b42d	0.049244095
40	0x3b3e39cc	0.002902615
41	0x3c001d97	0.007819555
42	0x3bd06528	0.006359715
43	0xbc0b48ac	-0.008501213
44	0x39cc615c	0.0003898245
45	0x3c675f13	0.014121789
46	0x3c8bcea5	0.01706631
47	0xbb9da4f7	-0.004810925
48	0x3b2124e2	0.0024588634
49	0xbbf44ecc	-0.0074556824
50	0x3e2dc011	0.16967799
51	0xbcb0bccc	-0.0215744
52	0xbe93b219	-0.28846815
53	0x3c7ad24e	0.01530893
54	0x3c01623d	0.007896957
55	0xbb405111	-0.0029345194
56	0x3b7a675f	0.0038208587
57	0xbbe72e10	-0.0070550516
58	0x3a07a2fb	0.0005174127
59	0xbb320d50	-0.002716858
60	0xbe7ebfda	-0.24877873
61	0x3d5179c2	0.051141508
62	0xbb24b904	-0.0025134692
63	0xbb110ff9	-0.0022134765

bias f4 [32]
0	0x3d82b6c8	0.06382519
1	0x3d5e0cc1	0.05421138
2	0xbbeb718a	-0.007185166
3	0x3b4f8d70	0.0031669997
4	0xbc11dd4c	-0.008902859
5	0xbc821abb	-0.015881887
6	0x3eae1292	0.33998543
7	0xbbd2a663	-0.0064285262
8	0x3d9844a0	0.07434964
9	0x3d03099b	0.031991582
10	0xbc2e7fbe	-0.010650573
11	0x3bf93298	0.007604908
12	0x3c082c25	0.008311306
13	0x3bd0a4ee	0.0063673174
14	0x3d2ae896	0.041725717
15	0x3d57306d	0.052536417
16	0x3d96fe29	0.07372696
17	0xba90ed07	-0.0011056968
18	0x3d3cf8ea	0.04613582
19	0x3d84f30c	0.0649167
20	0xbcf74148	-0.030182496
21	0x3c02e209	0.007988461
22	0xbd493c28	-0.049129635
23	0x3b8ed4f8	0.004358884
24	0x3b827cb5	0.0039821514
25	0x3d1fa066	0.038971327
26	0x3be09bdd	0.006854518
27	0xbbfe7049	-0.0077648503
28	0xbbebe53d	-0.007198958
29	0x3b424303	0.0029641993
30	0x3d82178a	0.06352146
31	0xbbc342c5	-0.0059588873

weight f4 [32, 32]
0	0x3e02759c	0.12740177
1	0x3dffc467	0.12488633
2	0x3dbb62a4	0.091496736
3	0xbae5c4f8	-0.0017530015
4	0xbaced356	-0.0015779536
5	0x3c613274	0.013744939
6	0x3e6d784a	0.23190418
7	0x3aaf7106	0.0013385124
8	0xbd3feaa8	-0.046854645
9	0x3ca4853b	0.02008306
10	0xbb7f8fb5	-0.0038995568
11	0x3aefc0b9	0.0018291689
12	0x3b214ee3	0.002461367
13	0x3abcd19e	0.0014405733
14	0x3df54d1e	0.119775996
15	0x3debb029	0.11508209
16	0x3dffd883	0.12492468
17	0xbb9dfc2a	-0.00482132
18	0x3db66bf0	0.08907306
19	0xbd39dfda	-0.045379497
20	0xba220729	-0.00061808765
21	0xbb1434f2	-0.0022614566
22	0xbcbb45c7	-0.02286042
23	0xb99d7273	-0.00030030645
24	0x3a54a82d	0.00081122183
25	0x3e00e280	0.12586403
26	0xbd2992b4	-0.041399673
27	0x3a1b6df7	0.0005929167
28	0x39b809d9	0.00035102552
29	0x3a2c8369	0.0006580861
30	0xbd2a846d	-0.041630197
31	0xbaf71fc4	-0.0018854071
32	0xbd6eea78	-0.058329076
33	0xbd7f0b52	-0.062266655
34	0xbcdb3475	-0.026758412
35	0xbaffa222	-0.0019503275
36	0xb962167c	-0.00021561416
37	0x3b6e86a6	0.0036396175
38	0x3ec61be7	0.38693163
39	0x39ff6b31	0.00048717254
40	0x3e16cc6a	0.14726415
41	0x3c45339b	0.0120362295
42	0xbb312d8b	-0.0027035202
43	0x397ed35a	0.00024302062
44	0x3b4a3c46	0.003085868
45	0x3a257c61	0.00063127844
46	0xbd63469e	-0.055487268
47	0xbd26173f	-0.040549513
48	0xbd57ea83	-0.052713882
49	0x395d23aa	0.00021089488
50	0xbc917aca	-0.017758746
51	0x3e07c525	0.13258798
52	0xbb438e8a	-0.0029839599
53	0x3ac55bc7	0.0015057259
54	0xbcd52a77	-0.026021225
55	0x3d67b06e	0.05656474
56	0xba943a17	-0.0011308816
57	0x3c518baa	0.012789646
58	0x3e1d5908	0.15365994
59	0xba1c3612	-0.0005958985
60	0x3a987844	0.0011632522
61	0xbb155bd9	-0.0022790341
62	0x3e05f1c3	0.13080506
63	0x39f3924d	0.00046457574
64	0xba93e6cb	-0.0011283992
65	0xbafd061b	-0.0019304188
66	0xba25d409	-0.0006325846
67	0xba71bf6d	-0.0009221945
68	0xb9d9e654	-0.00041561073
69	0xba5d637e	-0.00084453064
70	0xbb16d84f	-0.0023017114
71	0xbafc1ae0	-0.0019234084
72	0x39692cbf	0.00022237281
73	0x392865df	0.00016059678
74	0xba338ec3	-0.0006849581
75	0x351d75b7	5.8658355e-07
76	0xbac581f9	-0.0015068642
77	0xb98e8589	-0.00027183842
78	0x3a65e984	0.0008770453
79	0x3abb092c	0.0014269701
80	0xb9fe4363	-0.00048496862
81	0xbab1d4c7	-0.0013567441
82	0x3af5addd	0.0018743832
83	0xba919d07	-0.001110942
84	0x3a93540c	0.0011240258
85	0x3aa48797	0.0012552616
86	0xbad38d32	-0.0016140102
87	0x3abfe651	0.0014640783
88	0x3aa58b84	0.001263008
89	0x3a09f134	0.00052620773
90	0x3a5f2cba	0.00085134397
91	0xba9d7123	-0.0012011867
92	0x3b174222	0.002308019
93	0x3a395c81	0.0007070974
94	0x3aceb6c9	0.0015771027
95	0xb9cc94a2	-0.00039020652
96	0x3a2cf425	0.00065976597
97	0xb9975796	-0.0002886622
98	0x394e2f02	0.00019663203
99	0x3ad2491e	0.0016043519
100	0xba850f39	-0.0010151631
101	0xb91d06b0	-0.00014975178
102	0xba4e449b	-0.00078684994
103	0xb7b79d03	-2.1888414e-05
104	0x385ac82c	5.2161675e-05
105	0x3a5287eb	0.00080311176
106	0xb9e6f426	-0.00044050923
107	0x3aaad55b	0.0013033556
108	0xbb3d96e7	-0.0028929056
109	0x398ceeec	0.00026880892
110	0xbaacdf7c	-0.0013189162
111	0xbaf25381	-0.0018488021
112	0x3a783ad8	0.00094692176
113	0x3a21c5f1	0.0006171158
114	0xbb27b06e	-0.0025587338
115	0xba3d56be	-0.00072227034
116	0xbb0743d1	-0.0020639787
117	0xba41431d	-0.00073723664
118	0xbae9364f	-0.0017792674
119	0x39e0cf28	0.00042878953
120	0x3b098791	0.0020985345
121	0xbafaa2ef	-0.0019122044
122	0xb9a52157	-0.00031496093
123	0x3b0839f8	0.0020786505
124	0x3aef1f7b	0.0018243635
125	0x3b02a0e1	0.0019932317
126	0x3a67457b	0.0008822304
127	0xb901c48a	-0.00012375615
128	0xb9c80687	-0.00038151836
129	0xba4cdfbb	-0.0007815321
130	0x3a7bbb68	0.0009602816
131	0xbaca04c9	-0.0015412803
132	0x3aa61e44	0.0012673815
133	0xba9325af	-0.001122644
134	0x39ada8b2	0.0003312282
135	0x3afa4c27	0.0019096181
136	0xba6079e8	-0.00085630873
137	0xba79c861	-0.0009528455
138	0x3adcdb6c	0.0016850061
139	0xbad01092	-0.0015874079
140	0xba7bbaaa	-0.0009602705
141	0xb93b3251	-0.00017852454
142	0xbaa31eff	-0.0012445151
143	0xbb488152	-0.003059466
144	0xba780c22	-0.0009462257
145	0xba8f56e9	-0.0010935935
146	0xb9aac0c7	-0.00032568557
147	0xbb7ed2ff	-0.0038883088
148	0xbb00019d	-0.0019532212
149	0xbaf95154	-0.001902143
150	0xbb7a92e1	-0.003823452
151	0xbb498c15	-0.0030753661
152	0x3ad8d50b	0.0016542984
153	0xbb81a746	-0.003956708
154	0xbab7611e	-0.0013990735
155	0xbb11e3dd	-0.0022261061
156	0xba9d6113	-0.001200708
157	0x3ab16bbf	0.0013536139
158	0xbb54b88f	-0.0032458638
159	0x3a9ae55e	0.0011817624
160	0xbb960702	-0.004578472
161	0xbb81eea7	-0.003965217
162	0xbb6acd24	-0.003582784
163	0x3aaeb437	0.0013328855
164	0x3b0d5ecc	0.0021571396
165	0x3a239f5c	0.0006241703
166	0xbb3ef04f	-0.0029134934
167	0xba11f36d	-0.00055675843
168	0x3adb087a	0.00167109
169	0xb9967e67	-0.00028704407
170	0xbb3f2f92	-0.0029172641
171	0x3afcc1ae	0.0019283795
172	0x3b1d8da2	0.0024040719
173	0x39f2692e	0.00046236202
174	0xbaf3abbb	-0.0018590608
175	0xba4a6db7	-0.0007722037
176	0xbafd7a4e	-0.0019338818
177	0x3a974619	0.0011541276
178	0xbb1bd1c9	-0.0023776165
179	0xb9b4814c	-0.0003442861
180	0xba0d6866	-0.000539428
181	0x3b0db8c0	0.0021625012
182	0xb73a1756	-1.1091897e-05
183	0xba98d72e	-0.0011660808
184	0x3a9307f1	0.0011217577
185	0x3ad5705c	0.0016284096
186	0xb94b99a7	-0.00019416829
187	0xbac01e42	-0.0014657455
188	0xbb136eb6	-0.0022496409
189	0x39e03c06	0.0004276933
190	0xba2ff880	-0.00067127496
191	0x39cce10b	0.00039077582
192	0xbb26523c	-0.0025378605
193	0xbafebffd	-0.0019435879
194	0xba07597d	-0.0005163176
195	0xba9e3b3c	-0.0012072097
196	0x3ab0c8a1	0.0013487526
197	0xbab5af08	-0.0013861367
198	0xba0aea91	-0.00052992353
199	0xbb0dd951	-0.0021644423
200	0xbb5871a8	-0.0033026729
201	0xbb2b9a24	-0.0026184404
202	0xbabd2844	-0.0014431556
203	0xba4251b7	-0.0007412689
204	0x3b04ab85	0.0020243835
205	0xbb111080	-0.002213508
206	0xbb4352ed	-0.0029804066
207	0x3a81cfe4	0.0009903875
208	0xbaf6a5ba	-0.0018817701
209	0xbb08e70e	-0.0020889672
210	0x395e17ca	0.00021180432
211	0x3ac4dbda	0.0015019134
212	0xba7de985	-0.0009685981
213	0xbaf9f9ab	-0.0019071599
214	0xba8e8ec2	-0.0010876285
215	0xbb385883	-0.002812893
216	0xbacbd29b	-0.0015550436
217	0x3a77d220	0.00094536133
218	0xb9a15a99	-0.00030775814
219	0xba48d6b3	-0.0007661387
220	0xba12f244	-0.00056055584
221	0xba7ff687	-0.00097642135
222	0x3ad12ff2	0.0015959723
223	0xbb14cc97	-0.0022704953
224	0xba6b9504	-0.00089867436
225	0x3a4f12cd	0.0007899225
226	0x3973c4cb	0.00023247597
227	0xbaa34c46	-0.0012458644
228	0x3ad9e276	0.0016623277
229	0xb96b377d	-0.00022432017
230	0x3a558707	0.0008145426
231	0xba05f715	-0.00051103655
232	0xbab114b0	-0.0013510194
233	0xba9b7bce	-0.0011862458
234	0xba038008	-0.00050163316
235	0x39785e2a	0.00023686202
236	0x3ac90fe5	0.001533982
237	0x38e1d936	0.00010769295
238	0xba006b6d	-0.000489882
239	0x3afa227f	0.0019083767
240	0x388db384	6.756841e-05
241	0x3a9dfa90	0.0012052823
242	0xbada3b56	-0.0016649764
243	0xbaf93b2e	-0.0019014829
244	0x3b135f21	0.0022487121
245	0xbb11dcce	-0.0022256854
246	0xbab22fe7	-0.0013594598
247	0x3b1187a1	0.0022206085
248	0x3a34b81d	0.000689389
249	0xbb197519	-0.0023415743
250	0x3930b5a6	0.00016852337
251	0xba32dd5d	-0.0006823147
252	0x390fe2c5	0.00013722021
253	0xbac349dd	-0.0014899332
254	0xbadaadf0	-0.0016683917
255	0x3ab974c9	0.0014149185

bias f4 [32]
0	0x3d7ff6c7	0.062491205
1	0x3d9d123c	0.076694936
2	0xba6ddf8a	-0.00090741424
3	0xba32630b	-0.00068049197
4	0x39cf0933	0.0003948897
5	0xba37064c	-0.00069818343
6	0xbb1c4bfd	-0.0023849003
7	0xba0ce5a6	-0.00053747965
8	0x3c155ffd	0.009117124
9	0xbbd763b7	-0.006573166
10	0xba87323e	-0.0010314656
11	0x3d9c2e7c	0.07626054
12	0xbb651852	-0.0034957123
13	0x39e00f04	0.00042735797
14	0xbaf3cd7d	-0.0018600669
15	0xba12cf8c	-0.0005600385
16	0xbba4a4ba	-0.0050245197
17	0xbb288535	-0.0025714163
18	0xbb34db18	-0.002759641
19	0x3e45ada1	0.19304515
20	0xbb2020e4	-0.0024433667
21	0x3d4c7b7d	0.049922455
22	0x3d78603b	0.060638648
23	0xbb4463f8	-0.0029966813
24	0x3dcc641d	0.099800326
25	0x3ac5b22b	0.0015083005
26	0xbb3378c1	-0.0027385207
27	0x3d97b6ee	0.07407938
28	0x399c70d0	0.0002983869
29	0xba53d802	-0.0008081199
30	0xbb0178dc	-0.0019755876
31	0xba7115d4	-0.0009196673

weight f4 [32, 32]
0	0xbc22c086	-0.0099335965
1	0xbbb7bea1	-0.0056074415
2	0x3a2e52b0	0.00066498946
3	0xba2aa4d9	-0.00065095496
4	0x3acfefba	0.0015864291
5	0xbbc20bed	-0.005921832
6	0x398a83d3	0.00026419628
7	0xba7d5161	-0.00096633105
8	0xbc178fec	-0.009250622
9	0xb94847a3	-0.00019100173
10	0xbb0a1591	-0.0021069983
11	0xbbb2bb49	-0.005454455
12	0x3ac05142	0.0014672654
13	0xb9ff764a	-0.00048725522
14	0xbadf5f02	-0.0017041864
15	0xbb0d8694	-0.0021595107
16	0xbac1f3c5	-0.001479738
17	0x3a233b08	0.0006226753
18	0x3a1ed399	0.0006058752
19	0x3cd56971	0.026051255
20	0xbb15a9fc	-0.0022836914
21	0xbb54afc8	-0.0032453407
22	0xbc275c93	-0.0102149425
23	0x3adf5fb6	0.0017042074
24	0xb9975e1d	-0.00028871084
25	0x3be440a2	0.0069657126
26	0xbaa25022	-0.00123835
27	0xbbc7670c	-0.006085282
28	0xba864628	-0.0010244297
29	0x3aed4548	0.0018102312
30	0xba37a183	-0.0007004963
31	0xbb0dd68a	-0.0021642768
32	0x3abd7044	0.0014453013
33	0xba5a1cd4	-0.0008320336
34	0xba9085b6	-0.0011026177
35	0x3a728351	0.0009251135
36	0xb9a8c4fa	-0.00032190216
37	0xb9d5be7e	-0.00040768454
38	0xbab73380	-0.001397714
39	0x3afc4ed1	0.0019249563
40	0xbae3e99a	-0.0017388344
41	0xbb03f60e	-0.0020135674
42	0xb92f5b10	-0.00016723224
43	0xba3ed2f3	-0.00072793587
44	0x3a99b128	0.001172577
45	0xba89c2e6	-0.0010510355
46	0xb9cbc355	-0.0003886471
47	0x3aab96b9	0.0013091184
48	0x3a39bade	0.00070850353
49	0xba3cbccf	-0.00071997655
50	0xba26fcca	-0.0006370066
51	0xbab1a817	-0.0013554123
52	0xba1a78f6	-0.00058926584
53	0xba6ece88	-0.0009109755
54	0x395beb50	0.00020973128
55	0xba2b4b66	-0.00065343676
56	0xbaf78b55	-0.0018886129
57	0xb96f86c8	-0.00022843026
58	0xbb07ba59	-0.0020710437
59	0xbaf2ea41	-0.0018532948
60	0x3920000e	0.0001525881
61	0xbac0d6c9	-0.0014712448
62	0xbb07832c	-0.002067755
63	0x3af0181b	0.0018317731
64	0xba93f54b	-0.0011288313
65	0xbac47bb6	-0.0014990482
66	0xb8a0d8e1	-7.6697914e-05
67	0x3a38bf1d	0.0007047521
68	0x3ade649c	0.001696724
69	0x3af73726	0.001886104
70	0x3a8da574	0.0010806755
71	0xbabe4093	-0.0014515094
72	0xba7b6995	-0.0009590623
73	0xba8543ef	-0.001016734
74	0x3af0bcaf	0.0018366779
75	0xbb0ed82e	-0.0021796334
76	0x39078322	0.00012923454
77	0xb924eb77	-0.00015727976
78	0xbaf3fc31	-0.0018614588
79	0xb9c5dec6	-0.00037740747
80	0xbaad2073	-0.0013208523
81	0xbb0e2550	-0.002168972
82	0xba8f9ddc	-0.001095708
83	0x3ac2b48a	0.001485483
84	0x3abe6351	0.0014525448
85	0xb97869eb	-0.0002369058
86	0x3ae78020	0.0017662086
87	0xbab99899	-0.0014159858
88	0xbb0beff6	-0.0021352745
89	0xbabe6c7f	-0.0014528184
90	0x3aefd44a	0.001829752
91	0x3a5b22a8	0.0008359351
92	0x3aaf9338	0.0013395315
93	0xbaf9df54	-0.0019063749
94	0xba4a1c77	-0.000770993
95	0x3af7f6ec	0.0018918193
96	0x3a7b791b	0.0009592936
97	0x3af7b07b	0.00188972
98	0x3afa965d	0.0019118298
99	0x3ae83aa8	0.0017717676
100	0xb707cdf7	-8.094582e-06
101	0xbad301d3	-0.0016098566
102	0xbb01367c	-0.0019716313
103	0x3a1f4d69	0.00060769037
104	0xbab6b421	-0.0013939181
105	0xba7ca319	-0.00096373406
106	0xbaa3ab90	-0.0012487043
107	0xbaab8251	-0.0013085102
108	0xbaf4b6bd	-0.0018670183
109	0xbb1917fc	-0.0023360243
110	0xb743ede1	-1.1678291e-05
111	0x39d4a682	0.0004055985
112	0x393d1f16	0.00018036025
113	0xbaf0feee	-0.0018386522
114	0x3af7480c	0.0018866076
115	0x3af0abb1	0.0018361715
116	0x3a87c657	0.0010358792
117	0xba97b716	-0.001157495
118	0x3aba0109	0.0014190982
119	0xbb0503b6	-0.0020296401
120	0xbaa132c4	-0.0012298455
121	0xbb07f741	-0.002074674
122	0xb8707359	-5.7327885e-05
123	0x39bceb79	0.00036033595
124	0xbafd496a	-0.0019324247
125	0xbaa4ce45	-0.001257368
126	0xbaa1aef0	-0.0012335461
127	0x3a80f0c4	0.0009837379
128	0x39757e25	0.00023412013
129	0xb9c53f18	-0.00037621777
130	0x3a737aad	0.00092879945
131	0xbab03196	-0.0013442512
132	0xb9d7a877	-0.00041133512
133	0xbab82103	-0.0014047924
134	0x3b01e214	0.001981859
135	0xbaa36677	-0.001246645
136	0x3a654a46	0.00087467243
137	0xbad97792	-0.0016591421
138	0xba8c48f9	-0.00107029
139	0xbae68e76	-0.0017590064
140	0xbb120f52	-0.0022286964
141	0xbaff3c0a	-0.0019472849
142	0x3af4a9a6	0.0018666282
143	0xbaa41828	-0.0012519406
144	0xba6f7697	-0.0009134798
145	0xba6285dc	-0.00086411624
146	0x3ab0db60	0.0013493113
147	0xba02fe8e	-0.0004997038
148	0xbad3374f	-0.0016114506
149	0xba92fdca	-0.0011214551
150	0xbb03b160	-0.0020094737
151	0x3a583250	0.0008247243
152	0xba873cd2	-0.0010317808
153	0x3a7782a9	0.0009441772
154	0xbb19a3b0	-0.0023443513
155	0xbb3b2e1c	-0.002856142
156	0xbb443dac	-0.0029943986
157	0xb99f763d	-0.00030414938
158	0xba479a2b	-0.00076142204
159	0xba9f1782	-0.0012137743
160	0xbb0a08fb	-0.0021062482
161	0xbac2eb18	-0.0014871089
162	0x39454020	0.00018811272
163	0x38a5e687	7.910752e-05
164	0x3a2a672c	0.0006500359
165	0x398b8b78	0.00026616058
166	0x3ad1e134	0.001601255
167	0x3aac1eaf	0.0013131703
168	0x3a8ed821	0.0010898152
169	0xbac34ca2	-0.0014900158
170	0xbb10d7c2	-0.0022101258
171	0xba826e0d	-0.000995101
172	0xbaf0494e	-0.0018332393
173	0xbb0b12d0	-0.002122093
174	0xba562bf9	-0.00081700046
175	0x3afe8dd5	0.0019420931
176	0xbaae4eae	-0.0013298595
177	0xbb083972	-0.0020786193
178	0xba8a17c8	-0.0010535652
179	0x3b04e84e	0.0020280066
180	0xbaa720e4	-0.0012750891
181	0xbae732f8	-0.0017639091
182	0xba93edd5	-0.001128609
183	0x3abaa121	0.0014238694
184	0xba0bfef4	-0.000534042
185	0x39734ee4	0.00023203675
186	0x3a4fd6d4	0.0007928435
187	0x39376ec6	0.00017493506
188	0x3ac806fd	0.0015260872
189	0xbac44c05	-0.0014976269
190	0xbac3dd30	-0.0014943238
191	0xba92c7a0	-0.0011198409
192	0x3ded718b	0.11593922
193	0xbdb777d9	-0.08958406
194	0xbac35845	-0.0014903626
195	0x3ad8f3a8	0.0016552107
196	0xb9f45519	-0.0004660271
197	0x3aa60c2a	0.001266842
198	0xb9a2ec23	-0.00031074983
199	0x3aa04b48	0.0012229467
200	0x3dccad33	0.09993973
201	0xba9ce30c	-0.0011969521
202	0x3a74d5ef	0.000933974
203	0xbdb61a60	-0.088917494
204	0x39aa3835	0.00032466804
205	0x384c4016	4.8697075e-05
206	0xbaa4d13f	-0.0012574567
207	0x3afdf6e1	0.0019375944
208	0x392c4671	0.0001642944
209	0xba16feb2	-0.00057599985
210	0xbaa57e4a	-0.0012626138
211	0x3e808419	0.25100783
212	0x3a9f9043	0.0012173731
213	0x3ddcd2e7	0.10782414
214	0x3de26108	0.110536635
215	0xbbacb13c	-0.0052701514
216	0xbd03ae25	-0.0321485
217	0x3ab3a8fc	0.0013706977
218	0x3b18f9e4	0.0023342306
219	0xbdaf7230	-0.085667014
220	0x3b3b3a43	0.0028568662
221	0xb9d60614	-0.0004082179
222	0xbb20472e	-0.002445649
223	0xb9748c4b	-0.00023321917
224	0xbae2e292	-0.0017309955
225	0x3ad701ab	0.0016403695
226	0xba04d7ab	-0.00050675374
227	0x3aa4bb9a	0.0012568117
228	0xbaac669b	-0.0013153137
229	0xb98dc522	-0.0002704049
230	0xba4f2912	-0.00079025433
231	0xbaadd139	-0.0013261206
232	0x39fe1623	0.00048463148
233	0x3b0ed371	0.002179351
234	0xbb00d216	-0.001965647
235	0xba4c3291	-0.00077895174
236	0xba656162	-0.0008750168
237	0x39844c53	0.00025233868
238	0xba77c72c	-0.0009451981
239	0xb8e26a74	-0.00010796348
240	0xba172493	-0.0005765643
241	0x39cf3feb	0.0003952974
242	0xbb2abdaf	-0.0026053002
243	0x3a828bbc	0.0009959857
244	0x398a5346	0.00026383455
245	0x39ea2348	0.00044658245
246	0x39b9edbe	0.0003546308
247	0xbaf1bc93	-0.001844304
248	0xb9cf617d	-0.0003955475
249	0xba612316	-0.0008588297
250	0xbadfa3b4	-0.0017062337
251	0x3976ea84	0.00023547752
252	0xbaa2471d	-0.0012380813
253	0xb9a770ee	-0.0003193686
254	0xbb062034	-0.0020465972
255	0x3aa6b862	0.0012719745

bias f4 [32]
0	0x3a8c6eb4	0.0010714144
1	0xbb063f92	-0.0020484668
2	0xbb09a347	-0.0021001862
3	0xbadf7e40	-0.0017051175
4	0x37cbddbb	2.4302737e-05
5	0xbae10a0a	-0.001716913
6	0x3d806967	0.06270104
7	0xbad53982	-0.0016267749
8	0xbaa1be20	-0.0012339987
9	0x3d534071	0.051575128
10	0xbafb4446	-0.0019170127
11	0x3d5e6701	0.05429745
12	0x3d6984c4	0.05701138
13	0x3d78d454	0.060749367
14	0x3d860f98	0.06545943
15	0x3d7f57fa	0.06233976
16	0x3d7516e9	0.059836302
17	0x3d77a1d4	0.060457066
18	0xb9a19276	-0.00030817435
19	0xbb310e35	-0.0027016525
20	0x3e21ba92	0.15793827
21	0xba587741	-0.00082575163
22	0x3a1e2f73	0.0006034292
23	0xb9c73b5c	-0.00038000464
24	0x3d620fbb	0.055190783
25	0x3e3bcd80	0.18340111
26	0x3d82cb3c	0.0638642
27	0xba5c764c	-0.00084099616
28	0x3e32f45b	0.17476027
29	0x3d89000b	0.06689461
30	0x3d5db37f	0.05412626
31	0x3d7d6015	0.06185921

weight f4 [32, 32]
0	0xba8d30f1	-0.0010772032
1	0xba866816	-0.0010254409
2	0xbb135405	-0.00224805
3	0xbb1251a6	-0.0022326498
4	0x3869a205	5.570242e-05
5	0x3a00a960	0.00049080513
6	0xbabf0781	-0.001457438
7	0x3a3ff1b2	0.0007322087
8	0xb903440f	-0.00012518487
9	0xba6d1f8a	-0.0009045532
10	0xb9cc75cb	-0.00038997675
11	0xb90ba0f8	-0.00013316039
12	0xba137fc7	-0.0005626645
13	0xba31eec4	-0.0006787593
14	0xba112697	-0.00055370614
15	0xba3f0246	-0.00072864105
16	0x3ad4f225	0.0016246481
17	0xbb0a4c21	-0.0021102505
18	0x3b09dbc0	0.0021035522
19	0xbafaac27	-0.0019124792
20	0x3a2b55fb	0.00065359444
21	0xbaba37fc	-0.0014207358
22	0x39cc7a7d	0.00039001173
23	0x3a94e3c7	0.0011359387
24	0x3a0d603e	0.00053930643
25	0xb91382fc	-0.00014067808
26	0x399b9c4a	0.00029680348
27	0x3a2da3c6	0.00066238304
28	0x3ac15058	0.0014748676
29	0x396c84d5	0.00022556198
30	0xba8746c4	-0.0010320772
31	0xba4bd467	-0.0007775486
32	0xbb0268b1	-0.0019898827
33	0xba7b9566	-0.0009597152
34	0xbaa37e83	-0.0012473617
35	0x39858327	0.00025465453
36	0xba7e7e8d	-0.00097081886
37	0x3ae9c678	0.0017835638
38	0x3acb2377	0.001549824
39	0xb94d5067	-0.00019580276
40	0xba8bf330	-0.0010677334
41	0xb8f00f63	-0.00011446958
42	0xbab1a942	-0.0013554471
43	0xbad644bd	-0.001634739
44	0xbb24acde	-0.002512745
45	0x3ab140dc	0.0013523358
46	0xbb174bbb	-0.002308591
47	0xbafef98e	-0.0019453035
48	0x3ab0809a	0.0013466061
49	0xba036b84	-0.00050132745
50	0xbafa0adc	-0.0019076723
51	0x3ab8705d	0.0014071573
52	0x3ae2c93c	0.0017302404
53	0xbb084619	-0.0020793735
54	0xbaa2c347	-0.0012417816
55	0xbac99572	-0.0015379621
56	0xbb28ccbd	-0.00257568
57	0x3a9b4a38	0.001184768
58	0xbab1de00	-0.001357019
59	0xbb0faf18	-0.0021924432
60	0xba7f03a2	-0.00097280194
61	0xbacfc6e3	-0.001585212
62	0xbabd7e67	-0.0014457226
63	0x3a79646e	0.00095135614
64	0x3b6f0254	0.0036469894
65	0xba0724d6	-0.000515533
66	0x3a537c32	0.0008067518
67	0x39fd5d6c	0.00048325525
68	0xbaf61b1f	-0.0018776393
69	0x3af9bf25	0.0019054158
70	0xbdccccf8	-0.10000032
71	0xbb064aab	-0.0020491283
72	0x3a9fffb6	0.0012206945
73	0x3e3829b5	0.1798466
74	0x3ac5d7fc	0.0015094276
75	0x3e3df889	0.1855184
76	0x3e32a466	0.17445526
77	0x3e3d6198	0.1849426
78	0xbdb3f8fb	-0.08787724
79	0xbdd018a5	-0.101609506
80	0x3e281997	0.16416012
81	0x3e3c0b91	0.18363787
82	0x3a4749be	0.0007602236
83	0x3b0df134	0.002165866
84	0x3e5fc6c9	0.21853174
85	0xbb23df42	-0.0025004898
86	0x392f054c	0.00016691274
87	0x3ae1a408	0.0017215023
88	0x3e33abfa	0.17546073
89	0x3e986453	0.2976404
90	0xbdd6705e	-0.10470651
91	0x3b0d8809	0.0021595976
92	0x3e2ca10d	0.16858311
93	0xbdc8f3fa	-0.0981216
94	0x3e30e4c2	0.17274764
95	0xbdcd70d7	-0.10031288
96	0x3a6e7326	0.0009096138
97	0xbab272f6	-0.0013614583
98	0xba96142f	-0.0011450107
99	0x3af82932	0.0018933176
100	0x3ace9e91	0.0015763809
101	0xb87c7847	-6.01935e-05
102	0xbdd36dff	-0.103237145
103	0xbb0e2f88	-0.0021695811
104	0xb7b774d9	-2.1869711e-05
105	0x3e381ffb	0.1798095
106	0xba362ceb	-0.00069494423
107	0x3e3e00b1	0.18554951
108	0x3e31c888	0.17361653
109	0x3e3de147	0.18542968
110	0xbdb3e124	-0.087831765
111	0xbdd83cf9	-0.105585046
112	0x3e26c4c6	0.16286
113	0x3e3f0dd8	0.18657625
114	0x398e92e2	0.00027193787
115	0xba27c668	-0.0006400109
116	0x3e6481a7	0.22315083
117	0x39e89a00	0.00044365227
118	0xbafe0656	-0.001938055
119	0xba955d0d	-0.0011395529
120	0x3e34ad78	0.17644298
121	0x3e979a82	0.29610068
122	0xbdd8753d	-0.105692364
123	0x3a79d954	0.00095309806
124	0x3e2b82a7	0.16749059
125	0xbdca0005	-0.09863285
126	0x3e30e546	0.17274961
127	0xbdc7f63e	-0.09763764
128	0xbb4e856d	-0.0031512633
129	0xba4cb1cd	-0.0007808477
130	0x3b1424a8	0.0022604857
131	0xba8d19c2	-0.0010765123
132	0xba2650b9	-0.0006344426
133	0x3afaef82	0.0019144865
134	0x3df55229	0.119785614
135	0x3a036593	0.0005012389
136	0x39f84bd3	0.0004735874
137	0xbe8643aa	-0.262235
138	0xbb04b3ae	-0.00202487
139	0xbe8c8d7b	-0.2745169
140	0xbe8c5361	-0.27407363
141	0xbe8f15e9	-0.27946404
142	0x3e99b59a	0.30021363
143	0x3df5e6c9	0.120069094
144	0xbe1d794e	-0.15378305
145	0xbe9ac814	-0.30230772
146	0xbabf6873	-0.0014603272
147	0xbb93fec8	-0.0045164563
148	0x3e0014b1	0.12507893
149	0x3b327500	0.0027230382
150	0xbab2ebc5	-0.0013650587
151	0x3af629e8	0.00187808
152	0xbe87e4e9	-0.26541832
153	0x3e6eb96a	0.23312917
154	0x3df48f4f	0.119413964
155	0x394106b7	0.00018408416
156	0x3dffa2ba	0.124822095
157	0x3dfd3e28	0.12365371
158	0x3dbcc3d0	0.09217036
159	0x3dedbc07	0.11608129
160	0xbb0e0f8a	-0.0021676742
161	0xbadc13b8	-0.0016790545
162	0x3acb4e83	0.0015511069
163	0xbb0ef0a1	-0.0021810906
164	0xbace8ec5	-0.0015759101
165	0xba9cff5e	-0.0011977961
166	0xba0a83d3	-0.00052839256
167	0xbab5ae4b	-0.0013861147
168	0x3a6131bc	0.000859048
169	0x3ae37218	0.0017352728
170	0x3ad80a41	0.0016482548
171	0x3accb057	0.0015616518
172	0x3b04ae32	0.002024543
173	0xbb1baf6f	-0.002375569
174	0x3a9f2c8a	0.0012144011
175	0x3a4d50a7	0.00078321475
176	0x3ac291fe	0.0014844534
177	0xbb17291e	-0.002306528
178	0xba98f703	-0.0011670295
179	0x3b11ded8	0.002225807
180	0xb9a40a98	-0.0003128841
181	0xba8810ef	-0.0010381023
182	0x382dbcc6	4.1422223e-05
183	0xbb0ed394	-0.002179359
184	0xbb0d2d0c	-0.0021541743
185	0xbaebd0b2	-0.0017991273
186	0x3a3d9369	0.00072317437
187	0x3ae19e8a	0.0017213386
188	0x3ab5eecb	0.001388037
189	0x3a4fd378	0.00079279346
190	0x39f6530d	0.00046982654
191	0x39be3f42	0.00036286755
192	0x3bba9372	0.0056938464
193	0xbb432bb5	-0.002978069
194	0xbb11c7ef	-0.0022244414
195	0x3acac397	0.0015469667
196	0xbb01828e	-0.0019761655
197	0xbaa357a7	-0.0012462036
198	0x3e27f09b	0.16400377
199	0xb9006d8e	-0.00012247844
200	0x3b73b292	0.0037185294
201	0xbde49552	-0.11161293
202	0x3a3d745c	0.0007227117
203	0xbdee073d	-0.11622474
204	0xbdde8589	-0.108653136
205	0xbdee33ef	-0.11630999
206	0x3e995944	0.29950917
207	0x3e287ca0	0.1645379
208	0xbe0404e0	-0.12892485
209	0xbdf38d9d	-0.11892245
210	0xb8e65ecc	-0.00010984912
211	0xb9a647e6	-0.00031715556
212	0x3e012452	0.12611511
213	0x398b0f69	0.00026523627
214	0x36c3419b	5.8190903e-06
215	0x39878489	0.00025847953
216	0xbddb958b	-0.107218824
217	0x3e26d2e8	0.16291392
218	0x3e2b9bc6	0.16758642
219	0xba77cafa	-0.0009452548
220	0x3e26c9a7	0.16287862
221	0x3e2e9c81	0.17051889
222	0xbe49cbf0	-0.19706702
223	0x3e29267b	0.16518585
224	0x39246cc2	0.00015680774
225	0x3b0d5c52	0.002156992
226	0xbacf8237	-0.0015831654
227	0x3aeb6d1b	0.0017961593
228	0xba230174	-0.0006218173
229	0xb9fa5ddf	-0.00047753655
230	0xbdcdadc9	-0.100429125
231	0xb90d02d4	-0.00013447861
232	0x3a8a3cf2	0.0010546728
233	0x3e364dde	0.17803141
234	0x3b02aed4	0.0019940631
235	0x3e3de27c	0.18543428
236	0x3e312219	0.17298163
237	0x3e3a888b	0.1821615
238	0xbdbff8e7	-0.09373646
239	0xbdd953e3	-0.10611703
240	0x3e248d47	0.16069518
241	0x3e3db2b8	0.18525207
242	0xba95bc35	-0.0011423888
243	0xbac5e9ea	-0.0015099619
244	0x3e5e3526	0.21699962
245	0xba8729b3	-0.001031211
246	0xba848381	-0.0010109992
247	0x3a8b3b79	0.0010622583
248	0x3e34aca0	0.17643976
249	0x3e9755df	0.29557702
250	0xbdd58ef3	-0.10427656
251	0x3a2d8e84	0.0006620663
252	0x3e26e3b9	0.16297807
253	0xbdc8bd7e	-0.09801768
254	0x3e30e419	0.17274512
255	0xbdcc3e97	-0.099728756

bias f4 [32]
0	0xb915b1cb	-0.0001427598
1	0x39fd7da4	0.0004834953
2	0x3d75eb66	0.060038947
3	0x3d7adb3a	0.061244227
4	0x3d9a4d99	0.07534332
5	0xbaf46642	-0.0018646198
6	0x3d7be47e	0.061497204
7	0x3d6dc7b2	0.058051772
8	0xba8ef088	-0.0010905424
9	0x3980135c	0.00024428486
10	0x3d803557	0.06260174
11	0xbb262db0	-0.0025356822
12	0xb9ae5cd0	-0.00033257017
13	0x3d828299	0.06372566
14	0xba1e5f9b	-0.0006041468
15	0xb998f1e1	-0.00029171913
16	0xbaa6a8c5	-0.0012715092
17	0xbad94d74	-0.0016578869
18	0x3d848d60	0.06472278
19	0x3d623d97	0.055234518
20	0x3d66c87c	0.05634354
21	0xbb0cbe88	-0.002147587
22	0xba552130	-0.00081302505
23	0xbb22fa3f	-0.0024868397
24	0x3d80182b	0.0625461
25	0x3d810f49	0.063017435
26	0xbb30de3f	-0.0026987938
27	0x3d848193	0.06470027
28	0x3d7fce70	0.062452734
29	0x3d57fc5b	0.0527309
30	0xbb07ac0c	-0.0020701913
31	0x3d85bba4	0.0652993

weight f4 [1, 32]
0	0xbb072020	-0.0020618513
1	0x3aa7b36a	0.0012794558
2	0xbe4e178c	-0.2012617
3	0xbe4f883a	-0.2026681
4	0x3e6e370a	0.23263183
5	0xb851f106	-5.0053954e-05
6	0x3e564a31	0.2092674
7	0xbe4b00b9	-0.19824494
8	0x3abd0229	0.00144202
9	0xbad53338	-0.0016265875
10	0x3e584b37	0.21122442
11	0xba435259	-0.00074509304
12	0x39d318a6	0.0004026342
13	0x3e57b87a	0.21066466
14	0xba118a66	-0.0005551934
15	0x3827e4fe	4.002917e-05
16	0xb976b11c	-0.00023526367
17	0xb9bd73de	-0.00036135217
18	0x3e61c38f	0.22047256
19	0xbe4a3838	-0.19748008
20	0xbe4a30e0	-0.19745207
21	0xba9bba6f	-0.0011881123
22	0xb9c8b115	-0.0003827891
23	0x3abed491	0.0014559199
24	0x3e43ab6f	0.19108365
25	0x3e4d7493	0.20064001
26	0xb8bd6a01	-9.031967e-05
27	0x3e5916b4	0.21200067
28	0x3e535db6	0.20641217
29	0xbe40d522	-0.18831304
30	0xb9be2029	-0.00036263585
31	0x3e529f13	0.20568494
