pre_trained_models/2u2d/diode_pair_2u2d_1N4148_l_1.70k_2.50k_2x32_3.9e-6.pth (torch, 8351 bytes, 5 tensors)

weight f4 [32, 2]
00000000: a439 8b3e 0055 fb3c 574b 0abe ad94 3c3d
00000010: d82d 55bb 03a8 ebbb 5000 8c3e 02e5 3c3d
00000020: a514 b3bb 8816 5fbb 4370 b3be b0ee 5e3d
00000030: de9d 5239 f6fe 73bb 45e3 1ebe 6d55 263d
00000040: 0c62 aabe 75a5 143d b656 e5ba 2530 4339
00000050: 3627 a43b b0dc c23a 43e7 2dbb d2c8 cfbb
00000060: 7d77 8db9 40d7 24bb ca34 7c39 4b0c 28b9
00000070: 23d6 1fbb 1840 e4bb aef9 2bbe b379 003d
00000080: 8448 66be d9db 843c 4268 933e a050 293d
00000090: 7d23 ac3b ebcb f6bb 4ed7 86bb e47b d2bb
000000a0: 780b b63a 52cb ecbb 563b 06be 507e 3f3c
000000b0: 8146 37ba 523f abb9 78a5 dc3a 3d85 7e3b
000000c0: 72a6 60bb 981f 64ba 0eab 3d39 5310 a83d
000000d0: 9d46 c83a 201a adba e5d5 c03a 796f 30bb
000000e0: 20b3 e13b 1fd6 cfbb 5123 acbe 890b 463d
000000f0: 8290 963e 558d 413d de6f e4b9 93d1 bc3b
0.27192414 0.03068018 -0.13505302 0.046040226 -0.0032528546 -0.0071916594 0.27343988 0.046116836
-0.0054651075 -0.003404053 -0.35046586 0.05442685 0.00020085971 -0.0037230826 -0.15516384 0.040608812
-0.3327793 0.036290605 -0.0017497155 0.00018614584 0.005009557 0.0014866795 -0.0026535548 -0.0063410783
-0.0002698264 -0.0025152713 0.00024052258 -0.00016026308 -0.002438911 -0.0069656484 -0.16794464 0.03136606
-0.224886 0.016218113 0.2879048 0.041336656 0.005253254 -0.007531633 -0.004115022 -0.0064234603
0.0013888916 -0.007226386 -0.13108572 0.01168783 -0.0006991402 -0.0003266284 0.0016833981 0.003883674
-0.0034278897 -0.00087022176 0.00018088167 0.082062386 0.0015279833 -0.0013206638 0.0014712183 -0.0026921912
0.0068878084 -0.006342664 -0.33620694 0.048350845 0.29407126 0.047253925 -0.00043570896 0.005762288

bias f4 [32]
00000000: bdb6 933d e91a c03e 8311 5d3b ff93 893d
00000010: 95f6 b13b ecff 093e 204b 893a ca73 b33e
00000020: 36a6 fa3d 09c8 1ebb 0468 1abc 7c17 2bbb
00000030: 99dd ef3b c550 61bb 27cf acba 9a67 9d3e
00000040: b811 5f3e 1906 a03d 1209 ad3b 19fd 35bb
00000050: 64dc 8eba 285a 20be e727 3ebb 04e5 7bbc
00000060: 5f4e 36ba f5a3 87be 5adb 2c3b be7b dfbb
00000070: 0244 ae3b 6b6b f23d bb8b b93d 24aa a5bc
0.07212589 0.3752053 0.0033732362 0.06717681 0.005431006 0.13476533 0.001047466 0.35049278
0.122387335 -0.0024228117 -0.009424213 -0.0026106527 0.0073201177 -0.0034380418 -0.0013184295 0.30743104
0.21784103 0.07813663 0.0052806223 -0.0027769266 -0.0010899422 -0.15659392 -0.0029015483 -0.015374426
-0.0006954427 -0.26492277 0.002637586 -0.006820171 0.0053181658 0.118368946 0.090598546 -0.020222731

weight f4 [32, 32]
00000000: 5585 dc3d 4e25 c43d b9b6 4e3a 25ad ff3d
00000010: 76bf 813a c5c3 5abe c2dd e63a 6ef9 bd3d
00000020: d394 45be b322 7e3a 7342 0bbd fa5f acba
00000030: d0a8 093b 6e50 023a d6d6 a53a 989a ac3d
00000040: 9fab 5b3d 7142 023e f18c fbba 8d57 d03a
00000050: 444c a5b9 2768 fabc a0b2 fb3a 632c 0ebc
00000060: 9044 a43a 219e c8bf 76da 613a 65e8 a7ba
00000070: e995 aeb9 6736 45be c68b 2b3e bb76 f8bc
00000080: 0ac3 f2bd d922 b83d 9bd0 1fba 7ee7 01be
00000090: a588 443a 0e77 ea3d 2799 a8ba a1c2 b93d
000000a0: 3e0c ec3d 5f09 feb9 e631 683a 00a0 5a3a
000000b0: c6ab ed3a deb0 00ba 1aee dfba 303a ca3d
000000c0: 904d e23d 5503 01be 0825 e0ba eeeb a039
000000d0: 0eee e4b9 f65b 9dbf 53a9 c93a ee42 00bc
000000e0: b956 c73a 6d00 13c0 dd72 40ba 1a70 873a
000000f0: 7f13 ed3a fe59 d73d b243 02be d47c 05bd
00000100: ced5 3bbb 9a11 95ba 6e9a c5ba 407b a0ba
00000110: 3a16 8d3a a21c b0b9 b9f5 fb3a 9de4 3bbb
00000120: d883 94ba f356 1bbb 7513 aaba a09a c9b8
00000130: 7916 6bba 8e48 a63a 572d ae3a 4ce9 1ebb
00000140: a5da cdb9 9c18 85b9 e471 803a d794 fbb9
00000150: 802d ebba a436 5e39 0c6d 50ba df9f 21ba
00000160: ff67 19ba e0d1 08bb 8b6f 08bb e3e3 f83a
00000170: ee61 df3a 8e76 6139 e2f1 2bb9 eee9 e139
00000180: e757 3bba de15 dbba 2338 53b9 3a39 8dba
00000190: 762b a9ba 9d1d 26ba 7b71 92ba 1529 feb9
000001a0: 8776 1dba a768 3f3a b423 413a 392c 243a
000001b0: 7e4a bcba b154 a7ba c31b b6ba 07bd d63a
000001c0: 6733 3eba 4201 8b3a fddc d93a 2e86 e9ba
000001d0: bda6 fb3a b86c 73ba b689 1838 17e9 1cba
000001e0: a2fb 6bba 3fd8 c43a 2b20 5d3a ca7d 6437
000001f0: c14a a0ba d417 81ba b4ab 46ba 244e 6fb9
00000200: 9658 f9ba 3ef7 acba cb9c c2ba 6d8c 49ba
00000210: 30fc 0eba af8e a73a 75f7 453a 4cd3 633a
00000220: fd81 bb39 55a4 a53a 75ce 2939 bc6d 9b3a
00000230: 6e04 9137 4ab7 953a 7f3e d2b9 4801 05bb
00000240: f264 eab5 5979 a4ba 4b0a 8fba 1bc0 f43a
00000250: cf8f 7e3a fef5 1aba c88f 5fba 9f50 ecba
00000260: 29df efba a4fc 723a fc1e 7fb9 98c8 bdba
00000270: c1d6 6fba 79d7 beba b075 f33a 5505 fab9
00000280: 3e15 9238 5193 86ba b502 a639 5e76 9db9
00000290: 538f 50ba 423f e639 5ef7 86ba 788c 7639
000002a0: 9d7f 2cba 939f 86ba e939 f5b9 eb90 073a
000002b0: 90b5 28bb c341 9cb8 96bd abba db25 99ba
000002c0: 7764 88ba 606c 9039 3310 763a 0bbb 1aba
000002d0: b0c5 f9ba f89d aa3a 5975 27ba ace9 18bb
000002e0: 1e90 62b9 3012 a83a 65d5 1bbb 3b0b 39b9
000002f0: 248a a43a 2976 00bb 1f95 27bb d840 2b3a
00000300: a244 db37 5018 53bb dacd c6ba 5e58 9e39
00000310: c1a0 223a 775b 92ba 8dbd a0ba 9932 f5ba
00000320: fefa 62b9 626f e93a 8f65 c8ba 4c99 87b9
00000330: 5734 6d3a a985 cc3a 5aff 9839 e76b 21bb
00000340: 46fa 23bb decf 55bb 388f c03a 07f5 2cba
00000350: a45d 97b9 d238 e7b9 155c ad38 bd32 4bb9
00000360: deec c0ba 0d24 4c3a 4ede 8fba 0920 983a
00000370: 2939 4e39 1e59 3c3a 4109 b5b7 29c4 33ba
00000380: 58ed e9bd 23ba d43d e7d1 caba b105 f6bd
00000390: 72be b138 dc91 093e aa76 d736 67d9 d73d
000003a0: ec12 e73d 030e 06ba 34ba 333a 1954 3a39
000003b0: 3583 d93a b842 76ba 7247 c738 3758 ec3d
000003c0: c8f0 023e 3b69 fdbd 623b f63a 6d50 d83a
000003d0: d4dd 95ba ad11 9dbf 8a0e ef3a 7e27 12bc
000003e0: d021 a3ba 0a75 00c0 f50d 033b c741 4fba
000003f0: 9ada 65b7 6d8c ff3d 79a9 ffbd 0fac 08bd
0.107676186 0.09577428 0.0007885504 0.124841966 0.0009898979 -0.21363743 0.0017613696 0.092760906
-0.19295053 0.00096945016 -0.033998918 -0.0013151162 0.002100516 0.00049710914 0.0012652527 0.08427924
0.053630468 0.12720658 -0.0019191784 0.0015895233 -0.00031528075 -0.030567242 0.0019203015 -0.008677575
0.001253264 -1.5673257 0.0008615622 -0.0012810348 -0.00033299558 -0.19259034 0.16752538 -0.030330053
-0.11853607 0.08991022 -0.0006096453 -0.12685964 0.0007497168 0.11448489 -0.0012863026 0.09070326
0.115257725 -0.00048453637 0.0008857533 0.0008339882 0.0018132858 -0.0004909168 -0.001708451 0.0987438
0.1104995 -0.12598927 -0.001710088 0.0003069336 -0.00043664913 -1.2293689 0.0015385546 -0.007828457
0.001520834 -2.296901 -0.0007341335 0.0010333091 0.0018087475 0.105152115 -0.12721136 -0.03258975
-0.0028661373 -0.0011373044 -0.0015075931 -0.0012243763 0.001076407 -0.0003359067 0.0019223011 -0.00286702
-0.0011330796 -0.0023702949 -0.0012975769 -9.613228e-05 -0.0008967887 0.0012686418 0.0013288659 -0.0024247942
-0.0003926355 -0.00025386072 0.0009799567 -0.00047985345 -0.0017942637 0.00021191925 -0.00079508196 -0.0006165485
-0.00058519834 -0.0020877048 -0.0020818438 0.0018988814 0.0017042735 0.00021501837 -0.00016397939 0.00043089635
-0.00071465824 -0.0016714891 -0.0002014344 -0.0010774501 -0.0012906629 -0.000633681 -0.0011172736 -0.00048477264
-0.00060067367 0.0007301666 0.0007367686 0.0006262693 -0.0014365462 -0.0012766329 -0.0013893772 0.0016383239
-0.00072555844 0.0010605233 0.0016621646 -0.0017816478 0.0019199472 -0.0009285915 3.6367877e-05 -0.0005985661
-0.0009002035 0.001501806 0.00084352744 1.3619147e-05 -0.001222931 -0.000984902 -0.00075786863 -0.00022821926
-0.0019023593 -0.0013196243 -0.0014847753 -0.00076884666 -0.0005454449 0.0012783612 0.00075518276 0.00086908485
0.00035764268 0.0012637476 0.00016194007 0.0011858265 1.728741e-05 0.0011422422 -0.00040100885 -0.0020294953
-1.7463738e-06 -0.0012548371 -0.0010913102 0.0018672975 0.000971076 -0.00059112895 -0.00085282 -0.0018029398
-0.001830076 0.0009269214 -0.00024330238 -0.0014479337 -0.0009149127 -0.0014560065 0.0018574502 -0.00047687688
6.965779e-05 -0.0010267292 0.00031664004 -0.00030033564 -0.0007955927 0.0004391615 -0.001029711 0.00023512717
-0.0006580295 -0.0010270945 -0.00046773188 0.0005171436 -0.0025742985 -7.450909e-05 -0.0013102766 -0.0011684255
-0.0010405917 0.00027546566 0.0009386569 -0.00059025054 -0.0019056108 0.0013017049 -0.00063880306 -0.0023332639
-0.00021606727 0.0012822803 -0.0023778316 -0.00017647159 0.0012553376 -0.001960168 -0.002557106 0.0006532795
2.6138794e-05 -0.0032210536 -0.001516755 0.00030201947 0.0006203764 -0.0011166175 -0.0012263522 -0.0018707096
-0.00021646541 0.0017809684 -0.0015289056 -0.00025863422 0.0009048632 0.0015603799 0.0002918195 -0.0024630965
-0.0025021 -0.003262512 0.001469112 -0.0006597791 -0.00028870732 -0.00044102088 8.2664345e-05 -0.0001937849
-0.001471903 0.00077873544 -0.0010976286 0.0011606227 0.00019666985 0.00071849104 -2.158119e-05 -0.0006857538
-0.11422223 0.10387065 -0.0015473933 -0.12012804 8.475491e-05 0.13434547 6.4213136e-06 0.10539513
0.11282906 -0.0005113782 0.00068560545 0.00017769671 0.0016594889 -0.0009394097 9.502367e-05 0.11540263
0.12787163 -0.12373587 0.0018786008 0.0016503461 -0.0011433908 -1.2271019 0.0018238586 -0.0089205485
-0.001244599 -2.0071435 0.0019997333 -0.0007906225 -1.3700361e-05 0.12477956 -0.12483496 -0.033367213

bias f4 [32]
00000000: 7767 1f3e ff6d ce3d d952 09bb 92be 45ba
00000010: c792 3837 39e9 553a 72c4 14bb fec4 d63d
00000020: a0cc 2dbb 8368 d83d 0854 143e 52b7 daba
00000030: d685 f33d 1666 8cba faa3 ebb9 1806 dd3d
00000040: b95c 153e 2d61 0a3e 5744 17bb 8d71 983a
00000050: 1c4e d93d 99e7 03bb 5eef d73d f2da a6b9
00000060: c347 033a 3823 74ba 4ea6 b0ba b726 aaba
00000070: 51de ad3d e7e3 3d39 c2c0 46ba 4e16 03bb
0.15566812 0.10079574 -0.0020953922 -0.0007543351 1.1001429e-05 0.0008160058 -0.0022700098 0.10486792
-0.002651967 0.10566809 0.1448518 -0.0016686714 0.118907616 -0.0010711576 -0.00044944865 0.10792178
0.14586152 0.13513632 -0.0023081505 0.001163052 0.10610601 -0.0020127057 0.105437025 -0.00031825114
0.0005007947 -0.00093131093 -0.0013477297 -0.0012981509 0.08489669 0.00018109345 -0.0007581824 -0.0020002308

weight f4 [1, 32]
00000000: c44c a13e a845 80be e95a c639 4e7e 833a
00000010: 5b32 c139 debd 98b8 2de7 443a fc31 6ebe
00000020: 7e64 4a3a bc92 62be d25c ad3e 5aed 6237
00000030: 385d 8e3e 084b 25ba ecc7 853a 2153 74be
00000040: 72af a83e 8cd2 a03e 080c 83b9 33eb bf3a
00000050: e2ed 6ebe 2c9b a639 dd9d 5ebe 623b 993a
00000060: b342 b63a 6213 ec3a 22a5 5d3a 6a12 de3a
00000070: 9c33 2ebe aab2 8aba a428 8aba aa37 1839
0.3150388 -0.25053144 0.00037833236 0.0010032149 0.00036849346 -7.28329e-05 0.00075112545 -0.23261255
0.0007720663 -0.22126287 0.3385988 1.3525912e-05 0.27805495 -0.0006305431 0.0010206676 -0.23859836
0.32946354 0.31410635 -0.0002499523 0.0014642238 -0.23332933 0.000317776 -0.21739908 0.0011690671
0.0013905376 0.0018011148 0.00084550877 0.0016942744 -0.17011875 -0.001058181 -0.0010540676 0.00014516586
