pre_trained_models/2u2d/diode_pair_2u2d_1N4148_l_0.45k_0.65k_2x32_5.12e-07.pth (torch, 8687 bytes, 5 tensors)

weight f4 [32, 2]
00000000: b6b8 7e3e 2e65 2f3d 0e39 41be 8601 533d
00000010: 366c a83b 45d4 ebba a449 8d3b 727f 66bb
00000020: 6340 a63b 5d62 46bb ca99 6abe db14 803d
00000030: 884f 6f3e e15e 373d 4ab8 753e dd4d d53c
00000040: c907 80be 2928 353d 40bf 7f3e bc56 953c
00000050: 8ee7 c0ba fdcf 98bb 4536 10bd 3620 9fbc
00000060: 0349 d837 5861 c23d c376 13bb 6aef 56bb
00000070: dbb7 83be cff0 213d fe1f 31bb 6707 6ebb
00000080: 4cbe 29bb 6d6c 88bb 6911 a2bb 2f45 25bb
00000090: 710c 91b8 551f 723a 50c7 12be 77ac 91bc
000000a0: a43b e1b8 7ea5 0fbb ec8c 38ba 7052 7ab7
000000b0: 497f 9db8 0e69 553b a90f 7e3b a043 60bb
000000c0: 6f66 513e 1a47 833d a477 773e 219f 3b3d
000000d0: 672f 9dbb 678e 4dbb 6f9a 79be 0482 403d
000000e0: ad59 4c3b d6fa efba c6a2 893b 12a4 fdba
000000f0: 3060 37be 41c7 16bd 2f0b 023b 2be0 e939
0.24875149 0.0428211 -0.18869421 0.051515125 0.005139853 -0.0017992338 0.004311757 -0.0035171178
0.0050735935 -0.0030271031 -0.22910228 0.06253978 0.23370183 0.044768218 0.23996082 0.026038105
-0.2500594 0.044227753 0.249753 0.018229835 -0.0014717446 -0.004663466 -0.035208005 -0.019424539
2.5783205e-05 0.09491223 -0.0022501207 -0.003279651 -0.25726208 0.039536294 -0.0027027125 -0.003632033
-0.002590078 -0.004163316 -0.004945923 -0.0025218239 -6.916456e-05 0.0009236236 -0.14333844 -0.017782433
-0.00010739945 -0.002191871 -0.0007040042 -1.4920355e-05 -7.510052e-05 0.0032563838 0.0038766658 -0.0034219995
0.20449232 0.06410046 0.24166733 0.045806054 -0.0047969106 -0.0031365396 -0.24375318 0.046998993
0.003118138 -0.0018309008 0.0042003123 -0.0019351265 -0.17907786 -0.036811117 0.0019843092 0.0004460824

bias f4 [32]
00000000: 9dce d53d bd22 513d c3f8 9cbb 423f 16bb
00000010: 7448 6eba 49cc 7d3d dc59 c63d 2278 fe3d
00000020: 4178 e43d cab7 9c3d 6aea 563b 8ba4 003f
00000030: 54d2 80be 5db1 cc3b 28ad eb3d d763 0f3b
00000040: 1042 44bb 3ee2 b53a 739f 2fbb cd0b fe3d
00000050: b39c 8fbb 734d 38ba 498b 1dbc 8335 ff39
00000060: 1e22 093d ab2d da3d 43d9 fcba 592e d43d
00000070: 5930 93bb 81c0 9b39 ce46 223c a2e3 58bb
0.10439799 0.05105852 -0.004790397 -0.0022925888 -0.0009089776 0.0619624 0.09685108 0.12425257
0.11155749 0.076522425 0.003279353 0.5025107 -0.25160468 0.0062467293 0.11507636 0.0021879578
-0.0029946603 0.001387663 -0.002679792 0.124045946 -0.0043826937 -0.0007030584 -0.009615728 0.0004867726
0.033479802 0.10653242 -0.0019290823 0.103604026 -0.0044918475 0.0002970733 0.009904576 -0.0033094664

weight f4 [32, 32]
00000000: e299 b5ba 9d19 9138 6f10 90ba b2b2 0dba
00000010: 1fca 6d3a 08dd 20bb ef7d 56ba eea0 e7b9
00000020: 4d5a ecba 4706 1639 d1e2 013a 70af 5e39
00000030: 2c5e 15bb 993a 3c39 2043 083a 2b5f 9bba
00000040: 7681 ae39 cbb0 a53a a781 74ba 599c 4cb9
00000050: e19c 6f39 c10a 2db9 5409 12ba b8c9 6eba
00000060: a90a b6ba c9d0 a0ba d638 a0ba d98b 8bb9
00000070: 58e9 1fba 4748 a7ba 3385 37b6 0acd d238
00000080: 5eb5 09ba c1f5 f637 fa77 f739 265d aeb8
00000090: 5fd5 8f3a 21d5 82b9 c6f1 0dbb 897b 563b
000000a0: 0737 fdba 0c3c 77b9 bcf2 84b9 c8b5 b3ba
000000b0: 7f61 fdba d6e6 b5ba df85 fbba 3de1 f8b9
000000c0: 04fb 713a d1a8 fd39 0837 963a a1ba e939
000000d0: 0b3d 90ba c1f1 37b9 dfc1 52ba 07fa 7e3a
000000e0: 68cb 19ba b0fa 0aba 2a0e 8cb9 3a2a 2fba
000000f0: 7370 993a 851b 88ba a58a 533a 544f 93ba
00000100: 2dd4 4cba fc79 20ba 8605 673a 027b 8639
00000110: 0087 d239 422a 923a 273d 263a e68d 98ba
00000120: e7a4 f8b8 e413 18ba d654 783a 4cfe dcb9
00000130: 128e f0b9 9038 90ba 8814 24ba ad21 d6b9
00000140: 0ef2 44ba 6c7e 3dba bf28 79ba 1464 313a
00000150: 8668 35b9 ea5a 85b9 3a38 a938 921a d9b7
00000160: a29e 043a 8018 57ba acb1 87ba de48 97ba
00000170: 3d76 263a 23fd cc37 479a 93ba 6e95 84b8
00000180: 316a 3e3a c116 09ba 4d33 3a3a e3b0 883a
00000190: 7712 133a 2a11 6fba 6129 81ba 8be4 78b8
000001a0: 3c2c a83a ec38 7db8 9383 a83a 0b9a 8439
000001b0: 78e7 5d3a 0011 0fba 726b 9538 7b57 993a
000001c0: e334 1fba 706f 9e39 0d22 5cb9 be35 2439
000001d0: 72e0 5fba 3316 26ba 1321 4d3a ea96 53b8
000001e0: 9924 feb7 d9ae 85ba 990e 593a bbc8 a9ba
000001f0: b7ba 5ab9 5f01 163a 5693 24ba cd7a 6cba
00000200: 804d b5bd 501d d63d a695 8aba 5656 b4b8
00000210: bb20 eab9 2445 013e 8293 b3bd c102 7fbd
00000220: ba0e 273e d15c f4bc a088 003a 90a8 723e
00000230: 4f4d 99bf 7c2d 003c f9ac 2a3e 050b 913a
00000240: 47bc 43ba 6197 cdb9 726b e6b9 9a46 043e
00000250: f3dd a33a 9882 743a e123 09bc 788b 05b9
00000260: 421d dcbd be5f b9bd 1c88 9c39 d6a5 1b3e
00000270: ffa4 a5ba 146b 7a3a ac4c 263e 7b43 4c3a
00000280: b1d7 92ba 8709 92ba 0f38 04ba c7c6 88ba
00000290: 4ad4 bab9 4b17 3f3a f00e 8139 44d2 22b8
000002a0: c1d5 a4ba 59c4 afb9 ff03 0638 5b0a 9739
000002b0: d09e 473a 5b20 85ba 44f0 50ba 752e 413a
000002c0: 230c 4f3a 9a71 a6ba b3f6 4fba 5fb8 15ba
000002d0: 83ee fc39 15ae 8c39 fde5 393a d10d a938
000002e0: bece dfb9 3285 643a d1d2 293a c99e 25ba
000002f0: 4aef 35b8 482d 32ba f317 8cba 577a 7c3a
00000300: 7f2d 6fb9 8cdb c6b9 229a a5b9 2cc7 8d3a
00000310: 2166 743a 0f3e d038 1f6a 49ba 5ad0 e4ba
00000320: ea6c beba 94bc 44ba 5797 38ba 1e53 c5b9
00000330: 1f4c ad38 b67c b1b8 89c7 b7ba f88d 41ba
00000340: 5e59 e4b9 7a01 e739 dedc 42ba 4275 7d3a
00000350: 4db0 9b39 0de7 72ba 52a6 b339 e94c 86b9
00000360: 0850 eb38 67a0 fe39 a242 a73a d2f1 b7ba
00000370: 37e1 423a eef3 a23a ad5a 82ba b0ab 2a3a
00000380: d0a2 44b9 9bc8 9339 99b6 28b9 abbf c139
00000390: 887a 44ba 177e 273a 3c1b 6339 c5b5 9c3a
000003a0: 08ed 27ba 59b4 a7ba c856 4d39 e99f 7ab9
000003b0: 0e9f 693a b1ea 4cba 0bd3 8bba 1de4 d5b9
000003c0: 99a8 8338 868d afb9 f820 a8ba e98b cb39
000003d0: b8fb ec39 806e b6ba 6757 cab5 428f 8bba
000003e0: 4277 0eba 9e45 0f3a c080 87b9 356c 813a
000003f0: b936 9db9 2bb0 98b9 65bd 103a 5f4d eeb8
-0.0013855065 6.91891e-05 -0.0010991226 -0.0005405351 0.0009070951 -0.0024545807 -0.0008182218 -0.00044179655
-0.0018032283 0.00014307453 0.0004954758 0.00021236925 -0.0022791727 0.00017950906 0.00051979907 -0.0011853924
0.00033284322 0.0012641189 -0.0009327181 -0.000195132 0.00022851258 -0.00016502572 -0.0005570848 -0.0009109038
-0.0013888675 -0.0012269254 -0.001222397 -0.0002661634 -0.00061001396 -0.0012762629 -2.7346657e-06 0.00010051772
-0.0005253161 2.9439923e-05 0.000472009 -8.314317e-05 0.0010973624 -0.00024954326 -0.0021659 0.0032727441
-0.0019318768 -0.00023578125 -0.00025357853 -0.0013710791 -0.0019331424 -0.0013877999 -0.0019189677 -0.00047470062
0.00092308247 0.00048381698 0.0011460492 0.00044580273 -0.001100452 -0.000175423 -0.00080397533 0.0009726588
-0.0005866797 -0.00053016376 -0.00026713434 -0.00066820125 0.0011706486 -0.0010384178 0.0008069671 -0.0011238852
-0.0007813599 -0.0006121693 0.0008812774 0.0002565012 0.00040154904 0.001115151 0.000634151 -0.0011638969
-0.00011856277 -0.0005801304 0.0009473091 -0.00042151136 -0.00045882218 -0.0011003185 -0.0006259163 -0.0004084235
-0.00075128756 -0.0007228616 -0.0009504668 0.0006766927 -0.00017300443 -0.00025435473 8.069021e-05 -2.5880789e-05
0.00050590385 -0.000820525 -0.0010352633 -0.0011542102 0.00063500163 2.4436571e-05 -0.0011261188 -6.322084e-05
0.00072637486 -0.0005229526 0.00071029813 0.0010428693 0.00056103565 -0.0009119684 -0.0009854251 -5.9340655e-05
0.0012830566 -6.0372913e-05 0.0012856595 0.00025291773 0.00084649725 -0.000545755 7.124887e-05 0.0011699045
-0.00060732494 0.00030219136 -0.0002099352 0.0001566028 -0.000854022 -0.00063357054 0.0007825058 -5.044687e-05
-3.0296202e-05 -0.0010199203 0.0008280068 -0.0012953499 -0.00020859657 0.000572225 -0.0006278058 -0.0009020984
-0.088526726 0.1045481 -0.0010573163 -8.59915e-05 -0.00044656344 0.12624031 -0.08768369 -0.062258486
0.16314211 -0.029829415 0.0004903171 0.23697114 -1.1976718 0.007823344 0.16667546 0.0011065906
-0.0007466715 -0.00039213433 -0.00043949072 0.12917557 0.0012502059 0.00093273213 -0.008370371 -0.00012735825
-0.10747768 -0.090514645 0.00029856048 0.1519998 -0.0012637674 0.0009552699 0.16240185 0.0007792038
-0.0011203197 -0.0011141755 -0.0005043754 -0.0010435217 -0.00035634852 0.00072895427 0.00024615927 -3.8819635e-05
-0.0012575911 -0.00033524891 3.195181e-05 0.0002880868 0.00076149125 -0.0010156737 -0.00079703727 0.00073692884
0.0007898232 -0.0012698651 -0.00079331844 -0.00057113724 0.0004824289 0.00026832582 0.0007091461 8.0611215e-05
-0.0004268791 0.00087173574 0.00064782525 -0.00063179113 -4.3376618e-05 -0.00067969086 -0.001068829 0.0009631267
-0.00022809765 -0.00037929078 -0.0003158609 0.0010816804 0.000932308 9.929772e-05 -0.0007683355 -0.0017457113
-0.0014528309 -0.0007504907 -0.00070415944 -0.00037636695 8.2634615e-05 -8.463247e-05 -0.0014021258 -0.0007383521
-0.00043554133 0.00044060854 -0.00074334245 0.0009668657 0.00029695258 -0.00092659966 0.0003426546 -0.00025615774
0.0001122058 0.00048566164 0.0012760947 -0.001403386 0.00074340723 0.0012432316 -0.0009945236 0.0006510569
-0.00018752669 0.00028187488 -0.00016089751 0.00036954632 -0.0007495065 0.0006389333 0.00021658553 0.0011956027
-0.0006405865 -0.0012794837 0.00019582652 -0.00023901429 0.00089119456 -0.0007816954 -0.0010667754 -0.00040796484
6.2779705e-05 -0.00033484044 -0.0012827208 0.00038823418 0.00045200973 -0.001391843 -1.507561e-06 -0.0010647553
-0.0005434641 0.0005465391 -0.00025845133 0.0009874167 -0.00029986145 -0.00029122955 0.0005521386 -0.00011363136

bias f4 [32]
00000000: eefa a8ba ca7d efba d6d0 e539 97a4 76b8
00000010: 4fb7 c73d 0466 7cba 538d 75ba 9702 4eba
00000020: 18e8 b43d 3f77 8238 06de b43d 5649 d13d
00000030: 734b b43d ff89 ad3d 8429 483a 7165 01ba
00000040: 029c a43d 8065 423a 2119 d73d 4a72 2c3a
00000050: 5dca ba3d 85c8 cf3d 63a5 c03d be34 89ba
00000060: 0db7 c13d d40d afb9 ff03 33bb b294 af3d
00000070: 08f8 ce3d d33c b4ba 7568 ad3d e29e d03d
-0.0012892166 -0.0018271741 0.0004383388 -5.8804257e-05 0.0975176 -0.00096282386 -0.0009367067 -0.0007858662
0.08833331 6.2210944e-05 0.0883141 0.10219066 0.08803453 0.08473586 0.0007635581 -0.00049360754
0.08037569 0.00074156374 0.1050284 0.00065783097 0.09120629 0.10145668 0.09406545 -0.0010467989
0.09458742 -0.00033388904 -0.0027315614 0.08573283 0.10105902 -0.0013751037 0.08467189 0.101865545

weight f4 [1, 32]
00000000: 9888 d9ba 4d90 a0ba 6df0 3b39 ad9e 3939
00000010: b785 5dbe 3acb fc36 ec75 2537 59f0 55b8
00000020: 2a60 423e a9dd 4cb9 c490 4c3e f10c 5dbe
00000030: 52a6 433e b0dc 3c3e 99cc 8cb9 83ff 4f38
00000040: 7652 3c3e d74e 8738 9521 60be 95b9 8b3a
00000050: 6c1e 3d3e 917d 5bbe 40ea 403e ec0f 8539
00000060: 2b40 59be 22e9 7bba faa7 7139 e5db 433e
00000070: 23be 5ebe 2dc9 7239 2730 4c3e db4a 5bbe
-0.0016596494 -0.0012250036 0.00017923275 0.00017702086 -0.2163304 7.533844e-06 9.862222e-06 -5.1007e-05
0.18981996 -0.00019537531 0.19977099 -0.21586968 0.19106415 0.1844356 -0.00026855318 4.959061e-05
0.18390831 6.451987e-05 -0.2188781 0.0010660166 0.18468636 -0.21434619 0.1883936 0.000253796
-0.21215884 -0.00096096296 0.00023046127 0.19126852 -0.21752219 0.00023153862 0.19940244 -0.21415274
