pre_trained_models/1u1d/diode_pair_1u1d_1N4148_l_1.70k_2.50k_2x8_6.27e-05.pth (torch, 4263 bytes, 5 tensors)

weight f4 [8, 2]
00000000: 1c07 d43e f145 ed3d 3550 a43d 3c5b d03d
00000010: 68bc 29bf d5cd 5b3d 5143 643e c353 93be
00000020: d8de c23e deb9 073d eb6d 183f 8006 bf3d
00000030: 60a1 bc3e dea5 a3bd cfe5 b23e bb08 3f3d
0.41411674 0.11585606 0.08023111 0.101736516 -0.6630311 0.053663094 0.22291304 -0.28774843
0.3806064 0.03313624 0.5954272 0.09327412 0.3684187 -0.07990621 0.34940955 0.046639185

bias f4 [8]
00000000: ea4e 40bd dc4d 56bf 7dc0 dcbe c49e f23d
00000010: 4891 ca3a 5626 59bc 98b1 7d3e a03f ce3e
-0.04695026 -0.83712554 -0.43115607 0.118466884 0.0015454674 -0.013253769 0.24774778 0.40282917

weight f4 [8, 8]
00000000: 15b2 a63e 1dd4 383f c7d2 723c a20d 953e
00000010: 6460 9c3e adb4 9f3e ae84 943e cabc 8a3e
00000020: 490e 00bf 6d09 4ebd f6cc 343f c10c 80be
00000030: 5cb5 12bf b020 cfbe df70 5ebf 2c52 61bf
00000040: c5a9 a63e a5e6 373f d402 703c 1e5b 8e3e
00000050: c569 9c3e 3592 a03e ad0e 943e c298 8a3e
00000060: bfa9 a63e d4d3 353f 65c0 703c 9345 943e
00000070: dd72 a33e 1a33 9e3e 30fa 953e 77fd 833e
00000080: 0701 a03a ab40 b6bc 2232 2f3f b9f8 e73c
00000090: 8c3f 0ebc a81d 583d 6976 36bd 1cf0 50bd
000000a0: c711 803c 493e 033e 96c5 2b3f 6b2a ba3d
000000b0: b884 bdbb 2988 6f3d 1095 a7bd 1ffe ecbd
000000c0: 41a6 a63e 6205 353f 0298 773c ffb7 913e
000000d0: 1357 a53e e5ce 9d3e abaa 943e b402 893e
000000e0: 13eb 26bf d2c1 f7bd 9582 4fbe c493 32bf
000000f0: e715 1fbf 2ec0 99bf 4c30 e1be 5129 9fbe
0.3255774 0.7219866 0.014820761 0.29111964 0.3054229 0.31192532 0.29007477 0.2709716
-0.500218 -0.050301958 0.70625246 -0.2500973 -0.5730798 -0.40454626 -0.8689098 -0.8801601
0.325514 0.7183631 0.014649112 0.27803892 0.30549446 0.31361547 0.28917447 0.2706967
0.3255138 0.7102635 0.014694308 0.2895933 0.3192357 0.30898362 0.2929244 0.25779316
0.0012207337 -0.022247633 0.6843587 0.028316842 -0.008682143 0.052762657 -0.04454652 -0.051010236
0.015633477 0.12816729 0.6709837 0.09090122 -0.0057836436 0.05847946 -0.08182728 -0.11571907
0.32548717 0.7071134 0.015111925 0.2846069 0.32292995 0.3082191 0.2903646 0.26759875
-0.65202445 -0.12097515 -0.20264657 -0.6975672 -0.62142795 -1.2011774 -0.4398216 -0.3108621

bias f4 [8]
00000000: d73a 5dbe 98d6 e1bd eacf 5dbe 3f0e 5ebe
00000010: c1b1 973c 4256 97be cb03 64be 9649 8a3d
-0.21604477 -0.11027259 -0.21661344 -0.21685122 0.018517377 -0.29557997 -0.22267072 0.06752317

weight f4 [1, 8]
00000000: a7bb a5be 0d1b 233f 6526 a8be bc2c a6be
00000010: 30ed 233f f38c 253f 0eab a5be 0e2f 5cbf
-0.3236973 0.6371315 -0.32841793 -0.32456005 0.64033794 0.64668196 -0.32357067 -0.860093
