pre_trained_models/1u1d/diode_pair_1u1d_1N4148_l_0.90k_1.30k_4x64_2.28e-6.pth (torch, 56447 bytes, 9 tensors)

weight f4 [64, 2]
00000000: 1063 313b 6bbf 003b 10cd 06bc f4b1 f63a
00000010: bdcd e5bb 944e 66bc 1a93 fc3b 5481 e1bb
00000020: 3743 e8bd 30b2 213c cc1e 9d3a 4daa 73ba
00000030: 74c8 c6bd c5dc 573d 1d37 a93a 6ee0 4dbc
00000040: ef35 753e 85d4 063d 3575 b9be afa8 103d
00000050: 102e d43d ccf8 8c3c af73 4dbe 8545 593d
00000060: aa34 ab3b b885 2abc 5314 eb3b a20d f2bb
00000070: 2f3b aabb 0081 6e39 c502 0cbc 8cd1 30bc
00000080: 71b5 513b 9ab4 22bc 8bca 843b 9295 8a3a
00000090: 622f 64bc cf4b 47ba 2bfa 6f3b 7217 0bbc
000000a0: 7de6 033c 28da 58ba b098 f83b ebab e8bb
000000b0: f2c4 45bb cc92 4ebc aafb 66bc 81bf cdbb
000000c0: 3907 89be 2895 413d b29a 2e3e 7348 453d
000000d0: d8f4 39ba 0ba9 073b fd18 083c fb5d 53bc
000000e0: 619c 13bc 44c4 0dbc 6cd0 e7bc 4603 fabc
000000f0: 772b 993b 395b 8ebb 754a cf3b a7f1 bd3a
00000100: 3f00 ca3d ea57 0bbb f95b 92bd 0766 ce3c
00000110: c08c aa3d 3c5a 48bc 87b3 54be bb86 4c3d
00000120: 0522 e5ba d6a0 a9bc 3bbb af3e 9bd0 0b3d
00000130: 266e 6bbc e3cd e2bb bcc2 fb3b e80d 53bc
00000140: 8a62 0e3c 9bf9 74bc 68a3 21bc f026 b0bb
00000150: 977f 4a3b ba25 0ebc ad7d 2dba 1e5f 3dbc
00000160: 3635 13bc 91e7 babb 2b18 30bc f9e0 e23a
00000170: 1127 99bd d1ee 36bc c9ed a33e a032 2a3d
00000180: a03e edbb ca4b 6abc a953 aebb 83a4 16bc
00000190: 87bc d03d 35d5 c93c a510 fd3b c4f5 1bbb
000001a0: 4074 92bb 034d bbbb 0656 9d39 6108 89bb
000001b0: 8a90 1ebc 9acb 27bc dbf9 61bc d0c0 e438
000001c0: 5a36 f73b 35c7 36bc 6a35 5ebc d07e 3cbb
000001d0: 7c3a 85bd cfac d43c 2921 1fbc 5cfd 9cbb
000001e0: b6c5 de3d 9900 853c 3ad2 853e 3faa 323d
000001f0: 53ad dd3d fa6d 863c 6e06 d6bb 9b19 43bc
0.0027067102 0.0019645344 -0.008227602 0.0018821345 -0.0070130513 -0.01405682 0.0077079656 -0.006881872
-0.11340945 0.009869143 0.0011987328 -0.0009295091 -0.09706202 0.052700777 0.0012910102 -0.012565715
0.23946355 0.03291752 -0.36222234 0.03531712 0.10360348 0.01720848 -0.20063661 0.053044815
0.005224784 -0.010407858 0.0071740537 -0.007386879 -0.0051950435 0.00022745505 -0.008545582 -0.010792147
0.0031999017 -0.009930754 0.0040524653 0.001057314 -0.013927313 -0.0007602544 0.0036617618 -0.0084894765
0.008050558 -0.0008272254 0.007586561 -0.0071005723 -0.0030177203 -0.012608241 -0.014098087 -0.0062789326
-0.26763323 0.047261387 0.17051199 0.048164796 -0.00070936745 0.0020700123 0.008306739 -0.012900825
-0.009009452 -0.00865275 -0.028297625 -0.030519139 0.004674371 -0.0043443707 0.0063260146 0.0014491574
0.09863328 -0.0021262118 -0.07146449 0.025195135 0.08327627 -0.012228545 -0.20771609 0.049933176
-0.0017481452 -0.020706575 0.34322533 0.03413449 -0.014369523 -0.0069215163 0.0076831263 -0.0128817335
0.008690486 -0.014952089 -0.009865619 -0.0053757355 0.0030898803 -0.008675987 -0.00066181534 -0.011558322
-0.008984854 -0.0057038744 -0.01074795 0.0017309479 -0.074781545 -0.011165337 0.32017353 0.041552186
-0.0072401315 -0.014300296 -0.0053200317 -0.009194496 0.10192209 0.024637798 0.0077229314 -0.002379761
-0.0044694245 -0.0057159676 0.00030009466 -0.004181907 -0.0096780155 -0.0102414135 -0.01379248 0.00010907801
0.007544321 -0.011155893 -0.01356254 -0.002876211 -0.06505296 0.025961308 -0.009712496 -0.004790945
0.10877554 0.016235637 0.26136953 0.04361939 0.108240746 0.016409863 -0.006531528 -0.01190796

bias f4 [64]
00000000: 5583 1bbc 9081 70bc 39f8 2c3c fea8 373c
00000010: 9088 b8bd d0e0 bdbb d853 b0bd eebf 063d
00000020: cb07 d5bc b53b b73c 6f15 d1bd 3eb1 34bd
00000030: 145b fcbb 6222 6c3c 2341 c7bb c3bf 333c
00000040: a468 06bb 4f47 21bc e783 47bc c3e3 6e3b
00000050: 3b00 e7bb 5660 443c 3968 403c 54aa bfbb
00000060: dad1 7ebc 6814 e6bc d73c 02bc cb67 243b
00000070: e695 763c b14a fc3d f1e1 003c e95d 32bc
00000080: c3ab d73d afc4 dabd f999 f63d 578c 29bd
00000090: 8ad8 523d 15fa db3b 994f 0bba 2f92 6bbc
000000a0: 06f1 5b3c fed6 c33b 995a 51b9 6d9b 773c
000000b0: aafa 1ebc 1e10 8abc 862f e03d 5c82 c33c
000000c0: a58e e73b d85b 45bc fd29 d0bd b1f9 70ba
000000d0: a36a f23b 19ff 15bc d356 503c 780a 69bc
000000e0: 2c24 7a3c be4d 7cbc b0b7 d7bd 043b 8e3b
000000f0: d535 d3bd b728 0b3b d36c d0bd 99ff a839
-0.009491761 -0.014679328 0.010557228 0.0112097245 -0.09010422 -0.005794622 -0.08609742 0.032897882
-0.026004693 0.022367338 -0.10209166 -0.044114344 -0.007701287 0.014412494 -0.006080763 0.0109710125
-0.0020509148 -0.009843661 -0.012177444 0.0036451675 -0.007049588 0.011985859 0.011743599 -0.005849162
-0.015552962 -0.028085902 -0.007949076 0.002508628 0.015050387 0.12318934 0.007866369 -0.010886648
0.10530808 -0.10682046 0.12041087 -0.041393604 0.05147604 0.0067131617 -0.000531429 -0.014378115
0.013424164 0.005976557 -0.00019965543 0.01511274 -0.009703318 -0.016853388 0.109465644 0.023865871
0.007066565 -0.012045823 -0.10164259 -0.00091924804 0.007397966 -0.009155058 0.012716013 -0.014223687
0.015267413 -0.015399395 -0.105330825 0.0043405313 -0.10313002 0.0021233985 -0.101770066 0.00032233892

weight f4 [64, 64]
00000000: c854 fcb9 13ee b73a b4f6 ff3a 030f 7f3a
00000010: 8c26 263a 4780 a43a ae96 153a 5a86 053b
00000020: 8577 94ba 9126 b838 d8d9 feba 7a88 323b
00000030: 9dab 25bb fb96 13bb e6b0 25bb fd15 bd3a
00000040: 782c fbba 1713 a23a f9f1 f0ba cae9 d73a
00000050: ced1 d73a 2389 98ba 233b 27bb 2fcf 60ba
00000060: 004f 50ba 9a31 5e3a 759c 95ba f345 473a
00000070: e468 35bb dfa9 9eba 623e d93a 651e 1ebb
00000080: 04eb fdba 0f0d 133b 2e58 a739 82f6 d2ba
00000090: d4f7 fc3a d775 e4ba 51d2 b03a 3263 00ba
000000a0: 1e5a e93a e797 883a cb6b 23ba 4fc0 173a
000000b0: 9c5b 043b c405 d4ba 4bc7 84ba 4ccc 8dba
000000c0: abf0 1638 20a8 923a 74c8 41ba 090d afb9
000000d0: af12 0ebb ee95 d6ba a025 0bbb d9a6 fe3a
000000e0: f3a7 383b 2e33 103b 614e b8ba ba68 8eba
000000f0: 9e49 253b 71c4 90ba fa1d df39 8e8b 53ba
00000100: 0365 82b9 61f0 03bb ecde a739 1c2b dd3a
00000110: a563 373e 7411 003b e73f ca3d 41cb 7cbd
00000120: 2019 32bb 938d 713d 7f69 703c cd11 ba3d
00000130: 5ae7 083a f308 6e38 fa58 7e39 e522 753a
00000140: 6ff4 3bba 3fac 933b 7861 9f3b 5b4f 1dba
00000150: da55 283b e6f6 d8ba 698e 223a dc6a 06bb
00000160: 5c0c 9c3d 80cb 1e3e da0e ac38 b2ef 873a
00000170: 47ab 35ba b8b1 ffbd b158 caba 6598 88ba
00000180: d1af 31be c682 5c3e 413d 98be e24a b43d
00000190: f305 fdbc 1028 71bc 2d44 8039 4a44 7dba
000001a0: 1566 a8ba 184e 023b fe3b 35ba 1dff 2fba
000001b0: a7ee bf39 1002 e93b dfa7 1abc 557c d1be
000001c0: 795b 503a 800b 303b 0ab7 0b3b 1a06 ca39
000001d0: 2a61 db3a fc6b d23a 397a b6ba 8e6a 9a3b
000001e0: d07e ff3a 0b33 09bb 6060 4d3e 8e4c a03b
000001f0: c745 d2ba ef4e b03d f798 e5ba b554 12bb
00000200: 3692 58ba 6a75 84ba afdc 2bbb f1fe 08bb
00000210: 359f b73a f5fa f4ba 5c9d e0ba 3615 023b
00000220: 2f38 2dbb 1f4e 20bb c1aa 09ba 1590 b639
00000230: b2b7 c13a 6b86 b2ba 3da9 643a c1a3 6638
00000240: 03d3 27bb 25f5 303b 121c 03bb 26a6 59ba
00000250: e577 31bb a801 37bb 2a20 9eba 74f7 cbba
00000260: b622 103a be99 35bb 5482 6c39 c4dd 7639
00000270: e55f 733a b0e6 8aba 6739 1fba b227 24b9
00000280: 557f c7ba c61e deba c80e f2b8 f358 cdba
00000290: dcd9 03bb 5f3b ae3a 80c1 8eb9 87ca 063a
000002a0: 1f3a 43b9 b6d2 f53a dad5 113a 2f50 883a
000002b0: ab24 ee3a 37bc 283b 852b 103a 6885 86ba
000002c0: 1bcc 7b3a 6354 063b 46c7 053b a07f be39
000002d0: de31 d7b9 327f b2ba 4e78 283a 3e7c b83a
000002e0: 0839 2d3b 49f0 303b e22c 79b9 6d6b 21bb
000002f0: 31b3 2ab8 fe1b 3aba 0822 82ba 606f 88b9
00000300: 83cc b63a 0291 d7ba 2d90 27bb 03a2 f339
00000310: bd32 9e3a 40b2 f7ba 3e37 6c3a 47d9 b1ba
00000320: 246a 0dbb 8b7b a0bb 1ab6 d4bb 1be2 caba
00000330: bd79 d33a d907 d038 26c2 f2b9 c8e4 c4ba
00000340: f48b 1f3b 695e fbba e954 48bb ed68 25bb
00000350: 1b0a 1aba 1ed9 de39 be1d fdba 5566 4dba
00000360: 4b40 4fbb e0d1 f8ba bd1a 2e3b 16fd 3a3a
00000370: 11ec e43a c038 27bb 0295 e33a 7ec0 0e3a
00000380: 5c91 a3bb 701a 01bb 3d41 61bb 9e34 3939
00000390: ef43 74b9 7c33 79bb 5cb2 333b ce66 513a
000003a0: 3a50 fdba 6624 54b9 7081 f93a 3b84 22bb
000003b0: 6f65 26bb 5dd9 20bb 3dfa 77bb 66cd 72bb
000003c0: 9dc8 a13a 10c7 093b 9200 d1bb 3ad8 e8ba
000003d0: f69c 08bb 1a3d 6cba 8a36 faba f936 a9ba
000003e0: 3700 35bb 2829 2eba 8218 31ba e266 22bb
000003f0: c955 bcbb a529 cabb dad0 bdbb 68c8 92ba
-0.00048128353 0.0014032744 0.0019528479 0.0009729715 0.00063381414 0.0012550437 0.0005706352 0.002037427
-0.0011327124 8.780987e-05 -0.0019443585 0.002724199 -0.0025279291 -0.0022520411 -0.0025282442 0.0014426109
-0.0019163033 0.0012365308 -0.001838266 0.0016472873 0.0016465725 -0.001163755 -0.0025517426 -0.00085757946
-0.0007946342 0.0008476019 -0.0011414426 0.0007601671 -0.0027680928 -0.0012105069 0.0016574378 -0.0024127003
-0.0019372408 0.0022438203 0.0003191842 -0.0016095194 0.0019299933 -0.0017430139 0.0013490414 -0.0004897594
0.0017803346 0.0010421247 -0.0006234019 0.0005788849 0.0020196205 -0.0016176035 -0.0010130195 -0.0010818332
3.5986926e-05 0.0011189021 -0.00073922356 -0.00033388313 -0.0021678617 -0.0016371587 -0.0021232143 0.0019428387
0.0028176277 0.0022003162 -0.0014061445 -0.0010864951 0.0025220881 -0.0011044872 0.0004255621 -0.00080698065
-0.00024870792 -0.002013229 0.00032018812 0.001687381 0.17909105 0.0019541653 0.0987547 -0.061717276
-0.002717562 0.058972906 0.01467359 0.090854265 0.00052224624 5.6751956e-05 0.00024256474 0.0009351208
-0.00071699073 0.0045066173 0.004863914 -0.00060008996 0.0025685937 -0.0016553074 0.00062010303 -0.002051047
0.07619545 0.15507317 8.2043654e-05 0.0010371117 -0.00069301244 -0.12485069 -0.0015437809 -0.0010421394
-0.17352225 0.21534261 -0.29734233 0.08803345 -0.030886626 -0.014719024 0.00024464857 -0.000966136
-0.0012847806 0.0019882973 -0.00069135416 -0.0006713735 0.0003660817 0.0071108416 -0.009439438 -0.4091517
0.0007948201 0.0026862323 0.0021318817 0.00038532988 0.0016737331 0.001605391 -0.0013921923 0.0047124093
0.0019492749 -0.0020934965 0.20056295 0.0048919385 -0.0016042524 0.086088054 -0.00175169 -0.0022328321
-0.0008261533 -0.0010105793 -0.0026224067 -0.002090391 0.0014009239 -0.0018690514 -0.001713674 0.0019849068
-0.0026431193 -0.0024460626 -0.00052515796 0.00034821095 0.0014779477 -0.0013620382 0.0008722728 5.498878e-05
-0.002560795 0.0027001586 -0.0020005745 -0.0008302651 -0.002707952 -0.0027924571 -0.0012064029 -0.0015561418
0.00054983364 -0.0027710046 0.00022555265 0.00023543002 0.0009284004 -0.0010597315 -0.0006073922 -0.00015655046
-0.0015220443 -0.0016946427 -0.000115422125 -0.0015666768 -0.0020118868 0.001329284 -0.0002722852 0.0005141873
-0.00018618301 0.0018754813 0.00055631774 0.0010399873 0.0018168887 0.002574695 0.0005499649 -0.0010263147
0.0009605304 0.0020497076 0.0020412966 0.00036334712 -0.0004104515 -0.001361823 0.0006426618 0.0014075113
0.0026431698 0.002699869 -0.0002376321 -0.002463068 -4.0698043e-05 -0.0007099508 -0.0009928355 -0.00026022922
0.0013946447 -0.0016446414 -0.0025568113 0.0004646928 0.0012069565 -0.0018897727 0.0009010917 -0.0013568782
-0.0021578157 -0.00489754 -0.0064914348 -0.0015478762 0.0016134303 9.9196746e-05 -0.0004630249 -0.0015021795
0.0024344893 -0.0019177917 -0.0030568189 -0.0025239543 -0.00058761396 0.00042504905 -0.0019311232 -0.0007835378
-0.0031624015 -0.0018983446 0.002656623 0.00071330497 0.0017465373 -0.0025516003 0.0017363133 0.00054455537
-0.0049916934 -0.0019699596 -0.003437116 0.00017662576 -0.0002329496 -0.0038025072 0.0027419543 0.00079880364
-0.0019326278 -0.00020231455 0.0019035768 -0.0024798054 -0.002539005 -0.002454362 -0.0037838363 -0.0037048697
0.0012343113 0.0021023192 -0.006378242 -0.0017764636 -0.002084551 -0.00090117904 -0.001908974 -0.001291006
-0.0027618536 -0.0006643706 -0.0006755666 -0.0024780561 -0.005747531 -0.006169515 -0.0057927193 -0.0011198642

bias f4 [64]
00000000: 239b 22bb 4dc7 7fbd 6a08 a8ba 690c 12bb
00000010: fbf6 3a3d b9da 973d 67c4 97ba fe7e 51bb
00000020: 0edb dab9 ba7a 0a3b 0cc3 a1b9 8b0a 3ebb
00000030: beb7 a1bd 71fc e43a 1ac1 d4ba 4a5a 83bb
00000040: 0e63 aebb 04cf 87b7 c1cd a239 bfa6 eeba
00000050: 7c28 f4ba 57ca c5ba 328e df39 011a 6d3d
00000060: 66fd 5c3a a0a8 683d 641e 9aba d12b d2b9
00000070: edbc 69bb b121 f4ba 0d07 9bbd dd14 4cbb
00000080: a624 21bc f9f1 6d3a 8f3d e8ba 4948 373d
00000090: ad6d bfba e475 7fbd 5f33 d3ba 1904 2bbb
000000a0: 115c 4dbb 8ef5 74bd 10cc 90bd 9bb2 4c3a
000000b0: 882b 15bb 75a5 cdba a161 8dba a19b b83a
000000c0: 6b27 eeba 34b0 bdba 26a1 24bb 9b29 bb3d
000000d0: 92a6 9b39 7bef aebb 26e0 5b3d 1281 f039
000000e0: 02ae 12bb 7263 893d 8662 c4ba 8a19 7938
000000f0: 2afc 7bbd 67ef 33bb e847 583a 39cc 0dba
-0.0024811707 -0.062445927 -0.001281989 -0.002228523 0.045645695 0.07414765 -0.0011578918 -0.0031966562
-0.0004174341 0.002113028 -0.00030853634 -0.0028997983 -0.07896374 0.0017470253 -0.0016231865 -0.004008566
-0.005321867 -1.6189653e-05 0.00031052346 -0.0018207653 -0.0018627788 -0.0015090209 0.00042639818 0.057886127
0.00084300933 0.05680144 -0.0011758325 -0.00040086967 -0.0035665587 -0.0018625763 -0.07569704 -0.0031140365
-0.009835398 0.0009076889 -0.0017718541 0.04474667 -0.001460483 -0.06236829 -0.0016113332 -0.0026094972
-0.0031335393 -0.05980449 -0.07070172 0.0007808597 -0.0022761542 -0.0015689569 -0.0010786542 0.0014084467
-0.0018169706 -0.0014472068 -0.0025120466 0.09138795 0.00029688008 -0.005338607 0.05368056 0.00045872532
-0.0022381549 0.06708421 -0.0014982976 5.939001e-05 -0.06151978 -0.0027455927 0.0008250461 -0.00054091547

weight f4 [64, 64]
00000000: f182 373b 11dd 64be 370c c93a c321 b1ba
00000010: b0bf 0bba d5c3 6f3d 8082 2b3a 3934 82ba
00000020: 452c e4ba 09f2 0fbb ef4e 693a d95a 8cb9
00000030: bdbb a03a 1993 efb9 f595 48ba 80c5 333b
00000040: 922a a4ba d94c 683b f4a1 8d3a 4515 82ba
00000050: 89e5 203b a0da 63ba db14 103b 59a1 513d
00000060: 2cb3 7e38 cf12 84be 13d4 b03a 69ab baba
00000070: 7456 cc39 c05e cbba 5740 8439 6a70 ec3a
00000080: 4c65 d439 ea83 1e39 ff9b e7ba 1905 1c3e
00000090: 1e2d ac3a c172 63be 371e 02bb e471 0cbb
000000a0: 7d59 0eba 47a8 3cbe 054d 17bb 5f95 2ebb
000000b0: 85e0 cb39 fbde 683a 2f95 70bb 6afa d73a
000000c0: 47fe ef3a 10b3 0bba 982d 7fba 38ee 713b
000000d0: b547 333a d845 90b8 49f9 88be 2e23 7aba
000000e0: a496 89bb 9b07 803e 25ce 77b9 130c f2ba
000000f0: a982 47be 3c6f 7c3a 1079 94ba 4b56 e1b9
00000100: 2fd2 16bb efe9 efbb 0c5b 9aba bb16 71ba
00000110: 3826 0b3e bd18 80bd 295e 17bb 2c8b 273a
00000120: d86b 373b 7678 643b 0e89 e0ba dd1a cd39
00000130: b440 80be 09ac 4db9 6e6d 273a 2df7 9c3a
00000140: 7b01 8fb8 a5ba 233a a6e8 d9ba 3edc ba38
00000150: e9ec d039 023f 20bb 185f 193b 6a5c 35be
00000160: d112 49ba fd17 d83d 4142 fb39 063b f539
00000170: 9c28 8dba e744 7abb 6cae 7cbe 59a6 2d3a
00000180: 2b76 8abb 9e61 e1ba e35f f23a ff79 e23d
00000190: 11e8 313b cc9a 8b3a 5c23 823b d5fc e43a
000001a0: 1048 663a c181 c9bb ec86 7dbe a446 923a
000001b0: febb 46ba 2bf1 e8ba 0924 043b 4219 5f3a
000001c0: b428 c139 00d0 a9ba bb91 67ba 864e ab3e
000001d0: ec0a 32ba 5a92 e83a 431f d93d 09d1 23bb
000001e0: 40c6 7f3a bcd9 153e 4594 fc3a 8690 7aba
000001f0: 9047 26bb 32dc f93a b26c f23a 17b1 443a
00000200: d9b7 82ba 3a77 b039 bf92 953a 5b72 113b
00000210: 7b0e 233b ad28 94ba f89f 0fbb 1907 0cba
00000220: d086 07bb 6acf 7db9 12c0 053b 1266 21bb
00000230: f699 f03a 6a10 d7ba 77b8 89ba 0d96 cb3a
00000240: 604d a8ba 0c18 033a 04bf 1eba fe2f b83a
00000250: 407b 3dbb aa94 2d3a b48e 8eba 826a 27bb
00000260: b49f 1e3b 5ac1 99b9 0967 3e39 4b8d 283b
00000270: cad0 59ba 8257 d5b8 f4c1 9a3a 2fa5 c3ba
00000280: 79c1 aa3a 7e1d 093b c447 0cb9 b1e7 bbba
00000290: d5a2 0f3b 34e0 55bb 224e 7dba 200f fb3a
000002a0: 3b9d faba ce96 ca3a 60e8 80bb 793f 4d3a
000002b0: 0eb5 aa3a 9b50 1d3b 3965 22bb 5277 a93a
000002c0: 16ff b3ba f975 cfba 3eb2 383b a311 e6ba
000002d0: 0624 263b 4995 9539 5936 e8ba ac36 203b
000002e0: c07a 00b9 66d3 013b bb29 913a 4f9a 71ba
000002f0: 4ffc 333b ec3f ca3a 944a 273b 4866 19ba
00000300: e138 363a a18e 9e3a 9a23 023b 6b70 2e3a
00000310: f259 87bb 2552 2539 7836 1bbb c384 35bb
00000320: a688 033b 992f caba 6bef 113b 2444 59ba
00000330: 344f a6ba 723a efb9 2cd0 d53a cccb 78ba
00000340: b980 8eba 9913 2a3a 59b4 b33a cb48 2abb
00000350: a046 113b ece1 fd3a cada db3a daf4 e43a
00000360: 2d13 0139 ebfc 62ba 03c1 0a3b 7339 aeba
00000370: 7e73 833a b020 1dbb a169 24bb fbd6 faba
00000380: c87a d53a 723e 043a 84b7 06ba c92e cd39
00000390: 5a65 21bb bc10 3d3a a34a 0939 5a47 593a
000003a0: bcc8 aeb5 3e01 2eba beb2 7dba a111 cb3a
000003b0: a7e7 133a 13ed 35bb a152 12bb 675f 3cbb
000003c0: 4efb 6eba 245b 123b 0ecc b93a 3dcb bb3a
000003d0: 82d7 57b9 2e84 b73a d565 25bb d246 153b
000003e0: e80d 533a f6f8 54bb cbb8 ca3a 262c 73b7
000003f0: 4613 9e38 0e39 0d3a 1ec9 12bb c14d 8f3a
0.002800163 -0.22349955 0.0015338723 -0.001351409 -0.0005330993 0.05853637 0.00065425783 -0.0009933776
-0.0017408213 -0.0021964333 0.00089000067 -0.00026770568 0.0012262982 -0.0004569523 -0.000765174 0.0027430952
-0.0012524894 0.0035446195 0.0010805712 -0.0009924552 0.0024550876 -0.00086919405 0.0021985087 0.051179264
6.0725186e-05 -0.257956 0.0013490937 -0.0014241758 0.00038974325 -0.0015515909 0.0002522494 0.0018038873
0.00040511263 0.00015117196 -0.0017670392 0.1523632 0.0013136005 -0.22211744 -0.0019854435 -0.0021430189
-0.0005430205 -0.18423568 -0.0023086679 -0.0026639325 0.00038886457 0.00088833243 -0.0036710014 0.0016477827
0.0018310033 -0.00053291116 -0.0009734272 0.003691567 0.0006838993 -6.8794645e-05 -0.2675269 -0.00095419853
-0.004198866 0.25005803 -0.0002363255 -0.0018466733 -0.19483437 0.00096296123 -0.0011327583 -0.00042979638
-0.0023013463 -0.007321588 -0.0011776402 -0.00091968075 0.13588798 -0.062547185 -0.0023096895 0.00063912827
0.0027987864 0.003486184 -0.0017130689 0.00039120662 -0.25049365 -0.00019614412 0.0006386851 0.001197552
-6.819047e-05 0.0006245769 -0.0016625121 8.9101944e-05 0.00039849363 -0.0024451618 0.0023402628 -0.17711034
-0.00076703454 0.105514504 0.00047923814 0.00046774017 -0.0010769549 -0.0038188042 -0.24675912 0.0006624214
-0.0042255125 -0.001719523 0.0018491711 0.11058425 0.002714638 0.0010650991 0.0039715003 0.0017470369
0.0008784542 -0.006149501 -0.247585 0.0011159969 -0.00075811136 -0.0017772069 0.002016308 0.00085105386
0.00036842155 -0.0012955666 -0.0008833666 0.33458346 -0.00067917886 0.0017743811 0.10601666 -0.002499642
0.00097570196 0.1463384 0.0019270262 -0.0009558279 -0.0025372244 0.0019062816 0.0018495528 0.0007503195
-0.0009973004 0.00033658167 0.0011411532 0.0022193405 0.0024880457 -0.0011303626 -0.0021915417 -0.0005341634
-0.002067972 -0.00024205228 0.0020408672 -0.002462749 0.0018356431 -0.001640809 -0.0010507245 0.001553239
-0.0012840442 0.00050008367 -0.0006055685 0.0014052389 -0.0028912574 0.0006621579 -0.0010876269 -0.0025545661
0.0024204077 -0.00029326492 0.00018158196 0.0025718983 -0.0008309005 -0.00010172931 0.001180707 -0.0014926548
0.001302763 0.002092212 -0.00013378175 -0.0014336017 0.0021917124 -0.0032634856 -0.0009662827 0.0019154288
-0.0019120345 0.001545632 -0.0039339513 0.00078295876 0.0013023929 0.0024004343 -0.0024779572 0.0012929237
-0.0013732638 -0.0015828005 0.0028182412 -0.0017552864 0.0025351061 0.0002853072 -0.0017716392 0.002444665
-0.00012252759 0.0019809841 0.0011075059 -0.0009216414 0.002746362 0.0015430427 0.002552663 -0.0005851728
0.00069512246 0.001209695 0.0019857646 0.0006654325 -0.0041305954 0.00015766227 -0.002368359 -0.002769754
0.0020070462 -0.0015425562 0.0022267948 -0.0008288047 -0.0012688399 -0.00045629177 0.001631265 -0.00094908173
-0.0010872103 0.00064879056 0.0013710364 -0.002598333 0.002216734 0.0019369698 0.0016773578 0.0017467991
0.00012309542 -0.00086589035 0.0021172173 -0.0013292268 0.0010028926 -0.0023975782 -0.0025087374 -0.0019137556
0.0016287202 0.00050447055 -0.00051390403 0.00039135505 -0.002462706 0.00072122714 0.00013093142 0.0008288525
-1.3022432e-06 -0.00066377583 -0.0009677819 0.0015492925 0.0005642124 -0.0027759715 -0.0022327083 -0.0028743388
-0.0009116427 0.0022332156 0.0014175193 0.0014327538 -0.0002058428 0.0014001185 -0.0025237699 0.0022777808
0.00080510834 -0.0032497025 0.001546645 -1.4494208e-05 7.537617e-05 0.0005387225 -0.0022397707 0.0010933207

bias f4 [64]
00000000: d293 523d f999 3d3d db85 e7ba 1bf7 2abb
00000010: 5684 6d3d b4a2 4ebb cee3 32ba c667 6cbb
00000020: 4aee d1bc e242 58bb b23f 763a 9b77 21bb
00000030: f6c2 10bb f01b 0dbb 243a 1abb 12bc 3aba
00000040: c7f6 96ba e94d a4bc f2bc 59bb 9e17 24bb
00000050: 8726 483d 67c5 1ebb 830a faba 595f 19bb
00000060: 0392 27bb c520 4139 b66c d5bc f15d 273d
00000070: 8a0a 3f3d caaf 5f3d e605 5e3d b830 48ba
00000080: a5f9 513d 8e2f 35ba d9b9 a139 0142 78bb
00000090: b95e 51bb 1925 9fbb a5ea 353d c03f 5b39
000000a0: abd2 25bb 366f a4ba b88b a0b9 a169 b1b9
000000b0: 177b 503d 21a6 4fb9 c1aa c7ba 0556 07bb
000000c0: c16a 0dbb b38f d0b9 b510 35bb 4f1d 1fbb
000000d0: 25db c4ba edac 72bb 22ac 00bb d3cf 70bb
000000e0: 4e40 733d 64cb 8aba 6ee6 523d e92f 513d
000000f0: bfa9 d2b9 3b24 4fba 04c2 4c3d 778a 24bb
0.051410504 0.046289418 -0.0017663793 -0.0026087228 0.057987534 -0.0031530084 -0.00068241067 -0.0036072596
-0.02562632 -0.003299885 0.00093936466 -0.002463794 -0.0022088862 -0.0021531545 -0.002353319 -0.00071233616
-0.0011517637 -0.020056682 -0.0033224192 -0.002503849 0.048864868 -0.0024226548 -0.0019076619 -0.002340278
-0.0025569208 0.00018418122 -0.026052814 0.040861074 0.04664091 0.054611005 0.054204844 -0.0007636654
0.05126347 -0.0006911688 0.0003084678 -0.0037881138 -0.0031947328 -0.0048567173 0.044413228 0.00020909216
-0.002530257 -0.001254535 -0.00030621677 -0.0003383877 0.050898638 -0.00019802946 -0.0015233384 -0.0020650637
-0.0021578523 -0.00039779916 -0.0027628366 -0.0024278944 -0.0015018923 -0.0037029341 -0.001963385 -0.0036744967
0.059387498 -0.001058918 0.051489286 0.05107108 -0.00040180792 -0.0007901822 0.049989715 -0.0025106946

weight f4 [64, 64]
00000000: a72e a33a 105f 73bd 7882 bc3a b3c9 c43a
00000010: 4d52 52bb 9367 6bba 3bb1 683a 5f5b e53a
00000020: a57b a4bc 3f9d 833a b71b 0bbb bbf0 c9ba
00000030: 508f 0ebb 8b2f 153b 4af6 40ba 86a8 2b39
00000040: 9bbd 4ab9 9a39 9f3b b5af fbba 9aa9 9e39
00000050: 4e6e 55bd eb96 203b fe09 5f39 c5d3 ee3a
00000060: 0964 313b 291e c7b8 8b96 923b 4a71 5aba
00000070: 7ed3 9dbb 9c0b 1e3b 9d20 9abb 5ed8 373b
00000080: c6d6 6abb d3eb 88ba c0c3 b1ba ac02 d2b9
00000090: 21e8 ff3a b372 f4bb a483 13bc 617e 693b
000000a0: b50b 263a 2565 bd3a a8a6 e839 02c9 dfba
000000b0: 5803 4fbb 872c 48bb 10c0 8439 7dda 27bb
000000c0: 569d 74b9 aefa bbba 8859 e0b9 2db8 fc3a
000000d0: b371 11bb 3be6 eaba 5aa0 ffba e74d 3f3b
000000e0: 60a2 ed3b dbcc 243b afb1 86bb 2bc9 6dbd
000000f0: fb9c ef3a dd2d 7f3a f2fa febb 320f a339
00000100: e152 843e be65 30be 17d3 2eba d9b5 a93a
00000110: f1f5 7a3e aca1 013a 0e17 3d3a a7fc d139
00000120: ccb9 57be 5ebe 4eb9 0ca7 4cba b36a a5ba
00000130: 144d 9e3a de54 65bb 66f5 3b3b b2c1 573b
00000140: ade5 303b 2f1c 19be fcbb 0d3b be0e 25bb
00000150: 8d7f 20be 5e29 f1b9 508e ad3a f5e9 443a
00000160: f449 4cb8 3f17 153b 1acb e4bd 5700 803e
00000170: 3387 473e 6364 683e 20d4 533e 936d 6aba
00000180: dd27 343e c67e eaba 412b 33b9 3539 c4ba
00000190: 2be0 c238 d19a 68bb ecd8 3b3e 84af 0ebb
000001a0: 15f1 edbb b36a 363b 52a9 d6ba aa52 08ba
000001b0: 2d50 423e 6d2b 1a3b df4e 2fbb 25d3 4f3a
000001c0: 67aa b3ba 0385 9a3a 5f56 343b df56 a2ba
000001d0: 85ea 3cba 7028 01bb 4c61 1c3b 6c2c 8c3a
000001e0: b0cf d33c fe41 4c3b a15d 563e d0b9 21be
000001f0: 385f bcba 320e 8aba c9d9 433e e35a 67ba
00000200: 682f efbd 6599 593e fdac be3a 4097 c33a
00000210: dbd0 a9bd d4aa 2b3a 0989 4bba def2 e3ba
00000220: cee1 37bf f584 ad3a d8c5 b639 6cc4 0d3b
00000230: 4198 273a 87cb e9ba 581b 7639 6681 0cbb
00000240: 60b7 023b 0712 5fbe ed39 e23a 00a5 1e3b
00000250: 75df 573e e0fb bd3a 7e39 9439 70cc b8b9
00000260: 4253 e3ba 9fe0 1ebb 27de 72be 23b1 adbd
00000270: 0862 b5bd 6a4d b5bd fd38 80bd 9354 f33a
00000280: 5ce8 a9bd f60a 06ba f6b8 dd3a e2d5 d83a
00000290: 08f1 21bb e69e 2b3b ef91 b5bd 8f58 eaba
000002a0: 3017 ce3a 1ea8 a23a 9ecf deba cbd1 a23a
000002b0: 0585 92bd 54e3 d839 46fd d73a 031d 14bb
000002c0: cf2e e3ba 24e8 11bb ccb0 d039 719d e1b9
000002d0: 8299 f23a df05 433b c6cf 9a3a 96b5 ffba
000002e0: edd0 2d3e fb62 70bb 8b34 91bd d0b1 583e
000002f0: 2485 273b f937 b13a a528 a6bd abd1 213b
00000300: 7d35 0dbb a722 c1ba 1fd5 05bb ef59 7cba
00000310: 4ea1 6cba 78c8 0938 a6ad 91ba 1f1d 8dba
00000320: 2cde 4eb9 f907 2d3b 4fee 75ba 154f 4d3a
00000330: e803 1d3b 0882 0b3b 3158 d33a d645 09bb
00000340: ddfd 7eba d798 33bb 9e44 3a3a e005 c83a
00000350: 4121 c03a 9cb4 0dba c4cb 86ba 20b1 09ba
00000360: 2b89 4f3a 0e00 8f3a e5fd 623a faf9 2cb9
00000370: e2ca d6b8 dc34 2a3b 2e42 14ba ebb0 a33a
00000380: a31d ad3a fad4 deba c660 e2b9 e63a f93a
00000390: 8aa6 d4ba 4f93 13b9 243b 2bba e9a8 20bb
000003a0: 26a2 d8ba 80d1 ccba 3419 8dba 8ee7 81ba
000003b0: b1fb 2738 d384 a4b9 bace b33a a5bf 993a
000003c0: 6465 9f3a 399f 273a e9f8 61b9 5570 52ba
000003d0: f76d 38bb a2e4 5139 5e23 36bb 62a2 f1ba
000003e0: d93a 913a 3211 f6ba 9d18 35bb 8e46 1ebb
000003f0: f9e7 cd3a 4905 093b 983e 6f3a 8908 10bb
0.0012449817 -0.05941683 0.0014382144 0.0015013724 -0.0032092512 -0.00089799723 0.0008876507 0.0017498544
-0.02007849 0.001004137 -0.0021226236 -0.0015406826 -0.0021752901 0.0022763934 -0.00073609187 0.0001637061
-0.00019334855 0.0048591616 -0.0019202145 0.0003026247 -0.052107148 0.0024504017 0.0002127066 0.0018221071
0.0027067682 -9.494677e-05 0.0044735125 -0.00083329214 -0.0048164716 0.0024115806 -0.004703595 0.002805255
-0.0035833581 -0.0010446258 -0.0013562366 -0.00040056312 0.0019524136 -0.0074599623 -0.009003554 0.0035628306
0.0006334142 0.0014449699 0.00044374657 -0.0017073455 -0.0031587686 -0.0030544118 0.000253201 -0.0025612407
-0.00023328266 -0.0014341676 -0.00042791315 0.0019280963 -0.0022193014 -0.0017921397 -0.0019502745 0.002919072
0.0072520226 0.0025146517 -0.004110537 -0.058053177 0.0018281037 0.0009734312 -0.00778138 0.00031101104
0.25844482 -0.17226312 -0.0006669028 0.0012947872 0.24507882 0.00049450505 0.0007213213 0.00040051827
-0.2106697 -0.00019716608 -0.00078068743 -0.00126203 0.0012077414 -0.0034993212 0.0028680204 0.0032921848
0.0026992366 -0.14952157 0.002162694 -0.002518579 -0.15673657 -0.00045997923 0.0013241265 0.0007511669
-4.8706264e-05 0.0022749451 -0.11171551 0.2500026 0.19485168 0.22694544 0.20686388 -0.00089427194
0.17593332 -0.0017890565 -0.00017086884 -0.0014970662 9.2923954e-05 -0.0035492668 0.18344468 -0.0021772096
-0.0072614052 0.0027834594 -0.0016377366 -0.0005200306 0.18975897 0.002352442 -0.0026749892 0.00079278863
-0.00137074 0.0011788908 0.0027517301 -0.0012385509 -0.0007206577 -0.001970794 0.0023861704 0.0010694391
0.025855869 0.0031167264 0.20934154 -0.15793538 -0.0014371639 -0.0010532795 0.19126047 -0.0008825494
-0.11678964 0.21249922 0.0014547404 0.0014922395 -0.08291789 0.00065485877 -0.0007764255 -0.0017391106
-0.71828926 0.0013238477 0.0003486115 0.002163197 0.0006393232 -0.0017837145 0.00023470575 -0.0021439432
0.0019945726 -0.2178422 0.0017259695 0.0024207234 0.21081336 0.001449462 0.00028271595 -0.00035247533
-0.0017343538 -0.0024242771 -0.23717557 -0.08481052 -0.088565886 -0.08852656 -0.0626087 0.0018564634
-0.08296272 -0.00051133276 0.0016916085 0.0016543234 -0.0024710316 0.002618724 -0.08865725 -0.0017879176
0.0015723463 0.0012409722 -0.0016999131 0.0012422142 -0.07154278 0.00041368103 0.001647868 -0.00226003
-0.0017332676 -0.002226361 0.00039804575 -0.00043032647 0.0018508884 0.0029758138 0.0011811189 -0.0019509073
0.1697423 -0.003668009 -0.070901 0.2116158 0.0025561536 0.001352071 -0.08113221 0.0024691622
-0.0021546774 -0.0014735059 -0.002042122 -0.0009626438 -0.0009026722 3.2850046e-05 -0.0011114373 -0.0010766125
-0.00019728456 0.0026402457 -0.0009381519 0.00078319135 0.0023958627 0.0021287221 0.0016124306 -0.0020946166
-0.00097271596 -0.0027404332 0.00071055617 0.001526054 0.0014658348 -0.0005405636 -0.0010284116 -0.0005252529
0.0007916863 0.001091005 0.0008659049 -0.00016496322 -0.00010242105 0.0025971448 -0.00056556135 0.0012488639
0.0013207685 -0.0017000728 -0.0004317818 0.0019014745 -0.0016223949 -0.00014073889 -0.0006531945 -0.002451474
-0.0016527816 -0.0015626401 -0.0010764957 -0.0009910928 4.005031e-05 -0.0003137948 0.0013718226 0.0011730088
0.0012160954 0.00063942705 -0.00021550398 -0.0008027603 -0.0028141716 0.00020016966 -0.0027792077 -0.0018435235
0.001108016 -0.0018773435 -0.002763308 -0.002415094 0.0015709392 0.0020907691 0.00091264537 -0.0021977744

bias f4 [64]
00000000: 477b afba 47e1 433d 515a 903d 23d8 37bb
00000010: 59ef 873d 818b 3bbb 35b8 983d d6b8 daba
00000020: b4b6 11bb fc51 faba f030 983d baeb 56bb
00000030: b680 abbb f6b3 f5ba 90e9 003d bce1 8cb9
00000040: 14ee 433d cb87 84bb c6f5 953d 5fc2 a3ba
00000050: b0af 943d becf 73ba 77e5 693d fcda 8cb9
00000060: 4ae8 51ba 6e8e 56bb df8c b33d a067 30bb
00000070: 950c 39bb dab5 3939 4678 523d a7d6 9eb8
00000080: 6d9c 5c3d e4c3 f1ba 6559 3eba cada 4e3d
00000090: 5197 3038 10b1 b5ba 1f6a 073d 86f6 53bb
000000a0: 84fe 8cbb 7f88 6ebb f443 8c3c cb0a ceba
000000b0: 662e aeba 68c8 f0ba 939d feba e7cd 79bb
000000c0: c6e0 84bb 19ee 24bb 9697 adba ac4c 4f3d
000000d0: eaf4 973d 373b 2ebb f51a 3238 3dc3 66ba
000000e0: 991e 7dbb bd22 d73c edde 3abb 5fb6 45bb
000000f0: a12f 9b3d 3e5c 8eba e238 9a3d 6c42 393d
-0.001338818 0.047822263 0.070484765 -0.0028052412 0.06637449 -0.0028617086 0.0745701 -0.0016687165
-0.0022234144 -0.001909792 0.07431209 -0.0032794313 -0.0052338494 -0.0018745649 0.031472743 -0.00026871066
0.04783447 -0.004044508 0.07322268 -0.001249384 0.07260072 -0.00093006704 0.0571036 -0.00026866037
-0.0008007331 -0.0032738703 0.087671034 -0.0026917234 -0.002823626 0.0001771072 0.051384233 -7.574009e-05
0.053860117 -0.0018445221 -0.00072612456 0.050501622 4.2102594e-05 -0.0013861973 0.03306019 -0.0032342984
-0.0043028016 -0.0036397276 0.017122246 -0.0015719769 -0.0013288974 -0.0018370273 -0.0019425623 -0.0038117112
-0.0040551154 -0.0025166331 -0.0013244029 0.05061023 0.074197605 -0.0026585588 4.2463613e-05 -0.00088028965
-0.0038622974 0.026261682 -0.0028514222 -0.0030168516 0.07577444 -0.001086123 0.07530381 0.04522936

weight f4 [1, 64]
00000000: 9e02 8d3a d612 49be c0e6 2b3e 8ff5 a0ba
00000010: 2da3 2c3e c4f2 83ba 20ea 393e 0ddb 89b9
00000020: fbf6 92ba 30fd 303b 7a5c 353e 1957 0cba
00000030: 2fa1 cb3a e4b3 06bb 3a8e 4e3e 1387 84ba
00000040: 087d 49be 4ec0 39bb 2588 363e a797 32b7
00000050: 70b4 363e 193d 083b 7590 4a3e 4835 d238
00000060: 1fea 1d3a 4503 6c3a 2b31 403e d6d5 f33a
00000070: f6a9 cbba 120c 14b6 3208 6abe 0432 a4b8
00000080: 8d72 473e d4c8 f93a 94fe 69bb 3343 57be
00000090: 4863 3839 c169 363b 778f 5ebe bbab 233a
000000a0: 66e3 8cbb a20c 16bb c9f7 333e 76a8 0e3b
000000b0: 5fad aeba ade7 a2b8 9173 35bb 54ba 593b
000000c0: ae81 353b 1a07 0e39 3d6d 94ba bcdc 61be
000000d0: bd1e 483e 56e8 ffb9 612e fa39 ad99 c43a
000000e0: 3efe fe3a 0b74 413e 6aef 9aba a26b 72ba
000000f0: 27fa 623e ab42 293a a698 443e 06d7 4bbe
0.0010758226 -0.19636092 0.16787243 -0.0012280213 0.16859122 -0.0010066857 0.18155718 -0.00026293882
-0.0011212522 0.002700638 0.17711058 -0.0005353555 0.0015535707 -0.0020554 0.20171443 -0.0010111056
-0.19676602 -0.0028343382 0.17825373 -1.0644936e-05 0.17842269 0.002078837 0.19781668 0.00010023505
0.00060239615 0.0009003173 0.18768756 0.0018603157 -0.0015538323 -2.2060744e-06 -0.22854689 -7.8294455e-05
0.19477291 0.0019057044 -0.003570472 -0.21021728 0.00017584593 0.002783403 -0.21734415 0.00062435464
-0.004299569 -0.0022895713 0.17574991 0.002176789 -0.0013326815 -7.767915e-05 -0.002768729 0.0033222632
0.0027695703 0.00013544821 -0.001132406 -0.2205686 0.19542976 -0.00048810494 0.0004771827 0.0014999412
0.0019454432 0.18891923 -0.0011820619 -0.0009247606 0.22165738 0.00064567727 0.19198856 -0.19906244
