pre_trained_models/1u1d/diode_pair_1u1d_1N4148_l_1.70k_2.50k_2x64_6.28e-06.pth (torch, 21615 bytes, 5 tensors)

weight f4 [64, 2]
0	0x3d39162d	0.045187164
1	0xbd1a3c92	-0.03765542
2	0x3b7a2c3a	0.0038173334
3	0xbc6b5294	-0.01436295
4	0x3c7706b0	0.015077278
5	0x3acf0413	0.0015794061
6	0xbbdeba34	-0.0067970995
7	0xbc80f46c	-0.01574155
8	0xbc025f65	-0.007957314
9	0xbacf47dd	-0.0015814264
10	0xbacd9c5a	-0.0015686855
11	0x3c47b3ef	0.012188896
12	0xbe01ee93	-0.12688665
13	0x3c294792	0.010332005
14	0x39cf0b3a	0.0003949048
15	0xbb118849	-0.0022206476
16	0xbb86074e	-0.0040902263
17	0xbc06efe1	-0.0082359025
18	0xbb6aa3d0	-0.0035803206
19	0xbc1f958c	-0.009740245
20	0xbb1c3389	-0.0023834428
21	0xbbb2026f	-0.005432419
22	0xb9b32372	-0.0003416795
23	0xbc6e2e51	-0.01453741
24	0xbc2c41e4	-0.010513756
25	0xb7a8ab8c	-2.0107043e-05
26	0x3d36203b	0.04446433
27	0xbbf84fa5	-0.0075778537
28	0x3c81a0e1	0.015823783
29	0xbc041d4c	-0.008063626
30	0x3b8ea680	0.0043533444
31	0xbc501c6a	-0.012702087
32	0x3c80d327	0.015725685
33	0xbc763bdd	-0.015028921
34	0xbc2897b0	-0.010290071
35	0xbb90ea67	-0.004422474
36	0xb90a0e14	-0.0001316595
37	0xbbf4423c	-0.007454185
38	0x3cd6c8a8	0.026218727
39	0xbbb70916	-0.0055858
40	0xbe5183c3	-0.2046042
41	0x3c1a32b9	0.009411507
42	0x3f035294	0.5129788
43	0x3d13a785	0.03604843
44	0xbb39a6da	-0.002832821
45	0xbd4f8585	-0.050664444
46	0x38133ac1	3.510225e-05
47	0x3bbef515	0.005827556
48	0xbc5addf2	-0.01335858
49	0xbc65b02b	-0.0140190525
50	0xbb816e01	-0.003949881
51	0xb800a6af	-3.0672814e-05
52	0xbb82d211	-0.003992327
53	0x3a0571e5	0.0005090519
54	0xb7089ede	-8.143221e-06
55	0x3bda77f0	0.0066671297
56	0x3b3b5a25	0.0028587666
57	0xbc001518	-0.007817529
58	0xbbb3fd1e	-0.0054928204
59	0xbbcd8a8b	-0.006272619
60	0xbb7dfa42	-0.0038753902
61	0xbb564c94	-0.0032699453
62	0x3aad3ca3	0.0013216924
63	0xbc4011af	-0.011722966
64	0x3c7ba6c6	0.015359586
65	0xbbbe8fed	-0.005815497
66	0x3c98c33f	0.018647788
67	0x35043d31	4.9262877e-07
68	0xbc0bf1f8	-0.008541577
69	0xbc67e454	-0.014153559
70	0xbbca3681	-0.006171048
71	0xbc70bfff	-0.014694213
72	0x3e434958	0.19070947
73	0x3c2722d8	0.0102011785
74	0xbc4f1d63	-0.012641284
75	0xbc57aa2f	-0.0131631335
76	0xbf1b7d27	-0.6073784
77	0x3d3848ae	0.044991188
78	0xbe298845	-0.16555889
79	0x3cc2b31f	0.023767052
80	0x3e218622	0.15773824
81	0x3cc5ba24	0.02413661
82	0x3c4d1869	0.012518027
83	0xbacc68e2	-0.0015595222
84	0x3d728de9	0.059217367
85	0xbc96a43a	-0.018388856
86	0xba2d4235	-0.0006609292
87	0xbc354e60	-0.011066049
88	0xb9de38f8	-0.00042385585
89	0xbb5848c2	-0.0033002351
90	0x3b5764da	0.0032866509
91	0xb926e5fd	-0.00015916671
92	0xbe1f312e	-0.15546104
93	0x3ce2446a	0.027620513
94	0x3ba197ab	0.0049314103
95	0xbc40d405	-0.011769299
96	0x3c5c8e50	0.013461664
97	0xbb701fe3	-0.00366401
98	0x3c4b7014	0.012416858
99	0xbc234c96	-0.00996699
100	0x3ef541ae	0.47901672
101	0x3d17b07e	0.03703355
102	0x3c071d45	0.0082467245
103	0xbc4e9d22	-0.012610706
104	0xb9d4ccfb	-0.00040588513
105	0xbc44874d	-0.011995149
106	0xbb0261c9	-0.001989471
107	0xba820541	-0.0009919779
108	0xbb68434c	-0.0035440503
109	0xbb427d76	-0.0029676831
110	0xbbce55a2	-0.0062968293
111	0xbc873bbd	-0.016507978
112	0x38feab39	0.000121435565
113	0xbb82ac43	-0.0039878204
114	0xb94ff58b	-0.0001983253
115	0xbc7e570e	-0.015523685
116	0x3c417d4f	0.011809661
117	0xbc5d1a36	-0.013495019
118	0x3e3d80f3	0.18506221
119	0x3c9a1ba5	0.01881201
120	0x3c52577e	0.012838243
121	0xbc6ae7e4	-0.014337514
122	0xbc65ee18	-0.014033817
123	0xbc7e4dc3	-0.0155214695
124	0xbc13f383	-0.009030226
125	0xbc2bdeb2	-0.010490106
126	0x3bdb9328	0.006700892
127	0xbb1744a7	-0.0023081691

bias f4 [64]
0	0x3e31aae9	0.17350353
1	0xbc0e158c	-0.008672129
2	0xbcb1c279	-0.021699177
3	0xbc528586	-0.012849217
4	0xbb5375a3	-0.0032266162
5	0xbd33bfe6	-0.04388418
6	0xbe0def7a	-0.13860884
7	0x3bdaeb68	0.0066808946
8	0xbc663afa	-0.014052147
9	0x3b36faf4	0.0027920576
10	0x3a63845c	0.0008679086
11	0xbc2316ae	-0.009954138
12	0xbc333f05	-0.010940318
13	0xbca675c4	-0.020319827
14	0x3c0071df	0.007839649
15	0xbc80668a	-0.015673894
16	0xba9171d3	-0.0011096544
17	0xbba8fb6e	-0.005156926
18	0xbbc9739b	-0.0061478144
19	0xbc3dd63f	-0.011586725
20	0xbe0d51e0	-0.13800764
21	0x3d8d0b51	0.06886924
22	0x3e351582	0.17683986
23	0xbcb884e4	-0.022524305
24	0xbc0b0261	-0.008484454
25	0xbc0b7bf0	-0.008513436
26	0xbbd1fde2	-0.006408439
27	0xbcbe4abf	-0.023229001
28	0xba10f705	-0.0005529973
29	0x3bff7bd8	0.0077967457
30	0x3bd8bf79	0.006614622
31	0x3b0a66c9	0.0021118394
32	0xbbf94573	-0.007607156
33	0xbc9bd267	-0.019021226
34	0x3c2b4842	0.010454239
35	0x3bd01696	0.0063503487
36	0xbe0928b7	-0.13394438
37	0x3a1e278f	0.00060331164
38	0x3db883df	0.090095274
39	0xbe21c8f6	-0.15799317
40	0xbe193bb4	-0.14964181
41	0xbc0ca652	-0.008584576
42	0xb8fb65d8	-0.000119875825
43	0x3bcfbecb	0.006339883
44	0x3beccea6	0.007226783
45	0xbb3e3fb2	-0.0029029665
46	0xbe24d1ba	-0.1609563
47	0xbb77f624	-0.003783592
48	0xbbbe9aac	-0.005816778
49	0x3b8339e8	0.0040047057
50	0x3da3411f	0.07971405
51	0x3c702e02	0.014659407
52	0x3c74c218	0.014938854
53	0xbc070322	-0.008240493
54	0x3bbd48e3	0.005776511
55	0x3c41e23a	0.011833722
56	0x3c49904e	0.012302471
57	0x3d46bc91	0.048519675
58	0x3bafdcf8	0.0053669177
59	0xbe198c33	-0.14994888
60	0x3c5a5a66	0.013327217
61	0xbc60f43c	-0.013730105
62	0xbb03507e	-0.002003699
63	0x3a45cbb7	0.00075453095

weight f4 [64, 64]
0	0x3e2c7af2	0.16843775
1	0x3a95ca73	0.0011428132
2	0xbb149b5b	-0.0022675607
3	0xba84c888	-0.0010130564
4	0x3b26cbf3	0.0025451153
5	0xbde54dc2	-0.11196472
6	0xbe726ba9	-0.23673882
7	0x3a9361e4	0.0011244384
8	0x3b42fe6f	0.0029753705
9	0x3af4e38a	0.0018683535
10	0x3acf3530	0.0015808698
11	0x39d823c1	0.0004122537
12	0xb8ec2c03	-0.00011261555
13	0xbb2b7c12	-0.002616648
14	0x38fe0d12	0.00012114098
15	0xba7160c1	-0.0009207838
16	0x3af935be	0.0019013209
17	0xbaf5c317	-0.0018750158
18	0xbb05f8b0	-0.0020442419
19	0xbb7ade5f	-0.0038279516
20	0xbef469a2	-0.4773684
21	0xbe442a1a	-0.19156685
22	0x3f215330	0.6301756
23	0xbced5b66	-0.028974246
24	0x3aa19082	0.0012326392
25	0xbae34406	-0.0017338998
26	0x3af7d33b	0.0018907556
27	0xbcbb8e01	-0.022894861
28	0x3b2dfc0a	0.0026547932
29	0x3b064974	0.0020490559
30	0xb9f101b0	-0.0004596836
31	0xbab89e02	-0.0014085176
32	0xbb11cbc3	-0.0022246696
33	0xbb8d07c3	-0.004303904
34	0x3b3d8307	0.002891721
35	0xbb442d45	-0.002993421
36	0x3a833417	0.0010010031
37	0x3a7b8392	0.00095944956
38	0x3df62c9b	0.120202266
39	0xbef2d8cd	-0.4743103
40	0xbd711c1b	-0.058864694
41	0xba04858d	-0.0005055301
42	0x3b83afa0	0.004018739
43	0x3a20c775	0.0006133237
44	0x3aca3c0a	0.001542927
45	0xbb04c47a	-0.002025871
46	0xbeeae82d	-0.4588026
47	0x3b416a15	0.0029512693
48	0xbae245d0	-0.0017263237
49	0x3ac671c8	0.0015140111
50	0xbe3c75b6	-0.18404278
51	0xbb333545	-0.0027344984
52	0xba3e8957	-0.000726839
53	0xbabea8f6	-0.0014546204
54	0x3a651c67	0.0008739889
55	0xba68e1c9	-0.0008883742
56	0x3a648630	0.0008717505
57	0x3cff70a7	0.031181647
58	0x3b1ce513	0.002394025
59	0xbbd125c8	-0.0063826777
60	0x3a19a14d	0.00058605225
61	0xbb0b00b5	-0.0021210138
62	0x3aacede2	0.0013193453
63	0x3af5ee70	0.0018763077
64	0x3b3253d0	0.00272106
65	0xbafe9894	-0.0019424134
66	0xba1bfba9	-0.0005950281
67	0x3a09b19e	0.0005252602
68	0xb89cb662	-7.472631e-05
69	0x3ae870b0	0.0017733779
70	0xbb277502	-0.002555192
71	0xbb1a1259	-0.0023509471
72	0x3a4883b7	0.00076490216
73	0x3aec8c54	0.0018047192
74	0x3b43c969	0.0029874688
75	0xb97b41ec	-0.00023961783
76	0xbb21a607	-0.002466561
77	0x3af460d8	0.0018644584
78	0xba53649f	-0.0008064005
79	0x3abefc6d	0.0014571078
80	0xbafa92f9	-0.0019117288
81	0xb9f793f8	-0.00047221757
82	0x3ab08cc7	0.0013469689
83	0x39d3b049	0.000403764
84	0xbb14a737	-0.0022682676
85	0xb979de66	-0.0002382934
86	0xbb2799e3	-0.0025573901
87	0x3a445f9e	0.0007491055
88	0xbae2d7a0	-0.0017306693
89	0xba1ec553	-0.0006056625
90	0x3a892894	0.0010464364
91	0xb98b8288	-0.000266094
92	0x3b29da89	0.002591761
93	0xba9ee92f	-0.0012123937
94	0x3b294a2b	0.002583156
95	0xbb026624	-0.0019897306
96	0x392b8c9e	0.00016360215
97	0x3ae0d7e0	0.001715418
98	0x3abf31e3	0.0014587011
99	0xb9d29d91	-0.00040171717
100	0xba75703c	-0.00093627325
101	0xb979a86c	-0.00023809233
102	0xb9d563ad	-0.0004070079
103	0xbac9602f	-0.0015363748
104	0xbb11fb80	-0.002227515
105	0x388fcf0d	6.8573376e-05
106	0xbb1dc832	-0.0024075625
107	0xba12e06f	-0.0005602901
108	0x3aef0b8a	0.0018237692
109	0xba6a1a28	-0.0008930289
110	0xbb169e5a	-0.0022982568
111	0x3ac89925	0.001530443
112	0xbb219bac	-0.0024659438
113	0x3a3672f1	0.00069598766
114	0xbaf9328b	-0.0019012255
115	0xbb014761	-0.0019726383
116	0x39e3d9ae	0.00043458998
117	0x3af8a34e	0.0018969567
118	0xba9e7659	-0.0012089714
119	0xbacd526f	-0.0015664826
120	0xba71e763	-0.00092279
121	0xbacaa217	-0.0015459683
122	0xb9c48de7	-0.0003748976
123	0x38bbb0f6	8.9498164e-05
124	0x3a9f8005	0.001216889
125	0x3b24ea41	0.002516404
126	0x3b10d62f	0.002210032
127	0xba8f1611	-0.001091661
128	0x38fc7d68	0.00012039655
129	0xba07e23d	-0.00051835534
130	0x3a2a59db	0.0006498375
131	0x39c24fa8	0.00037061912
132	0xbad08b45	-0.0015910646
133	0x397cd534	0.00024112017
134	0x3a426d83	0.0007416831
135	0x3a3e3a90	0.00072566513
136	0xbb2d186f	-0.0026412269
137	0x3af532c9	0.0018707152
138	0x3aa77451	0.0012775754
139	0x3a42c804	0.00074303173
140	0x399fcc85	0.00030479222
141	0x3b0cf7cc	0.0021510003
142	0x3ab1e6d2	0.0013572818
143	0xba9e3434	-0.0012070001
144	0x3adbfa1e	0.0016782915
145	0x3ae1b564	0.0017220196
146	0x3a0211c2	0.00049617526
147	0xbaac28f8	-0.0013134768
148	0xbb1822bb	-0.002321406
149	0xba9dc567	-0.001203698
150	0xbbaa351f	-0.005194321
151	0xbb038775	-0.0020069752
152	0x3b248ecc	0.0025109528
153	0x3b124358	0.0022317972
154	0x3b3f5407	0.0029194371
155	0xbb25a1b0	-0.0025273375
156	0x3a5c9614	0.00084146974
157	0x3aadc882	0.0013258609
158	0x3b3044de	0.0026896517
159	0x3b411c7d	0.0029466443
160	0xb98bde30	-0.0002667769
161	0xbaee9ab7	-0.0018204068
162	0xbb16c5be	-0.0023006047
163	0x3a5e5aa2	0.0008482133
164	0xbb4cabf6	-0.0031230426
165	0x3af57b34	0.0018728734
166	0x3af0c55b	0.0018369363
167	0x3b294611	0.0025829116
168	0xb7a2d539	-1.9411194e-05
169	0xbaf99580	-0.0019041747
170	0xb9fdc864	-0.00048405223
171	0x3a1c2e7e	0.00059578556
172	0xba2501dc	-0.00062945276
173	0x3a4ac805	0.0007735494
174	0x3a1ab39c	0.00059013977
175	0xbb0162cd	-0.0019742728
176	0x3af664d2	0.0018798357
177	0xbb27ed89	-0.002562376
178	0xbb903aea	-0.0044015544
179	0x3b07e0ee	0.0020733434
180	0x3a8c4d43	0.0010704178
181	0x3b2d1a40	0.0026413351
182	0xbade3f4c	-0.001695612
183	0xb9f3e916	-0.00046522234
184	0xbac71e3f	-0.0015191509
185	0xbbb7d3a7	-0.0056099477
186	0x3b190610	0.002334956
187	0x39600d62	0.0002136729
188	0xbb09ca0c	-0.002102497
189	0x3ab840d3	0.0014057405
190	0xbb41c399	-0.0029566048
191	0xbb32bad7	-0.002727201
192	0xbc666a41	-0.014063419
193	0x3b21beda	0.0024680407
194	0x3c355131	0.011066721
195	0xbb0e9d30	-0.0021761172
196	0xb9a9a5be	-0.0003235768
197	0x3d9faebf	0.07797002
198	0xba911d94	-0.0011071437
199	0x3aacca9c	0.0013182941
200	0xb9407311	-0.00018353412
201	0xbb2b6253	-0.0026151135
202	0x3b0042c6	0.001957105
203	0x3b431441	0.002976671
204	0xbb260881	-0.0025334659
205	0xbb323037	-0.0027189383
206	0x3a2db857	0.0006626895
207	0x3afbf625	0.0019223137
208	0x3aa5bc8d	0.0012644693
209	0x3ae18d98	0.0017208336
210	0xbb25dee4	-0.0025309855
211	0x3beb66cb	0.0071838847
212	0xba1ee01d	-0.0006060617
213	0x3db912a9	0.09036762
214	0xbda6f7f7	-0.08152764
215	0x3cfefc0f	0.03112605
216	0xbaefaf8b	-0.0018286569
217	0xbb207d39	-0.00244887
218	0xba2cdcd7	-0.0006594187
219	0x3cc842d9	0.024445938
220	0xba422161	-0.00074054865
221	0xbaf5a924	-0.0018742424
222	0xbba24835	-0.0049524554
223	0xbad4a045	-0.001622208
224	0xbb11f510	-0.0022271313
225	0x3bf4c3d7	0.007469635
226	0xbaea6a0b	-0.0017884386
227	0x3adaaacc	0.0016682982
228	0x3ea5ec7d	0.3240699
229	0x3a91adf4	0.0011114464
230	0xbb42d01b	-0.0029726091
231	0x3af2c57f	0.0018521993
232	0x3e6385a7	0.22218953
233	0x3b343a65	0.0027500626
234	0x3c9bfe4f	0.019042162
235	0x39e746c7	0.00044112487
236	0x3837f5e1	4.3859593e-05
237	0xb98341f6	-0.00025035412
238	0xbb520c32	-0.0032050726
239	0xbab311c2	-0.0013661908
240	0x3a301ccf	0.000671816
241	0x3af7c710	0.001890393
242	0x3da6ba66	0.081410214
243	0xbb28b9ab	-0.0025745432
244	0x3b090a70	0.0020910762
245	0xbb13fd55	-0.0022581418
246	0x38a6e785	7.958621e-05
247	0xba50a7a5	-0.00079595513
248	0x39d935b4	0.00041429477
249	0x3c244aa4	0.010027561
250	0xb9ec800b	-0.00045108827
251	0x3ea20164	0.31641686
252	0xba0a23a5	-0.00052695937
253	0x3a0badca	0.0005328326
254	0xbb23a0d4	-0.0024967687
255	0x3bd24470	0.00641685

bias f4 [64]
0	0x3df08b16	0.117452785
1	0xbb2e4279	-0.0026589914
2	0xbb482789	-0.0030541143
3	0xbdfb8073	-0.12280359
4	0x3dd3ca84	0.10341361
5	0x389c45a2	7.45163e-05
6	0xbb4dc34a	-0.003139692
7	0xba16706d	-0.00057387986
8	0xbb0a8e29	-0.0021141863
9	0xbb512328	-0.0031911824
10	0xba0913d3	-0.00052290893
11	0xbb8dfd4c	-0.004333174
12	0xbb21cc51	-0.0024688432
13	0x3da1ba51	0.07896865
14	0xba37ab8e	-0.00070064596
15	0xbb6b161c	-0.0035871333
16	0xbb7119d1	-0.003678907
17	0xbb21edbe	-0.0024708356
18	0x3da28576	0.07935612
19	0xbb157499	-0.0022805093
20	0xbab34ab9	-0.0013678885
21	0xbb8969d6	-0.004193525
22	0xbad477e0	-0.0016210042
23	0xbb1beb0f	-0.002379123
24	0x3d95ee71	0.0732087
25	0xbb350231	-0.0027619714
26	0xbb5aa378	-0.0033361595
27	0xbabea4e8	-0.0014544996
28	0xbb27ce9a	-0.0025605322
29	0xbbd93dae	-0.0066296672
30	0xb942f436	-0.00018592257
31	0x3ddfbdcf	0.10924875
32	0x3db11df9	0.08648295
33	0xba837a0c	-0.001003088
34	0xbb314e2b	-0.0027054648
35	0xbdf8d968	-0.12150842
36	0x3d99f183	0.07516768
37	0xbb027381	-0.0019905271
38	0xbb7ec138	-0.0038872492
39	0xbb89f799	-0.004210424
40	0x3da1a990	0.078936696
41	0xbb0e22a4	-0.0021688128
42	0xbacd4297	-0.0015660104
43	0xbad91d92	-0.0016564599
44	0xbabea2d9	-0.0014544382
45	0x3defacc7	0.117028765
46	0x3dd81b01	0.105520256
47	0xbdbf1f9c	-0.09332201
48	0xbdd0c151	-0.10193122
49	0xbaa94d59	-0.0012916728
50	0xbbee260e	-0.00726772
51	0x3d9a4e87	0.07534509
52	0xbb76ff55	-0.003768881
53	0xbb965266	-0.0045874594
54	0x3ded875c	0.115980834
55	0xbde40596	-0.11133878
56	0x3739a9ff	1.106644e-05
57	0x3d94fb3a	0.0727448
58	0xbbb1af01	-0.0054224734
59	0xbb4f652b	-0.0031645994
60	0xbb832503	-0.004002215
61	0xbb37838a	-0.0028001987
62	0xbbe3adf8	-0.006948229
63	0x3d6febe5	0.058574576

weight f4 [1, 64]
0	0xbea97e8d	-0.33104363
1	0xba3fef28	-0.0007321709
2	0x3a9d91ed	0.0012021639
3	0xbf0cdd78	-0.55025434
4	0xbebc7e23	-0.36814985
5	0x3b218231	0.002464425
6	0x399966d9	0.00029259062
7	0xbaed3a91	-0.0018099119
8	0x3a47d677	0.00076232053
9	0x3a83bc30	0.0010050591
10	0xbb0808c1	-0.002075717
11	0xb9bb01b9	-0.00035668703
12	0xbb3a5f01	-0.0028437974
13	0x3e8d4a67	0.27595827
14	0x3a5b30c6	0.0008361455
15	0x3bc5a885	0.006032052
16	0x3acdf69c	0.0015713754
17	0x3a96c750	0.0011503492
18	0x3e8f3da9	0.2797673
19	0xba44b736	-0.0007504107
20	0xbaedc88a	-0.001814143
21	0xbb2f672a	-0.0026764371
22	0x3b138ae8	0.0022513214
23	0x3ad11fa3	0.0015954863
24	0x3e8e55e4	0.27799904
25	0x3a5d4288	0.0008440395
26	0xba18d46a	-0.0005829992
27	0xb76a0932	-1.3949628e-05
28	0xbae1c6a0	-0.0017225333
29	0x3bbfdc43	0.0058551147
30	0xbabf760a	-0.0014607322
31	0xbeaca520	-0.3371973
32	0x3e84eeff	0.2596359
33	0xb8eef230	-0.00011393835
34	0xbb1e2c0e	-0.0024135145
35	0xbf0c6c09	-0.5485235
36	0x3e8dd80e	0.277039
37	0xbb02b182	-0.0019942229
38	0xba59f35c	-0.00083141564
39	0xba9e6658	-0.0012084944
40	0x3e839ce3	0.25705633
41	0xb96531e1	-0.00021857723
42	0x396c72a5	0.00022549422
43	0xba8d2051	-0.0010767077
44	0xb9393dd6	-0.0001766601
45	0xbeaa7af8	-0.33296943
46	0xbeaf2d50	-0.34214258
47	0x3f0f7396	0.56035745
48	0x3f11b328	0.56913996
49	0x3b0e69a1	0.002173044
50	0xbbf79249	-0.0075552803
51	0x3e879099	0.26477507
52	0x3a3471af	0.0006883395
53	0xba691f63	-0.00088929216
54	0xbeaaf76f	-0.33391902
55	0xbf012739	-0.50450474
56	0x3b034427	0.0020029636
57	0x3e9465a0	0.28983784
58	0x3ae2b936	0.0017297629
59	0xba53d64b	-0.00080809434
60	0x39ba9473	0.00035587288
61	0x3a32a060	0.0006814059
62	0xbb879110	-0.004137166
63	0x3e91858b	0.28422198
