pre_trained_models/1u1d/diode_pair_1u1d_1N4148_l_1.70k_2.50k_3x64_6.16e-06.pth (torch, 39037 bytes, 7 tensors)

weight f4 [64, 2]
-0.46056148 0.033312682 -0.015295021 0.0062257787 0.0029003972 -0.010261625 0.040116407 -0.031970344
0.041119143 -0.03962876 -0.00012899109 0.021236185 -0.024468377 -0.028922029 0.23519652 0.07173051
-0.025307951 -0.017879419 -0.09048428 -0.0065189176 -0.011234028 -0.022577021 0.03918293 -0.034024578
-0.058805127 0.056166362 0.010305193 -0.03441546 -0.0011097651 0.0018036768 -0.014771307 -0.017603077
0.023864968 -0.010960637 -0.0055669057 -0.032397322 -0.005501905 -0.02961651 -0.41429007 0.04415583
0.36069712 0.056344766 -0.012355576 -0.004508273 -0.014389999 -0.0046206852 0.39531323 0.048093654
-0.012949042 -0.038712826 0.016000642 0.0021850187 -0.013687659 -0.037468787 -0.0023080225 0.0047680535
-0.07997442 -0.023143971 -0.009274394 -0.023904221 -0.0024292767 -0.0004361073 -0.030045804 -0.01184064
-0.4469773 0.039335668 -0.5103224 0.034834478 0.014336243 -0.028605964 -0.20330696 0.051852293
-0.40475503 0.03571771 -0.011425914 -0.0012708318 0.016029015 -0.017771658 -0.012238775 -0.019221222
-0.14942472 0.012035571 -0.16917071 0.011318573 0.034305625 -0.038550798 0.012762579 -0.02867524
0.0120431045 -0.032532033 -0.00727329 -0.02487315 -0.015393946 -0.0076099094 -0.0065523973 -0.025755329
0.032964833 -0.040509854 -0.028660554 -0.024939762 -0.000103322054 0.016162118 -0.17242226 0.008775227
0.13309856 0.0025037192 0.028889097 -0.013827821 0.0034558037 -0.042065743 0.008701687 -0.024038857
0.041017257 -0.023974981 -0.0059439735 0.007622608 -0.20150307 0.012462593 -0.0113509 -0.026344389
-0.047619686 0.0016257627 0.08018958 0.055378754 -0.003296002 -0.0013221039 0.19388668 0.008035344
00000000: b7ce ebbe e172 083d f897 7abc 9e01 cc3b
00000010: 9714 3e3b 6020 28bc 1a51 243d 56f3 02bd
00000020: 8c6c 283d c451 22bd c841 07b9 82f7 ad3c
00000030: e871 c8bc e4ed ecbc 5bd7 703e 72e7 923d
00000040: 9f52 cfbc dc77 92bc d24f b9bd a59c d5bb
00000050: ee0e 38bc 72f3 b8bc 487e 203d 5b5d 0bbd
00000060: a5dd 70bd b30e 663d 1dd7 283c 3af7 0cbd
00000070: 8a75 91ba 5a69 ec3a 5a03 72bc 5434 90bc
00000080: 7780 c33c 3e94 33bc 976a b6bb 0eb3 04bd
00000090: 5349 b4bb 539e f2bc d41d d4be bedc 343d
000000a0: 4bad b83e c5c9 663d 0b6f 4abc 23ba 93bb
000000b0: 08c4 6bbc 1e69 97bb 7f66 ca3e dafd 443d
000000c0: 3828 54bc 5791 1ebd c713 833c 8832 0f3b
000000d0: 3442 60bc df78 19bd 3142 17bb 553d 9c3b
000000e0: a1c9 a3bd 6d98 bdbc a1f3 17bc c9d2 c3bc
000000f0: 8034 1fbb 55a5 e4b9 9e22 f6bc 3eff 41bc
00000100: 35da e4be 701e 213d 7da4 02bf 99ae 0e3d
00000110: 90e2 6a3c 0e57 eabc b32f 50be 1263 543d
00000120: 0d3c cfbe bc4c 123d c233 3bbc 0a92 a6ba
00000130: 484f 833c de95 91bc 2585 48bc d375 9dbc
00000140: cb02 19be d830 453c 163b 2dbe 8971 393c
00000150: 0e84 0c3d 71e7 1dbd 231a 513c 56e8 eabc
00000160: 7150 453c 4f40 05bd c754 eebb c7c2 cbbc
00000170: e436 7cbc 8c5c f9bb 7eb5 d6bb d7fc d2bc
00000180: 2206 073d a9ed 25bd 8ac9 eabc 794e ccbc
00000190: 9bae d8b8 6b66 843c 768f 30be f8c5 0f3c
000001a0: fd4a 083e 7015 243b d4a8 ec3c 168e 62bc
000001b0: c47a 623b 214d 2cbd 8591 0e3c 23ed c4bc
000001c0: b601 283d 2e67 c4bc aac5 c2bb 12c7 f93b
000001d0: d256 4ebe e72f 4c3c 20f9 39bc 30d0 d7bc
000001e0: dc0c 43bd 8b17 d53a 6f3a a43d d5d4 623d
000001f0: bd01 58bb 724a adba 3b8a 463e ada6 033c

bias f4 [64]
0.07022632 -0.03828865 0.030133363 0.0118846465 0.026282605 -0.07280623 0.038355358 -0.06198064
0.029828755 0.1138596 0.061268587 0.017465375 -0.13727252 0.028568272 -0.007569341 -0.038935952
-0.019361317 0.029369632 0.028458096 0.043688092 -0.026993344 -0.0075931493 -0.000546093 0.004222066
-0.01960672 -0.03692088 -0.031188374 -0.018935883 0.15882081 -0.016427713 -0.0038635219 -0.031080453
0.06252456 0.06310758 0.018809212 -0.06246277 0.04932278 -0.0075546694 0.03205412 -0.011373645
0.11099509 -0.12717703 -0.0019273759 0.009481618 0.013098004 -0.009410372 0.00902851 -0.028788574
0.031201134 0.028145082 -0.06222036 -0.115639575 0.12505126 -0.023784809 0.1566339 0.031109454
-0.019514378 -0.035280168 -0.13476045 -0.037176196 -0.05368068 -0.1362748 0.00087678747 -0.12164616
00000000: d1d2 8f3d 8fd4 1cbd 3eda f63c d2b7 423c
00000010: 9e4e d73c 6f1b 95bd 821a 1d3d 69df 7dbd
00000020: 6f5b f43c 392f e93d c5f4 7a3d 8c13 8f3c
00000030: 2b91 0cbe 0208 ea3c 3c08 f8bb 4e7b 1fbd
00000040: a09b 9ebc 9598 f03c f420 e93c 49f2 323d
00000050: 2521 ddbc f4cf f8bb ae27 0fba 4259 8a3b
00000060: 469e a0bc 593a 17bd c37e ffbc 6d1f 9bbc
00000070: eca1 223e 6993 86bc 2433 7dbb 6f9c febc
00000080: e00c 803d 8c3e 813d c715 9a3c f6d8 7fbd
00000090: af06 4a3d 298d f7bb 2e4b 033d 8658 3abc
000000a0: 6551 e33d b23a 02be 01a0 fcba ca58 1b3c
000000b0: 0399 563c f62d 1abc 51ec 133c 04d6 ebbc
000000c0: 8599 ff3c 8490 e63c c7da 7ebd 71d4 ecbd
000000d0: 700d 003e 5cd8 c2bc a364 203e 41d9 fe3c
000000e0: 9edc 9fbc f081 10bd a5fe 09be 1146 18bd
000000f0: 46e0 5bbd 9f8b 0bbe 36d8 653a 9f21 f9bd

weight f4 [64, 64]
-0.015408109 -0.0058131507 -0.0054668365 0.0057943068 -0.004396841 -0.0046445965 -0.0020877856 0.00028168326
0.001081049 0.0055285734 0.005766834 0.0018156809 -0.0016569088 0.00049386785 0.0037316466 0.0031522014
-0.00067011936 0.0039402903 -0.004037935 -0.014094984 -0.0064276434 -0.0019184954 -0.009525359 -0.004727824
-0.0066283266 0.00092353806 0.0067423666 0.0036419283 -0.0013106307 5.8055302e-05 -0.00097008195 0.0006840796
-0.023411643 -0.024337547 -0.0022515215 -0.011090066 -0.0141414255 0.0014133423 -0.0015060983 -0.0027235274
0.0026190057 0.0033954633 0.0034398134 -0.00037305232 -0.00070080673 -0.0058272304 0.0024593284 0.0015201038
0.0025653385 -0.0020139155 -0.007783971 -0.004733342 -0.0036755775 0.0060020965 0.015281671 0.0035716495
-0.004675528 -0.004447663 0.014147421 -0.0066894963 -0.004035664 -0.0057262173 0.0059455764 -0.015163103
0.0028305226 0.00018681612 -0.008841365 -0.0066196644 0.0015797665 -0.006059535 0.0061595496 -0.0039192066
-0.0022769659 -0.012016406 -0.009374405 0.0037560414 -0.00091193744 0.0037243823 0.0033360957 0.001155959
0.0067562 0.0030924233 0.0053518265 -0.0026180928 -0.0027548824 -0.002836501 -0.0023040138 -0.007773042
0.0031596883 -8.1478494e-05 -0.005363158 0.0005737421 0.0019497002 0.0043430347 0.0043489775 -0.0047067497
-0.006127589 -0.0022894684 0.00031968558 -0.0013783736 -0.003194072 -0.0051361825 -0.0059274593 -0.0030601567
-0.00072732323 0.0001536775 -0.0066701635 0.00020115067 0.004621125 0.0008610642 -0.00797936 0.0018952157
-0.0037363498 -0.005340064 -0.0012193247 -0.0035336264 -0.008373122 0.005874931 -0.009254695 0.005520736
-0.0006733525 -0.0038744994 0.0023900787 0.0029373015 -0.002435299 -0.00046168076 -0.0014640396 -0.0076372763
-0.09233194 0.0067605786 0.011817841 -0.0048468155 0.002142667 -0.0003596173 -0.0005340412 0.10776185
0.050544154 0.053348675 0.033216424 0.0030131768 -0.0051488536 0.0016977844 0.00036131428 0.0046249405
-0.005903272 0.0044632494 0.0060611134 -0.09101318 0.1533343 0.009036375 0.004085346 0.15515389
-0.0034350934 0.0012809052 0.0013944396 0.0016716535 0.059521493 0.007073066 0.0009329584 0.0033634102
-0.09217999 -0.12483808 0.0012357469 -0.03273939 -0.08156593 -0.00021665965 0.004696028 0.003834447
0.020849047 0.0035248813 0.0015145309 -0.0028251675 -0.0019502676 -0.004667065 0.011863861 0.0065377457
-0.0044229743 -0.0013331661 0.0005851855 -0.0010472004 0.08896127 0.0054957904 0.24894242 0.0042636343
-0.00051512045 0.0017882313 0.005870266 0.007066953 0.0038615707 0.009965556 0.009678807 -0.34977028
-0.006349206 0.0011669232 0.009025553 0.0019633332 0.0015473614 -0.07727701 0.0032414624 -0.076191776
-0.0047128764 0.015805295 -0.006718701 -0.0057300734 -0.1768363 0.0003925141 -0.0022570966 -0.0005831031
-0.006014138 -0.0038642543 0.00039891718 -0.02833956 -0.097965516 0.0016559501 0.0009673852 -0.065484665
0.00021182174 -0.0064856256 -0.0066017928 -0.0045376737 0.10559319 0.0052430406 -0.0020065326 0.000919746
-0.014409302 -0.0024273482 -0.00038567794 -0.07454355 -0.0062677055 -0.0010773315 0.003731826 0.001868736
-0.001535882 -0.2759807 -0.007223402 -0.0010755437 0.006481406 0.0032178091 -0.010878742 -0.0018911244
0.002697141 -0.007050856 -0.030350983 -0.22866033 0.06274893 0.004648362 0.82246155 -0.0020921354
0.00073758786 -0.005456642 -0.33394185 -0.00033297352 0.0013022871 -0.20973377 -0.0050175176 -0.15410182
00000000: 4b72 7cbc 3e7c bebb 2623 b3bb 2bde bd3b
00000010: 6013 90bb b331 98bb 3bd3 08bb e3ae 9339
00000020: fcb1 8d3a 0929 b53b b6f7 bc3b 24fc ed3a
00000030: a22c d9ba e976 013a a48e 743b 2a95 4e3b
00000040: f3aa 2fba 8d1d 813b a750 84bb a6ee 66bc
00000050: fb9e d2bb 0676 fbba 4010 1cbc ddeb 9abb
00000060: 6f32 d9bb 9719 723a 12ef dc3b 6bad 6e3b
00000070: 78c9 abba 6880 7338 194d 7eba ce53 333a
00000080: c6c9 bfbc 895f c7bc 438e 13bb 1cb3 35bc
00000090: 70b1 67bc e63f b93a 4668 c5ba 357d 32bb
000000a0: a0a3 2b3b 6c86 5e3b 7e6e 613b 3c96 c3b9
000000b0: 58b6 37ba 5af2 bebb af2c 213b 383e c73a
000000c0: 3d1f 283b e5fb 03bb ae10 ffbb 271a 9bbb
000000d0: f5e1 70bb 3cad c43b f95f 7a3c 5612 6a3b
000000e0: 2c35 99bb b4bd 91bb 96ca 673c 9033 dbbb
000000f0: 9a3d 84bb fea2 bbbb 1cd3 c23b aa6e 78bc
00000100: 4a80 393b 12e4 4339 5fdb 10bc c5e9 d8bb
00000110: 2b10 cf3a 108f c6bb 0cd6 c93b b06c 80bb
00000120: 2639 15bb 76e0 44bc 1b97 19bc eb27 763b
00000130: 160f 6fba c414 743b 66a2 5a3b 8c83 973a
00000140: 1d63 dd3b 41aa 4a3b 605e af3b 4f94 2bbb
00000150: 428b 34bb 97e4 39bb f0fe 16bb 01b5 febb
00000160: c612 4f3b 6fdf aab8 6ebd afbb 2e67 163a
00000170: 158d ff3a 0450 8e3b de81 8e3b 143b 9abb
00000180: f1c9 c8bb e80a 16bb 799b a739 8baa b4ba
00000190: a353 51bb 6c4d a8bb 223b c2bb e98c 48bb
000001a0: d6a9 3eba 7d24 2139 6391 dabb f9eb 5239
000001b0: ce6c 973b 0ab9 613a ddbb 02bc e368 f83a
000001c0: 8cdd 74bb b4fb aebb bfd1 9fba 6a94 67bb
000001d0: 6b2f 09bc 7e82 c03b 01a1 17bc 4ae7 b43b
000001e0: ec83 30ba 50eb 7dbb dea2 1c3b be7f 403b
000001f0: 8a99 1fbb be0d f2b9 04e5 bfba 1e42 fabb
00000200: 8718 bdbd d887 dd3b 9e9f 413c 09d2 9ebb
00000210: fd6b 0c3b 048b bcb9 e6fe 0bba 3fb2 dc3d
00000220: 6307 4f3d 2484 5a3d f20d 083d b878 453b
00000230: b7b7 a8bb 3188 de3a c86e bd39 d08c 973b
00000240: 3c70 c1bb 7340 923b 4e9c c63b 1e65 babd
00000250: ab03 1d3e 4e0d 143c 5ede 853b a9e0 1e3e
00000260: 4e1f 61bb 0ce4 a73a a1c5 b63a 621b db3a
00000270: cfcc 733d 2ec5 e73b c791 743a a96c 5c3b
00000280: ddc8 bcbd 1bab ffbd c9f8 a13a bd19 06bd
00000290: 0a0c a7bd 222f 63b9 23e1 993b 584b 7b3b
000002a0: 9fcb aa3c b201 673b 3983 c63a 7226 39bb
000002b0: 1fa0 ffba 2eee 98bb a460 423c 963a d63b
000002c0: 99ee 90bb a2bd aeba 2267 193a 3742 89ba
000002d0: 5431 b63d 0816 b43b c3ea 7e3e f5b5 8b3b
000002e0: 2609 07ba 1663 ea3a 5c5b c03b e691 e73b
000002f0: 6812 7d3b 9246 233c dc93 1e3c 1715 b3be
00000300: 000d d0bb 72f3 983a eadf 133c 44ab 003b
00000310: d5d0 ca3a 6943 9ebd b76e 543b 6f0a 9cbd
00000320: 796e 9abb 1b7a 813c 8d28 dcbb 57c3 bbbb
00000330: 9314 35be 5aca cd39 cceb 13bb 63db 18ba
00000340: 3f12 c5bb 6e3f 7dbb c225 d139 5d28 e8bc
00000350: 25a2 c8bd 770c d93a 1f98 7d3a d31c 86bd
00000360: 771c 5e39 5f85 d4bb da53 d8bb c4b0 94bb
00000370: 3e41 d83d d0cd ab3b 0880 03bb 1c1b 713a
00000380: fe14 6cbc 2514 1fbb d134 cab9 4aaa 98bd
00000390: 5361 cdbb 3f35 8dba a791 743b 60f0 f43a
000003a0: a64f c9ba 584d 8dbe 4ab2 ecbb 42f9 8cba
000003b0: f961 d43b e1e1 523b c03c 32bc 9bdf f7ba
000003c0: 84c2 303b de0a e7bb a0a2 f8bc ef25 6abe
000003d0: 8382 803d 4951 983b d78c 523f 351c 09bb
000003e0: af5a 413a a1cd b2bb 6dfa aabe f392 aeb9
000003f0: 81b1 aa3a 73c4 56be fd69 a4bb decc 1dbe

bias f4 [64]
0.0017287233 -0.0014545978 0.12445364 0.13138291 -0.0006505947 -0.0055609425 0.0013868666 0.00080527045
0.13699412 0.054143324 -0.0014555657 -0.0066155856 0.10106343 0.012726757 -0.07999439 -0.0030080476
-0.0015220843 -0.0057755955 -0.07586612 -0.005555712 -0.0031589333 -9.209025e-05 -0.0005750574 -0.0037983593
0.0012935152 -0.0036761812 -0.00082932727 -0.0033259068 0.0011769265 -0.003317827 0.004232837 -0.080699526
-0.0068005566 -0.0059075835 0.0038763208 -0.0047206446 -0.0022418778 0.006630853 -0.0049124765 -0.00976633
-0.07938799 0.00337932 -0.000871132 -0.0041459086 -0.010021676 -0.115255155 0.0037166553 -0.007026026
0.12742437 0.0007974367 -0.0027178763 -0.0035415594 0.101201914 0.0005466086 -0.012049876 -0.0057404647
-0.00096982863 0.1469074 0.13496582 0.0005569875 -0.0055249124 -0.011825796 0.00022706206 -0.00025616455
00000000: 5496 e23a 34a8 beba 8de1 fe3d 3e89 063e
00000010: ac8c 2aba 9138 b6bb 85c7 b53a c918 533a
00000020: 3048 0c3e 64c5 5d3d aec8 beba 8ec7 d8bb
00000030: 58fa ce3d e383 503c 19d4 a3bd aa22 45bb
00000040: ad80 c7ba 3541 bdbb b25f 9bbd b10c b6bb
00000050: 1b06 4fbb 9420 c1b8 73bf 16ba e5ed 78bb
00000060: 2b8b a93a 16ec 70bb 3667 59ba 75f7 59bb
00000070: 1a43 9a3a e66f 59bb 9cb3 8a3b cb45 a5bd
00000080: 34d7 debb 6794 c1bb df09 7e3b a3af 9abb
00000090: 78ec 12bb a047 d93b d7f8 a0bb f502 20bc
000000a0: 2c96 a2bd 9577 5d3b ae5c 64ba 67da 87bb
000000b0: f531 24bc e50a ecbd 2193 733b 943a e6bb
000000c0: 897b 023e 120b 513a 661e 32bb 8219 68bb
000000d0: f342 cf3d 484a 0f3a d86c 45bc 821a bcbb
000000e0: 193c 7eba e56e 163e 7b34 0a3e cc02 123a
000000f0: 530a b5bb fcc0 41bc 8217 6e39 d34d 86b9

weight f4 [64, 64]
0.0035911007 -0.006531286 -0.011239372 -0.21029028 0.00044418115 0.0006610644 0.001247848 0.0038709564
-0.22742414 0.109354846 -0.006504129 0.013390628 -0.014074783 -0.018698877 -0.01444209 -0.0034537315
0.004985544 0.007011762 0.21430375 0.00332249 0.004593714 0.006972435 0.0011548864 -0.0037984557
-0.001637217 -0.004660614 0.000831753 -0.00047987112 0.0015886013 0.0009172193 0.002784917 -0.0148437
-0.006258554 -0.0020773096 -0.004588035 -0.0034117694 0.0011346943 0.0080649145 0.006155056 -0.00095647975
-0.02021762 0.0060236845 -0.001581782 -0.00027227998 0.00044460094 0.2862076 0.0067205755 0.007527347
-0.21188176 -0.0028924898 -0.0021843025 -0.007058262 -0.012785812 -6.830769e-05 -0.0041591465 0.0061761183
0.0043688463 -0.27533647 -0.22005455 0.004675918 0.0066891373 -0.0075086304 0.0041826586 0.0031340562
0.0038716688 -0.006145467 0.10341876 0.09224978 0.004946117 0.00093996077 -0.0052863136 -0.0051775323
0.09889007 -0.17866908 -0.0013340618 -0.00012216817 0.08866792 -0.0029417542 -0.30344614 -0.00010792588
0.006145122 0.0074780644 -0.27904025 -2.6280246e-05 -0.011350281 0.005098697 0.006643486 0.00065779674
-0.0058481414 0.00085036084 0.004728272 -0.0007753278 -0.001505753 0.005530424 0.0035023536 -0.28680682
-0.004362216 -0.0024068868 0.004248852 -0.0030919185 -0.0018009653 -0.0032892849 0.00486091 -0.0019970676
-0.24455583 -0.0036533142 -0.0038150074 -0.0030684473 0.0019858493 -0.39165807 0.006717805 -0.00041648833
0.09192105 0.0013247381 -0.012175791 -0.0013200089 0.09244642 0.0030832756 0.0047300234 -0.005086497
-0.0011063786 0.10970919 0.09760593 -0.002572454 -0.006083419 0.003926013 0.00788834 0.004852927
-0.006994851 0.0010267203 -0.008320522 -0.006976256 -0.0055877483 0.0008645612 -0.001178546 -0.0037570177
0.004413007 -0.003200433 -0.00019534469 0.0016170343 -0.006678756 0.0025362626 -0.0024632604 -0.0048646624
0.0012264088 -0.002768158 0.0025954046 -0.0047223647 -0.0018840329 0.0008941437 0.005047115 0.0008852141
-0.0069176788 -0.0015553625 0.0016927953 -0.0023612042 0.001993264 -0.002081487 0.0038575504 -0.005572292
0.0014617152 0.00460356 -0.008037567 -0.005316261 -0.0008212643 -0.00016348233 -0.006703835 -0.0066307103
-0.0037417102 0.005551624 -0.00020372368 0.0041223476 -0.004702948 -0.0019250476 0.0017620309 0.007060906
0.0052985493 0.006186004 -0.0040749237 -0.0059840125 -0.007617524 -0.0036389744 -0.0033613613 0.002711471
0.0033107058 0.0020980686 0.0048308964 -0.0002664058 -0.00096994516 -0.0052771987 0.0065981806 -0.0047594295
-0.0062997113 0.005978565 0.0059970114 -0.00208735 0.0020801267 -0.0002144198 -0.0022452695 0.005320037
-0.005581145 0.00479097 -0.0063829673 -0.0047099125 -0.0032221745 -0.0032993373 -0.00034678646 0.0022127738
-0.0030409861 0.003908594 0.00031851043 0.006463303 -0.0054965303 0.0031772403 -0.0020096325 0.006399414
-0.0012650556 0.0051435307 -0.0016526062 -0.00569243 -0.0010942543 0.0014706438 -0.0012775025 0.0047497456
0.0051363045 -0.0011904719 0.005994874 0.0023596864 -0.0024348022 -0.0065142335 -0.004111297 -0.0016986021
-0.0009164929 0.005052162 -0.0067002675 -0.0038950262 -0.0070934333 -0.002273688 -0.0046449313 -0.0042026006
0.004914665 -0.0042471783 -0.0049789147 -0.000115763054 -0.0018957626 -0.0015941422 0.00094354176 0.006917649
-0.0058290106 -0.00013590169 -0.008394521 -0.004241236 0.0041122264 0.0049716015 0.0044888603 0.0036980098
00000000: ac58 6b3b 6604 d6bb 5825 38bc 5656 57be
00000010: fce0 e839 484b 2d3a d58e a33a dfaf 7d3b
00000020: e0e1 68be 6ff5 df3d 9720 d5bb 5d64 5b3c
00000030: eb99 66bc 632e 99bc 849e 6cbc 0058 62bb
00000040: c65d a33b ecc2 e53b 7172 5b3e 22be 593b
00000050: de86 963b 0679 e43b 8f5f 973a 83ef 78bb
00000060: e397 d6ba 10b8 98bb 000a 5a3a 3697 fbb9
00000070: 9d38 d03a 8c71 703a 2783 363b fe32 73bc
00000080: 8e14 cdbb 7923 08bb 3a57 96bb fe97 5fbb
00000090: 06ba 943a b422 043c 5ab0 c93b 45bc 7aba
000000a0: 6c9f a5bc 5462 c53b cc53 cfba cdc0 8eb9
000000b0: 5419 e939 cd89 923e 4638 dc3b f7a7 f63b
000000c0: 88f7 58be ed8f 3dbb 8426 0fbb fe48 e7bb
000000d0: 957b 51bc 6940 8fb8 7349 88bb 0961 ca3b
000000e0: 8a28 8f3b e7f8 8cbe fb55 61be 7138 993b
000000f0: 8d30 db3b f50a f6bb af0e 893b bd64 4d3b
00000100: d3bb 7d3b ea5f c9bb 37cd d33d 74ed bc3d
00000110: 0913 a23b b367 763a d038 adbb 4aa8 a9bb
00000120: e186 ca3d 07f5 36be b0db aeba 451a 00b9
00000130: 8797 b53d 72ca 40bb 4b5d 9bbe 4456 e2b8
00000140: 055d c93b 8d0a f53b 5dde 8ebe 6674 dcb7
00000150: 87f6 39bc f812 a73b 9ab1 d93b fe6f 2c3a
00000160: c4a1 bfbb c0ea 5e3a 9fef 9a3b 5e3f 4bba
00000170: b05c c5ba 8f38 b53b be87 653b 58d8 92be
00000180: ecf0 8ebb dcbc 1dbb f439 8b3b c9a1 4abb
00000190: 5e0e ecba 0b91 57bb 4548 9f3b 3ce1 02bb
000001a0: d86c 7abe 716c 6fbb 3405 7abb 0118 49bb
000001b0: 0625 023b 6887 c8be 0821 dc3b 1e5c dab9
000001c0: 1a41 bc3d d6a2 ad3a f87c 47bc 2604 adba
000001d0: 8c54 bd3d c810 4a3b 50fe 9a3b a1ac a6bb
000001e0: e803 91ba 36af e03d 9ee5 c73d 9e96 28bb
000001f0: 6b57 c7bb c9a5 803b 193e 013c 4d05 9f3b
00000200: 1035 e5bb 0493 863a cc52 08bc 1499 e4bb
00000210: 6e19 b7bb b8a3 623a 7179 9aba 4c38 76bb
00000220: fc9a 903b 5bbe 51bb 71d5 4cb9 abf2 d33a
00000230: 77d9 dabb 6d37 263b a76e 21bb bf67 9fbb
00000240: 73bf a03a fc69 35bb aa17 2a3b 11be 9abb
00000250: a7f1 f6ba f864 6a3a 4562 a53b b60d 683a
00000260: b2ad e2bb 4edd cbba c9e0 dd3a 6fbe 1abb
00000270: 6ca1 023b 8f69 08bb f5ce 7c3b c697 b6bb
00000280: 0697 bf3a 76d9 963b 00b0 03bc 0834 aebb
00000290: 1d4a 57ba 746c 2bb9 d8ab dbbb 6e46 d9bb
000002a0: 7b37 75bb 66ea b53b a99e 55b9 c214 873b
000002b0: 301b 9abb e151 fcba f2f3 e63a 2c5f e73b
000002c0: 749f ad3b f6b3 ca3b f086 85bb 8915 c4bb
000002d0: 6c9c f9bb dc7b 6ebb 494a 5cbb efb2 313b
000002e0: 6df8 583b c07f 093b 7f4c 9e3b 62ac 8bb9
000002f0: eb43 7eba 5aec acbb 8d35 d83b fdf4 9bbb
00000300: cf6d cebb d7e7 c33b 9482 c43b eccb 08bb
00000310: bc52 083b e0d5 60b9 5f25 13bb b453 ae3b
00000320: 0ae2 b6bb 92fd 9c3b 3628 d1bb 9c55 9abb
00000330: 1e2b 53bb b239 58bb e4d0 b5b9 2f04 113b
00000340: 484b 47bb aa13 803b bffd a639 1eca d33b
00000350: 3d1c b4bb 3f39 503b 0ab4 03bb 2db2 d13b
00000360: 39d0 a5ba 108b a83b 439c d8ba 9087 babb
00000370: 156d 8fba 9ec2 c03a df71 a7ba c1a3 9b3b
00000380: 724e a83b 9c09 9cba a670 c43b f8a4 1a3b
00000390: 3491 1fbb 5a75 d5bb 0fb8 86bb a1a3 deba
000003a0: cc40 70ba 9b8c a53b eb8d dbbb b243 7fbb
000003b0: 0870 e8bb 2802 15bb 8234 98bb f8b5 89bb
000003c0: 330b a13b ea2b 8bbb 2a26 a3bb d1c5 f2b8
000003d0: 3d7b f8ba 89f2 d0ba 0458 773a 72ad e23b
000003e0: 4901 bfbb d580 0eb9 2c89 09bc 11fa 8abb
000003f0: dbbf 863b d1e8 a23b 4a17 933b 4f5a 723b

bias f4 [64]
-0.018228719 0.08045775 -0.0051563797 -0.008931461 -0.018966245 -0.0067385407 0.082071155 -0.0022604023
-0.0055713807 0.058983132 -0.005151428 0.060522195 0.04171629 -0.007540165 -0.0045042047 -0.0061844424
-0.030654155 -0.00491251 -0.0050395224 -0.007799415 0.06458349 -0.002359824 0.08877473 -0.0016734139
-0.0066326233 0.060975235 0.00014106138 -0.0035912064 -0.004388736 0.00048490593 -0.008667646 -0.0062219924
-0.005348813 -0.0029820919 -0.005447141 0.058614053 0.06901962 -0.005277573 -0.006365663 -0.0052273287
-0.007095957 -0.00021721335 -0.0077977097 -0.006269664 0.06414131 -0.0002751249 0.07619637 0.05636266
-0.0019238977 0.0016076214 0.055907074 0.08319956 -0.004861328 0.000581163 -0.0029365015 0.07091602
-0.0033071486 -0.047429416 0.0023637072 0.0010309312 -0.00087912404 -0.0048486297 -0.0016382813 0.06106891
00000000: 6554 95bc 08c7 a43d d9f6 a8bb 4355 12bc
00000010: 195f 9bbc face dcbb ec14 a83d 4223 14bb
00000020: 2190 b6bb 4c98 713d 4fcd a8bb 1fe6 773d
00000030: b3de 2a3d 7d13 f7bb 0298 93bb dda6 cabb
00000040: 6c1e fbbc 1ff9 a0bb 9422 a5bb 3c92 ffbb
00000050: 5944 843d 47a7 1abb 87cf b53d 7456 dbba
00000060: 7a56 d9bb 2bc1 793d e0e9 1339 725a 6bbb
00000070: 63cf 8fbb f93a fe39 be02 0ebc dbe1 cbbb
00000080: 1845 afbb 336f 43bb ee7d b2bb 4a15 703d
00000090: 295a 8d3d 7eef acbb 0d97 d0bb 034a abbb
000000a0: 3485 e8bb c4c3 63b9 ee83 ffbb c171 cdbb
000000b0: 855c 833d a43e 90b9 d80c 9c3d 88dc 663d
000000c0: 4b2b fcba d3b6 d23a d1fe 643d 8864 aa3d
000000d0: c64b 9fbb 3059 183a 5272 40bb 6b3c 913d
000000e0: bfbc 58bb 5945 42bd 6de8 1a3b 5020 873a
000000f0: 0475 66ba 41e1 9ebb 99bb d6ba 6523 7a3d

weight f4 [1, 64]
0.33930933 0.2011972 0.0005546627 -0.0008927302 -0.18738924 -0.0006688786 0.19043837 -0.0011384559
-0.0019500796 -0.21765178 0.006301684 -0.22605836 -0.20982984 -0.0011099405 -0.0022211354 0.0052534207
0.29937306 0.004865147 -0.0041435068 -0.0013212633 0.22710934 0.0018424717 0.23135227 -0.0020071527
-0.0023713976 0.22031437 -0.0016046873 -0.002851924 0.00043377106 -1.5129547e-05 -0.001136082 -0.001123833
-4.739376e-06 1.7395105e-06 -0.0015766319 -0.21940053 0.20816138 0.00025932124 0.004364948 0.0018416471
0.0035720016 -0.0017544494 -3.1312375e-05 0.0024526336 0.2110742 -0.000152987 0.20956232 -0.23414913
-0.00096795213 0.00028669665 -0.22778451 0.19163398 -0.0051494483 0.0025958966 -0.00025406218 0.20622039
-0.0033317928 0.20473923 0.003829227 -0.0007426702 0.000117314055 -0.0040926025 -0.000220846 -0.21917933
00000000: f4b9 ad3e a406 4e3e c966 113a 1c06 6aba
00000010: f7e2 3fbe af57 2fba 4702 433e 3e38 95ba
00000020: d099 ffba 1ce0 5ebe 5b7e ce3b d87b 67be
00000030: a2dd 56be 6c7b 91ba 7890 11bb e324 ac3b
00000040: 6d47 993e d06b 9f3b 41c6 87bb 3d2e adba
00000050: 5a8f 683e 177f f13a 9ce7 6c3e 6f8a 03bb
00000060: 7369 1bbb 179a 613e 5f54 d2ba 58e7 3abb
00000070: c46b e339 e9d4 7db7 96e8 94ba 944d 93ba
00000080: ee06 9fb6 2079 e935 fda6 ceba 88aa 60be
00000090: 4228 553e 82f5 8739 d607 8f3b 6c63 f13a
000000a0: 3e18 6a3b 8ef5 e5ba 6855 03b8 5dbc 203b
000000b0: d623 583e 236b 20b9 8197 563e cac4 6fbe
000000c0: 2bbe 7dba c64f 9639 5840 69be b33b 443e
000000d0: b4bc a8bb eb1f 2a3b a633 85b9 702b 533e
000000e0: 355a 5abb 29a7 513e c5f3 7a3b c1af 42ba
000000f0: 8106 f638 3d1b 86bb e692 67b9 8c70 60be
